assets/model/phrase001_speech_model.pth (torch, 145844 bytes, 7 tensors)

conv1.weight f4 [64, 13, 3]
0.021199457 -0.038437035 -0.1201393 -0.011831965 -0.14804451 0.105629295 -0.0001353446 -0.0784781
0.0005669506 -0.14883998 -0.12124784 -0.0045872587 -0.0038974346 -0.10172943 0.015585463 -0.02735408
0.11015876 0.013593813 0.09905132 -0.075193234 -0.0132816015 0.0083187185 0.08618259 -0.11736393
0.11546123 0.03600446 -0.02082599 0.016142596 0.044836264 -0.02667214 -0.11780249 -0.048354577
0.056989826 -0.09872705 0.12584424 -0.1372449 0.028428625 0.104476765 0.1393642 0.08059958
0.046386078 -0.057691976 0.115334794 -0.15215218 -6.9186426e-05 -0.0690247 0.033654734 0.0012045689
0.05637681 0.0061583715 -0.15256304 0.107432336 -0.0388849 -0.13947205 0.14540459 0.06765589
0.072438195 0.056409307 -0.043177366 0.08836556 -0.07545407 -0.11320463 -0.039066322 -0.020938719
0.101620026 -0.061913483 -0.047774915 -0.06881059 -0.13669172 0.11767988 0.045814406 -0.14009632
-0.09512991 -0.15880196 0.13579154 -0.072128266 -0.09006408 -0.026805405 -0.0786251 0.12053285
0.13659342 0.024674857 -0.13809368 0.124130234 -0.14800519 0.009564639 0.1556311 0.14320637
0.061987415 0.08558461 0.1241845 -0.0010915332 0.13023096 0.1562302 0.08014503 -0.13663264
0.12054892 -0.018854091 -0.03260144 0.043226164 0.10952472 -0.1317426 0.1426892 0.013774224
-0.12859218 -0.0024603803 -0.025244333 0.032927684 -0.0118917525 -0.13021621 -0.013113799 -0.058216993
-0.035583157 0.05439341 -0.15106265 0.05358641 -0.094958894 -0.03424892 -0.11410211 0.0828134
0.06927835 0.034553815 0.07451171 0.041772734 -0.15951012 -0.09809994 -0.097130574 0.14756389
0.09952098 0.036812782 0.16433331 -0.08964562 0.11315769 -0.105486244 -0.04589349 0.026989663
-0.07994056 -0.11373825 0.09645427 -0.067088254 -0.109007664 0.11605759 0.110564545 0.12768085
0.072053544 -0.17123206 0.10736671 -0.04938845 -0.13066737 0.046306815 0.12817587 -0.16074665
-0.058538023 -0.12045002 -0.05556456 0.06906988 0.07992729 0.08167561 -0.04531587 0.0058033364
0.046742722 0.086284 0.14036314 0.15791029 -0.08264856 -0.10606642 -0.14467566 -0.081874356
-0.096943304 0.06203359 -0.027754068 -0.06770085 0.029804872 0.07978797 -0.105773754 -0.042363975
0.09087766 -0.076011054 0.05935918 -0.067929685 0.14469062 -0.003889023 0.11415248 0.09312296
0.12239491 -0.07582703 -0.10945569 0.014841573 0.09666012 -0.124982946 -0.11368027 0.1397168
0.02432937 0.09617732 -0.15329196 0.075721286 -0.04715724 -0.09023689 -0.060246777 0.00037931593
-0.009524843 -0.041789897 0.1423653 -0.025400015 -0.113726795 0.02101897 -0.06904569 0.15628959
-0.021216586 0.00786707 -0.07153001 -0.0299209 0.0486521 0.08882912 -0.13395466 0.04359481
0.10682648 -0.09956225 0.08482676 -0.110835284 -0.140707 -0.111928925 0.063745596 -0.09371846
-0.13708915 -0.050508022 -0.06999507 -0.08506596 0.14348175 0.010206928 0.054179523 0.12883553
-0.06312166 -0.024158668 0.13209702 -0.004880024 0.13630056 0.11111337 0.068954244 -0.009315209
-0.098588996 0.0179629 0.01475185 0.07752104 -0.004612649 -0.08534391 -0.10007646 0.018926822
-0.09635544 0.007062506 -0.042424314 -0.07139293 -0.10697432 0.14267449 -0.039775882 -0.002185788
00000000: 7caa ad3c 2770 1dbd 980b f6bd dcda 41bc
00000010: fb98 17be 2c54 d83d 4aeb 0db9 20b9 a0bd
00000020: 699f 143a 8269 18be ca50 f8bd b750 96bb
00000030: 1a6c 7fbb 8557 d0bd 2b5a 7f3c aa15 e0bc
00000040: ea9a e13d 96b8 5e3c 6bdb ca3d e9fe 99bd
00000050: 139b 59bc 3c4b 083c 7f80 b03d 805c f0bd
00000060: f076 ec3d 6a79 133d 449b aabc 7a3d 843c
00000070: 3ba6 373d 887f dabc 6f42 f1bd 730f 46bd
00000080: 2a6e 693d 6831 cabd 50dd 003e ed89 0cbe
00000090: 26e3 e83c eaf7 d53d 7db5 0e3e 6511 a53d
000000a0: 54ff 3d3d 6c4e 6cbd a634 ec3d c8cd 1bbe
000000b0: 2e18 91b8 d25c 8dbd 8cd9 093d a0e2 9d3a
000000c0: 5feb 663d 2acc c93b 7c39 1cbe 7c05 dc3d
000000d0: c645 1fbd c3d1 0ebe f1e4 143e 2c8f 8a3d
000000e0: 7a5a 943d 720d 673d c0da 30bd 01f9 b43d
000000f0: aa87 9abd d4d7 e7bd 0204 20bd ad87 abbc
00000100: 291e d03d fe98 7dbd a1af 43bd 91ec 8cbd
00000110: eaf8 0bbe 2602 f13d e3a7 3b3d 6975 0fbe
00000120: 78d3 c2bd fb9c 22be f00c 0b3e fcb7 93bd
00000130: 8473 b8bd 0297 dbbc 3206 a1bd edd9 f63d
00000140: 25df 0b3e ed22 ca3c 6e68 0dbe fe37 fe3d
00000150: ac8e 17be 01b5 1c3c c25d 1f3e b1a4 123e
00000160: 84e6 7d3d fc46 af3d 7154 fe3d c711 8fba
00000170: 445b 053e cffa 1f3e 1423 a43d 6de9 0bbe
00000180: 5ae2 f63d e573 9abc 1689 05bd eb0d 313d
00000190: 7f4e e03d 88e7 06be 1e1d 123e 48ad 613c
000001a0: abad 03be 553e 21bb 34cd cebc 2edf 063d
000001b0: a0d5 42bc 6657 05be 42db 56bc f174 6ebd
000001c0: a5bf 11bd a0cb 5e3d 2bb0 1abe 6c7d 5b3d
000001d0: cf79 c2bd 9848 0cbd 5eae e9bd 129a a93d
000001e0: cfe1 8d3d 4d88 0d3d 9899 983d e319 2b3d
000001f0: 9f56 23be 9fe8 c8bd 65ec c6bd fd1a 173e
00000200: a8d1 cb3d 00c9 163d fe46 283e 1f98 b7bd
00000210: 38bf e73d 2c09 d8bd d0fa 3bbd 6d19 dd3c
00000220: e0b7 a3bd 9aef e8bd d189 c53d 9165 89bd
00000230: 693f dfbd 9aaf ed3d aa6f e23d c5be 023e
00000240: cf90 933d 7557 2fbe 14e3 db3d 8b4b 4abd
00000250: abcd 05be 37ac 3d3d 8940 033e c59a 24be
00000260: 91c5 6fbd 80ae f6bd aa97 63bd 8274 8d3d
00000270: ebb0 a33d 8b45 a73d 229d 39bd ea29 be3b
00000280: 4c75 3f3d aab5 b03d 5bbb 0f3e 3cb3 213e
00000290: a643 a9bd 5a39 d9bd db25 14be bead a7bd
000002a0: 368a c6bd ef16 7e3d 805c e3bc bea6 8abd
000002b0: 5929 f43c e067 a33d e99f d8bd d985 2dbd
000002c0: 111e ba3d afab 9bbd 9d22 733d b81e 8bbd
000002d0: c729 143e fbde 7ebb c7c8 e93d 40b7 be3d
000002e0: 2faa fa3d 344b 9bbd 4e2a e0bd 122a 733c
000002f0: bef5 c53d 0ff7 ffbd 34d1 e8bd ec11 0f3e
00000300: 634e c73c 9df8 c43d 91f8 1cbe c313 9b3d
00000310: f327 41bd 1ece b8bd 53c5 76bd ecde c639
00000320: 160e 1cbc e22b 2bbd 36c8 113e b113 d0bc
00000330: 98e9 e8bd fa2f ac3c d467 8dbd 610a 203e
00000340: 68ce adbc e2e4 003c 537e 92bd ad1c f5bc
00000350: 6d47 473d 0bec b53d 692b 09be 7990 323d
00000360: d7c7 da3d 4be7 cbbd a7b9 ad3d 9cfd e2bd
00000370: 7f15 10be fe3a e5bd 0d8d 823d 77ef bfbd
00000380: 1961 0cbe 80e1 4ebd 9359 8fbd 1037 aebd
00000390: e1ec 123e f53a 273c 59eb 5d3d 76ed 033e
000003a0: ee45 81bd 66e8 c5bc 7144 073e 9ce8 9fbb
000003b0: 6092 0b3e 688f e33d e237 8d3d d29e 18bc
000003c0: 07e9 c9bd ef26 933c beb1 713c 5ac3 9e3d
000003d0: b425 97bb cac8 aebd e3f4 ccbd 6c0c 9b3c
000003e0: 0056 c5bd 986c e73b 1ec5 2dbd 7536 92bd
000003f0: 5a15 dbbd 4319 123e 09ec 22bd 703f 0fbb

conv1.bias f4 [64]
0.12596464 0.06425653 0.006031383 -0.14603467 -0.10458025 -0.00975532 0.13901924 0.065521605
-0.028193697 -0.13181101 0.08102229 -0.14348662 0.12715407 0.035003986 0.023352196 -0.1641175
-0.0026388152 -0.039714273 -0.007380224 0.034091152 0.08419374 -0.103255175 -0.04455176 -0.124790646
-0.10682571 -0.014006778 0.11454563 -0.15502863 -0.0076679722 0.061220758 -0.07381219 0.10199994
0.11729445 -0.040243156 -0.14967877 0.00035877942 -0.086219355 -0.046388686 0.053564776 -0.008350077
0.069487624 -0.036992956 -0.03312485 0.09243574 -0.13128437 -0.044024803 -0.052603364 0.017709756
-0.08527315 -0.073883094 0.09677798 0.12810215 -0.02737764 -0.0043593515 -0.04629873 0.004178423
0.14095342 0.0020955668 0.050464462 -0.039488886 0.13748536 0.077685095 0.10019923 0.09519543
00000000: e0fc 003e ed98 833d e8a2 c53b 1d8a 15be
00000010: 2c2e d6bd c7d4 1fbc 0f5b 0e3e 3130 863d
00000020: 78f6 e6bc 77f9 06be 04ef a53d 28ee 12be
00000030: ad34 023e 5760 0f3d 1b4d bf3c 6b0e 28be
00000040: f9ef 2cbb 6fab 22bd ced5 f1bb 2aa3 0b3d
00000050: c46d ac3d 7377 d3bd e87b 36bd 3d92 ffbd
00000060: 70c7 dabd af7c 65bc e696 ea3d d3bf 1ebe
00000070: 9d43 fbbb 9ec2 7a3d d82a 97bd 58e5 d03d
00000080: 1338 f03d 02d6 24bd 6445 19be 8f1a bc39
00000090: c693 b0bd 1002 3ebd bd66 5b3d c3ce 08bc
000000a0: 874f 8e3d ed85 17bd ecad 07bd f34e bd3d
000000b0: 696f 06be 5a53 34bd a076 57bd 0d14 913c
000000c0: b0a3 aebd 0550 97bd 8933 c63d 362d 033e
000000d0: 1347 e0bc e4d8 8ebb bda3 3dbd 27eb 883b
000000e0: 1856 103e c755 093b d3b3 4e3d 19bf 21bd
000000f0: f6c8 0c3e 5d19 9f3d 4135 cd3d d2f5 c23d

conv2.weight f4 [128, 64, 3]
-0.07485488 0.06695811 -0.03592901 -0.060667254 0.062412396 0.041134898 -0.061080903 -0.053693455
-0.0065048425 -0.009974408 0.04356002 -0.004815286 -0.04489375 0.043404125 0.023404595 0.059738725
-0.03678396 0.031231403 0.036372013 -0.04357264 -0.06882927 0.018595569 -0.022878366 -0.0037796248
0.0014945567 -0.035074867 -0.061890956 0.024114735 -0.014587803 -0.05007726 0.01868406 -0.050887004
0.022305336 -0.019095302 0.07105693 -0.06359587 -0.048224982 0.011785207 -0.05119641 -0.034743585
0.045382217 0.016721355 0.010258734 -0.03262767 -0.006007398 -0.03435534 0.061152086 0.04077923
0.011202552 0.06339596 0.07285071 -0.032634098 0.043205827 -0.049946 -0.03755259 -0.0039223214
0.018251382 -0.029312674 -0.050682526 0.041824356 -0.0064646527 -0.036191475 0.024368446 0.042645983
-0.04897639 -0.036891844 -0.032885708 0.037809968 -0.033166215 -0.062481485 -0.026180528 -0.015713356
-0.06637875 0.05548422 0.029839706 0.101678185 0.0389511 0.052568585 -0.02264199 -0.053747915
-0.01002435 -0.010565922 -0.04570532 -0.043613978 0.024896838 0.05055555 0.06489103 -0.059898455
-0.04041237 0.013399669 -0.051028304 0.010039993 -0.0348591 -0.052271083 0.05641185 0.020149471
0.048037924 0.013233351 -0.029193575 0.065202594 0.034406062 0.007084556 0.021137433 -0.06360277
-0.057026487 0.0032848353 -0.04299068 0.038721863 0.019553844 -0.07168348 -0.014535838 0.02280218
0.037884343 -0.013638705 0.023316381 -0.035429012 -0.01969874 0.052964877 -0.061043527 0.021123791
0.015055902 -0.07069595 0.06113096 -0.042521074 -0.02989363 0.04287783 -0.015998116 -0.010722406
-0.038604245 -0.037603874 0.010009576 -0.072583474 -0.044115297 0.0543568 -0.037655197 -0.05327059
-0.05666164 -0.041073397 -0.021737427 -0.010141149 0.041774422 0.062246438 0.0146665415 0.036747254
-0.06623016 0.041928947 -0.067276105 -0.0057047084 0.05934371 0.060242265 0.0052986257 -0.034355916
-0.023702549 0.064421624 -0.06466559 -0.016974993 -0.010967156 -0.059758242 0.0044710785 0.02329133
0.04488645 0.001989521 0.05827335 0.058898464 0.012951472 0.04842156 -0.004108398 -0.028755702
-0.060347326 0.029635884 -0.018885575 -0.03812765 -0.029581886 0.036622208 0.01793541 -0.011939808
-0.047671758 0.058879208 -0.04272808 0.01961828 0.071958795 -0.04392404 0.012319382 0.038045935
-0.06229613 0.028041933 -0.013013374 0.050813764 -0.01578781 -0.014012331 -0.024188837 0.04111281
0.029049743 -0.045908026 0.0337754 -0.02544584 0.057200305 -0.06094021 -0.03379513 -0.044030532
-0.014213279 0.031827465 0.0272771 0.01808359 0.016910976 -0.05688157 0.062399153 -0.039289325
0.0072643347 -0.07169923 -0.037983198 -0.023425765 -0.08088978 0.04180013 0.035588462 0.034220412
0.05237874 -0.001092582 -0.03846826 0.0043227053 0.051327296 0.011998771 -0.01483386 0.02900712
-0.036292218 -0.050303046 -0.022474166 0.056747224 0.008467563 0.05319445 0.0467316 0.010265125
0.030531392 -0.050032742 -0.07995769 0.049413044 -0.051172633 0.022077557 0.012460313 -0.015620681
0.047927782 -0.013643445 0.01667891 -0.04008233 -0.00061832264 -0.0061785704 0.044208318 0.05826333
-0.004409134 -0.02780529 -0.06344986 -0.043835226 -0.034165952 0.02082952 0.023115508 0.008578497
00000000: 844d 99bd 5521 893d 4c2a 13bd 3a7e 78bd
00000010: 24a4 7f3d 117d 283d f82f 7abd abed 5bbd
00000020: 9326 d5bb b36b 23bc fe6b 323d 8cc9 9dbb
00000030: 82e2 37bd 86c8 313d feba bf3c 98b0 743d
00000040: c7aa 16bd 00d9 ff3c d2fa 143d 3979 32bd
00000050: 5cf6 8cbd bc55 983c 696b bbbc 95b3 77bb
00000060: 00e5 c33a aaaa 0fbd 5f81 7dbd 448c c53c
00000070: ae01 6fbc d01d 4dbd 500f 993c e46e 50bd
00000080: aeb9 b63c c06d 9cbc 4c86 913d 8d3e 82bd
00000090: 8f87 45bd be16 413c 54b3 51bd 4a4f 0ebd
000000a0: b4e2 393d 39fb 883c 4014 283c 97a4 05bd
000000b0: b5d9 c4bb 2fb8 0cbd 9c7a 7a3d 1f08 273d
000000c0: e98a 373c bed5 813d c132 953d 55ab 05bd
000000d0: 98f8 303d 2d94 4cbd bfd0 19bd d186 80bb
000000e0: ec83 953c 2221 f0bc 7b98 4fbd 0450 2b3d
000000f0: 70d5 d3bb 833d 14bd 56a0 c73c 8ead 2e3d
00000100: 789b 48bd e71b 17bd 2ab3 06bd a0de 1a3d
00000110: 4cd9 07bd 96ec 7fbd 8c78 d6bc 4cb9 80bc
00000120: 95f1 87bd 6c43 633d 6672 f43c a73c d03d
00000130: 308b 1f3d 2852 573d b27b b9bc c626 5cbd
00000140: 2c3d 24bc b01c 2dbc 8035 3bbd 92a4 32bd
00000150: 74f4 cb3c 5613 4f3d 97e5 843d 1558 75bd
00000160: 7187 25bd 498a 5b3c 0e03 51bd c87e 243c
00000170: 6ac8 0ebd 341a 56bd 1d10 673d 8110 a53c
00000180: 6ac3 443d b2d0 583c 5d27 efbc f088 853d
00000190: 5fed 0c3d 9025 e83b 6928 ad3c 2b42 82bd
000001a0: 9b94 69bd 6446 573b ff16 30bd d19a 1e3d
000001b0: 622f a03c cace 92bd b927 6ebc a3cb ba3c
000001c0: 9d2c 1b3d e074 5fbc ff01 bf3c 031e 11bd
000001d0: 415f a1bc b3f1 583d c708 7abd cd0b ad3c
000001e0: 08ad 763c 0ac9 90bd 7564 7a3d 942a 2ebd
000001f0: 7ce3 f4bc aaa0 2f3d 7b0e 83bc 08ad 2fbc
00000200: 7c1f 1ebd 8506 1abd 34ff 233c a5a6 94bd
00000210: 3eb2 34bd 3ca5 5e3d 563c 1abd 4332 5abd
00000220: 0916 68bd 943c 28bd b012 b2bc 1027 26bc
00000230: a81b 2b3d 1ff6 7e3d ef4b 703c 4a84 163d
00000240: aea3 87bd b0bd 2b3d 0ec8 89bd 90ee babb
00000250: 6412 733d 98c0 763d 18a0 ad3b cab8 0cbd
00000260: d92b c2bc 7cef 833d 656f 84bd 240f 8bbc
00000270: 96af 33bc 0fc5 74bd 2082 923b 76cd be3c
00000280: dbda 373d a062 023b 09b0 6e3d 843f 713d
00000290: 6932 543c b055 463d be9f 86bb 1491 ebbc
000002a0: c22e 77bd f4c6 f23c ecb5 9abc bd2b 1cbd
000002b0: b655 f2bc 2b01 163d 48ed 923c 2f9f 43bc
000002c0: 7643 43bd 532b 713d a403 2fbd 84b6 a03c
000002d0: 225f 933d b2e9 33bd 3cd7 493c 0ed6 1b3d
000002e0: 3a2a 7fbd 32b8 e53c 0c36 55bc 1822 503d
000002f0: 7055 81bc fa93 65bc ab27 c6bc e865 283d
00000300: baf9 ed3c 0e0a 3cbd 1358 0a3d cb73 d0bc
00000310: de4a 6a3d 719c 79bd c36c 0abd 5c59 34bd
00000320: d0de 68bc 845d 023d 3a74 df3c 0924 943c
00000330: e388 8a3c a6fc 68bd 4196 7f3d d8ed 20bd
00000340: a809 ee3b 0cd7 92bd 4594 1bbd 64e7 bfbc
00000350: 8aa9 a5bd 9d36 2b3d 35c5 113d b42a 0c3d
00000360: 178b 563d f834 8fba e590 1dbd 7ba5 8d3b
00000370: 923c 523d 7e96 443c b809 73bc 57a0 ed3c
00000380: 26a7 14bd 910a 4ebd be1b b8bc c76f 683d
00000390: 89bb 0a3c 6ce2 593d a269 3f3d 0e2f 283c
000003a0: f81c fa3c 22ef 4cbd dbc0 a3bd 5565 4a3d
000003b0: 659a 51bd fedb b43c 5726 4c3c e3ed 7fbc
000003c0: ec4f 443d c288 5fbc 36a2 883c 5f2d 24bd
000003d0: ee16 22ba 9b75 cabb c813 353d 88a5 6e3d
000003e0: 7f7a 90bb ebc7 e3bc 00f2 81bd 918c 33bd
000003f0: 99f1 0bbd aba2 aa3c bc5c bd3c d38c 0c3c

conv2.bias f4 [128]
-0.03865118 -0.002543575 0.031370047 0.028573245 -0.044141475 0.058227833 0.030019425 -0.050773222
0.043685876 0.04895542 -0.0016037994 0.0066481316 0.024651652 -0.019454392 -0.053893566 0.003995998
0.020244958 -0.007966868 -0.036331143 0.057901002 0.044629246 0.002424909 -0.053759962 0.020287316
0.044554602 -0.0187772 0.06951484 -0.06655626 -0.015512796 -0.037239067 -0.01248081 0.0020297316
-0.015823068 -0.04228045 0.020906487 0.016821168 -0.030815579 -0.0005694711 0.050130345 -0.02074159
0.019341331 -0.049538504 0.06953403 0.05810926 -0.07619131 -0.027474966 0.005074093 -0.05143207
0.066312894 0.0008823678 -0.026951741 0.053416137 0.0041457843 0.07251419 -0.028803565 -0.0038385948
-0.02256198 0.0149704795 -0.04364397 0.026134022 -0.023406582 -0.06624252 -0.006230364 0.02828517
0.043139216 -0.027795404 0.038297437 0.012349164 -0.02021765 0.059101615 0.01246491 -0.06346316
-0.005257257 0.018121608 0.00976979 -0.016345963 0.049672227 -0.028696094 0.001227533 -0.070781015
-0.019658243 -0.0006797934 0.057293054 0.06607139 -0.036483053 -0.020729788 0.0025518585 0.008255923
-0.04343599 0.032682147 0.05250923 -0.035166048 -0.065060034 -0.025380768 0.026990468 0.0674169
0.036657527 0.016363606 0.025079913 -0.062966 -0.044426948 0.042786915 -0.073296234 -0.05574261
0.042762566 0.05060093 0.008358361 -0.026019052 0.013955539 0.015036432 -0.0403062 0.026014477
-0.016804751 -0.025636347 -0.020149918 0.018327774 -0.055058718 0.00017029625 -0.0647576 -0.043231573
-0.07575322 0.009991068 0.022986257 0.030369725 0.070286 0.02940268 0.014028522 -0.019074343
00000000: b350 1ebd 1bb2 26bb e17d 003d 7012 ea3c
00000010: b1cd 34bd 4f80 6e3d 4ceb f53c 95f7 4fbd
00000020: f6ef 323d 7a85 483d 9436 d2ba 92d8 d93b
00000030: 43f2 c93c d15e 9fbc 80bf 5cbd dcf0 823b
00000040: c1d8 a53c 7787 02bc f7cf 14bd 9a29 6d3d
00000050: 28cd 363d 39eb 1e3b 6833 5cbd 9631 a63c
00000060: e37e 363d a4d2 99bc cc5d 8e3d a64e 88bd
00000070: 6229 7ebc fe87 18bd 507c 4cbc 3f05 053b
00000080: 619f 81bc 442e 2dbd 1544 ab3c 8ccc 893c
00000090: f470 fcbc 8f48 15ba 7a55 4d3d 44ea a9bc
000000a0: b671 9e3c e3e8 4abd dc67 8e3d fa03 6e3d
000000b0: 310a 9cbd 2e13 e1bc 9444 a63b 6faa 52bd
000000c0: 0ecf 873d b34e 673a e6c9 dcbc e1ca 5a3d
000000d0: 5cd9 873b 5282 943d 74f5 ebbc ef90 7bbb
000000e0: e7d3 b8bc be46 753c 05c4 32bd 0417 d63c
000000f0: 29bf bfbc 29aa 87bd 1528 ccbb 4db6 e73c
00000100: bfb2 303d 30b3 e3bc c6dd 1c3d 2654 4a3c
00000110: 7c9f a5bc 8914 723d 9f39 4c3c f9f8 81bd
00000120: 1145 acbb c473 943c 7811 203c f8e7 85bc
00000130: 1b75 4b3d 1214 ebbc 2ce5 a03a a3f5 90bd
00000140: 530a a1bc 2a34 32ba 1fac 6a3d 7050 873d
00000150: 416f 15bd 84d1 a9bc 153d 273b da43 073c
00000160: f0e9 31bd b7dd 053d eb13 573d 460a 10bd
00000170: 323e 85bd 54eb cfbc 1d1b dd3c df11 8a3d
00000180: 3426 163d f80c 863c 6474 cd3c 51f4 80bd
00000190: 08f9 35bd 5541 2f3d 561c 96bd 5d52 64bd
000001a0: cd27 2f3d ec42 4f3d 82f1 083c e825 d5bc
000001b0: c6a5 643c 5e5b 763c 1d18 25bd 501c d53c
000001c0: 1eaa 89bc 5103 d2bc 7111 a5bc 2124 963c
000001d0: 4085 61bd 8d91 3239 a29f 84bd 9713 31bd
000001e0: 8124 9bbd 94b1 233c ad4d bc3c eec9 f83c
000001f0: 1bf2 8f3d e4dd f03c e3d7 653c cc41 9cbc

fc1.weight f4 [64, 128]
0.053568278 -0.08504874 -0.09229267 -0.024634128 0.027520446 0.055194274 0.07926884 -0.026480066
0.025125196 0.06591083 -0.066140205 0.06729273 -0.04098858 0.07496131 -0.04991682 0.01271364
-0.091157496 -0.06713847 0.041633934 0.02517472 -0.05971888 -0.07117569 0.007891208 -0.0047038253
-0.017754639 -0.061025456 -0.06429621 0.037394874 -0.057388004 0.03334493 0.046088293 -0.0032088317
-0.0051586567 0.011118115 -0.03964672 -0.010518513 -0.086771555 -0.010182055 0.027856471 -0.028045006
-0.04298166 0.015670689 0.07725365 -0.027282069 0.039822638 0.011325479 0.07906239 -0.044968948
-0.054446984 -0.06980729 0.0396248 -0.025855415 -4.4632884e-06 -0.03201427 -0.059578784 0.03369934
-0.013774144 -0.08122768 -0.05418194 -0.078413814 0.024355195 -0.0877389 -0.031444527 0.056939233
-0.021469198 0.009899964 -0.022516748 -0.0773955 -0.0014098148 0.014811377 0.012559663 -0.040295515
0.07432169 -0.02855023 -0.020872625 0.019120133 -0.06657167 -0.060131412 -0.082464 0.005692186
0.0018499625 0.076969 -0.03172297 0.009587752 0.024306824 0.059082754 0.029569814 -0.08273388
0.025103508 0.020177592 0.020379417 -0.02016216 -0.032992136 -0.012878045 -0.09388951 0.07428175
0.07391484 0.06044095 -0.06485474 -0.0674879 -0.07387104 0.075469464 -0.03397507 0.055788904
0.066154465 -0.033375908 0.064223595 0.029865675 -0.04880747 0.049529582 -0.07782397 -0.021974588
0.07486411 0.013903234 0.07229287 -0.071013406 0.0531379 0.03900695 0.06754756 0.027893273
0.047888774 -0.07023042 -0.00046415106 0.032125667 0.014651315 0.015351787 -0.018673476 -0.060194146
-0.037038036 0.011449632 0.08075107 -0.031077655 0.042496547 0.07282052 -0.030377159 -0.08367661
0.027841307 0.011001513 0.05918426 -0.07809923 -0.0782969 0.012961716 -0.0026209583 0.025392745
0.040129058 0.016906781 0.051683314 0.060280666 0.06305513 -0.052809082 -0.08417529 0.064905964
-0.03838815 0.055194296 0.059536345 0.05486822 -0.0771197 -0.007159503 -0.08536182 -0.05198544
-0.084192246 0.017186733 0.07376168 0.00028949583 -0.036318883 0.018707251 -0.040818848 -0.038916476
-0.01719052 0.03861759 0.05500834 -0.06231537 0.05039407 -0.053653844 -0.04278752 0.02986332
-0.04878834 0.02204585 0.044294823 -0.08336211 -0.078018025 0.03657249 -0.0508899 -0.03962407
0.023575768 0.02673755 0.03772673 -0.0034887851 -0.03712079 0.051800944 -0.058038946 0.05847849
0.026012843 -0.026237769 -0.04688797 -0.06195841 -0.036297522 -0.0771807 0.027954768 0.031235995
0.08290082 -0.0059152083 0.054450482 -0.07476518 0.07544632 0.02766304 0.051727355 0.014780355
0.047267944 0.07134766 -0.00023177978 -0.04324556 0.016791737 0.04420462 0.08402185 -0.00457562
-0.04385857 0.032129828 0.073047794 0.009170497 -0.0374174 -0.071940124 -0.0057487157 0.02274458
0.067071296 -0.04101832 0.08067052 0.08247065 0.07275599 0.077341706 -0.08791491 -0.03724549
0.010516426 0.0432537 0.085809186 -0.07058164 0.06417365 0.08536316 0.026612619 -0.012789084
0.072956696 -0.024092931 -0.07924572 0.07052781 0.06763444 -0.009513038 -0.0017114637 0.032601852
-0.007331374 -0.0058085737 -0.024031479 -0.011400755 -0.06214752 0.016567 -0.04160332 0.061940838
00000000: 696a 5b3d 092e aebd f003 bdbd 83cd c9bc
00000010: 8f72 e13c 6413 623d b457 a23d b9ec d8bc
00000020: 5bd3 cd3c 42fc 863d 8474 87bd c5d0 893d
00000030: a4e3 27bd 5185 993d 9475 4cbd df4c 503c
00000040: c8b0 babd e57f 89bd 5888 2a3d 373b ce3c
00000050: c99b 74bd 8fc4 91bd 204a 013c 8c22 9abb
00000060: 2d72 91bc d4f5 79bd bbad 83bd 5e2b 193d
00000070: af0f 6bbd b194 083d 14c7 3c3d 434b 52bb
00000080: f309 a9bb c128 363c 9964 22bd d755 2cbc
00000090: 49b5 b1bd a2d2 26bc 4133 e43c a4be e5bc
000000a0: 8a0d 30bd d15f 803c 2937 9e3d a57e dfbc
000000b0: 101d 233d 808e 393c 76eb a13d 5c31 38bd
000000c0: cd03 5fbd 20f7 8ebd 9d4d 223d bcce d3bc
000000d0: 5bc3 95b6 6521 03bd e208 74bd 5208 0a3d
000000e0: f3ac 61bc b35a a6bd e2ed 5dbd 6c97 a0bd
000000f0: 8c84 c73c 74b0 b3bd facb 00bd 1d39 693d
00000100: 2ce0 afbc 7533 223c 0b75 b8bc 8881 9ebd
00000110: 89c9 b8ba 6bab 723c 0bc7 4d3c e90c 25bd
00000120: f835 983d 2ce2 e9bc 11fd aabc d3a1 9c3c
00000130: ba56 88bd 5b4c 76bd e3e2 a8bd 8485 ba3b
00000140: 717a f23a eca1 9d3d f2ef 01bd f215 1d3c
00000150: 1b1f c73c c200 723d 653c f23c 6170 a9bd
00000160: dfa5 cd3c 7a4b a53c bcf2 a63c 1d2b a5bc
00000170: c322 07bd 70fe 52bc 2549 c0bd 0821 983d
00000180: aa60 973d ee90 773d 90d2 84bd 1937 8abd
00000190: b349 97bd bc8f 9a3d 7129 0bbd e882 643d
000001a0: fe7b 873d 2db5 08bd a987 833d dca8 f43c
000001b0: 57ea 47bd 88df 4a3d 2c62 9fbd 0d04 b4bc
000001c0: 5b52 993d 64ca 633c 490e 943d 7a6f 91bd
000001d0: 20a7 593d c0c5 1f3d 6056 8a3d 6f80 e43c
000001e0: 0527 443d f7d4 8fbd 4d59 f3b9 3496 033d
000001f0: 120c 703c 1086 7b3c 1ef9 98bc 238e 76bd
00000200: 32b5 17bd 3d97 3b3c d160 a53d 9196 febc
00000210: dc10 2e3d ed22 953d 85d9 f8bc a45e abbd
00000220: 7413 e43c b13f 343c 326b 723d 7df2 9fbd
00000230: 205a a0bd 615d 543c 62c4 2bbb 7204 d03c
00000240: 5e5e 243d 1780 8a3c e2b1 533d dce8 763d
00000250: 0c23 813d 564e 58bd 1864 acbd 6bed 843d
00000260: e53c 1dbd 6a13 623d 62dc 733d 80bd 603d
00000270: eff0 9dbd 449a eabb 2ed2 aebd afee 54bd
00000280: fc6c acbd 31cb 8c3c 5d10 973d 79c7 9739
00000290: 1cc3 14bd f33f 993c aa31 27bd e266 1fbd
000002a0: 22d3 8cbc 7a2d 1e3d 6d50 613d 673e 7fbd
000002b0: 036a 4e3d 22c4 5bbd f741 2fbd eca3 f43c
000002c0: 48d6 47bd 8099 b43c 7d6e 353d c1b9 aabd
000002d0: eac7 9fbd 09cd 153d ee71 50bd d94c 22bd
000002e0: f821 c13c b508 db3c 5887 1a3d 1aa4 64bb
000002f0: f80b 18bd 3a2d 543d 3fba 6dbd 2487 6f3d
00000300: e318 d53c 97f0 d6bc 9a0d 40bd 1ac8 7dbd
00000310: b6ac 14bd ea10 9ebd 6601 e53c a1e2 ff3c
00000320: e8c7 a93d 5dd4 c1bb 7807 5f3d 7d1e 99bd
00000330: 9a83 9a3d 9a9d e23c 10e0 533d 4d29 723c
00000340: 089c 413d b91e 923d e909 73b9 4222 31bd
00000350: d38e 893c e70f 353d a613 ac3d 15ef 95bb
00000360: 0ba5 33bd 919a 033d 159a 953d da3f 163c
00000370: fd42 19bd 5855 93bd b95f bcbb d752 ba3c
00000380: ad5c 893d d302 28bd 9636 a53d 5fe6 a83d
00000390: 1801 953d 5465 9e3d bb0c b4bd ba8e 18bd
000003a0: 164d 2c3c cb2a 313d babc af3d 1b8d 90bd
000003b0: 7a6d 833d e1d2 ae3d b502 da3c 4e89 51bc
000003c0: 526a 953d 8a5e c5bc 944b a2bd e270 903d
000003d0: ed83 8a3d 93dc 1bbc 3153 e0ba 8589 053d
000003e0: 063c f0bb d955 bebb aadd c4bc 3bca 3abc
000003f0: 668e 7ebd 84b7 873c 3e68 2abd adb5 7d3d

fc1.bias f4 [64]
-0.06798622 -0.0266386 -0.05227211 0.044082012 -0.0699103 0.014758602 0.030992696 -0.0106427595
0.023123877 0.017893786 0.02505618 -0.06093569 -0.03009546 -0.05642077 -0.03806778 -0.003569254
0.06297058 0.05801025 -0.0048196753 -0.017546175 0.03506418 -0.0690658 -0.028112423 -0.08663268
0.02129417 0.035980605 0.07632332 0.070886485 0.015727215 0.025796592 0.016459875 0.022040661
-0.04513505 -0.044997837 -0.006290302 0.007252735 -0.0418583 -0.08772347 -0.03441938 -0.051986367
0.052325092 0.06564736 -0.07057342 -0.026202451 0.02536272 -0.032094076 0.051321797 -0.07461152
-0.08092629 0.016626164 0.015569858 0.026057381 -0.07541765 -0.022758005 -0.03844846 -0.08310261
0.03513752 0.0050829914 -0.05125159 -0.041928083 -0.060033664 0.08431076 0.014702163 -0.09111526
00000000: 5c3c 8bbd 3139 dabc 481b 56bd 578f 343d
00000010: 222d 8fbd 10ce 713c 65e4 fd3c f85e 2ebc
00000020: 496e bd3c fd95 923c 9e42 cd3c b497 79bd
00000030: c18a f6bc 7719 67bd f6ec 1bbd 25ea 69bb
00000040: b8f6 803d 289c 6d3d 5eee 9dbb ffbc 8fbc
00000050: 759f 0f3d 5f72 8dbd 064c e6bc 796c b1bd
00000060: 1c71 ae3c 6660 133d 674f 9c3d ef2c 913d
00000070: 5cd6 803c 6053 d33c dcd6 863c 9e8e b43c
00000080: 88df 38bd a74f 38bd e11e cebb 5aa8 ed3b
00000090: 9c73 2bbd 5da8 b3bd 56fb 0cbd a8ef 54bd
000000a0: d652 563d 2072 863d cc88 90bd 86a6 d6bc
000000b0: 7bc5 cf3c 1475 03bd ce36 523d edcd 98bd
000000c0: afbc a5bd 9833 883c b818 7f3c 4a76 d53c
000000d0: 9274 9abd ff6e babc 227c 1dbd b431 aabd
000000e0: 5cec 0f3d 398f a63b 30ed 51bd c8bc 2bbd
000000f0: dce5 75bd 1fab ac3d 57e1 703c a39a babd

fc2.weight f4 [1, 64]
0.02585288 -0.08955345 -0.035721496 0.07510417 0.012285154 -0.034129277 0.035106283 -0.0777967
0.09056108 -0.043410055 -0.017989937 -0.033550974 -0.023643544 -0.06602381 0.06942229 -0.09934821
-0.059722535 -0.11155988 0.0123046385 0.10924273 -0.022807326 0.09957475 -0.08373667 0.034878284
-0.021994684 -0.009342958 0.032318745 -0.045397066 0.04390137 -0.07488918 -0.04683039 0.04924674
0.081708185 -0.0116326185 0.09746804 -0.1067407 0.1121609 0.042066664 0.04332003 0.082375556
-0.099654675 0.031671654 -0.056793958 -0.09522919 -0.03778383 -0.05033481 -0.025851283 -0.094726354
-0.08902681 0.117671266 -0.020858034 -0.06049919 0.055313002 0.025649037 -0.050293088 0.09318088
0.0932714 -0.050854534 -0.09522009 -0.009459866 -0.09462903 0.041545242 0.050048765 -0.10767683
00000000: 6bc9 d33c cd67 b7bd b450 12bd 37d0 993d
00000010: ac47 493c 24cb 0bbd 9bcb 0f3d e053 9fbd
00000020: 1678 b93d bece 31bd a25f 93bc bf6c 09bd
00000030: 1bb0 c1bc 7e37 87bd 462d 8e3d 1377 cbbd
00000040: 9e9f 74bd 8279 e4bd 6599 493c a7ba df3d
00000050: 6ed6 babc d9ed cb3d 227e abbd 88dc 0e3d
00000060: 322e b4bc 3513 19bc a960 043d 46f2 39bd
00000070: ecd1 333d 805f 99bd 39d1 3fbd f3b6 493d
00000080: 9f56 a73d bd96 3ebc 539d c73d de9a dabd
00000090: 9db4 e53d 184e 2c3d 5870 313d 84b4 a83d
000000a0: c017 ccbd 23ba 013d c8a0 68bd 8607 c3bd
000000b0: 38c3 1abd e02b 4ebd 12c6 d3bc e4ff c1bd
000000c0: b053 b6bd a2fd f03d 78de aabc 00ce 77bd
000000d0: e38f 623d ee1d d23c 2000 4ebd 9ed5 be3d
000000e0: 1305 bf3d d84c 50bd c002 c3bd 8efd 1abc
000000f0: ddcc c1bd 582b 2a3d efff 4c3d ab85 dcbd
