assets/model/phrase006_speech_model.pth (torch, 145844 bytes, 7 tensors)

conv1.weight f4 [64, 13, 3]
0.13211179 0.15040231 -0.06853204 -0.08794899 -0.120015815 0.11507752 -0.032318905 0.0031294879
-0.11520915 0.13344988 -0.100639954 0.08083234 0.03646273 0.0173358 0.1158752 0.117433086
-0.024594465 0.037252933 -0.053837374 -0.0538886 -0.105727166 -0.071942694 0.1504967 -0.04653772
0.0761025 -0.15286237 0.1418975 0.12071909 0.009677441 0.0027366825 -0.032674853 0.055495888
0.09510551 -0.04361448 0.09871461 -0.054891594 0.15573505 0.06927373 -0.12700206 0.060501315
0.13573258 -0.08846272 0.034092516 -0.109223455 0.073230326 -0.1292572 -0.09673084 -0.020257054
0.1447792 -0.001767789 -0.14977206 -0.10388796 -0.1310855 -0.10674157 -0.12579827 -0.0013950196
0.051642135 0.09608033 -0.099547505 -0.14729239 0.029108942 -0.13498895 -0.010091965 -0.046981424
0.0885449 -0.08523944 0.13628212 0.030049223 0.13287722 -0.080468506 -0.0063044582 0.009969827
-0.078650996 -0.1248077 0.05211326 0.037319854 0.004327874 0.11449671 -0.115840524 -0.0934472
0.012118719 -0.08404519 -0.054389965 -0.09329913 -0.058094162 0.09914097 -0.11237072 -0.029927846
-0.16374236 -0.11990819 -0.14290804 0.05519733 -0.11234718 0.09860041 0.15021959 0.08137782
-0.029243102 -0.07151949 -0.15218653 0.038243726 -0.09122597 0.09997572 0.014981768 0.025902398
0.11297149 -0.0012682108 0.13729425 0.030913899 0.107960686 0.10280489 -0.1254169 -0.026067698
0.14142086 -0.123506464 -0.10211724 0.12646967 -0.10461295 0.006908855 0.11519852 -0.064513884
-0.028754937 -0.053367 0.0983583 -0.16228673 -0.072049364 0.0065829097 -0.02218148 -0.15048176
-0.13040292 0.14960738 0.11867568 0.13937777 -0.15187012 -0.14347705 0.06290564 -0.08747612
0.05616084 -0.079896696 0.17178465 -0.11202744 0.053432327 -0.09150528 -0.044523254 -0.00086255406
0.05171371 0.033713773 0.06185956 -0.010620378 -0.007442571 0.06635016 -0.03194292 0.03402285
-0.079090945 0.061463397 -0.1523055 -0.12148572 0.1448329 -0.079835266 -0.1166642 0.017213078
0.10224281 -0.04768735 0.09652629 -0.050929092 0.026586631 -0.11722227 0.06597178 0.015616585
0.047281966 0.05925857 -0.024793869 0.00094242103 0.019927781 -0.14830442 0.14022104 -0.08808901
0.010927857 -0.018512346 0.12752649 -0.14654672 -0.019979196 0.15937002 -0.12382478 -0.06298884
-0.0076722717 0.15059829 -0.12872122 -0.08920917 0.05988794 0.00243017 0.013712061 0.044405222
-0.13357025 0.02678271 -0.004582984 -0.12474592 -0.02688414 -0.1306492 0.10922778 0.0012778613
-0.08834956 0.16314512 -0.1008531 -0.068082616 0.08141725 0.13450581 -0.12103902 -0.014894458
0.09236674 -0.14950188 0.09231015 -0.14445703 0.10855598 -0.04484276 -0.05896695 -0.023879366
0.059760075 0.05038135 -0.09064272 -0.039470743 -0.027450707 -0.11991585 0.077416405 0.03418924
-0.15804183 0.1371397 0.13085724 -0.039438035 0.13874124 -0.006720329 -0.10271831 0.121767685
0.030910615 0.09151913 -0.03848859 0.06635175 0.12370849 0.015017542 -0.051823396 0.088798545
-0.12513779 0.15871795 -0.06136655 0.07014715 0.1378647 -0.11642011 0.15888813 0.027188819
0.10990754 0.08830878 -0.14124179 -1.7450891e-05 -0.10047241 -0.0060515422 0.14397296 0.0025289382
00000000: 5048 073e 1003 1a3e 875a 8cbd 9a1e b4bd
00000010: daca f5bd c3ad eb3d d460 04bd 1818 4d3b
00000020: c6f2 ebbd 16a7 083e 521c cebd 6d8b a53d
00000030: f259 153d cf03 8e3c fa4f ed3d c280 f03d
00000040: 557a c9bc 8896 183d 9484 5cbd 4bba 5cbd
00000050: 7c87 d8bd b156 93bd cf1b 1a3e 569e 3ebd
00000060: a1db 9b3d f487 1cbe 944d 113e 923b f73d
00000070: 218e 1e3c ea59 333b 11d6 05bd a84f 633d
00000080: adc6 c23d 19a5 32bd e32a ca3d 02d6 60bd
00000090: 0279 1f3e 63df 8d3d d40c 02be 3ad0 773d
000000a0: 7bfd 0a3e f12b b5bd 98a4 0b3d 8cb0 dfbd
000000b0: c8f9 953d 005c 04be d21a c6bd 1ff2 a5bc
000000c0: 0041 143e 28b5 e7ba d95d 19be 36c3 d4bd
000000d0: 473b 06be 539b dabd 43d1 00be 17d9 b6ba
000000e0: b486 533d c4c5 c43d 90df cbbd d1d3 16be
000000f0: e075 ee3c 8b3a 0abe c558 25bc 986f 40bd
00000100: 0757 b53d 0492 aebd 8a8d 0b3e ca29 f63c
00000110: f710 083e accc a4bd a195 cebb 7c58 233c
00000120: c613 a1bd 2e9b ffbd b774 553d b4dc 183d
00000130: d7d0 8d3b 407d ea3d cc3d edbd 3f61 bfbd
00000140: 978d 463c e21f acbd 03c8 5ebd 9d13 bfbd
00000150: 25f4 6dbd 6c0a cb3d 9f22 e6bd 3e2b f5bc
00000160: 14ac 27be 6d92 f5bd 7c56 12be 9816 623d
00000170: 4716 e6bd 03ef c93d 2ad3 193e 6aa9 a63d
00000180: 3b8f efbc cf78 92bd c9d6 1bbe 74a5 1c3d
00000190: aed4 babd 12c0 cc3d 1776 753c 4431 d43c
000001a0: 995d e73d 183a a6ba dd96 0c3e 253f fd3c
000001b0: 7e1a dd3d 5f8b d23d 4a6d 00be ed8b d5bc
000001c0: a1d0 103e f5f0 fcbd d822 d1bd 4481 013e
000001d0: 503f d6bd ad63 e23b 34ed eb3d db1f 84bd
000001e0: 798f ebbc 5b97 5abd 1470 c93d 7e2e 26be
000001f0: 9e8e 93bd 73b5 d73b efb5 b5bc e417 1abe
00000200: 5888 05be ad32 193e 3c0c f33d 0cb9 0e3e
00000210: d783 1bbe a6eb 12be acd4 803d ae26 b3bd
00000220: e908 663d e1a0 a3bd 51e8 2f3e a46e e5bd
00000230: dbdb 5a3d 1f67 bbbd 045e 36bd 061d 62ba
00000240: c1d1 533d 7417 0a3d 7360 7d3d 1801 2ebc
00000250: d0e0 f3bb 98e2 873d 94d6 02bd 8b5b 0b3d
00000260: 6ffa a1bd 0bc1 7b3d f9f5 1bbe 81cd f8bd
00000270: 134f 143e ac80 a3bd a4ed eebd 7102 8d3c
00000280: ae64 d13d d053 43bd 93af c53d 069b 50bd
00000290: 35cc d93c 3b12 f0bd 361c 873d b4dc 7f3c
000002a0: bcaa 413d 1db9 723d 831c cbbc ce0c 773a
000002b0: 963f a33c 1ddd 17be 1b96 0f3e 0368 b4bd
000002c0: c10a 333c 34a7 97bc 4e96 023e 5810 16be
000002d0: 69ab a3bc e531 233e d997 fdbd 4b00 81bd
000002e0: ae67 fbbb 7036 1a3e 7fcf 03be 4cb3 b6bd
000002f0: 0e4d 753d 7d43 1f3b 8da8 603c 40e2 353d
00000300: a4c6 08be 6a67 db3c db2c 96bb ca7a ffbd
00000310: 213c dcbc e7c8 05be d0b2 df3d e97d a73a
00000320: 9df0 b4bd 840f 273e 128c cebd e66e 8bbd
00000330: 16be a63d e4bb 093e 4ee3 f7bd e307 74bc
00000340: c62a bd3d 0517 19be 1b0d bd3d 8bec 13be
00000350: 9952 de3d 0bad 37bd 5487 71bd a99e c3bc
00000360: fbc6 743d ad5c 4e3d e4a2 b9bd 13ac 21bd
00000370: 4ee0 e0bc 7196 f5bd 7e8c 9e3d 040a 0c3d
00000380: b8d5 21be 596e 0c3e 71ff 053e c789 21bd
00000390: 2f12 0e3e 3536 dcbb fa5d d2bd 5661 f93d
000003a0: 4238 fd3c 626e bb3d 36a6 1dbd 6de3 873d
000003b0: e05a fd3d 230c 763c c544 54bd 03dc b53d
000003c0: 1f24 00be f586 223e 7e5b 7bbd 4fa9 8f3d
000003d0: 672c 0d3e ab6d eebd 92b3 223e 16bb de3c
000003e0: 3417 e13d 3cdb b43d b0a1 10be 8163 92b7
000003f0: 7bc4 cdbd 044c c6bb a66d 133e 8bbc 253b

conv1.bias f4 [64]
-0.063367814 -0.068579055 -0.007672508 0.002381832 -0.14323966 0.014003678 0.08665774 0.029078724
-0.15934412 -0.028358834 0.004964175 -0.15630941 0.11238257 -0.044157445 -0.13932414 0.091428906
-0.12123218 -0.027405383 -0.008768036 0.014312442 0.1579307 -0.0012083177 0.08780273 0.038926795
-0.12460734 0.13807261 -0.14139885 0.008854193 0.14959966 -0.024723561 0.118011706 0.08501336
-0.024790134 -0.00025154417 0.09167314 -0.061337683 0.08436769 0.09227506 0.0008940535 0.071981736
0.04117565 -0.028022742 -0.08120026 -0.103230685 0.08749743 -0.038757004 -0.03550346 0.029956987
0.09120206 -0.049638484 -0.11656563 0.0013346957 0.15611172 -0.11810479 -0.09628736 -0.10968692
0.11496411 0.117117375 -0.059522085 -0.041685198 -0.12478425 -0.013091329 0.14823972 -0.012677689
00000000: fcc6 81bd 2d73 8cbd a969 fbbb 8318 1c3b
00000010: 6bad 12be af6f 653c 9d79 b13d 8136 ee3c
00000020: 1b2b 23be c950 e8bc 85aa a23b 930f 20be
00000030: d528 e63d 70de 34bd fdaa 0ebe 143f bb3d
00000040: 9448 f8bd 4181 e0bc cfa7 0fbc bc7e 6a3c
00000050: 96b8 213e 6a60 9eba ebd1 b33d b471 1f3d
00000060: 2232 ffbd e862 0d3e dcca 10be 2d11 113c
00000070: a730 193e 1189 cabc 1fb0 f13d 7c1b ae3d
00000080: ae14 cbbc b0e1 83b9 21bf bb3d 393d 7bbd
00000090: f8c8 ac3d b5fa bc3d ea5e 6a3a 296b 933d
000000a0: cca7 283d f38f e5bc 524c a6bd 9c6a d3bd
000000b0: da31 b33d aabf 1ebd 136c 11bd 5b68 f53c
000000c0: 25c8 ba3d b951 4bbd f6b9 eebd f5f0 ae3a
000000d0: c0db 1f3e ede0 f1bd 4f32 c5bd 89a3 e0bd
000000e0: 4e72 eb3d 3cdb ef3d 6ecd 73bd 19be 2abd
000000f0: e38e ffbd 037d 56bc 27cc 173e 15b6 4fbc

conv2.weight f4 [128, 64, 3]
0.010996889 0.07521744 0.059725583 0.02548383 0.06734434 0.024640033 0.02732035 0.05563697
-0.015115725 -0.023763087 -0.04908829 -0.0016824005 -0.06803256 -0.071692504 0.069856845 -0.07011252
0.02099558 -0.008409781 0.062179763 0.02518018 -0.03338472 0.004517114 -0.05432181 0.034343835
0.0057824035 0.024859428 0.010480012 -0.04605245 -0.010087514 0.017389717 0.068552695 -0.034145605
-0.05326756 -0.014685729 0.01816002 -0.0676473 0.053670365 0.03679856 -0.05003524 0.020196745
-0.021047188 -0.015475816 -0.009621765 0.007081296 -0.039342873 0.055261336 0.019736087 0.010230119
-0.022472326 0.043110058 0.0029659513 0.03547902 -0.0690845 0.062158525 0.005852514 0.035899796
0.037610613 -0.012872126 -0.011039629 -0.005805504 -0.055313494 0.0035169655 -0.0037416155 -0.043671843
0.0066395695 0.031025443 0.02996338 0.058160365 0.045108873 -0.022599714 0.022143375 -0.037313998
-0.0060085924 -0.03134994 0.06816159 0.06213325 0.007971286 -0.028769208 -0.06771549 -0.0037078366
0.0014420411 0.0121020265 0.030426871 -0.037426967 -0.055466626 -0.061891597 -0.06543583 -0.03512768
0.04398671 0.061438605 0.06561229 0.050404813 -0.018560799 -0.031669725 -0.03671912 0.015890755
0.0579127 0.05989682 -0.026935797 0.03782376 -0.01338822 -0.06094484 0.0017685107 -0.0074567706
0.036863018 -0.041952435 0.030564504 -0.030095164 -0.008972558 0.009975961 0.039495207 -0.058161203
-0.0662211 0.031023217 0.008816469 -0.052661803 -0.058453258 -0.06916166 -0.030717105 0.04254799
-0.02285438 0.029963901 -0.06060429 0.007868899 0.024524923 -0.009524574 -0.010745701 -0.07025291
0.05926196 0.041766256 -0.012798814 -0.057461705 0.013270769 -0.0077981027 -0.040774994 0.013827843
-0.015440979 0.03273975 0.03189149 -0.027957613 0.052942067 0.035446107 0.054854903 -0.032863803
-0.06444591 0.026185997 0.015318736 -0.035457358 0.060922924 0.03890591 0.05207465 0.05068713
-0.0014170514 -0.03952751 0.011755282 -0.04704509 0.06917382 -0.04837611 0.052363787 0.046066742
0.044087727 -0.0033450834 0.0136293415 -0.004104166 -0.062900536 0.022716105 -0.03764964 -0.06773575
-0.02630948 -0.033527747 -0.03608349 -0.0020340083 0.047273006 0.060444105 -0.054641765 0.050246585
-0.011027835 0.021963831 0.0485109 -0.046033718 -0.04372741 0.02098783 0.03839093 0.06834974
-0.05974078 -0.030660996 -0.008870775 0.06878315 -0.07345557 -0.001786032 -0.049832422 -0.054886673
0.030861048 0.02115289 -0.062030908 0.04385703 0.048300136 -0.010430866 0.02688944 -0.014494219
-0.00099798 -0.025269568 -0.045237005 0.044115752 -0.051335808 0.024389723 -0.022569474 0.049465384
-0.043157686 -0.008800331 -0.02833911 0.041860167 -0.039508473 -0.03417654 0.0141999265 0.017213657
0.008551039 0.010308363 0.059479173 0.05249625 0.04525276 0.059175894 0.01708117 -0.05929861
-0.05884937 0.046777736 -0.06395309 0.05962074 0.008686288 0.033419915 -0.029751116 -0.005650187
0.02950643 -0.038762435 0.024849987 -0.028617868 -0.066623054 -0.0418996 0.025582904 0.015699893
-0.046484437 0.009994449 -0.05627498 0.015162399 -0.018340908 0.014535659 -0.064944744 -0.027503144
0.06163662 0.03280319 -0.06667983 -0.005099832 -0.02140352 -0.07122167 0.06659429 0.050852463
00000000: 4c2c 343c 9a0b 9a3d d0a2 743d 77c3 d03c
00000010: d4eb 893d e5d9 c93c edce df3c 97e3 633d
00000020: f2a7 77bc ceaa c2bc ce10 49bd fe83 dcba
00000030: a854 8bbd 85d3 92bd 1b11 8f3d 2797 8fbd
00000040: ecfe ab3c 2ec9 09bc 35b0 7e3d aa46 ce3c
00000050: 6bbe 08bd 4c04 943b 8c80 5ebd 1fac 0c3d
00000060: 517a bd3b 00a6 cb3c 5bb4 2b3c 7ea1 3cbd
00000070: 1a46 25bc e174 8e3c 5b65 8c3d 43dc 0bbd
00000080: 162f 5abd 699c 70bc 52c4 943c ab8a 8abd
00000090: 75d5 5b3d 16ba 163d c0f1 4cbd a573 a53c
000000a0: 276b acbc 478e 7dbc 9ca4 1dbc 370a e83b
000000b0: fe25 21bd b659 623d 93ad a13c 3b9c 273c
000000c0: e217 b8bc 2c94 303d 6860 423b 7352 113d
000000d0: 2d7c 8dbd f099 7e3d 72c6 bf3b aa0b 133d
000000e0: 960d 1a3d 9ce5 52bc 8fdf 34bc 193c bebb
000000f0: 6790 62bd e47c 663b e435 75bb 3fe1 32bd
00000100: bf90 d93b 1229 fe3c c375 f53c 9039 6e3d
00000110: 15c4 383d 0923 b9bc 0666 b53c 90d6 18bd
00000120: bae3 c4bb cb68 00bd 4e98 8b3d 6f7f 7e3d
00000130: ff99 023c 67ad ebbc 6bae 8abd 2dff 72bb
00000140: df02 bd3a 9447 463c c641 f93c 054d 19bd
00000150: f930 63bd 0b82 7dbd 3803 86bd 0be2 0fbd
00000160: 692b 343d 0ca7 7b3d bc5f 863d 4775 4e3d
00000170: d10c 98bc 1db8 01bd ca66 16bd 542d 823c
00000180: de35 6d3d 5e56 753d 76a8 dcbc 16ed 1a3d
00000190: 445a 5bbc 4ca1 79bd 5fcd e73a ed57 f4bb
000001a0: adfd 163d 51d6 2bbd 6962 fa3c 228a f6bc
000001b0: a301 13bc 3772 233c bac5 213d 713a 6ebd
000001c0: ee9e 87bd 6724 fe3c f472 103c e7b3 57bd
000001d0: af6c 6fbd a1a4 8dbd 70a2 fbbc cd46 2e3d
000001e0: 1c39 bbbc db76 f53c 343c 78bd 8eec 003c
000001f0: 7ee8 c83c f50c 1cbc bd0e 30bc c2e0 8fbd
00000200: abbc 723d 1813 2b3d 1eb2 51bc f75c 6bbd
00000210: a46d 593c 3a87 ffbb ae03 27bd 2d8e 623c
00000220: 29fc 7cbc 1e1a 063d a7a0 023d 5d07 e5bc
00000230: c8d9 583d f02f 113d 89af 603d 329c 06bd
00000240: 38fc 83bd 0484 d63c 70fb 7a3c bc3b 11bd
00000250: 518a 793d ce5b 1f3d 3a4c 553d 4f9d 4f3d
00000260: 5bbc b9ba 99e7 21bd 3a99 403c 5ab2 40bd
00000270: 01ab 8d3d 0726 46bd 697b 563d 7bb0 3c3d
00000280: 5595 343d 3039 5bbb 9a4d 5f3c 3d7c 86bb
00000290: ffd1 80bd 2017 ba3c 8236 1abd 0ab9 8abd
000002a0: fb86 d7bc 6454 09bd 48cc 13bd ff4c 05bb
000002b0: 57a1 413d 3d94 773d 0bd0 5fbd 5dcf 4d3d
000002c0: 18ae 34bc 7eed b33c 5eb3 463d da8d 3cbd
000002d0: 831b 33bd abee ab3c cf3f 1d3d f3fa 8b3d
000002e0: c0b2 74bd c52c fbbc ba56 11bc 2ede 8c3d
000002f0: e06f 96bd 4a19 eaba 151d 4cbd d9d0 60bd
00000300: 4fd0 fc3c d348 ad3c 1f14 7ebd 6ea3 333d
00000310: 5dd6 453d 39e6 2abc 3e47 dc3c 2979 6dbc
00000320: a7ce 82ba 2002 cfbc 704a 39bd b8b2 343d
00000330: 7f45 52bd f5cc c73c 9ee3 b8bc 379c 4a3d
00000340: 1dc6 30bd 432f 10bc 6c27 e8bc 9175 2b3d
00000350: a3d3 21bd b3fc 0bbd cfa6 683c a803 8d3c
00000360: a819 0c3c 68e4 283c 6fa0 733d 4f06 573d
00000370: f55a 393d 6c62 723d cfed 8b3c 19e3 72bd
00000380: 090c 71bd 039a 3f3d d6f9 82bd e134 743d
00000390: ef50 0e3c 52e3 083d 9db8 f3bc 3425 b9bb
000003a0: 78b7 f13c 5cc5 1ebd 3392 cb3c 0570 eabc
000003b0: ab71 88bd ea9e 2bbd 3d93 d13c 109d 803c
000003c0: 7766 3ebd c2bf 233c 9880 66bd b66b 783c
000003d0: ac3f 96bc f926 6e3c c001 85bd 464e e1bc
000003e0: ae76 7c3d a35c 063d 6f8f 88bd 7e1c a7bb
000003f0: 6f56 afbc abdc 91bd 9662 883d ac4a 503d

conv2.bias f4 [128]
-0.0043611657 -0.06584547 0.06252199 -0.068213485 -0.0014397021 0.030387964 -0.039589282 -0.021005018
-0.06285802 0.03665566 -0.05147246 0.029191101 -0.016885862 0.05488775 -0.06660189 0.05313814
0.06559369 -0.06300782 -0.04532102 0.058380965 0.047851548 -0.025956623 -0.01369293 -0.032534458
0.029001754 0.026557252 -0.006857003 0.014479765 0.0030950392 0.06769724 0.05932428 0.061071303
-0.063055195 -0.056787062 -0.043629844 0.025810335 0.03984546 -0.005375318 0.005043567 -0.07256202
-0.0074675353 0.01686601 -0.02265681 0.015613658 0.046607044 0.025489954 -0.064265445 0.023358086
0.055993635 -0.06371943 0.024268745 -0.02569577 0.04487276 -0.0104359845 -0.055548068 0.0009008993
0.049636416 -0.059249014 0.033601616 -0.05606112 0.01008953 0.050012123 0.06909142 0.04967127
-0.028776811 0.06143713 0.03718151 0.07251346 0.0011454293 0.006683475 -0.0035567698 -0.026536617
-0.059995815 -0.018401932 0.01713885 -0.048994448 -0.05629288 0.031164732 -0.031584747 -0.0175212
-0.027306315 0.003919234 -0.024613839 0.060957037 -0.012471687 -0.044362977 -0.025838684 0.008768858
0.03549286 0.07082198 0.06507 0.055818032 -0.03193155 0.00712555 0.0065360903 0.014226302
0.012298068 0.010218337 0.050862923 0.07125027 0.0059358976 -0.056775585 -0.050720587 0.016143521
0.024581688 -0.061566256 -0.035952263 -0.029675094 -0.04901654 0.03349877 -0.015210858 0.06436555
0.015010187 0.02789794 -0.03442569 -0.024377149 0.04102259 -0.045201574 -0.04046815 0.054337986
0.06823295 0.018455466 -0.04819578 -0.009183723 -0.005205609 -0.024736483 0.031566545 -0.009820916
00000000: 1ce8 8ebb fdd9 86bd 870b 803d 83b3 8bbd
00000010: 63b4 bcba 2ef0 f83c 5f28 22bd b712 acbc
00000020: b5bb 80bd 3f24 163d c9d4 52bd 2d22 ef3c
00000030: 3854 8abc fad1 603d 9266 88bd 61a7 593d
00000040: fc55 863d 3e0a 81bd 89a2 39bd e120 6f3d
00000050: fcff 433d fca2 d4bc 5058 60bc da42 05bd
00000060: 1695 ed3c 988e d93c b6b0 e0bb 893c 6d3c
00000070: 24d6 4a3b daa4 8a3d 04fe 723d e725 7a3d
00000080: 1523 81bd 8d99 68bd 35b5 32bd 3270 d33c
00000090: fe34 233d 7023 b0bb 8244 a53b 659b 94bd
000000a0: 3ab2 f4bb 962a 8a3c c69a b9bc 6ed0 7f3c
000000b0: 07e7 3e3d 4fd0 d03c 9a9d 83bd 7559 bf3c
000000c0: 9559 653d 557f 82bd 3fcf c63c ef7f d2bc
000000d0: 80cc 373d b1fb 2abc 5f86 63bd 542a 6c3a
000000e0: 8e4f 4b3d 18af 72bd d9a1 093d 58a0 65bd
000000f0: 8e4e 253c 83d9 4c3d cd7f 8d3d 1a74 4b3d
00000100: 59bd ebbc 80a5 7b3d a44b 183d f081 943d
00000110: 3b22 963a 0d01 db3b b218 69bb 5263 d9bc
00000120: 2cbe 75bd a6bf 96bc c666 8c3c 67ae 48bd
00000130: 5d93 66bd 2e4d ff3c 025f 01bd 9f88 8fbc
00000140: 7eb1 dfbc eb6c 803b f6a2 c9bc 16ae 793d
00000150: 0c56 4cbc f4b5 35bd a6ab d3bc 42ab 0f3c
00000160: f660 113d 1d0b 913d 6c43 853d 73a1 643d
00000170: a8ca 02bd 727d e93b b32c d63b 6f15 693c
00000180: d67d 493c d06a 273c a455 503d a9eb 913d
00000190: eb81 c23b 848d 68bd 64c0 4fbd 6b3f 843c
000001a0: 895f c93c e62c 7cbd ae42 13bd 2f19 f3bc
000001b0: 91c5 48bd 0236 093d f636 79bc 16d2 833d
000001c0: 4aed 753c 388a e43c f401 0dbd 96b2 c7bc
000001d0: 4e07 283d 4925 39bd eec1 25bd 8291 5e3d
000001e0: b8bd 8b3d eb2f 973c f068 45bd 5377 16bc
000001f0: d093 aabb 2aa4 cabc ec4b 013d e8e7 20bc

fc1.weight f4 [64, 128]
0.06495738 -0.037413932 -0.056370858 -0.021540835 -0.06392629 0.024182418 0.05735124 -8.020435e-05
-0.025720404 0.014626355 0.0055257156 0.027281012 -0.0012167646 -0.020148788 -0.015885582 -0.072614364
0.070289105 0.07962297 -0.052020576 -0.054461904 -0.030043615 0.065071575 0.0317021 -0.098543026
-0.013638932 0.04345145 -0.011162535 -0.046350315 -0.021084988 -0.053113267 -0.033738825 0.052617814
0.045986705 0.008147694 -0.08189368 0.036928255 0.085671775 -0.07652917 -0.056594506 0.01629505
-0.07789282 -0.0725192 0.01270273 0.086325034 -0.012437315 -0.06168689 -0.04230634 -0.03711013
-0.077423245 0.03370106 -0.07095518 -0.053872775 -0.024883974 0.03000233 0.0417715 -0.0106298635
0.05143757 -0.059738528 0.035875097 -0.06816003 -0.042894244 0.028688623 -0.0022325106 -0.053154293
-0.016890464 0.05116288 -0.011209182 0.051848497 -0.07567318 -0.07446749 0.05569725 0.03241864
-0.03937786 -0.07142995 0.012022307 0.010774877 -0.06024211 0.02202569 0.08889855 0.06361951
0.01364583 -0.06526996 -0.04466222 0.07428049 -0.04402043 0.020865746 0.038527332 -0.07360716
-0.09448247 0.051678777 -0.11736546 0.030533824 -0.060475983 -0.057487458 0.05257479 -0.015996642
-0.087346904 -0.04009008 -0.03801079 0.03473212 -0.062958814 -0.094011284 -0.06044413 -0.032363042
-0.04386298 0.041770194 -0.07844749 -0.0031435192 -0.08494271 0.060113963 0.022082191 -0.06253793
-0.049867697 0.029593498 -0.04354471 -0.068546586 -0.00684927 0.026735032 0.032839015 -0.08364011
-0.09607565 0.019586207 -0.055922434 0.072658725 -0.019647295 -0.09768722 -0.09118139 0.0015370765
-0.062065057 0.042031623 0.07609645 -0.0018746182 0.07911017 0.056846388 -0.043138288 -0.077750996
0.07550558 -0.04326589 -0.07522918 -0.009700462 -0.026777748 0.06673951 -0.020454742 -0.03898299
-0.031665705 -0.045229606 -0.03635521 0.042103298 0.025352076 0.056990586 0.026744686 0.042642243
-0.08758771 -0.050972525 0.03711476 -0.031133004 0.0743802 0.06037665 -0.0027279332 0.059319206
-0.060650926 0.047604583 -0.0878704 -0.030827973 -0.06794194 -0.080029875 -0.07940863 -0.01810167
-0.048134673 0.0383723 -0.004575379 -0.019364484 0.086025365 0.039210953 -0.061270032 0.03768518
-0.06021614 0.04045389 -0.018195666 -0.05037446 0.011375032 -0.002469428 0.00072959065 -0.0852161
0.07765847 -0.05785309 0.07244048 -0.073717654 0.041640334 0.07472702 0.0010991916 -0.0042722076
-0.04601181 -0.0046435893 0.0855444 -0.020221867 0.0845884 0.025288127 -0.07132965 0.061526157
0.038685925 -0.024762243 -0.06549815 0.0035843924 0.04454606 -0.07867492 -0.02647094 0.03290654
-0.0836 0.054169558 -0.07634056 0.06824926 -0.063923106 0.02366215 0.03453143 0.08240878
0.02433604 0.008690119 -0.0035370886 -0.033243768 -0.03588745 0.035798416 -0.057480432 -0.07899478
0.059692867 0.028210215 -0.0743125 0.08318902 0.042965867 0.011891231 -0.044960257 0.06416527
-0.03960491 0.057565056 0.058907203 0.07762884 -0.014748193 0.018098123 0.0016037822 -0.026799917
-0.08171848 0.034227937 0.017372966 -0.0030728728 0.02092573 0.001804024 0.035671838 0.041101433
-0.017195314 0.022104286 -0.057766467 0.062789954 0.05689787 -0.0008035302 -0.043975938 0.04862631
00000000: 6008 853d 5a3f 19bd 21e5 66bd 6876 b0bc
00000010: c9eb 82bd 351a c63c 22e9 6a3d 6233 a8b8
00000020: 99b3 d2bc 61a3 6f3c 1011 b53b 6e7c df3c
00000030: d87b 9fba 120f a5bc 7b22 82bc d7b6 94bd
00000040: bcf3 8f3d 5e11 a33d 8713 55bd 7213 5fbd
00000050: 071e f6bc 3f44 853d 10da 013d edd0 c9bd
00000060: d475 5fbc 26fa 313d 11e3 36bc d4d9 3dbd
00000070: 6dba acbc 4c8d 59bd b931 0abd c785 573d
00000080: 8e5c 3c3d e87d 053c e0b7 a7bd 1542 173d
00000090: af74 af3d 53bb 9cbd a4cf 67bd 327d 853c
000000a0: 4586 9fbd f284 94bd 1c1f 503c 2ecb b03d
000000b0: e1c5 4bbc 64ab 7cbd 6a49 2dbd cb00 18bd
000000c0: 1490 9ebd 1f0a 0a3d f350 91bd b3a9 5cbd
000000d0: 7ad9 cbbc 72c7 f53c 9818 2b3d e128 2ebc
000000e0: 34b0 523d 63b0 74bd c4f1 123d 7c97 8bbd
000000f0: e0b1 2fbd 6704 eb3c 504f 12bb 51b8 59bd
00000100: df5d 8abc 2b90 513d b8a6 37bc 175f 543d
00000110: 8afa 9abd 6982 98bd cd22 643d 68c9 043d
00000120: ae4a 21bd de49 92bd 36f9 443c 1c89 303c
00000130: 6ec0 76bd 386f b43c 7110 b63d f24a 823d
00000140: c292 5f3c 42ac 85bd bbef 36bd 5f20 983d
00000150: c44e 34bd a4ee aa3c d6ce 1d3d 5abf 96bd
00000160: 0680 c1bd 20ad 533d 4d5d f0bd 1222 fa3c
00000170: aab5 77bd f877 6bbd aa58 573d 640b 83bc
00000180: efe2 b2bd 7f35 24bd 34b1 1bbd 4443 0e3d
00000190: 8df0 80bd fd88 c0bd 4494 77bd 1c8f 04bd
000001a0: aba9 33bd 3917 2b3d 14a9 a0bd 8003 4ebb
000001b0: 72f6 adbd 0f3a 763d b6e5 b43c e313 80bd
000001c0: 1242 4cbd 106e f23c f05b 32bd 2762 8cbd
000001d0: d76f e0bb 6d03 db3c 3482 063d 824b abbd
000001e0: 4fc3 c4bd 4173 a03c ec0e 65bd 19ce 943d
000001f0: 5df3 a0bc 3d10 c8bd 4fbd babd bb77 c93a
00000200: ee37 7ebd 5a29 2c3d 75d8 9b3d c0b5 f5ba
00000210: 8304 a23d c2d7 683d c6b1 30bd ea3b 9fbd
00000220: aba2 9a3d 9337 31bd c211 9abd b0ee 1ebc
00000230: 025d dbbc b9ae 883d b490 a7bc a1ac 1fbd
00000240: e6b3 01bd ae42 39bd 33e9 14bd 8274 2c3d
00000250: 28af cf3c f66e 693d ac17 db3c a2a9 2e3d
00000260: 2f61 b3bd 91c8 50bd a605 183d a40a ffbc
00000270: a554 983d 824d 773d 20c7 32bb b2f8 723d
00000280: 1b6d 78bd 06fd 423d 65f5 b3bd f28a fcbc
00000290: 2525 8bbd b4e6 a3bd fea0 a2bd f449 94bc
000002a0: dd28 45bd 462c 1d3d 10ed 95bb 44a2 9ebc
000002b0: 112e b03d aa9b 203d 49f6 7abd c65b 1a3d
000002c0: 33a5 76bd fab2 253d 140f 95bc 7355 4ebd
000002d0: 585e 3a3c 20d6 21bb 0042 3f3a c785 aebd
000002e0: 670b 9f3d 5df7 6cbd ad5b 943d 48f9 96bd
000002f0: 0e8f 2a3d 7b0a 993d c012 903a e0fd 8bbb
00000300: e176 3cbd 4029 98bb e731 af3d 54a8 a5bc
00000310: af3c ad3d 0c29 cf3c 4815 92bd da02 7c3d
00000320: 2275 1e3d 30da cabc e523 86bd 20e8 6a3b
00000330: ee75 363d 5120 a1bd 96d9 d8bc 02c9 063d
00000340: 7a36 abbd e6e0 5d3d 7158 9cbd 45c6 8b3d
00000350: 1eea 82bd 20d7 c13c d470 0d3d efc5 a83d
00000360: 605c c73c 0061 0e3c 80ce 67bb 9e2a 08bd
00000370: b8fe 12bd 5ca1 123d 9a70 6bbd 04c8 a1bd
00000380: 8280 743d 1c19 e73c 2731 98bd 015f aa3d
00000390: fafc 2f3d 70d3 423c 3f28 38bd 1569 833d
000003a0: c238 22bd 56c9 6b3d ae48 713d dffb 9e3d
000003b0: 68a2 71bc 8442 943c 0036 d23a 808b dbbc
000003c0: 055c a7bd 9832 0c3d c051 8e3c 4062 49bb
000003d0: 706c ab3c 0075 ec3a a21c 123d fa59 283d
000003e0: 30dd 8cbc 0c14 b53c 889c 6cbd 0598 803d
000003f0: be0d 693d 00a4 52ba 1d20 34bd 622c 473d

fc1.bias f4 [64]
-0.030637011 -0.0052635595 -0.04439277 -0.051104996 0.077526815 -0.023613416 0.041686885 -0.022202082
0.0036858877 0.08645914 -0.027019655 0.044336114 0.023611968 0.024741657 0.016769685 0.04844477
-0.08209663 0.079374015 0.021117372 -0.07933003 0.06514642 -0.030346628 0.015818607 -0.043462202
-0.015817508 0.01931858 -0.060454097 0.05007191 0.022883639 -0.057327308 0.012591593 -0.02250969
-0.076456964 -0.0010938498 -0.068075724 -0.037405793 0.051950276 -0.018574985 0.06688206 0.080208756
0.021481745 -0.047360912 -0.04528289 -0.003640461 -0.06581618 0.051556297 -0.08277994 -0.06299895
-0.036257133 -0.07452335 -0.031008784 -0.0427404 0.0010164472 -0.022809304 0.05270066 -0.079343446
-0.085098244 0.079994865 -0.08587457 0.06103135 -0.032429494 -0.0012631613 0.009158619 0.052475456
00000000: 78fa fabc f079 acbb 31d5 35bd 7953 51bd
00000010: 61c6 9e3d ec70 c1bc debf 2a3d 24e1 b5bc
00000020: ef8e 713b 7d11 b13d 5358 ddbc c999 353d
00000030: e36d c13c 04af ca3c 9460 893c 066e 463d
00000040: 4722 a8bd d88e a23d 57fe ac3c c877 a2bd
00000050: 7c6b 853d 7e99 f8bc 0696 813c 6c05 32bd
00000060: b893 81bc 0042 9e3c b79e 77bd 3418 4d3d
00000070: 7876 bb3c 0ad0 6abd f84c 4e3c 3e66 b8bc
00000080: 7895 9cbd 825f 8fba 496b 8bbd d136 19bd
00000090: d0c9 543d 912a 98bc 76f9 883d 7d44 a43d
000000a0: 7cfa af3c 84fd 41bd 8d7a 39bd cd94 6ebb
000000b0: a2ca 86bd b22c 533d 8788 a9bd 9805 81bd
000000c0: 5c82 14bd b39f 98bd 2206 febc 8f10 2fbd
000000d0: 4f3a 853a 94da babc a6dc 573d d17e a2bd
000000e0: fd47 aebd 59d4 a33d 02df afbd 02fc 793d
000000f0: cad4 04bd a990 a5ba 080e 163c 81f0 563d

fc2.weight f4 [1, 64]
-0.10281366 -0.073731795 0.015798256 0.037620444 -0.056573167 0.0155828 -0.03579682 0.06573209
0.09386187 -0.09975527 0.09814856 0.06507358 0.06861951 -0.017858252 -0.049101517 -0.12297669
-0.07449405 -0.0056891707 0.08318638 -0.086787045 0.00930792 0.015332027 -0.089504205 0.02635622
0.062916234 -0.026486386 -0.060554337 0.07232581 -0.09723441 0.052782357 0.064770356 -0.04770665
-0.046301574 -0.09461306 -0.028765697 -0.05930641 -0.11700212 -0.036611438 0.11333283 0.011008291
-0.061642826 -0.10681815 -0.0263748 0.074150376 -0.03454007 0.009559066 -0.029684335 0.08795945
0.07361597 -0.046295792 -0.094792224 -0.053260684 0.006754711 0.112090215 0.02626313 0.058690358
-0.07276257 0.11056014 -0.018800572 -0.057817176 0.013291764 0.05353325 0.10781866 0.056130353
00000000: f88f d2bd b200 97bd 586b 813c e517 1a3d
00000010: 44b9 67bd 004f 7f3c b09f 12bd 8c9e 863d
00000020: a73a c03d 7e4c ccbd 1d02 c93d 4c45 853d
00000030: 6388 8c3d 784b 92bc ac1e 49bd 34db fbbd
00000040: 5690 98bd 396c babb 9f5d aa3d 68bd b1bd
00000050: 3f80 183c 2f33 7b3c fb4d b7bd 00e9 d73c
00000060: 3ada 803d faf9 d8bc d307 78bd 8e1f 943d
00000070: d622 c7bd 5032 583d 52a6 843d 0c68 43bd
00000080: b8a6 3dbd 7ec4 c1bd 0aa6 ebbc 47eb 72bd
00000090: cf9e efbd e0f5 15bd 0b1b e83d 1e5c 343c
000000a0: 307d 7cbd 79c3 dabd f70f d8bc 27dc 973d
000000b0: e379 0dbd a19d 1c3c 902c f3bc 1624 b43d
000000c0: f8c3 963d a8a0 3dbd 6d22 c2bd e027 5abd
000000d0: 9f56 dd3b 8e8f e53d c725 d73c 4d65 703d
000000e0: 8b04 95bd 5b6d e23d a803 9abc b4d1 6cbd
000000f0: b3c5 593c ae45 5b3d 08d0 dc3d f1e8 653d
