assets/model/phrase017_speech_model.pth (torch, 145844 bytes, 7 tensors)

conv1.weight f4 [64, 13, 3]
-0.07828385 -0.13604467 -0.111684725 0.017172024 -0.13203706 -0.12739532 -0.09704992 -0.14500904
0.14300567 -0.15329188 0.10009299 -0.10587028 0.14644577 -0.025236543 -0.019995801 -0.012302282
0.04895967 -0.05921692 0.032483872 -0.12591785 0.13757513 -0.032309573 0.16153139 -0.11402868
-0.06405961 -0.106755406 0.076643944 -0.05976967 0.010100143 0.015691208 -0.025245138 -0.14616106
0.09957453 0.16487288 0.029972253 0.007877663 -0.14813077 0.14777842 -0.028703542 0.037457626
0.1597935 0.021858051 0.0635351 -0.15746336 0.046473984 -0.14246894 0.03509355 -0.15136757
0.06993011 -0.11129009 -0.11771343 0.0873021 -0.026436036 -0.14338313 -0.05496267 0.01840302
-0.052034907 -0.11686734 -0.07915133 0.09092493 0.04773244 0.09266193 -0.07957336 0.15887848
-0.108654596 0.06529307 0.14922176 -0.045422815 0.15205164 -0.0028778238 -0.12734105 0.056105852
0.12807426 0.07104563 -0.03914132 0.054439425 0.09402015 -0.13396128 0.09069278 -0.12537402
0.1561578 -0.050919753 -0.106065534 0.06970568 -0.066365525 -0.13029893 0.12704253 0.12953576
0.071317315 0.11138421 -0.13675822 0.07280104 -0.08009847 -0.13158636 -0.0801313 0.02690178
-0.072817504 -0.067033455 -0.12109058 -0.032988023 0.038350828 -0.12145247 -0.13970159 0.038399268
-0.06386103 -0.002812789 -0.006024292 0.018678261 0.15245329 -0.14536875 -0.09318528 -0.04517731
-0.14047396 -0.023560748 0.08864423 -0.1432106 0.15411267 -0.055541076 0.003174486 -0.13133663
0.12514067 -0.048328746 -0.02412739 0.15041636 -0.103558995 0.075686015 -0.111448124 0.09156951
-0.0831486 0.07514437 -0.014747609 -0.07365665 -0.030548254 -0.04129432 0.073739246 0.13886975
-0.04773482 -0.14814557 0.06493089 0.04217535 0.13307917 0.14293864 -0.0824322 -0.08550924
-0.07643645 -0.10385374 -0.10742531 -0.124283336 -0.051909965 -0.003845947 -0.052664362 -0.03489401
-0.0476836 0.098713234 -0.09522284 0.0692517 0.08700432 -0.009440186 0.08411114 -0.13968179
0.1584218 -0.022199463 0.07673217 0.086416155 0.057865802 -0.02500241 -0.13882406 0.09384833
0.15261942 0.019096423 0.05783069 -0.06345258 0.12346354 0.06148075 -0.08703304 0.10474962
0.1179849 0.09615622 -0.058243558 0.02138671 0.09760913 0.031542283 0.042589664 -0.09185879
0.11076979 -0.0014516595 0.10928638 0.04204915 -0.13208438 0.14865611 -0.11187213 -0.041467525
0.037645753 0.035282824 0.1432412 0.12344352 -0.1389521 0.14494929 0.002459289 -0.13228995
0.112613276 -0.02409695 0.14390874 -0.0057462133 -0.08045943 -0.041783553 -0.030105291 0.12013986
0.03557861 0.11920534 0.033166323 -0.006890314 -0.026827397 -0.14914295 0.085450605 -0.09711527
0.023060389 0.12825486 -0.0008949127 0.0968949 0.12373726 0.10869012 -0.077495135 0.055776168
-0.15983325 0.114676245 0.013350142 -0.12928055 0.1385551 -0.028350048 0.005039568 -0.08298936
-0.12673314 0.02128797 -0.13699858 0.01916492 0.018782295 -0.08439812 -0.109540336 0.019661037
-0.051964406 0.007069291 -0.038131062 -0.045945767 -0.14074536 0.081875645 0.048268914 -0.03774206
0.056357145 0.00925372 0.03719569 -0.049728546 -0.080449976 0.08774119 0.0931388 0.11276856
00000000: 4853 a0bd 4b4f 0bbe f6ba e4bd 58ac 8c3c
00000010: b934 07be eb73 02be 1cc2 c6bd 407d 14be
00000020: 1470 123e 8cf8 1cbe 8efd cc3d 84d2 d8bd
00000030: e1f5 153e debc cebc 3cce a3bc 838f 49bc
00000040: ef89 483d 718d 72bd cf0d 053d 9cf0 00be
00000050: 7fe0 0c3e 0b57 04bd 7c68 253e de87 e9bd
00000060: af31 83bd 94a2 dabd 80f7 9c3d 0bd1 74bd
00000070: 127b 253c d98a 803c e4ce cebc 3fab 15be
00000080: bbed cb3d 70d4 283e 5f88 f53c 5011 013c
00000090: 98af 17be 3a53 173e b123 ebbc 2b6d 193d
000000a0: e8a0 233e a80f b33c b11e 823d 133e 21be
000000b0: 815b 3e3d 61e3 11be 41be 0f3d 1a00 1bbe
000000c0: 8437 8f3d 0fec e3bd bd13 f1bd 72cb b23d
000000d0: 6390 d8bc 07d3 12be 8920 61bd eec1 963c
000000e0: 8e22 55bd 2558 efbd 181a a2bd da36 ba3d
000000f0: 1783 433d 8ac5 bd3d 5cf7 a2bd 0ab1 223e
00000100: 4d86 debd 60b8 853d 97cd 183e 460d 3abd
00000110: 6db3 1b3e df99 3cbb b165 02be 40cf 653d
00000120: e625 033e 5f80 913d a652 20bd e0fb 5e3d
00000130: a38d c03d 252d 09be 23bd b93d 0c62 00be
00000140: d5e7 1f3e 3b91 50bd e338 d9bd dac1 8e3d
00000150: a6ea 87bd 156d 05be 7017 023e 06a5 043e
00000160: d00e 923d 681d e43d 590a 0cbe b618 953d
00000170: ab0a a4bd 93be 06be e11b a4bd 1f61 dc3c
00000180: 5821 95bd d648 89bd 57fe f7bd 731e 07bd
00000190: c215 1d3d 13bc f8bd ef0d 0fbe 8d48 1d3d
000001a0: 92c9 82bd c556 38bb 6d67 c5bb 2703 993c
000001b0: b71c 1c3e 8cdb 14be edd7 bebd d80b 39bd
000001c0: 68d8 0fbe 7802 c1bc 1b8b b53d cda5 12be
000001d0: b6cf 1d3e 0a7f 63bd 0a0b 503b 1c7d 06be
000001e0: e024 003e 5df4 45bd cea6 c5bc bf06 1a3e
000001f0: bd16 d4bd 4501 9b3d ea3e e4bd cc88 bb3d
00000200: d049 aabd 4be5 993d f59f 71bc 4cd9 96bd
00000210: 5540 fabc 3c24 29bd 9a04 973d df33 0e3e
00000220: 9685 43bd 79b3 17be 7dfa 843d 0fc0 2c3d
00000230: e845 083e 825e 123e 37d2 a8bd 781f afbd
00000240: b78a 9cbd 45b1 d4bd cd01 dcbd 4388 febd
00000250: 8b9f 54bd 490c 7cbb 96b6 57bd 05ed 0ebd
00000260: e14f 43bd 2a2a ca3d 3104 c3bd d6d3 8d3d
00000270: 522f b23d 03ab 1abc 7642 ac3d be08 0fbe
00000280: 5339 223e a6db b5bc c225 9d3d f4fa b03d
00000290: b104 6d3d dbd1 ccbc e527 0ebe 8e33 c03d
000002a0: 4448 1c3e 1a70 9c3c e0df 6c3d 6df3 81bd
000002b0: 74da fc3d 3dd3 7b3d 613e b2bd f886 d63d
000002c0: 11a2 f13d 8ded c43d cc90 6ebd 2f33 af3c
000002d0: 4ce7 c73d 7b32 013d 8072 2e3d 7620 bcbd
000002e0: 46db e23d 9c45 beba 8ad1 df3d bb3b 2c3d
000002f0: 2141 07be 4f39 183e 371d e5bd dad9 29bd
00000300: 6f32 1a3d b984 103d d2ad 123e f5cf fc3d
00000310: 7649 0ebe 966d 143e 062c 213b 0477 07be
00000320: caa1 e63d f866 c5bc d05c 133e bb4a bcbb
00000330: eac7 a4bd 3b25 2bbd 5f9f f6bc e30b f63d
00000340: e0ba 113d ee21 f43d 69d9 073d 25c8 e1bb
00000350: 21c5 dbbc eeb8 18be ba00 af3d 5fe4 c6bd
00000360: 24e9 bc3c 3e55 033e 9398 6aba d570 c63d
00000370: f669 fd3d ed98 de3d c5b5 9ebd 8d75 643d
00000380: 54ab 23be 61db ea3d 8eba 5a3c 1f62 04be
00000390: 63e1 0d3e 5c3e e8bc f622 a53b 53f6 a9bd
000003a0: 55c6 01be 1c64 ae3c 5b49 0cbe c0ff 9c3c
000003b0: 54dd 993c ecd8 acbd af56 e0bd 2f10 a13c
000003c0: a1d8 54bd 83a5 e73b 512f 1cbd a131 3cbd
000003d0: 8d1f 10be 6bae a73d a0b5 453d 6b97 1abd
000003e0: c0d6 663d ea9c 173c 825a 183d 29b0 4bbd
000003f0: f5c2 a4bd a7b1 b33d 8ebf be3d 34f3 e63d

conv1.bias f4 [64]
0.07138873 0.07465045 -0.048239753 -0.015524404 -0.08606434 -0.011920643 -0.05175522 -0.024722354
0.06345229 -0.001862291 -0.07277984 -0.099417046 0.16546708 0.038755834 -0.114918046 -0.14544006
-0.051476553 -0.08092477 -0.11392554 0.13839805 -0.1045409 0.031126186 0.087369114 0.0983587
0.14178282 -0.012738447 0.11098729 0.037618607 -0.065691225 -0.093752295 0.14530352 0.086892754
0.059674323 0.039611515 -0.09613865 -0.14976794 0.09619974 0.16086487 0.06595679 -0.016483447
-0.07893615 0.051299382 -0.08318037 -0.1423728 -0.015144383 -0.09629646 -0.14285961 -0.12365807
0.032057036 0.014097222 0.045170903 0.11481258 -0.121486865 -0.035176788 0.08062495 0.103131875
0.13558385 -0.14494777 -0.04796815 -0.044530973 -0.052619178 0.0099822255 0.010940591 0.119474426
00000000: 4134 923d 56e2 983d 0c97 45bd 125a 7ebc
00000010: 8042 b0bd cd4e 43bc 48fd 53bd 8986 cabc
00000020: 46f3 813d 1e18 f4ba 990d 95bd 2a9b cbbd
00000030: 3470 293e 70be 1e3d 275a ebbd 3dee 14be
00000040: 14d9 52bd e3bb a5bd cb51 e9bd 38b8 0d3e
00000050: 8a19 d6bd 58fc fe3c 94ee b23d 4970 c93d
00000060: 842f 113e ebb4 50bc 4e4d e33d f815 1a3d
00000070: 1f89 86bd 3401 c0bd 72ca 143e d4f4 b13d
00000080: 106d 743d af3f 223d 57e4 c4bd c45c 19be
00000090: 5f04 c53d c3b9 243e 5a14 873d 4b08 87bc
000000a0: 47a9 a1bd 4d1f 523d 785a aabd 2dca 11be
000000b0: 2520 78bc 1437 c5bd ca49 12be 7140 fdbd
000000c0: 3d4e 033d 09f8 663c 2005 393d dc22 eb3d
000000d0: 1bce f8bd 8915 10bd b21e a53d ce36 d33d
000000e0: 7ed6 0a3e 306d 14be 407a 44bd 1c66 36bd
000000f0: 3587 57bd 7d8c 233c 2a40 333c 02af f43d

conv2.weight f4 [128, 64, 3]
-0.014135494 -0.041287668 0.01061854 -0.0022875133 0.0058327704 0.0354513 -0.031857345 -0.07225591
0.037956785 0.007204422 0.019941917 -0.036210217 0.026825532 0.04606529 -0.001614772 0.031455293
0.054057702 -0.024653245 0.06124077 -0.060379006 0.0057433755 0.01704368 -0.017709395 -0.0059190732
-0.049070142 0.06474505 0.022728205 0.022959203 0.01984682 0.062442616 -0.055431753 -0.05896406
-0.011372083 -0.016633084 -0.019092018 0.05425996 0.0064355563 -0.05162814 -0.051200427 -0.040449373
-0.043368164 -0.034110453 -0.048001222 0.053916257 0.046826363 0.0027534212 0.039221 -0.046519425
-0.06460976 -0.05246363 -0.034051847 0.0031278783 0.05548696 0.027490089 0.03674978 0.0038648855
-0.07669211 -0.0037763645 -0.069268964 -0.048373245 -0.07134287 0.0004569939 -0.021008521 0.037154444
0.014029341 0.049686223 0.055450723 -0.01639565 0.018261481 -0.072274886 -0.07219837 0.04690875
0.05594611 -0.0020912783 0.01722738 0.028575476 -0.07485466 0.012709783 0.031816036 -0.028409371
0.05284503 0.013416085 0.044674173 -0.051399708 0.045638815 -0.04679624 -0.049354017 0.011330314
-0.03529454 -0.025114933 0.015577902 -0.039356377 -0.055582557 -0.05204185 -0.081124954 -0.009808251
-0.0657421 -0.06308854 0.038521484 0.019977452 0.05059173 -0.048629906 -0.018036533 -0.0748801
-0.03416756 -0.053028516 0.0740888 0.07182564 0.037931666 -0.04353268 -0.033752456 -0.068068266
0.03241 -0.063841954 -0.0055210344 0.050893947 0.03968693 0.029984517 -0.03552386 0.047956355
0.03857548 0.011217761 -0.0024149735 -0.022686886 0.015240372 -0.048754256 0.044090543 -0.03977563
-0.05911645 -0.0668442 0.023849094 0.060709443 0.052504987 0.05632036 0.025877776 0.004935191
-0.033585943 0.011136241 0.01800176 0.028245326 -0.054748517 0.03229333 -0.06804754 0.010874892
-0.0015815232 -0.061755423 0.00075882307 0.041506022 0.0038251602 0.059518006 -0.045958597 0.02258541
-0.03036326 -0.03282616 -0.054672852 -0.058904782 0.03785789 0.0020152805 -0.08223069 0.004064932
-0.071922764 -0.07257144 0.0031883956 -0.019396624 -0.057949223 0.011753754 -0.019343419 0.053564817
-0.0064684167 0.005225 0.00555085 0.0007327041 0.03214506 0.060799025 -0.052485775 -0.04374194
0.0041023297 -0.06280912 0.018453078 0.03756421 -0.03953571 0.036818452 0.028204186 0.0020942306
-0.06765112 -0.069504194 -0.07349794 0.0017098669 -0.07390752 0.039227884 -0.024115829 0.058610894
-0.053863656 0.071992114 -0.05166763 -0.039827544 0.06483165 -0.060337782 0.0012965029 0.0038979393
0.073334575 0.050062705 0.03300512 0.017916838 -0.043746848 0.034438744 0.016008288 0.022817677
-0.009762996 -0.0693475 -0.029676788 -0.051793713 0.02367521 0.06791572 0.014731832 0.05791853
-0.054765295 -0.07096415 0.03848599 0.016663214 0.048265524 0.017991403 -0.06939145 -0.014073115
0.016622974 -0.06289131 -0.013136853 0.06786247 0.009109695 -0.013457656 -0.064866595 0.07621126
-0.06489188 -0.0076698805 -0.036459643 -0.014140766 0.03696678 0.034900025 0.06547571 -0.031204851
-0.026939144 -0.0030151426 0.007380046 0.00040686518 -0.006513872 -0.03753034 -0.04181682 -0.028646111
-0.051773872 -0.010182586 -0.023138113 -0.03906894 -0.036742333 -0.052620746 0.025392488 0.052492924
00000000: 8f98 67bc 421d 29bd 63f9 2d3c 1bea 15bb
00000010: d320 bf3b 6235 113d d97c 02bd e8fa 93bd
00000020: 9378 1b3d 1213 ec3b 3b5d a33c 2a51 14bd
00000030: 38c1 db3c f5ae 3c3d c2a6 d3ba 44d7 003d
00000040: 9c6b 5d3d 9af5 c9bc 9ad7 7a3d fa4f 77bd
00000050: ed32 bc3b 309f 8b3c 4b13 91bc c9f4 c1bb
00000060: c6fd 48bd 0e99 843d 8030 ba3c f014 bc3c
00000070: cc95 a23c d4c3 7f3d 680c 63bd 4c84 71bd
00000080: f951 3abc 1b42 88bc dd66 9cbc b13f 5e3d
00000090: 5ce1 d23b 0778 53bd 8ab7 51bd 3eae 25bd
000000a0: d1a2 31bd 67b7 0bbd ee9c 44bd 4bd7 5c3d
000000b0: 00cd 3f3d be72 343b 33a6 203d 278b 3ebd
000000c0: 1f52 84bd 1ae4 56bd f379 0bbd 17fd 4c3b
000000d0: 4b46 633d e532 e13c f086 163d 054a 7d3b
000000e0: c110 9dbd e27c 77bb e3dc 8dbd 0623 46bd
000000f0: 361c 92bd af98 ef39 101a acbc 422f 183d
00000100: 52db 653c c883 4b3d 4c20 633d 2c50 86bc
00000110: 1a99 953c db04 94bd bddc 93bd 6423 403d
00000120: c027 653d d40d 09bb 6f20 8d3c 1e17 ea3c
00000130: 664d 99bd b23c 503c 8851 023d c5ba e8bc
00000140: 0874 583d 24cf 5b3c 44fc 363d 8088 52bd
00000150: c4ef 3a3d 6aad 3fbd 7027 4abd c8a2 393c
00000160: 0291 10bd d5bd cdbc 753a 7f3c 2734 21bd
00000170: 89aa 63bd d629 55bd d724 a6bd c9b2 20bc
00000180: cba3 86bd 9134 81bd b4c8 1d3d c1a7 a33c
00000190: 4639 4f3d 2730 47bd 5ac1 93bc bd5a 99bd
000001a0: 49f3 0bbd 6e34 59bd debb 973d 5219 933d
000001b0: 3c5e 1b3d 534f 32bd 0440 0abd 6067 8bbd
000001c0: 59c0 043d 92bf 82bd cbe9 b4bb 2c76 503d
000001d0: c38e 223d 17a2 f53c 7881 11bd e26d 443d
000001e0: 5301 1e3d b3ca 373c 8844 1ebb d9d9 b9bc
000001f0: c1b2 793c 8bb2 47bd 4998 343d c5eb 22bd
00000200: 1724 72bd 9de5 88bd 2d5f c33c 77aa 783d
00000210: 780f 573d 2eb0 663d a1fd d33c 62b7 a13b
00000220: 6a91 09bd c874 363c 6d78 933c be62 e73c
00000230: fb3f 60bd 0346 043d 825c 8bbd 9a2c 323c
00000240: 1d4b cfba 41f3 7cbd c1eb 463a 3802 2a3d
00000250: 8aaf 7a3b 27c9 733d 153f 3cbd 0a05 b93c
00000260: 5fbc f8bc b974 06bd a4f0 5fbd 2446 71bd
00000270: e010 1b3d cc12 043b 9068 a8bd 1f33 853b
00000280: 3e4c 93bd 56a0 94bd 67f4 503b abe5 9ebc
00000290: 2a5c 6dbd d192 403c 1776 9ebc c866 5b3d
000002a0: 03f5 d3bb 7a36 ab3b e8e3 b53b f112 403a
000002b0: 8aaa 033d 6608 793d 53fb 56bd c02a 33bd
000002c0: d66c 863b 11a2 80bd e92a 973c eedc 193d
000002d0: 32f0 21bd f2ce 163d 770c e73c 5c3f 093b
000002e0: ac8c 8abd 3758 8ebd 1786 96bd 9d1d e03a
000002f0: d35c 97bd 6bad 203d 8f8e c5bc fa11 703d
00000300: 23a0 5cbd 9a70 933d 70a1 53bd 3522 23bd
00000310: 75c6 843d c024 77bd 6bef a93a 9274 7f3b
00000320: 7030 963d 8d0e 4d3d 6030 073d 55c6 923c
00000330: e52f 33bd a40f 0d3d d023 833c 23ec ba3c
00000340: f9f4 1fbc 1006 8ebd bc1c f3bc a525 54bd
00000350: 84f2 c13c 6617 8b3d c85d 713c fb3b 6d3d
00000360: 9351 60bd a755 91bd 7ca3 1d3d 4b81 883c
00000370: 12b2 453d b562 933c 1b1d 8ebd ec92 66bc
00000380: e72c 883c 29cd 80bd f53b 57bc 7bfb 8a3d
00000390: d540 153c 807d 5cbc c7d8 84bd a614 9c3d
000003a0: 09e6 84bd 9f53 fbbb b556 15bd acae 67bc
000003b0: 7a6a 173d 54f3 0e3d 2118 863d 51a1 ffbc
000003c0: 7baf dcbc b399 45bb 50d4 f13b 8550 d539
000003d0: 5272 d5bb 6ab9 19bd 1d48 2bbd 40ab eabc
000003e0: d710 54bd dcd4 26bc 248c bdbc c106 20bd
000003f0: 217f 16bd da88 57bd e803 d03c d202 573d

conv2.bias f4 [128]
-0.022372168 0.07012302 -0.0722548 0.044848714 0.062026627 -0.041243874 -0.071893305 0.053215276
-0.04022013 -0.055238724 -0.035443466 -0.013399222 0.00017848742 0.0052318894 0.013054814 0.046182085
0.032150373 0.053849276 -0.07527748 -0.00909345 -0.044514254 0.045480646 -0.036827534 -0.073733926
0.063411914 -0.043202188 0.046608884 -0.036241934 -0.038716935 -0.031621024 -0.04640947 0.024355354
0.034928493 -0.0677803 -0.007101669 -0.019858403 0.057958838 -0.048741028 -0.044188682 -0.0011922101
-0.016238952 0.018188005 0.005480494 -0.03694454 0.05815851 -0.049037214 -0.033377532 0.011903806
-0.03465145 -0.063481465 -0.04484622 -0.0031179672 0.022055198 0.055393804 -0.027779806 -0.051923934
-0.03847409 -0.046570282 0.042629376 0.012944071 -0.06921353 -0.0077290325 -0.06438609 0.059947513
-0.0063131987 0.061166245 0.07456774 0.04000756 0.010670906 0.0596968 0.03724515 0.022410354
0.04817355 0.024046723 0.007436797 0.03661874 0.032339163 0.009969865 -0.026117187 -0.02943395
0.042871535 0.06251435 -0.05030928 0.0662438 0.039059505 0.049105406 -0.016888259 0.04669149
-0.02259448 0.03387145 0.028914133 -0.055357724 -0.049092025 -0.06519573 -0.0059881043 0.046853546
0.011954259 -0.02634703 0.06547899 0.059670914 -0.0026026918 0.0061348975 -0.0036362738 0.03183084
-0.043429628 0.04738558 -0.036512822 -0.063490815 -0.06962619 0.002853872 -0.025961377 -0.030129008
-0.016602766 -0.022700528 -0.008849452 -0.054162834 0.03555662 0.025122462 -0.049174782 -0.060492072
0.027086647 0.06579131 -0.007391556 -0.03388437 0.066911526 -0.03549622 -0.04533826 0.061203998
00000000: d645 b7bc a89c 8f3d 53fa 93bd 49b3 373d
00000010: a20f 7e3d 56ef 28bd cc3c 93bd 43f8 593d
00000020: ddbd 24bd 0042 62bd 2b2d 11bd 6988 5bbc
00000030: 5a28 3b39 4570 ab3b dce3 553c 6d29 3d3d
00000040: 1cb0 033d 0f91 5c3d 142b 9abd b2fc 14bc
00000050: 9454 36bd ea49 3a3d 78d8 16bd d001 97bd
00000060: 1bde 813d c7f4 30bd f5e8 3e3d 6c72 14bd
00000070: a695 1ebd 0c85 01bd db17 3ebd e184 c73c
00000080: 2e11 0f3d 66d0 8abd 1eb5 e8bb 17ae a2bc
00000090: 3f66 6d3d aca4 47bd 31ff 34bd ef43 9cba
000000a0: 8d07 85bc 03ff 943c b795 b33b 2853 17bd
000000b0: 9e37 6e3d 3fdb 48bd e1b6 08bd 2e08 433c
000000c0: aeee 0dbd 9202 82bd acb0 37bd cf56 4cbb
000000d0: 1aad b43c 9de4 623d 7a92 e3bc 31ae 54bd
000000e0: 0297 1dbd 7bc0 3ebd 249c 2e3d 5e13 543c
000000f0: d3bf 8dbd d343 fdbb dbdc 83bd 868b 753d
00000100: f3de cebb 7589 7a3d f9b6 983d f8de 233d
00000110: 06d5 2e3c a284 743d 5f8e 183d eb95 b73c
00000120: a151 453d a2fd c43c 60b0 f33b 88fd 153d
00000130: 1276 043d a558 233c b6f3 d5bc 781f f1bc
00000140: 109a 2f3d 8607 803d 1b11 4ebd d4aa 873d
00000150: dcfc 1f3d c022 493d 3f59 8abc 933f 3f3d
00000160: 0f18 b9bc cabc 0a3d 55dd ec3c c8be 62bd
00000170: b814 49bd 5785 85bd dc37 c4bb 81e9 3f3d
00000180: ccdb 433c bad5 d7bc d919 863d 7d69 743d
00000190: ec91 2abb 4007 c93b 8d4e 6ebb 0e61 023d
000001a0: 44e3 31bd 6217 423d 788e 15bd 7907 82bd
000001b0: 2d98 8ebd 0708 3b3b f4ac d4bc 1cd1 f6bc
000001c0: 8602 88bc 75f6 b9bc 4bfd 10bc d9d9 5dbd
000001d0: d2a3 113d 9fcd cd3c 7f6b 49bd 89c6 77bd
000001e0: d1e4 dd3c 98bd 863d de34 f2bb 56ca 0abd
000001f0: e908 893d 7c64 11bd 9cb4 39bd 0bb1 7a3d

fc1.weight f4 [64, 128]
-0.06688752 -0.08486467 -0.06564594 -0.0053406134 -0.06387587 0.044606708 0.020271003 -0.055241503
0.04097604 -0.03147948 0.019289233 0.0065720975 -0.048346207 -0.0051590055 0.027991652 -0.031225905
0.054971956 0.067251794 0.057447158 0.07031264 -0.007028155 -0.060930528 0.05191318 0.08236519
0.036049254 -0.052441627 -0.023007892 -0.031956173 -0.025660232 -0.043415774 -0.023943149 -0.052554086
0.08729591 0.014107175 -0.068124786 -0.042597663 0.028919362 0.08011363 -0.0014469624 0.008391172
-0.08712694 -0.031496033 0.05006712 -0.05967369 -0.06817746 -0.059882507 -0.04091517 -0.03113437
-0.034568813 0.06334888 0.00916826 -0.0068131983 -0.0011653006 -0.06941688 0.046591543 0.062965445
0.082640074 -0.053390194 0.057867505 0.07907202 0.007855572 -0.015364252 -0.058313303 -0.05423
0.07561151 -0.07916063 0.06460253 0.06740571 0.08012094 -0.05469858 -0.054480016 0.040377937
-0.0712468 -0.048182014 -0.047326747 -0.050424762 0.014033802 0.02762413 0.06638693 0.08048498
-0.015754469 0.07002691 -0.0006701052 -0.039536063 -0.054157183 -0.043122433 -0.0779187 -0.08499867
0.017364867 0.08169291 -0.021453686 -0.044999853 -0.044963796 0.026842095 -0.023969516 -0.057408072
0.07865707 -0.04694439 -0.027897872 -0.027800713 0.0078048185 0.022229567 0.021946043 -0.014776535
-0.040010814 -0.074930236 0.008739568 -0.06559256 -0.034137428 0.01891362 -0.006930858 0.063760124
-0.052633543 0.08498459 -0.06656964 -0.021818116 0.08825954 0.035405934 -0.072702736 -0.08368399
-0.017485835 -0.032089345 -0.037011992 -0.018482529 0.002818413 -0.053996645 0.009838961 -0.0017399937
-0.0009271428 -0.0540509 0.059076257 -0.03314229 0.049335025 0.031918764 -0.016825423 0.016125776
-0.07276294 -0.06403299 0.00073330104 0.04286795 -0.011262596 0.08751706 0.041089155 -0.022597782
0.04228247 0.071420245 0.028569758 0.055959053 -0.081078894 -0.061054632 0.0847831 -0.06519387
-0.065798365 -0.051012583 -0.08691644 0.0049736127 0.0326776 -0.031742204 -0.06325226 0.066812135
0.004801169 0.0022317246 -0.0796068 0.023330852 0.071761586 -0.03410937 0.060105495 0.08746105
0.0618817 0.06343714 0.0112788305 0.08374607 -0.057153434 0.0456065 -0.06237901 -0.03780779
-0.07234617 0.08252215 -0.034567453 0.07473979 -0.07080296 0.009161748 0.03484641 0.028396405
0.009974264 0.06913931 -0.07326952 -0.021790013 0.015102141 0.06387774 -0.06290855 0.03493551
-0.052284304 -0.047752757 -0.049230214 0.037191384 0.02788508 -0.00089246035 -0.05034167 0.057646535
-0.04547255 -0.054398842 -0.0070453733 0.052048065 0.07465137 0.013641447 0.07362107 0.047654517
0.04377175 0.012691557 0.0076975226 -0.023566537 -0.03065006 -0.00061979145 -0.008872278 -0.07704631
0.08232681 0.04339557 -0.036438953 0.048852406 -0.08697159 -0.07000311 0.011102572 0.068263315
-0.071337685 -0.07095455 0.0118882805 -0.0538744 -0.081515804 -0.083178535 -0.05983705 -0.015570976
0.035676576 -0.050376724 -0.05041367 -0.05394488 -0.019294865 -0.06529147 -0.013335124 -0.061593257
0.04702594 -0.03469818 -0.028197262 -0.008686751 0.00066097826 0.0640677 -0.058949564 -0.06830486
-0.040560547 -0.040674668 -0.04217771 0.07178623 -0.033074424 0.044246353 -0.038512073 -0.07232009
00000000: 53fc 88bd 87cd adbd 6171 86bd 5000 afbb
00000010: 5ad1 82bd 86b5 363d 600f a63c ea44 62bd
00000020: 7ed6 273d a1f0 00bd 7404 9e3c c05a d73b
00000030: ac06 46bd e00c a9bb c04e e53c 78cd ffbc
00000040: 462a 613d 4fbb 893d b64d 6b3d 1300 903d
00000050: 704c e6bb 4a92 79bd eaa2 543d 15af a83d
00000060: 62a8 133d 08cd 56bd 0c7b bcbc 7ae4 02bd
00000070: 6835 d2bc bdd4 31bd 6c24 c4bc f442 57bd
00000080: 33c8 b23d c821 673c 0285 8bbd e37a 2ebd
00000090: 4ce8 ec3c 9d12 a43d 00a8 bdba 207b 093c
000000a0: 9c6f b2bd fc01 01bd 2e13 4d3d 666c 74bd
000000b0: a0a0 8bbd 5c47 75bd aa96 27bd 820d ffbc
000000c0: 0798 0dbd 0fbd 813d 7836 163c 4041 dfbb
000000d0: 00bd 98ba 702a 8ebd c6d6 3e3d 07f4 803d
000000e0: 333f a93d adaf 5abd 7a06 6d3d 83f0 a13d
000000f0: a8b4 003c 58ba 7bbc eed9 6ebd 4720 5ebd
00000100: 35da 9a3d f81e a2bd 554e 843d 010c 8a3d
00000110: 7316 a43d 9e0b 60bd 7026 5fbd 5663 253d
00000120: d8e9 91bd 815a 45bd b1d9 41bd 328a 4ebd
00000130: 08ee 653c 004c e23c dff5 873d 4fd5 a43d
00000140: 840f 81bc 456a 8f3d 00aa 2fba 91f0 21bd
00000150: ecd3 5dbd 26a1 30bd d793 9fbd c813 aebd
00000160: c440 8e3c 9d4e a73d a4bf afbc c451 38bd
00000170: f52b 38bd f4e3 db3c b85b c4bc ba24 6bbd
00000180: f516 a13d c348 40bd 148a e4bc 52be e3bc
00000190: 90bf ff3b c81a b63c 30c8 b33c 4819 72bc
000001a0: 61e2 23bd 0675 99bd 6830 0f3c 6455 86bd
000001b0: b0d3 0bbd bcf0 9a3c 401c e3bb ab94 823d
000001c0: 4596 57bd 670c ae3d aa55 88bd e8bb b2bc
000001d0: 6bc1 b43d d005 113d 2ce5 94bd 8362 abbd
000001e0: 743e 8fbc 1e70 03bd e399 17bd ac68 97bc
000001f0: 20b5 383b 962b 5dbd 9833 213c 8010 e4ba
00000200: 800b 73ba 7a64 5dbd f2f9 713d 36c0 07bd
00000210: 8613 4a3d 40bd 023d 78d5 89bc 341a 843c
00000220: bc04 95bd ba23 83bd 003b 403a 4e96 2f3d
00000230: c086 38bc 253c b33d 1a4d 283d fc1e b9bc
00000240: 6230 2d3d c744 923d 200b ea3c 5235 653d
00000250: b10c a6bd 6c14 7abd c3a2 ad3d 5d84 85bd
00000260: 4bc1 86bd 92f2 50bd 3f01 b2bd b0f9 a23b
00000270: f2d8 053d 1d04 02bd 678a 81bd cdd4 883d
00000280: 2053 9d3b 2042 123b e408 a3bd 5820 bf3c
00000290: bdf7 923d 44b6 0bbd 2e31 763d c71e b33d
000002a0: aa77 7d3d 55eb 813d d8ca 383c 0f83 ab3d
000002b0: b819 6abd e2cd 3a3d 2281 7fbd 57dc 1abd
000002c0: 3b2a 94bd 5f01 a93d 9a96 0dbd 2d11 993d
000002d0: 2401 91bd 281b 163c 1cbb 0e3d 949f e83c
000002e0: 186b 233c e998 8d3d 550e 96bd f880 b2bc
000002f0: f86e 773c 55d2 823d 33d6 80bd 8a18 0f3d
00000300: 1128 56bd 6598 43bd 9fa5 49bd fe55 183d
00000310: 406f e43c 00f4 69ba 1133 4ebd c61e 6c3d
00000320: 6d41 3abd 52d1 5ebd e0dc e6bb 5a30 553d
00000330: d1e2 983d 6080 5f3c a5c6 963d 6231 433d
00000340: 024a 333d 40f0 4f3c 803b fc3b 9c0e c1bc
00000350: d615 fbbc 8079 22ba 085d 11bc 75ca 9dbd
00000360: f59a a83d 8ebf 313d 0341 15bd 7619 483d
00000370: 291e b2bd ca5d 8fbd 90e7 353c a3cd 8b3d
00000380: 7e19 92bd 9e50 91bd 10c7 423c 67ab 5cbd
00000390: c2f1 a6bd 8259 aabd b217 75bd 681d 7fbc
000003a0: 9a21 123d d357 4ebd 907e 4ebd 4ef5 5cbd
000003b0: 4410 9ebc 89b7 85bd 907b 5abc 3649 7cbd
000003c0: 469e 403d ae1f 0ebd f2fd e6bc e052 0ebc
000003d0: 8045 2d3a ed35 833d 1975 71bd 6be3 8bbd
000003e0: d122 26bd 7b9a 26bd 89c2 2cbd a904 933d
000003f0: 0c79 07bd aa3b 353d d6be 1dbd 8e1c 94bd

fc1.bias f4 [64]
0.040364332 -0.0027865916 -0.06684854 -0.06357172 0.029909128 -0.030104483 -0.08772828 0.07390503
0.07836819 0.060611166 0.0043669045 -0.012264311 0.010917909 0.030871117 -0.011483142 0.022995388
-0.044135477 0.011414908 -0.04958995 0.0076318416 0.041779242 0.0331457 0.07168412 -0.04313978
0.026682012 0.015400601 0.017783722 -0.03475053 -0.06666562 -0.036027934 0.05733285 -0.06532795
-0.0144593455 0.056770436 0.041076176 -0.023965716 -0.028784726 -0.04673358 -0.012249523 -0.059064846
0.0718403 -0.086962774 0.023849458 -0.024547623 -0.08897992 0.023044955 -0.037638236 -0.06707536
-0.05010296 -0.03045183 0.007902065 -0.04486977 -0.056264535 -0.049221728 0.069942355 0.024355117
-0.031118598 0.0558403 0.07173005 -0.07275062 -0.028581569 -0.02042045 -0.04272408 -0.044638723
00000000: 1255 253d 409f 36bb e3e7 88bd e431 82bd
00000010: fd03 f53c ad9d f6bc e2aa b3bd 855b 973d
00000020: 807f a03d 6a43 783d 4018 8f3b 40f0 48bc
00000030: 08e1 323c 6de5 fc3c ca23 3cbc d360 bc3c
00000040: 67c7 34bd 9805 3b3c d51e 4bbd 8714 fa3b
00000050: b620 2b3d c9c3 073d 20cf 923d 57b3 30bd
00000060: 3c94 da3c cd52 7c3c 2baf 913c 9256 0ebd
00000070: fc87 88bd 0792 13bd dad5 6a3d a9ca 85bd
00000080: e4e6 6cbc 1e88 683d 7e3f 283d c053 c4bc
00000090: f2cd ebbc b66b 3fbd 39b2 48bc fbed 71bd
000000a0: 0221 933d 8a19 b2bd f05f c33c 1918 c9bc
000000b0: 1b3b b6bd c6c8 bc3c 8d2a 1abd ce5e 89bd
000000c0: c338 4dbd 1e76 f9bc aa77 013c 5dc9 37bd
000000d0: a475 66bd b99c 49bd f03d 8f3d 6284 c73c
000000e0: 6eec febc ccb8 643d 34e7 923d 47fe 94bd
000000f0: e523 eabc ca48 a7bc 72ff 2ebd 18d7 36bd

fc2.weight f4 [1, 64]
0.0033386946 0.04276243 -0.10064882 -0.059541408 -0.09893238 -0.07771429 0.05563602 0.10221726
-0.074632585 -0.064463034 -0.017126683 0.024830475 0.09935197 0.05292028 0.075962424 0.018764982
-0.013623142 0.0071692765 -0.0599621 -0.0013999832 0.11324094 0.06790519 0.07844817 0.05044849
-0.12499951 -0.045029648 -0.048788525 0.014762014 0.04212898 -0.07888729 0.11895394 -0.037064284
0.0026338124 -0.0137967765 0.061512563 0.0779281 0.101855546 0.039285623 -0.08287188 -0.066439904
-0.07191906 -0.09454395 0.11982043 -0.077508874 -0.07309975 -0.010022245 0.11602767 0.026873855
0.025940895 0.07815787 -0.038945522 -0.04940675 0.008742956 0.08119983 -0.020647166 0.084569454
0.031087887 -0.06851391 -0.052598692 -0.075201824 -0.02368996 0.0038655177 -0.10062277 0.01764979
00000000: 00ce 5a3b a827 2f3d f820 cebd b1e1 73bd
00000010: 0f9d cabd ab28 9fbd 98e2 633d 4857 d13d
00000020: f8d8 98bd 3205 84bd 424d 8cbc 4869 cb3c
00000030: 0c79 cb3d efc2 583d 3092 9b3d 05b9 993c
00000040: 9933 5fbc 40ec ea3b d29a 75bd a47f b7ba
00000050: deea e73d e011 8b3d 6fa9 a03d 13a3 4e3d
00000060: beff ffbd 0271 38bd 7ad6 47bd 60dc 713c
00000070: 708f 2c3d a98f a1bd 209e f33d b8d0 17bd
00000080: 0a9c 2c3b e00b 62bc 99f4 7b3d c598 9f3d
00000090: a499 d03d f6e9 203d bbb8 a9bd a511 88bd
000000a0: 4d4a 93bd 42a0 c1bd 6a64 f53d f9bc 9ebd
000000b0: 52b5 95bd 5834 24bc ea9f ed3d 8f26 dc3c
000000c0: 0082 d43c 3c11 a03d 5785 1fbd bb5e 4abd
000000d0: 9e3e 0f3c 194c a63d 3f24 a9bc c032 ad3d
000000e0: 06ac fe3c 0551 8cbd ba71 57bd 6a03 9abd
000000f0: 7211 c2bc a054 7d3b 5013 cebd 4b96 903c
