assets/model/phrase003_speech_model.pth (torch, 145844 bytes, 7 tensors)

conv1.weight f4 [64, 13, 3]
00000000: 4861 fb3b 5589 0d3e 080d d43d d11c 393d
00000010: 7305 b9bd b9b8 cbbd 79ef 0bbe 66a8 13be
00000020: 7aba ff3d f16c 803d 489d 413d 7efb 083e
00000030: 69b5 14be 57be 0b3e 6b1e 2fbd c9a3 d03c
00000040: 2777 043e 53e2 a5bd e413 56bd 9403 08bd
00000050: cad2 cdbd 8fd8 2e3d 35ac cf3d 40e4 203d
00000060: fe58 0bbe ba5a 91bd 990e b2bd 0f2a 6fbd
00000070: c473 bdbd 7905 c83d d0aa 943c 21dc a9bd
00000080: e10a 79bd d1b7 1a3c a88a 4ebd 4dcf c73d
00000090: 88dc 2d3c bca3 8b3d ac9a 9d3d bf5c dc3d
000000a0: 2c75 e9bd 1b2d 11be e500 0f3e a15b d1bd
000000b0: fe5d 6abd 39f9 6cbd 1dd0 923c 163f 17be
000000c0: 203e b73d 1174 04be e986 21be a62b 063e
000000d0: ee54 8c3d 126f d43d cf92 c1bb 9c9b d8bd
000000e0: 4acf a7bc 8aff 5dbd 73fa 153d d089 ba3d
000000f0: a9b6 0a3e 2289 bfbd 0c40 e53d 46de 5cbd
00000100: 9530 ed3b f4d5 723d 6b6b 0c3e 18ec 023e
00000110: 6466 03be 055e 25bc db39 04be 01aa c93d
00000120: 0e8b 003e 9331 2f3c cf3b 143e 05ad 06be
00000130: f5fe 51bd 4fca eebc b50b 08be 8d4d 07bd
00000140: bdda 823d 4496 a83d 7eb4 a23d 9ed8 ec3c
00000150: d69b fabd ca8d 7b3d f98b 283e 1546 be3d
00000160: 3a58 063e cdbe 063e e290 01be 583c 72bd
00000170: 76de 1cbe 8f35 b33d 79a2 57bd 4635 1f3d
00000180: 1a76 043d a22b 20be ac50 7dbd ea11 6bbc
00000190: da51 cd3d 95a4 163e effd bf3d eb9d cf3d
000001a0: ca69 9b3d 033a cc3c 754c abbb c9e1 583d
000001b0: 73ab 8b3d 99ba f83c 6221 60bc 0db5 493d
000001c0: 2d71 00be bc7c 093e 4528 c9bc 973a 68bd
000001d0: 632d 1a3e c457 773c 5730 db3d ff6a febb
000001e0: 5477 f5bd f9b2 253e 05cd 2abd a5d3 163e
000001f0: 933d e9bb 6637 023e 8e89 a83d 4996 c4bd
00000200: 6188 0d3e f1cf 19bd 4cfd 62bd 6918 163e
00000210: 4fb8 0e3d a538 163e bbdb d83c f252 82bd
00000220: 76da df3b 9681 2fbd 1c53 903a 11f5 9b3d
00000230: ad86 023d c06f 1b3c 1a93 083e 471a 4abc
00000240: 6979 0f3e 40a2 11be b826 bb3b a7f4 5cbd
00000250: 2d91 93bd 15b3 72bd a091 96bd 55c3 aebd
00000260: 58b1 9bbc 8a61 c7bd 6cf6 dabc adaa ebbd
00000270: d566 25bd 2e6f 4bbd e4e7 d2bd 4305 22bc
00000280: 289d 10be 218a 113e fd40 dd3d 0bf8 613d
00000290: 2e8e 023e 291c 843d 9abd 0e3d 362a ddbd
000002a0: f789 9b3d 94b1 953d dede c03c 5a00 e8bd
000002b0: 3ca1 63bd 6f22 c43c 8768 a03c e73d 37bd
000002c0: 10d6 10bd 8081 05be fe2e 16be 098d ed3b
000002d0: ba06 12be 8f15 463a e3f3 213d 956c 54bd
000002e0: 1e39 c23b 81d4 a33d 9db2 3bbd b6e7 0b3e
000002f0: d008 1a3d 0fe2 8f3d debd f93c c656 95bd
00000300: beec b03a 858b 80bd 45e5 b13b de40 38bd
00000310: c62a 56bd 650e 64bb f54e 83bd 3c9f a0ba
00000320: f120 113d 6350 b2bd 1f37 9abb 694f 923d
00000330: 03bd 473d a979 92bd d78c 5ebd f846 fa3d
00000340: 0f00 f43d 3764 1c3e e11e 63bd 086c 0a3e
00000350: 8416 103d 18a7 aa3b cda0 8e3d 069c 6b3d
00000360: e4c8 1bbe 4ea4 1dbe fb08 42bc cae8 1bbe
00000370: 76b2 043e 8649 90bd bb86 b63d 49f6 53bd
00000380: 4d83 873c 52da d8bd 6e21 44bd e49f c43d
00000390: 81cf 153d 56d4 063e 567f 00be 4e84 87bd
000003a0: acb0 bcbd 566d d3bc a274 de3d bc53 653d
000003b0: 5226 81bd 42a1 053c e9fb 4f3d af5c 833c
000003c0: 6dc2 23be 9e1c 4abd acac 80bd 2fb1 193e
000003d0: 501f 04be ad5e 2c3e dd6d d93d 7906 a53d
000003e0: b0de 5c3d d7b7 0a3e 1d16 8b3b cf79 0e3e
000003f0: 2668 26be 4e7e 26bc 6e44 c8bd ab02 093e
0.007671509 0.1382192 0.10354048 0.045193497 -0.090342425 -0.099473424 -0.1366557 -0.14419708
0.124867395 0.06270779 0.047269136 0.13377187 -0.14522327 0.13646828 -0.04275362 0.025468724
0.12936078 -0.080998085 -0.052265063 -0.033206537 -0.100499704 0.042686995 0.10140268 0.039280176
-0.13608167 -0.07097383 -0.086941905 -0.05838972 -0.09250596 0.09766669 0.018147856 -0.082939394
-0.06080139 0.009443239 -0.0504252 0.09756336 0.010611661 0.06818339 0.07695517 0.107598774
-0.11399302 -0.14177363 0.13965185 -0.10222555 -0.057218544 -0.057854865 0.017921502 -0.14770159
0.08947396 -0.12934901 -0.1577412 0.13102588 0.068521366 0.103727475 -0.0059073935 -0.10576555
-0.020484585 -0.05419878 0.0366158 0.09108317 0.13546242 -0.09352328 0.111938566 -0.053922914
0.0072384574 0.059286073 0.13712852 0.12785375 -0.12832028 -0.010093217 -0.12912695 0.09846879
0.12553045 0.010692972 0.1447594 -0.13151939 -0.051268537 -0.029149203 -0.13285716 -0.033032943
0.06389377 0.08231786 0.079445824 0.028911885 -0.122367546 0.061414517 0.16459645 0.09290711
0.13119593 0.13158722 -0.12652925 -0.05913958 -0.15319237 0.0875045 -0.05264518 0.038869165
0.032339193 -0.15641645 -0.061844513 -0.014347533 0.100253776 0.1471122 0.09374606 0.10137542
0.07588537 0.024930006 -0.0052276202 0.0529497 0.06819811 0.030362414 -0.013679834 0.04924493
-0.12543173 0.13426489 -0.024555335 -0.0566965 0.15056376 0.015096609 0.107025795 -0.00776422
-0.11985651 0.16181554 -0.041699428 0.14729173 -0.007117936 0.12716445 0.082293615 -0.09598977
0.13821556 -0.037551824 -0.055417344 0.14657749 0.03484374 0.14670046 0.026471963 -0.06363477
0.0068314625 -0.042848192 0.0011011097 0.07615102 0.031866718 0.0094870925 0.13337365 -0.012335367
0.14011158 -0.1422205 0.0057114027 -0.053944256 -0.072054245 -0.059252817 -0.073519945 -0.085333504
-0.019005463 -0.09735401 -0.026728831 -0.11507163 -0.04038127 -0.049666576 -0.10298136 -0.00988895
-0.1412245 0.14212848 0.10803411 0.055168193 0.1274955 0.064506836 0.034848787 -0.10799067
0.07594674 0.07309261 0.023543771 -0.11328192 -0.055573687 0.0239422 0.019581093 -0.04473677
-0.035360396 -0.13037682 -0.14666364 0.0072494787 -0.14260378 0.0007556313 0.03953923 -0.051861364
0.005927219 0.07999516 -0.045824636 0.1366261 0.03760606 0.07025539 0.030486044 -0.07291941
0.0013498289 -0.06276611 0.0054289424 -0.044983737 -0.052286886 -0.003479862 -0.06411544 -0.0012254487
0.035431806 -0.08706739 -0.004706278 0.071440525 0.04876424 -0.07152111 -0.054333534 0.122205675
0.11914074 0.15272604 -0.05544937 0.13517773 0.035177723 0.0052079074 0.06964264 0.057521842
-0.15213352 -0.15394709 -0.011842961 -0.1522552 0.12958702 -0.070452735 0.089124165 -0.051748548
0.016542101 -0.10588516 -0.047883444 0.09600809 0.036574844 0.13166937 -0.12548575 -0.06617032
-0.09213385 -0.025808971 0.1086209 0.05598806 -0.06306137 0.008156123 0.05077735 0.016035406
-0.15992136 -0.049343698 -0.062829345 0.15008996 -0.1290257 0.16832991 0.10616658 0.08057875
0.05392331 0.13546692 0.0042445795 0.13913654 -0.16250667 -0.010161949 -0.09778677 0.13379924

conv1.bias f4 [64]
00000000: b6f9 7ebc a1cc e6bd 23e2 ba3d a8fe ff3d
00000010: 30b6 943d 5aad ec3d 5f40 dabd 44d6 003e
00000020: 5003 a63a cf27 1e3e 0ba0 7c3d dee5 cfbc
00000030: 3dab 973d fa99 163e b00e 16be 2fc0 30bc
00000040: d157 0cbe 0645 523d 785e b33d 4686 10be
00000050: 4158 193e 32a4 023e 149a 073e 4339 963d
00000060: fdfc 0bbe 3529 d7bd 9da0 6e3c ebee c3bd
00000070: ec60 fb3d 9508 3d3c 65b4 ae3d fcea dfbd
00000080: 19f8 023a 83a8 c0bd fba1 c4bd 3d45 5bbc
00000090: 60c4 97bc 3ec3 e7bd 45af ec3c bb63 d3bd
000000a0: 06dc c6bb d5ea 0abe c11c 83bd 903b e53d
000000b0: 22ad 1d3c f4f6 e03c 2007 243d 5024 4a3c
000000c0: 695f 18bd 4ea6 48bd 9fff a7bc b9e5 20bd
000000d0: f0ec 20be c3cd fb3d c79c f03d 7f25 ccbc
000000e0: ac16 b93d 5809 da3d 6294 bcbd 5cd6 ad3d
000000f0: b0fa 18be 2f49 16be 9fc7 153d 9c98 38bd
-0.015562465 -0.112694986 0.091251634 0.12499744 0.07261312 0.11556502 -0.10656809 0.12581736
0.0012665782 0.15444873 0.061676066 -0.025378164 0.07405708 0.14707175 -0.1465404 -0.010788008
-0.13705374 0.051335357 0.08758253 -0.14113721 0.14975072 0.12757948 0.1324237 0.073351406
-0.13670726 -0.105059065 0.01456466 -0.09567054 0.12274346 0.011537691 0.08530501 -0.109334916
0.0004996076 -0.09407141 -0.09601208 -0.013383207 -0.018526256 -0.11316536 0.028892169 -0.103217565
-0.0060687093 -0.13566144 -0.06401969 0.11193001 0.009623798 0.027461506 0.040045857 0.012337759
-0.037200365 -0.048986726 -0.020507632 -0.03928158 -0.15715384 0.12295105 0.11748653 -0.024920223
0.090375274 0.106463134 -0.09207989 0.084881514 -0.1493938 -0.14676355 0.036567327 -0.045067415

conv2.weight f4 [128, 64, 3]
00000000: dac0 e13c fc6f 61bd 71a7 683d 8582 ce3c
00000010: 6acc 6bbd 9e13 643d ef19 ef3b 17d1 92bd
00000020: 26ce 153d d8a7 563d 6666 93bb 9e1f 203d
00000030: 01e3 26bd 7462 f2bb 8930 623d 31dd 103c
00000040: 42f1 34bd 21c7 5e3d 6fd8 27bc 3498 a73c
00000050: 26b1 efbb 3f07 323d ac48 443d 9325 8cbd
00000060: 642d 873c bf7a ca3c b35a c0bc 8112 92bd
00000070: c510 46bb 491c 2e3d 4a14 3fbd 802e 7d3c
00000080: 01e6 403d 6e5c 503c a74e 11bd 072d 8f3c
00000090: 06f8 3c3b bac4 e43b a90f 9fbd 9370 8dbc
000000a0: 29ae 1cbd dc60 7bbd 66b4 243c 5e0f 8dbd
000000b0: 99e4 033d e940 933c d0d3 80bd 3707 0c3d
000000c0: a17f 793d 92c7 7e3d fd04 a1bd 047b 25bd
000000d0: bbad 25bd f72a 13bb 5723 9cbd 07fd 19bd
000000e0: 64fd 3f3d 7b52 67bd 73ff 3ebd e92d 9cbd
000000f0: a9c5 433c 0c07 a3bd aa1b 3ebd 7343 1f3d
00000100: 78bd 633d abd7 ebbc 43a1 a4bc cf1c 0d3d
00000110: f3d2 a2bc 1993 d53b 828e 76bc 2504 54bd
00000120: 669d 9a3c a424 653d f27d 2a3b a49f 903c
00000130: e2d8 ef39 ccf8 db3b fce9 57bd 93eb 513d
00000140: c90e e3bc f260 db3c 27b7 70bd 629c 6a3d
00000150: 0a75 22bc b6f0 42bd 95d1 433d d75b c03c
00000160: e4bf f53b 61d4 44bc 5744 a0bc 016f ed3b
00000170: c1dc c7bc c4a5 92bd 18ad 01bd b464 6bbd
00000180: f6c0 313c 2af2 963b 639c d63c 12b4 793d
00000190: 544d 75bd 55d6 043d 5a70 c03b a66d 7cbd
000001a0: bb17 8aba 1785 7e3c c228 aa3c 35fd 82bb
000001b0: 8b76 01bd 7001 9ebc b9e3 193d 8bf3 75bd
000001c0: a02a e1bb 67b2 67bd 751c 12bd 2012 11bd
000001d0: 6be9 b53c b6b9 24bd 681d d73c d80e 5dbd
000001e0: eaa9 4bbd b2a9 92bd 8c2d 7cbd 2d81 84bd
000001f0: 0fb3 8ebd b044 e6bb c1fa 6abd ef4b a33c
00000200: d53f 9fbd 175a 7c3d d77f 86bd ce21 593d
00000210: 17f3 0cbb ddad 07bc 9d6b 4f3d 0c23 7f3d
00000220: eda0 6d3d 832a aebc e68b 473d c166 483d
00000230: 8607 9e3c 8634 3abd f9fd 4cbd 189d 82bd
00000240: 9f85 f63c 140e 123c e306 f93c 9420 30bd
00000250: b835 0fbc 93a1 b63c 35d2 033d 53ba 3b3d
00000260: d4c6 84bd 5bf5 19bd 9182 34bd 38f2 78bd
00000270: 531e 6cbd 47e9 193d 1a47 2cbd 8c10 9e3b
00000280: a8fa 40bd f111 48bd 6ed1 283d f02b 2a3c
00000290: 9174 a7bc a9cb f8bc bec5 fd3c ca79 023d
000002a0: 60f5 373d c7cb 94bd d6fd fcbc 1187 aabc
000002b0: b64f 3f3d 3259 62bd 1bf2 8fbd 410b 503c
000002c0: 95f5 153c 1075 653d 4409 1b3c 609a 43bd
000002d0: bbc2 403b 92ac 6dbd 775a 2cbd 6bfe cfbc
000002e0: 4d08 d83c f681 753d 6198 8abd 5a80 543c
000002f0: 3112 2f3d f6c2 88bd d480 b9bc f844 9bbd
00000300: 109f f8bc 8183 9bbd 9144 2dbd 26a6 08bd
00000310: 7848 9dbd 2c3a 33bc c032 93bd c641 033b
00000320: 57cd d13b 6ad7 8fbd c19d 873b 12ec 5e3b
00000330: 6540 9a3c 2e48 82bd 62e8 743d 5230 adbc
00000340: 0656 27bd 3f62 15bd 605c 023c 254f b0b9
00000350: 7e05 ae3c 0809 793a 4a5c c93c 1a51 30bc
00000360: fa83 b43c 4218 893c 0d12 de3c 9418 ca3b
00000370: 9781 9f3c b32c 1fbc a5d6 ccbc 7f3c 493d
00000380: a4e4 fa3c 8735 54bc 0e93 80ba 7a5a ddbc
00000390: 7f6a 53bd 66c0 3c3d 22ec 2f3c 8c06 9e3b
000003a0: 69ad 44bd 81b5 1a3d 375f 51bc bdc9 543d
000003b0: a813 0bbd 3455 2d3d 0945 91bd d5d0 e63c
000003c0: 8770 63bd 149f 943c 3a9a d8bc 4c90 a5bd
000003d0: 6664 62bc 157a 80bb 9621 2f3d d03c 65bc
000003e0: 6164 1337 b542 fa3c 19d1 1c3d 434d 20bd
000003f0: e17f 9cbd 7691 02bd 4ee5 3bbd 6323 5f3d
0.02755778 -0.055038437 0.05680031 0.025208721 -0.05756799 0.05568277 0.0072967927 -0.07168787
0.03657355 0.052406162 -0.004498291 0.039092652 -0.04074383 -0.0073969904 0.055222068 0.008841799
-0.044175394 0.054389123 -0.010244473 0.020458318 -0.007314819 0.04346394 0.047920868 -0.06843104
0.016501136 0.024716733 -0.023480749 -0.071324356 -0.0030222398 0.042507444 -0.04665021 0.015452981
0.04709435 0.012717349 -0.0354754 0.017477525 0.0028834357 0.0069814594 -0.07766659 -0.017265594
-0.03825203 -0.06137167 0.010052776 -0.06887697 0.03220043 0.017975288 -0.062904 0.034186568
0.060912732 0.062202044 -0.078622796 -0.04040052 -0.040448885 -0.002245603 -0.07623928 -0.03759482
0.04687251 -0.056475144 -0.046630334 -0.07625944 0.011948981 -0.079603285 -0.0464131 0.038882684
0.055600613 -0.028789362 -0.020096427 0.034451302 -0.019875979 0.0065177795 -0.015048625 -0.051761765
0.018873882 0.055943146 0.002601501 0.017654248 0.00045747223 0.0067130085 -0.05271338 0.05125005
-0.027717011 0.026779626 -0.058768418 0.057278045 -0.0099156 -0.04759284 0.047807295 0.023481293
0.007499682 -0.012013526 -0.019563837 0.0072458987 -0.024397256 -0.071605235 -0.031659216 -0.057469085
0.010849228 0.004606505 0.026197618 0.060962744 -0.0598882 0.032430965 0.0058727683 -0.061628006
-0.0010535637 0.015534661 0.020771388 -0.00399747 -0.031607192 -0.019287795 0.03757069 -0.060046714
-0.0068715364 -0.056566622 -0.03567167 -0.035417676 0.022206029 -0.04021617 0.02625914 -0.053969234
-0.04972259 -0.07161273 -0.061566874 -0.06469951 -0.069677465 -0.007027231 -0.057368044 0.019933669
-0.07775847 0.061609354 -0.06567352 0.053010754 -0.0021507198 -0.008281198 0.050639737 0.062289283
0.0580148 -0.021260506 0.048717402 0.04892612 0.019290697 -0.045460247 -0.050046895 -0.063776195
0.030093012 0.008914489 0.030398792 -0.04299982 -0.008740835 0.022293841 0.03218289 0.04583199
-0.06483236 -0.037587505 -0.04406983 -0.060777873 -0.057646107 0.037575986 -0.042059995 0.00482375
-0.047114044 -0.048845235 0.041215353 0.010386452 -0.020441325 -0.03037055 0.03097808 0.03185443
0.044911742 -0.0726543 -0.030882757 -0.020816358 0.046706878 -0.055260845 -0.070286 0.012697996
0.00915279 0.056019843 0.009462658 -0.047754645 0.0029412943 -0.058025904 -0.04207846 -0.02538987
0.026371146 0.059938394 -0.06767345 0.0129700545 0.042741958 -0.06677811 -0.022644438 -0.07581514
-0.030349284 -0.07593442 -0.04230172 -0.033361576 -0.07679838 -0.010939162 -0.07187414 0.0020028218
0.0064026522 -0.07023509 0.004138679 0.003401522 0.018829534 -0.063614234 0.05979193 -0.021141205
-0.040853523 -0.036470648 0.007956594 -0.00033628303 0.021242853 0.0009499942 0.02458014 -0.010761524
0.022035588 0.0167352 0.027108217 0.0061674807 0.019470973 -0.009715247 -0.025004694 0.04912996
0.030626602 -0.012952215 -0.0009809451 -0.027020682 -0.051615234 0.046081923 0.010737451 0.004822558
-0.04801694 0.037770752 -0.012779049 0.051950205 -0.033954293 0.042317584 -0.070932455 0.02817575
-0.055527236 0.01814226 -0.026440728 -0.08084163 -0.013817882 -0.0039208033 0.04275664 -0.01399155
8.785254e-06 0.030549387 0.03828535 -0.039136183 -0.076415785 -0.031877004 -0.04587298 0.054477107

conv2.bias f4 [128]
00000000: af61 3dbd 63f2 f53b 2c80 173d dca5 75bc
00000010: 38a4 653c 58a1 9dbc e647 93bd fb29 063d
00000020: a148 25bd 25af ecbb df4f 383c 680a 1cbd
00000030: bf95 02bd 2e95 f13c 35fe e5bc 8cd3 0dbd
00000040: 924d 3bbc 916d adbc 9534 8fbd 7502 4cbd
00000050: cff8 793d 7a20 4e3d bee0 933c cca9 2d3d
00000060: 272b c33c 9691 45bd 8c2d dd3c d418 09bd
00000070: cb36 8bbb b99f 59bd 0683 623d db60 803b
00000080: 6497 843d 9aff 593d 3d84 44bd a882 0439
00000090: 629f 083d 1962 dc3c bb8b 13bc 7926 6ebc
000000a0: f89e 53bd cf08 3fbc 9813 7ebd e5e4 6abc
000000b0: e4c7 343d c541 80bc 9300 753d d368 97bd
000000c0: 9194 43bd cc5a 60bc ed08 e8b9 5f4b 25bd
000000d0: 7130 61bd a9cd 273d 7af1 92bd 861c 82bd
000000e0: fb25 4bbd 166a 1e3d 469e 243c 67d5 1d3d
000000f0: 9424 463d 6d2d 46bb 599b 00bd d14a 63bd
00000100: 9c6d 8c3d 6381 223d af01 54bd 988e 083d
00000110: e6db 703c 58bf 7fbc 63d3 eabc b03b 143d
00000120: 8d6a 7e3d 0555 833d e149 62bd 6ea5 98bd
00000130: 32da c1bc 7248 08bd 5253 313d c380 8cbd
00000140: 4054 8bbd c22d 45bb 096b cfbc 8500 18bd
00000150: ae2b a73c f44c 5b3d 5f44 2d3d 91e5 873b
00000160: cdfc ddbb ff9b 17bd e75d 17bd 92dd 443d
00000170: fe49 733c 6aba afbb 6f4a e3bc 10dc afbc
00000180: accf 19ba 15d3 cfba 7d59 503d 01d5 5b3d
00000190: 64d6 583d a8d4 82bd b4b2 fb3c 8c0c 1e3d
000001a0: b5d5 88bc 946f 79bc 2544 94bd 2f9b 6ebd
000001b0: 62dd 53bd 58e5 e73c 48fb 92bd c2ed 6bbd
000001c0: 5a0b 07bd b837 a5bc ddc6 f63c b08f fc3c
000001d0: 0a0c 9abd aa0b 8fbd 0579 8c3c 145a be3c
000001e0: cc55 8a3b c799 33bd 573f 8abd b73e 2fbd
000001f0: bcd9 9abb 17f0 003d a67e 353d e085 aebc
-0.046235736 0.0075057014 0.03698747 -0.014993157 0.014016204 -0.019241974 -0.07191448 0.03275488
-0.040352467 -0.0072230273 0.0112495115 -0.03809586 -0.03188109 0.02949008 -0.028075317 -0.034625575
-0.011432068 -0.02117041 -0.06992451 -0.04980703 0.061028298 0.05032394 0.018051501 0.04239826
0.023824288 -0.048234545 0.026999258 -0.033470944 -0.004248475 -0.05313084 0.055300735 0.003917796
0.06474188 0.053222276 -0.047977675 0.00012637174 0.033355124 0.026902245 -0.009005482 -0.01453554
-0.051665276 -0.011659815 -0.062030405 -0.014336799 0.044135943 -0.015656361 0.059815 -0.073930405
-0.047749106 -0.013693523 -0.00044257139 -0.040355083 -0.054977838 0.040967617 -0.07174964 -0.06353097
-0.049596768 0.03867539 0.010047501 0.038533594 0.048374727 -0.0030239478 -0.03139815 -0.055491272
0.06856844 0.039674174 -0.051759418 0.033339113 0.014700865 -0.015609585 -0.02866525 0.036189735
0.062113333 0.064127006 -0.055246238 -0.07453428 -0.023663614 -0.033272214 0.04329235 -0.06860497
-0.06803179 -0.0030087088 -0.025319593 -0.03710987 0.02040657 0.053540185 0.042301532 0.0041472395
-0.006774521 -0.037014004 -0.036954787 0.04806287 0.014849184 -0.0053627985 -0.027745454 -0.021467239
-0.00058674323 -0.0015855754 0.050866593 0.053669933 0.052938834 -0.06388217 0.03072486 0.038586184
-0.016703466 -0.015224356 -0.0723956 -0.058253463 -0.0517248 0.028307602 -0.07176834 -0.05759979
-0.03296981 -0.02016817 0.030124122 0.030830234 -0.075218275 -0.069846466 0.01714755 0.023236312
0.0042216536 -0.043847825 -0.06750362 -0.04278442 -0.004725663 0.031478968 0.044310234 -0.021304071

fc1.weight f4 [64, 128]
00000000: d845 43ba 9b72 bb3c d6fb b83c 80a9 d1bb
00000010: 79a5 2a3d 3bf0 9c3d ab25 97bd e312 18bb
00000020: f01a 6e3d c8dd 44bc d176 e1bb e21a 9a3c
00000030: 9953 513d 9edd e4bc 0c6a a73d b6d3 7f3d
00000040: f4c8 c33c f82b dfbc 0b6c a4bd 50d2 183c
00000050: 9536 6dbd 7095 b23d bb0f d7ba 101a a8bd
00000060: d45b f03c a5db 64bd 9fff 1cbc b14b 2f3d
00000070: 08dd a3bc 7aef 6dbd 2704 4e3d 17b8 503d
00000080: f3dc d03c 21cf 113d 9c5f a83d 278b 46bc
00000090: 9a4a fa3c 8ad9 6dbb 96e2 55bb 97f8 683d
000000a0: 928d 813d 0667 833d 1276 a03d d6fe 05bd
000000b0: 42b6 223d 8db3 2b3c 6673 2a3d 6694 9b3b
000000c0: a61c 15bd 1d37 cd3c 8a9d 2a3d b187 b13d
000000d0: faf7 47bd ccf4 ba3c 04e8 83bc 0d53 f8bc
000000e0: 360b b5bd bdee 973b 214a a2bb 287c dabc
000000f0: 9faf 8cba 4ae0 1f3d 043b 123d 4223 67bd
00000100: cd1d 973c 5223 d4bc 21bf 8fbd 4427 b13c
00000110: 2eb5 84bd 2033 cdbc 1d7b 553d 1f1b bdbc
00000120: e747 9c3b 5acc 19bb 4501 82bd 056c 6fbd
00000130: 7054 233d fad5 0c3d 99ff 363d a911 753d
00000140: 2beb 38bd 41f5 a13d 4149 323d 32c3 013d
00000150: 652b c63c 6210 97bc 0592 a63c ec8f adbd
00000160: e346 9f3d da21 79bd 0c5a 5f3d 5134 a3bd
00000170: f725 123c 346b af3d 4b35 2a3d 9fdd 4abd
00000180: e5cf 85bd 48d2 813d 3f52 5a3d 2d49 263d
00000190: a465 1dbd 4fcb 643d 6bb7 69bd 86f0 923d
000001a0: 80a9 4f3b 6056 26bb 7a53 a23d dd73 6fbd
000001b0: 6bc4 27bd 6875 3bbd f520 943c 28b8 213d
000001c0: ab39 033d 99c9 b3bd 098c 10bc df83 4a3d
000001d0: a1b7 9fbd 26ff 47bd eb31 9cbd 5aa5 053d
000001e0: a323 933c 2ee3 13bb def9 2ebd 62dc 7cbd
000001f0: d8d5 70bd 5cc2 093c ec5d 843d 07a0 9ebc
00000200: d239 663d 41c8 a73d 202c ab3b 2f6d a83d
00000210: d48f ba3c 8057 25bd 3c2c b0bc ea83 9ebd
00000220: c07f ceba 68b0 63bc 3766 8bbd 4655 6f3d
00000230: 88c7 78bc 0620 203d 4078 d63a bf12 afbd
00000240: 4e05 253d e8cc 1c3c 7ad2 623d 4269 6ebd
00000250: f87c 3fbc 2464 803c d9b7 9a3d 30c2 a9bc
00000260: c2e4 4f3d c636 683d 7eb2 5b3d 801e 72bc
00000270: 9a6f 4f3d c7ca 1fbd b1ec 4cbd 02c3 52bd
00000280: 2427 8dbd c36c 92bd 49c9 a93d ac5a d9bc
00000290: 4494 b9bc 70bb a9bb 7338 2ebd e0b5 38bd
000002a0: 90c4 f53b 90a9 6cbc 73df 9fbd cab0 7d3d
000002b0: 2007 393c ec28 c6bc c943 993d e6b3 283d
000002c0: e865 403c 0eb3 6bbd 7cf2 febc 0313 97bd
000002d0: a2c7 573d e68e 3ebd 8c61 4abd 4940 a6bd
000002e0: 00a2 10b9 867d 9fbd d817 04bc 9e2e 93bd
000002f0: 6989 aebd c81f e6bc 0649 2d3d e064 123b
00000300: 14d9 c73c 0a8c 6f3d d87d d33c 8384 8ebd
00000310: 6254 0cbd bebc 1f3d 8013 f8ba ec67 1cbd
00000320: d1ea 22bd 4c14 8abd b8e1 23bc 60b3 b83c
00000330: 8cf6 6abd 5818 06bc c040 a9bd 52e1 5a3d
00000340: 4340 99bd d8ed a4bd c0bb 8d3c 9736 44bd
00000350: 802e e13b f028 2cbd 8632 0d3d 2836 e83c
00000360: 80f7 39bc 4638 82bd 9e37 363d 0ed9 463d
00000370: e8c9 0dbc c9bc 803d cd39 10bd d8df 58bc
00000380: 02be 71bd 614c a93d 6c59 883c 172a 4dbd
00000390: b4db ee3c 6650 773d c40a 9cbd 0fa9 45bd
000003a0: b8bf 163c b081 debb 592b 19bd 504f 49bc
000003b0: 0073 be3b e100 893d f818 353c 4d9a aa3d
000003c0: c0ba cdba 08f0 0fbd 57e5 903d 6347 a13d
000003d0: 8177 58bd 99cd 40bd 03cc 8fbd dac0 233d
000003e0: 9958 b23d 43c8 91bd 5c17 97bd b032 c73c
000003f0: 2df0 b43d d0e4 6ebc 342a f9bc 608a 5abd
-0.0007449067 0.022881797 0.022581022 -0.00639838 0.041661713 0.07663008 -0.073802315 -0.0023204617
0.05813116 -0.012015767 -0.006880619 0.018811647 0.051105116 -0.027937707 0.08174524 0.062457763
0.023899533 -0.027242646 -0.0802842 0.009327486 -0.05791338 0.08719909 -0.0016407886 -0.08208096
0.029340662 -0.05587353 -0.009582429 0.042796794 -0.020002857 -0.05808971 0.05029693 0.05095681
0.025495982 0.035597924 0.08221361 -0.012118137 0.03055315 -0.0036292993 -0.0032636276 0.0568777
0.063258305 0.064161345 0.0783502 -0.032713734 0.039724596 0.01047982 0.04161396 0.004747915
-0.036404274 0.025050694 0.041654147 0.08668459 -0.048820473 0.022821806 -0.016101845 -0.03031304
-0.08840029 0.004636614 -0.0049526845 -0.02667053 -0.0010733492 0.039032258 0.035700813 -0.05643011
0.018446827 -0.025895748 -0.07018877 0.021625169 -0.0647987 -0.025048792 0.052119363 -0.023084221
0.0047693136 -0.002346775 -0.063478984 -0.058452625 0.039875448 0.03438375 0.04467735 0.059831295
-0.04514615 0.079081066 0.04352689 0.031680293 0.024190614 -0.01844043 0.0203333 -0.084747165
0.077771924 -0.0608233 0.054529235 -0.07968963 0.008920184 0.08565369 0.04155473 -0.04952776
-0.06533793 0.06338936 0.053301092 0.04059713 -0.03842701 0.055857953 -0.057059687 0.071747825
0.0031686723 -0.0025381073 0.07926078 -0.058460105 -0.040958803 -0.045766264 0.018082121 0.039482266
0.03203742 -0.08778686 -0.0088224495 0.04944217 -0.07798696 -0.048827313 -0.076267086 0.032628395
0.017961329 -0.002256583 -0.04271876 -0.06173361 -0.058797687 0.008408155 0.06463227 -0.019363416
0.056207485 0.08192492 0.005223766 0.0822395 0.02277366 -0.04036665 -0.021505468 -0.07740004
-0.0015754625 -0.013897039 -0.06806605 0.058430932 -0.015184291 0.03909304 0.0016362742 -0.085484974
0.040288262 0.009570338 0.055376507 -0.05820585 -0.01168751 0.01567275 0.075545974 -0.020722479
0.05075527 0.05669286 0.05363702 -0.01477778 0.05064354 -0.039011743 -0.050030414 -0.051455505
-0.06892231 -0.07149651 0.08290345 -0.026532494 -0.022653706 -0.005179815 -0.042534303 -0.045095325
0.0075002387 -0.014444724 -0.078062914 0.061936177 0.011293203 -0.024189435 0.07483632 0.04118719
0.011743046 -0.057543807 -0.031121485 -0.07376673 0.05268062 -0.046522997 -0.049409434 -0.0811773
-0.0001379326 -0.077876136 -0.008062325 -0.07186626 -0.08522303 -0.028091326 0.04230597 0.0022337958
0.024395503 0.05848316 0.025816843 -0.06958868 -0.03426016 0.038998358 -0.001892671 -0.038185045
-0.03977472 -0.067421526 -0.010002546 0.02254647 -0.05736403 -0.008184515 -0.08264303 0.05343754
-0.0748296 -0.080531776 0.01730144 -0.047903623 0.0068719983 -0.04203123 0.03447201 0.028346136
-0.0113505125 -0.063583896 0.044486634 0.048546843 -0.008654095 0.06286008 -0.035211373 -0.013236962
-0.059019096 0.08266521 0.016644202 -0.050088968 0.029157497 0.06037941 -0.07619241 -0.04825693
0.009200983 -0.0067903623 -0.037394855 -0.012286976 0.005812049 0.06689621 0.011053316 0.08330212
-0.0015695915 -0.03514102 0.07074993 0.07874944 -0.052848343 -0.047071073 -0.07021334 0.03997884
0.08708305 -0.07118275 -0.07377502 0.024316162 0.088348724 -0.01458092 -0.030415632 -0.05335462

fc1.bias f4 [64]
00000000: 8eba a8bd 60dd 043d 8899 063d f6dc 203d
00000010: c3c4 54bd af4e 843c 9fa9 1a3d 32cb 003d
00000020: b469 9dbc 5e1b 47bd 85a5 b43d 6cb2 a03c
00000030: af13 153d ba1f 1a3d 5db1 6b3d c0c6 42bd
00000040: 1c8d 243d 4857 8a3c 65a1 82bd 5888 87bd
00000050: c54e 473c 655c 443d 70fb f9bc b17a 8b3d
00000060: 4ae4 f03c f80b 6c3d 25fc 84bd 1cfb 7dbd
00000070: c031 a2bd b026 cdbb 0c68 92bd fa93 2b3d
00000080: e1c1 8dbd f659 203d d1af f7bc 008a 95bd
00000090: e4da 9e3d b67c 3e3d 1cd2 373d b0fb a4bd
000000a0: 56fa 423d a7cb 84bd d3c1 863d 2caa b7bd
000000b0: ccc9 57bd 68a0 afbd 45b0 7fbc edf9 4a3d
000000c0: 84c3 8cbc 4f05 a63d ca0a 8b3d 80dd 3bbd
000000d0: 3050 48bd 52e2 dd3c 7c5e 98bd 9217 babc
000000e0: 94b2 b6bc 96bd 1c3d 38d8 2a3c 7763 32bd
000000f0: f155 4c3d 1c29 4cbd 1690 7b3d df4b b2bd
-0.082387075 0.032437682 0.032861263 0.039273225 -0.05194546 0.0161508 0.03775942 0.031443782
-0.019215442 -0.048610084 0.08820633 0.019616328 0.036395725 0.037627913 0.057542194 -0.047552824
0.040173635 0.016887322 -0.0637844 -0.066178024 0.012164776 0.047939677 -0.030515403 0.06810511
0.029405732 0.0576286 -0.06493405 -0.062007055 -0.07919645 -0.0062607154 -0.071487516 0.04188917
-0.06921745 0.039148293 -0.030235203 -0.07301712 0.07756594 0.046505652 0.04487811 -0.08055818
0.04760202 -0.06484156 0.06579938 -0.089680046 -0.052682683 -0.08575517 -0.015605991 0.049554754
-0.017183073 0.08106481 0.06789167 -0.045865536 -0.048904598 0.027085457 -0.074398965 -0.022716317
-0.02230195 0.03826674 0.010427527 -0.04355189 0.049886648 -0.049843892 0.061416708 -0.087058775

fc2.weight f4 [1, 64]
00000000: ab1a 3a3d f082 39bd 5679 843d 1e96 d6bd
00000010: 62dd 5b3d 63e5 b3bd f9d4 e83c 7a9e cb3d
00000020: c0b5 063c 41f7 f33d 70da 2ebc 468d d53d
00000030: baeb 683d 74de 84bd 5109 f43d 3caf 8e3b
00000040: 07fd 203d 702b d73d 26eb 923d 88f8 eabd
00000050: 1c6d ecb9 f2cd af3c b40e 90bd 7b01 cd3d
00000060: d51b 72bd 92e4 fbbc 111a 83bd a837 893d
00000070: f652 90bd f01e 203d 2033 123d 6a74 84bc
00000080: c59c 153d 109b 9c3c 3be7 afbc 9156 ad3d
00000090: 16a1 cabc b094 9abd 3727 1cbd 17fe 7ebd
000000a0: 7e62 b43d de7c c43d 7880 e7bd 196d eb3d
000000b0: 11ca 12bd db47 fcbc 67b8 02bd 7d73 86bc
000000c0: de61 f6bd 0f3c ec3c c07d 86bd 5d20 6d3d
000000d0: 600a 4c3d 3d4a 2cbd 213b ec3d 8bc8 7fbd
000000e0: a55b b9bd 90c4 d03d 1e13 f5bd 2cd1 6abd
000000f0: 82b3 a6bd cb14 c1bd 80cc b63c 6084 353d
0.04543559 -0.045290887 0.064684555 -0.10477851 0.053677924 -0.087839864 0.028421866 0.099423364
0.0082220435 0.11912394 -0.010672197 0.104273364 0.05686543 -0.06487742 0.119158395 0.0043543857
0.039303806 0.10506332 0.07173757 -0.11473185 -0.0004509472 0.021460507 -0.070340544 0.10010048
-0.059108574 -0.03074864 -0.06401456 0.06700069 -0.070470735 0.039092004 0.035693288 -0.016168792
0.03652646 0.019116908 -0.021472564 0.08463777 -0.024735015 -0.07547891 -0.038123336 -0.062254038
0.088078484 0.09594129 -0.113038 0.11495418 -0.035837237 -0.030795982 -0.03191414 -0.016412491
-0.120303854 0.028837232 -0.06566954 0.057892192 0.049814582 -0.042062987 0.115347154 -0.062447112
-0.09050683 0.10193741 -0.11966537 -0.057328388 -0.08139707 -0.09427794 0.02231431 0.044315696
