assets/model/phrase011_speech_model.pth (torch, 145844 bytes, 7 tensors)

conv1.weight f4 [64, 13, 3]
0.07491852 0.14913431 -0.040671837 -0.12977168 -0.059151936 0.07657261 0.1256708 -0.07178952
0.02903564 0.13918528 -0.11590579 -0.061695926 0.11660134 -0.06066188 -0.09414455 0.06289798
0.0014078487 0.14051616 0.11275023 0.013480956 -0.09333545 0.025601918 0.023744637 -0.11804382
0.029522091 0.13878411 -0.0034265222 -0.105711564 0.033445597 0.15267523 0.12572992 0.089533605
0.052908435 -0.14129506 -0.0682431 -0.116839536 -0.06965885 0.034517255 -0.1312527 -0.08045208
-0.09180403 0.01504511 -0.04559637 0.005474748 -0.047595087 -0.11598477 0.13156806 0.14423199
-0.13209909 0.07115484 -0.06589685 -0.13062198 -0.052755885 0.087491825 -0.12067602 -0.14431618
-0.08457704 -0.046583798 0.13720281 -0.054531667 0.0015272672 0.016436113 0.08859136 0.049750406
-0.08017077 0.05467676 -0.0713562 0.100220546 0.14444679 -0.039955318 0.07538463 -0.12859038
0.037682902 0.055278197 0.017848786 -0.06999144 -0.042102624 0.012252763 -0.03731973 -0.07941672
-0.09973268 -0.072408006 0.02767723 -0.15069707 -0.048115153 0.16038112 -0.1430307 0.00061658287
-0.117234804 -0.009748806 -0.04853291 -0.008809632 -0.020174246 0.032458413 0.09957422 0.027102146
0.085807554 -0.0891179 -0.1436662 0.1592183 0.14665553 0.08853604 0.019859022 0.041467424
-0.056774013 -0.026778148 -0.008797009 -0.05865714 -0.035490613 0.039665926 0.057898823 -0.12156507
0.01980417 -0.10180499 0.1435221 -0.11834317 0.15544799 0.075849935 0.03367933 -0.044406004
-0.043502323 -0.15217729 0.05573303 0.11267272 -0.1014573 0.1306417 -0.009209213 0.033493318
-0.08360235 0.10303242 0.019445322 -0.04346763 -0.11369068 0.110780135 0.16273724 0.032421853
0.113465846 -0.10188763 0.15427485 0.065681905 -0.0078108497 -0.05933402 0.12220379 0.09301416
0.1303445 -0.05318811 -0.11395196 -0.07246106 -0.11990765 0.086669505 0.05329587 -0.13749835
0.06376374 0.0694576 0.0797383 -0.022782238 -0.035497557 -0.12088786 -0.119383544 0.11732305
0.05370309 0.08305131 -0.14935976 0.13629417 0.124358855 0.021282768 -0.1291839 -0.12553795
-0.095755376 0.023898518 0.08218619 -0.08936404 -0.0048063397 -0.023860727 0.09208285 0.16157135
0.04413653 0.03672527 0.13664052 0.029511347 -0.124995194 0.07016131 -0.08945712 -0.12038371
0.12962744 0.04138737 0.08989571 -0.09061447 0.096819386 -0.124977425 -0.084316775 -0.011886315
-0.032379907 -0.017138219 0.09190056 0.14694981 -0.043973442 0.05091354 0.044459514 0.1067858
0.00258112 -0.08067583 0.07807954 0.027948773 0.041371364 0.01578983 -0.06102898 -0.051463928
-0.08879398 -0.055542387 -0.027787346 -0.04120743 -0.039072666 0.043993045 -0.11685178 -0.07102837
-0.14418977 0.04086161 0.1114473 0.1443639 -0.05388796 0.097727016 0.14534193 0.15317625
0.117458366 0.031874392 0.03359393 0.12501788 -0.11822686 -0.08262469 0.0020965545 -0.10533379
0.07796716 0.020834202 -0.08391799 -0.09620949 0.16893917 0.06979353 -0.054703712 -0.026001342
-0.07971531 0.08372496 0.07306872 -0.07213548 -0.018173533 -0.02893277 -0.112815574 0.13649987
0.047221344 0.043722443 0.124650955 -0.051905476 -0.13022214 -0.09391121 -0.061317354 -0.009573363
00000000: e26e 993d aab6 183e 8397 26bd dee2 04be
00000010: 4d49 72bd 1ad2 9c3d d9af 003e 6206 93bd
00000020: 27dc ed3c 9686 0e3e 0460 edbd deb4 7cbd
00000030: afcc ee3d 9778 78bd dcce c0bd a8d0 803d
00000040: 9087 b83a 78e3 0f3e 98e9 e63d 3adf 5c3c
00000050: a826 bfbd 1dbb d13c 1d84 c23c f5c0 f1bd
00000060: 50d8 f13c 6c1d 0e3e 818f 60bb 4e7f d8bd
00000070: 40fe 083d e556 1c3e 58bf 003e 655d b73d
00000080: 84b6 583d a7af 10be 0ac3 8bbd 9149 efbd
00000090: 4da9 8ebd f761 0d3d 1c67 06be 0fc4 a4bd
000000a0: c003 bcbd c47f 763c 42c3 3abd 8465 b33b
000000b0: 11f3 42bd 6c89 edbd c7b9 063e 8db1 133e
000000c0: fc44 07be a1b9 913d edf4 86bd c5c1 05be
000000d0: 8e16 58bd ea2e b33d fd24 f7bd 9fc7 13be
000000e0: ba36 adbd a7ce 3ebd e57e 0c3e 995c 5fbd
000000f0: 952e c83a 07a5 863c 636f b53d 15c7 4b3d
00000100: 9330 a4bd bdf4 5f3d 3323 92bd 6e40 cd3d
00000110: dce9 133e 30a8 23bd 4263 9a3d 32ad 03be
00000120: 6359 1a3d 646b 623d 9e37 923c ac57 8fbd
00000130: cd73 2cbd d0bf 483c 93dc 18bd 3ca5 a2bd
00000140: a640 ccbd a64a 94bd 5cbb e23c 5550 1abe
00000150: 6514 45bd f33a 243e a476 12be 2da2 213a
00000160: cd18 f0bd 75b9 1fbc 72ca 46bd 4656 10bc
00000170: 7644 a5bc 1df3 043d 92ed cb3d 5205 de3c
00000180: dfbb af3d 7283 b6bd 3b1d 13be 1f0a 233e
00000190: de2c 163e 6252 b53d 63af a23c bfd9 293d
000001a0: de8b 68bd d95d dbbc 5421 10bc 7842 70bd
000001b0: 9b5e 11bd bd78 223d 5127 6d3d 1bf7 f8bd
000001c0: 5b3c a23c 227f d0bd 75f7 123e e75d f2bd
000001d0: c22d 1f3e 3657 9b3d 56f3 093d 12e3 35bd
000001e0: 7e2f 32bd 5dd4 1bbe 5148 643d f4c0 e63d
000001f0: d8c8 cfbd f0c6 053e 3de2 16bc 4a30 093d
00000200: b537 abbd a902 d33d cc4b 9f3c 1d0b 32bd
00000210: a9d6 e8bd b2e0 e23d 97a4 263e c7cc 043d
00000220: c860 e83d 76aa d0bd 3afa 1d3e 3c84 863d
00000230: 28f2 ffbb 3b08 73bd fb45 fa3d 357e be3d
00000240: 0779 053e c7db 59bd a55f e9bd 7766 94bd
00000250: 2492 f5bd c87f b13d c54c 5a3d 5ecc 0cbe
00000260: 9096 823d c93f 8e3d d54d a33d d1a1 babc
00000270: e365 11bd 0e94 f7bd 5c7f f4bd 1147 f03d
00000280: c5f7 5b3d ce16 aa3d c4f1 18be b390 0b3e
00000290: dbaf fe3d 3359 ae3c c948 04be 058d 00be
000002a0: 651b c4bd d3c6 c33c 3c51 a83d 7e04 b7bd
000002b0: 807e 9dbb 9277 c3bc ef95 bc3d f672 253e
000002c0: 82c8 343d 3d6d 163d 7eeb 0b3e c8c1 f13c
000002d0: 7bfd ffbd bcb0 8f3d 4b35 b7bd bc8b f6bd
000002e0: 0ebd 043e ce85 293d 3e1b b83d 1494 b9bd
000002f0: 3e49 c63d 2af4 ffbd 46ae acbd d2be 42bc
00000300: cba0 04bd 7365 8cbc 5c36 bc3d 037a 163e
00000310: 7f1d 34bd b78a 503d 2e1b 363d 83b2 da3d
00000320: 0228 293b 5f39 a5bd 2ae8 9f3d d3f4 e43c
00000330: 0575 293d ac59 813c 86f9 79bd d7cb 52bd
00000340: 9ed9 b5bd 6a80 63bd 4aa2 e3bc 1fc9 28bd
00000350: a90a 20bd 0d32 343d fc4f efbd 5277 91bd
00000360: 7ca6 13be 815e 273d 7b3e e43d 21d4 133e
00000370: 9fb9 5cbd 1a25 c83d 84d4 143e 3cda 1c3e
00000380: 038e f03d b98e 023d ca99 093d b004 003e
00000390: ed20 f2bd 2237 a9bd 5966 093b 3eb9 d7bd
000003a0: 3fad 9f3d 7dac aa3c 32dd abbd 7b09 c5bd
000003b0: 64fe 2c3e e9ef 8e3d 0011 60bd c400 d5bc
000003c0: c841 a3bd fe77 ab3d 0ea5 953d c4bb 93bd
000003d0: a9e0 94bc 6b04 edbc da0b e7bd 9fc6 0b3e
000003e0: 2b6b 413d 4e16 333d 0049 ff3d d69a 54bd
000003f0: f458 05be 8554 c0bd e827 7bbd 98d9 1cbc

conv1.bias f4 [64]
0.011965906 0.012480838 -0.019179676 0.0041383184 -0.007130402 0.0661258 -0.07738875 -0.07533365
0.081603654 -0.010452624 0.02124631 -0.15782951 -0.14233889 0.09855984 0.0741932 0.024685372
0.022785347 -0.12644117 -0.09712052 0.06143685 0.017274773 0.13416192 -0.05301814 0.01572164
-0.12183041 0.13865061 0.040795952 -0.08489941 0.028241672 0.035273705 0.005898272 -0.12895076
-0.085776284 0.08467056 -0.1427277 0.11370817 -0.050858922 0.1427211 -0.12772919 0.06867117
-0.055459168 -0.020610746 -0.12561135 0.0022970203 0.033574723 -0.11480827 0.03094856 0.11222765
-0.045849223 -0.018117752 -0.07630227 0.058141347 0.0018320399 0.019675134 0.13455234 0.09771493
-0.06320236 0.10461957 -0.010037364 -0.14247034 0.04885431 -0.16294189 0.0466039 -0.121077165
00000000: a60c 443c 6e7c 4c3c b21e 9dbc bb9a 873b
00000010: 26a6 e9bb f76c 873d fe7d 9ebd 8748 9abd
00000020: d11f a73d 7c41 2bbc be0c ae3c 0f9e 21be
00000030: 49c1 11be bed9 c93d 9bf2 973d fa38 ca3c
00000040: 56a8 ba3c cb79 01be 20e7 c6bd 35a5 7b3d
00000050: d383 8d3c be61 093e 8d29 59bd abca 803c
00000060: 3982 f9bd 6dfa 0d3e a819 273d bedf adbd
00000070: 145b e73c 297b 103d 4b46 c13b ab0b 04be
00000080: 7aab afbd c267 ad3d 3627 12be d4df e83d
00000090: 7251 50bd 7b25 123e 71cb 02be 78a3 8c3d
000000a0: 2729 63bd ded7 a8bc 43a0 00be 9b89 163b
000000b0: a685 093d 9920 ebbd d687 fd3c 9cd7 e53d
000000c0: 65cc 3bbd ae6b 94bc 5d44 9cbd 9f25 6e3d
000000d0: 0f21 f03a bf2d a13c 17c8 093e c41e c83d
000000e0: 3d70 81bd c942 d63d c273 24bc bfe3 11be
000000f0: 751b 483d 3dda 26be bbe3 3e3d 4ef7 f7bd

conv2.weight f4 [128, 64, 3]
0.04802999 0.03684152 -0.05633873 -0.06966207 0.0375969 -0.04975121 -0.0132897915 0.053986873
0.03898281 -0.050365224 -0.06528166 -0.029684428 -0.00063942693 0.015123577 0.05500478 0.061489727
0.02351739 -0.007977814 0.025883388 -0.006532254 0.035164993 0.045440536 0.047135826 -0.05150901
-0.017537704 0.052492507 0.0059151193 -0.053646408 0.025205815 0.011244001 -0.06975272 0.015670449
0.04104998 -0.029345986 0.023587588 0.026116595 -0.06320679 0.045972016 0.06768912 -0.009145307
-0.063147895 0.01677844 -0.0006341804 -0.074043386 0.06709514 -0.03712851 -0.009004061 -0.00096582336
0.04840555 0.06733864 -0.026870258 0.02469424 0.00020853017 0.023853369 -0.036902577 0.052153025
0.018373247 -0.014618162 -0.0041707945 0.019803839 0.022360954 -0.045235407 -0.028186627 0.015819116
0.048945375 0.057474386 0.03248966 -0.043576047 -0.069443844 0.0077849426 0.0013862139 -0.054994445
-0.015282297 -0.07034266 -0.0188423 -0.0027581544 0.053291462 -0.028281689 -0.01934311 -0.029504647
0.012682337 -0.059569154 0.020793013 -0.007053815 0.009702081 0.052658554 0.046872962 -0.03847636
0.041750964 0.0036667562 0.032468893 -0.057050213 0.032121453 0.018400602 0.014045255 0.05018784
0.01749159 0.0010310438 0.030096622 0.016632034 0.041036393 -0.003166699 -0.032431934 -0.028191036
-0.025159992 0.025778493 -0.028433464 -0.02987669 -0.020358248 0.0025407618 -0.042097587 0.009774178
0.017387599 -0.04840304 -0.055408932 -0.024891833 -0.053882286 0.05299476 -0.053117063 -0.011698503
0.057049427 0.06479837 0.018376078 -0.04060383 -0.015724521 0.04494802 -0.01382527 0.036641724
-0.06093341 -0.027349848 0.06544912 0.041065484 -0.065744825 -0.023261586 -0.05767641 0.0148970345
-0.01081915 0.02948897 -0.003752473 -0.035700385 0.06175411 -0.0046369624 -0.045019906 -0.0060436684
0.048407674 0.0341655 0.005985857 0.058478158 -0.04828261 0.033418834 0.03330946 0.0085853245
-0.07365684 -0.013239773 -0.055579785 0.0037544598 0.040410638 0.01944077 -0.0064729387 0.0076898984
0.039996132 0.062313523 0.0430811 0.03756436 0.03814683 0.037847437 0.01763042 0.07213035
0.036618944 0.0013942348 -0.02951549 0.014871825 -0.055953577 0.053462394 0.066273354 0.051993363
0.051911622 -0.072208956 -0.06032536 0.035290994 0.050074734 0.06826466 0.020104233 0.046979595
-0.048030507 0.017023075 -0.049679454 0.003559514 0.03768877 0.06154595 0.018964939 0.040438056
-0.027112592 -0.01360873 0.026747646 0.015840353 -0.07119117 0.024515204 0.04297939 0.011951228
-0.012582971 -0.07682051 0.040719807 0.012811097 0.027858695 0.041790705 0.008416109 -0.047913145
0.010285749 -0.03172799 -0.06387083 -0.034530055 0.012932461 -0.0686064 0.06263833 0.06051741
-0.043856785 -0.046069905 -0.042369604 0.061648056 0.022950286 -0.060657244 0.06671722 0.04790688
-0.037960246 0.023054197 -0.019160697 0.02958379 0.023638444 0.039009828 0.031946916 0.032918014
-7.2253206e-05 0.053917535 0.002673091 0.04738919 -0.01848237 -0.022263544 -0.043550394 0.04408954
-0.050061624 -0.06311622 -0.0015160047 -0.025088655 0.03342748 -0.020974953 0.05081128 -0.046007067
0.034723487 -0.05982094 -0.07350127 -0.0030120842 -0.01062939 -0.06528059 -0.01497267 0.042248424
00000000: 18bb 443d 22e7 163d 71c3 66bd fdaa 8ebd
00000010: 35ff 193d edc7 4bbd 6dbd 59bc 5721 5d3d
00000020: 70ac 1f3d c44b 4ebd 64b2 85bd c22c f3bc
00000030: 379f 27ba e1c8 773c b14c 613d a7dc 7b3d
00000040: 8ba7 c03c 61b5 02bc 6609 d43c 850c d6bb
00000050: 2b09 103d db1f 3a3d 7f11 413d 1dfb 52bd
00000060: 3bab 8fbc 6202 573d 9ed3 c13b 56bc 5bbd
00000070: 6d7c ce3c c238 383c 84da 8ebd 505f 803c
00000080: 0624 283d fe66 f0bc c23a c13c 78f2 d53c
00000090: 9072 81bd 274d 3c3d 98a0 8a3d 33d6 15bc
000000a0: af53 81bd f072 893c 203f 26ba 0fa4 97bd
000000b0: 2d69 893d 1114 18bd c585 13bc 4f2f 7dba
000000c0: e644 463d d7e8 893d 041f dcbc 934b ca3c
000000d0: e4a8 5a39 2468 c33c 2827 17bd 699e 553d
000000e0: 7e83 963c 0481 6fbc 29ab 88bb a93b a23c
000000f0: 522e b73c c348 39bd a4e7 e6bc 1797 813c
00000100: f27a 483d 436a 6b3d e113 053d cc7c 32bd
00000110: 9338 8ebd d518 ff3b 9fb1 b53a db41 61bd
00000120: 9962 7abc d00f 90bd 2b5b 9abc 27c2 34bb
00000130: 2648 5a3d 00af e7bc 7175 9ebc bbb3 f1bc
00000140: 94c9 4f3c c9fe 73bd 1c56 aa3c b023 e7bb
00000150: 7af5 1e3c 7fb0 573d ddfd 3f3d 6399 1dbd
00000160: 0f03 2b3d f64d 703b 1afe 043d 7cad 69bd
00000170: c991 033d dcbc 963c 121e 663c c491 4d3d
00000180: 864a 8f3c 1724 873a 318d f63c e73f 883c
00000190: c715 283d 6588 4fbb 59d7 04bd e3f0 e6bc
000001a0: 541c cebc 6b2d d33c 4ced e8bc f6bf f4bc
000001b0: 57c6 a6bc e982 263b 856e 2cbd e023 203c
000001c0: 7070 8e3c 4442 46bd 7af4 62bd f5e9 cbbc
000001d0: acb3 5cbd 0911 593d 4791 59bd 14ab 3fbc
000001e0: a9ac 693d 02b5 843d 6e89 963c 3450 26bd
000001f0: b6d0 80bc 6a1b 383d 6383 62bc a215 163d
00000200: 5095 79bd ca0c e0bc 300a 863d 4834 283d
00000210: 39a5 86bd 158f bebc 193e 6cbd b112 743c
00000220: ce42 31bc da92 f13c 0dec 75bb 913a 12bd
00000230: e1f1 7c3d a9f1 97bb cb66 38bd f709 c6bb
00000240: 2047 463d 20f1 0b3d 0225 c43b cb86 6f3d
00000250: fcc3 45bd 30e2 083d 806f 083d 76a9 0c3c
00000260: 66d9 96bd a2eb 58bc a1a7 63bd 620d 763b
00000270: a085 253d 4042 9f3c f21a d4bb 8bfb fb3b
00000280: fcd2 233d 773c 7f3d cf75 303d 16dd 193d
00000290: da3f 1c3d ea05 1b3d ac6d 903c 14b9 933d
000002a0: bffd 153d c2be b63a 78ca f1bc f5a8 733c
000002b0: 942f 65bd 62fb 5a3d 53ba 873d fef6 543d
000002c0: 48a1 543d 4ae2 93bd ba17 77bd 4a8d 103d
000002d0: 2a1b 4d3d 58ce 8b3d a2b1 a43c ad6d 403d
000002e0: a3bb 44bd fa73 8b3c af7c 4bbd bc46 693b
000002f0: 8a5f 1a3d 9b17 7c3d 5c5c 9b3c 60a2 253d
00000300: 3a1b debc 27f7 5ebc e11d db3c a1c3 813c
00000310: adcc 91bd 1cd4 c83c 280b 303d 15cf 433c
00000320: ce28 4ebc 1254 9dbd d0c9 263d a3e5 513c
00000330: eb37 e43c bb2c 2b3d b8e3 093c 9340 44bd
00000340: 8f85 283c 35f5 01bd b6ce 82bd 636f 0dbd
00000350: ace2 533c 8381 8cbd 8648 803d 1be1 773d
00000360: 2ca3 33bd ccb3 3cbd c08b 2dbd ac82 7c3d
00000370: 3d02 bc3c bb73 78bd 0aa3 883d 013a 443d
00000380: 347c 1bbd 28dc bc3c e5f6 9cbc b459 f23c
00000390: 69a5 c13c c5c8 1f3d c5da 023d 0ad5 063d
000003a0: a586 97b8 a2d8 5c3d 062f 2f3b 2b1b 423d
000003b0: 5768 97bc 0962 b6bc e661 32bd 3c97 343d
000003c0: 6b0d 4dbd 1443 81bd adb4 c6ba b986 cdbc
000003d0: 41eb 083d aad3 abbc 7d1f 503d e871 3cbd
000003e0: 373a 0e3d cd06 75bd d587 96bd 6366 45bb
000003f0: e526 2ebc d4b1 85bd ee4f 75bc af0c 2d3d

conv2.bias f4 [128]
0.059513293 0.013459042 0.039477155 -0.06935284 0.0011420639 0.04066242 -0.061863165 0.03877547
0.012842892 0.07416371 0.00051489094 0.038520154 -0.009303366 0.03566824 0.04911771 0.014039503
-0.0067128907 0.018109659 0.011840325 0.062195484 -0.06480638 -0.047261402 0.030676626 -0.036885448
-0.06582973 -0.005075321 -0.05520708 0.061536238 -0.01843235 -0.05607853 0.015481509 -0.017113067
0.025172874 -0.01984907 -0.06078579 -0.06168277 -0.019362763 0.0035165707 0.0028636355 0.01316461
-0.022331558 -0.073390216 0.070573196 -0.046709057 -0.024990069 0.06384052 0.03737597 0.04091948
-0.0659718 -0.07199067 0.044211544 -0.052535813 0.013683245 -0.03897587 -0.016588425 0.009212598
-0.036453836 -0.00879005 0.03377999 -0.037541438 -0.07379992 0.018346727 -0.062299706 0.060980238
0.027787685 0.03798284 -0.047250208 -0.016214978 -0.026018905 -0.049097866 -0.03523725 -0.034042526
-0.06511879 -0.0076521337 0.03771151 -0.0076013883 0.015919967 -0.032815147 -0.04565517 0.04913705
0.017695958 0.02043296 -0.014447137 0.03886342 0.07195117 -0.007919217 -0.0724238 0.061168168
0.05556771 -0.0077311713 -0.0033872968 0.021463787 0.056958735 -0.030517826 -0.05245763 -0.06456382
0.031882755 -0.035117947 0.043629013 -0.053048477 -0.037882276 0.012233246 -0.044356797 0.0161867
0.046594236 -0.053960618 -0.055661257 -0.03198171 -0.06109697 0.013565554 0.010231345 0.0053699138
-0.032886032 -0.057866152 0.05270243 0.06986118 -0.070455655 0.032031756 -0.06887343 -0.05277673
-0.059669476 -0.053131398 0.05061652 0.026681202 -0.07334879 -0.04529692 0.05048069 -0.03737084
00000000: 36c4 733d 5083 5c3c ccb2 213d dd08 8ebd
00000010: 4eb1 953a a38d 263d 3b64 7dbd 07d3 1e3d
00000020: fe6a 523c 25e3 973d bff9 063a 4fc7 1d3d
00000030: 256d 18bc dc18 123d a72f 493d f205 663c
00000040: cff7 dbbb b55a 943c ecfd 413c b1c0 7e3d
00000050: 35b9 84bd 2c95 41bd 8c4d fb3c 3215 17bd
00000060: bdd1 86bd e14e a6bb d220 62bd 6c0d 7c3d
00000070: 71ff 96bc 9ab2 65bd 28a6 7d3c b430 8cbc
00000080: 5837 ce3c 849a a2bc 85fa 78bd 12a7 7cbd
00000090: a89e 9ebc 4476 663b d5ab 3b3b 60b0 573c
000000a0: acf0 b6bc 9c4d 96bd ae88 903d ff51 3fbd
000000b0: f9b7 ccbc d2be 823d 8c17 193d 2f9b 273d
000000c0: 391c 87bd d86f 93bd 2a17 353d cb2f 57bd
000000d0: b02f 603c 29a5 1fbd 73e4 87bc 70f0 163c
000000e0: 9e50 15bd 2404 10bc e35c 0a3d 0dc5 19bd
000000f0: 6a24 97bd e04b 963c fa2d 7fbd 6ac6 793d
00000100: 00a3 e33c e593 1b3d 6f89 41bd 46d5 84bc
00000110: 9925 d5bc d81a 49bd ef54 10bd 2d70 0bbd
00000120: 005d 85bd c0be fabb 6277 1a3d 1115 f9bb
00000130: 976a 823c 2d69 06bd ea00 3bbd ee43 493d
00000140: 1df7 903c 0663 a73c afb3 6cbc 402f 1f3d
00000150: 235b 933d 9bbf 01bc ee52 94bd 798b 7a3d
00000160: f89a 633d c455 fdbb 69fd 5dbb d3d4 af3c
00000170: 904d 693d 8500 fabc d0dd 56bd 093a 84bd
00000180: 7e97 023d d6d7 0fbd 56b4 323d 5c49 59bd
00000190: 722a 1bbd f46d 483c 79af 35bd f899 843c
000001a0: 99d9 3e3d cf05 5dbd 0ffd 63bd 41ff 02bd
000001b0: d140 7abd 0f42 5e3c 5fa1 273c 1af6 af3b
000001c0: 81b3 06bd 0f05 6dbd 81de 573d 6113 8f3d
000001d0: 0e4b 90bd bb33 033d 830d 8dbd 6a2c 58bd
000001e0: fb67 74bd 4fa0 59bd 4553 4f3d 8992 da3c
000001f0: e437 96bd 4389 39bd d7c4 4e3d 2a12 19bd

fc1.weight f4 [64, 128]
0.072930254 -0.023605376 -0.08391116 -0.020194799 -0.08119297 -0.009439975 -0.025437593 0.08720925
-0.018810563 -0.06390207 0.023622595 -0.028130967 0.027197585 0.028162532 -0.0669617 0.02215314
-0.08232971 0.04914064 -0.024371289 -0.030922689 -0.046713956 -0.018605776 0.021454431 -0.08325383
-0.0410479 0.04043033 -0.0798672 0.02107545 0.004006788 -0.07663884 -0.06590374 -0.056120373
0.016659237 0.07609739 -0.07078404 -0.04923282 -0.08633408 -0.07330656 0.08574114 -0.040100746
0.05465112 0.07530854 -0.07113546 -0.016515203 -0.01839985 -0.016280003 -0.07967921 -0.02521585
-0.008877799 0.040011458 0.084248625 -0.025717102 -0.012039728 0.06683419 -0.011537634 -0.028817337
0.062978186 0.073002376 -0.08131784 0.056818537 0.0065253153 0.03573528 0.01370886 -0.08743944
0.032066807 0.048756428 -0.026592173 -0.014146797 -0.03347117 0.0634649 -0.051396437 0.08176214
-0.052842665 -0.06977766 0.037212722 -0.0680848 -0.01827573 0.000212349 -0.03683581 -0.073387556
-0.028052382 -0.05360512 0.075921424 -0.010100998 -0.039105237 0.04360322 -0.05333891 -0.040432513
0.0139893 0.057705976 -0.075083084 0.045336388 -0.059131734 -0.022035204 0.045106955 0.043342076
-0.03811387 0.069825776 0.06599202 0.048658974 -0.026767999 -0.03511962 0.004186392 0.0013441443
0.012001313 -0.015647195 -0.038930885 0.043588407 0.00027991086 -0.06578742 -0.07566618 -0.033044223
-0.03999046 0.036663555 -0.0606186 0.059730418 0.016700685 -0.0745271 0.04682272 -0.02818939
0.010500751 -0.008605421 -0.047149975 0.0026198179 0.011744611 -0.07517546 0.0075129494 -0.04343026
0.06550435 0.06610832 -0.046947278 0.013304703 0.052378677 0.05576136 -0.04817783 0.004322946
0.005236484 0.034868695 0.028748788 0.00195688 0.00030499697 -0.0833927 -0.009577997 -0.08477263
-0.086005226 -0.07384302 -0.052674856 0.061514117 0.03769999 -0.0118175 0.067848764 -0.06343689
0.019597813 0.0494102 -0.005661197 0.005835369 -0.054767057 -0.064404756 -0.043825608 -0.083275944
-0.025609076 -0.028163545 0.04142844 0.029913828 0.0824096 -0.0770576 0.05902634 0.022331588
-0.078502044 -0.067407355 0.053503804 -0.07092539 -0.06329788 0.03896139 0.06198504 -0.047584295
0.004577495 -0.087628156 -0.086217016 -0.007985234 -0.03962753 -0.07300884 -0.052768264 0.07523178
0.06262674 -0.00978554 0.027611777 0.08113783 -0.08484712 -0.013838582 -0.06080101 0.0081313625
-0.081230946 0.034003526 0.045780934 0.018082097 -0.027177762 0.06548766 -0.025752723 -0.046885196
0.06836089 -0.03562558 0.03972704 -0.059649125 -0.030341242 -0.045784827 -0.017599821 -0.07310924
0.02939614 0.046300046 -0.0014566556 0.02165582 0.043581642 -0.06734948 0.05203841 -0.083418176
0.05312618 0.0272867 0.062111862 -0.047956802 -0.08510787 -0.028862037 0.0010830685 -0.007875279
0.020714514 0.048013963 -0.051163755 0.046403714 -0.020297736 -0.035480153 -0.0731668 0.011383697
-0.07252301 0.07409031 -0.0623044 -0.040372245 -0.003142424 0.07410034 -0.037716415 0.021663934
-0.07654145 -0.015612543 0.080750845 0.001135625 -0.03314227 -0.07681395 0.006341465 0.08786117
-0.049361672 0.0068575665 0.08136044 -0.08478955 -0.06705629 -0.01643277 -0.08174978 0.028144956
00000000: 755c 953d 1060 c1bc 9dd9 abbd 906f a5bc
00000010: 8048 a6bd 20aa 1abc 8062 d0bc c39a b23d
00000020: 9c18 9abc 17df 82bd 2c84 c13c ea72 e6bc
00000030: 78cd de3c 1cb5 e63c 3723 89bd 807a b53c
00000040: 7b9c a8bd b247 493d 4ca6 c7bc 9451 fdbc
00000050: 2257 3fbd 246b 98bc 34c1 af3c fc80 aabd
00000060: d821 28bd 469a 253d 6a91 a3bd 6ca6 ac3c
00000070: 604b 833b d3f4 9cbd 8af8 86bd 7ade 65bd
00000080: f478 883c f3d8 9b3d 39f7 90bd 5aa8 49bd
00000090: eccf b0bd c021 96bd 0d99 af3d ae40 24bd
000000a0: dad9 5f3d 5d3b 9a3d 78af 91bd e44a 87bc
000000b0: 48bb 96bc a45d 85bc db2e a3bd 7891 cebc
000000c0: 3074 11bc 0ee3 233d 8b8a ac3d acac d2bc
000000d0: 4842 45bc 5de0 883d 5808 3dbc 5612 ecbc
000000e0: b5fa 803d 4582 953d f889 a6bd 8eba 683d
000000f0: 50d2 d53b 285f 123d 209b 603c 7313 b3bd
00000100: 7c58 033d d2b4 473d d4d7 d9bc f8c7 67bc
00000110: 1119 09bd e3f9 813d 1285 52bd e972 a73d
00000120: 8d71 58bd 97e7 8ebd 5e6c 183d 0b70 8bbd
00000130: fcb6 95bc 00aa 5e39 25e1 16bd 374c 96bd
00000140: 1cce e5bc 0b91 5bbd b17c 9b3d a87e 25bc
00000150: d02c 20bd 4a99 323d e779 5abd 909c 25bd
00000160: 6033 653c 1a5d 6c3d 29c5 99bd a6b2 393d
00000170: 1e34 72bd 2c83 b4bc 12c2 383d 7687 313d
00000180: 4a1d 1cbd d100 8f3d d326 873d a24e 473d
00000190: 9048 dbbc 97d9 0fbd 002e 893b 002e b03a
000001a0: 28a1 443c 8c2e 80bc fe75 1fbd c289 323d
000001b0: 00c1 9239 8ebb 86bd dff6 9abd 6159 07bd
000001c0: 09cd 23bd 862c 163d 364b 78bd e2a7 743d
000001d0: e0cf 883c aaa1 98bd 2ec9 3f3d 70ed e6bc
000001e0: 580b 2c3c c0fd 0cbc 5520 41bd 40b1 2b3b
000001f0: 786c 403c 97f5 99bd 302f f63b eee3 31bd
00000200: 2527 863d cd63 873d ca4b 40bd f8fb 593c
00000210: 068b 563d 0666 643d 1e56 45bd 80a7 8d3b
00000220: d096 ab3b 7ad2 0e3d 9482 eb3c 003f 003b
00000230: 00e8 9f39 cbc9 aabd 08ed 1cbc 469d adbd
00000240: 8223 b0bd 023b 97bd 97c1 57bd 3af6 7b3d
00000250: 4e6b 1a3d 309e 41bc 4bf4 8a3d 33eb 81bd
00000260: 988b a03c 5a62 4a3d 9081 b9bb a036 bf3b
00000270: 6c53 60bd a4e6 83bd 7b82 33bd 948c aabd
00000280: 20ca d1bc 3cb7 e6bc deb0 293d d80d f53c
00000290: 5dc6 a83d 60d0 9dbd 9ac5 713d bcf0 b63c
000002a0: aec5 a0bd de0c 8abd ce26 5b3d 5541 91bd
000002b0: 52a2 81bd fa95 1f3d 06e4 7d3d c0e7 42bd
000002c0: d0fe 953b 6476 b3bd 8c92 b0bd 80d4 02bc
000002d0: 7a50 22bd a985 95bd 8923 58bd 1f13 9a3d
000002e0: 7342 803d 8853 20bc 1832 e23c 972b a63d
000002f0: 54c4 adbd 38bb 62bc 7b0a 79bd 6839 053c
00000300: 695c a6bd 4847 0b3d ca84 3b3d e820 943c
00000310: e6a3 debc 651e 863d 60f7 d2bc b10a 40bd
00000320: cb00 8c3d 21ec 11bd d2b8 223d a452 74bd
00000330: 328e f8bc df88 3bbd 802d 90bc 4cba 95bd
00000340: 2cd0 f03c 1ea5 3d3d 40ed beba 8c67 b13c
00000350: aa82 323d 86ee 89bd 3a26 553d 26d7 aabd
00000360: d69a 593d 5c88 df3c 0269 7e3d 5a6e 44bd
00000370: 094d aebd 1470 ecbc c0f5 8d3a 5007 01bc
00000380: 7cb1 a93c 4aaa 443d 1691 51bd d211 3e3d
00000390: 7047 a6bc a353 11bd 7ad8 95bd b082 3a3c
000003a0: f286 94bd a9bc 973d e632 7fbd 5e5d 25bd
000003b0: 20f1 4dbb ebc1 973d 877c 1abd 9078 b13c
000003c0: c4c1 9cbd c0cb 7fbc b360 a53d 40d9 943a
000003d0: 30c0 07bd a250 9dbd 10cc cf3b 8ff0 b33d
000003e0: 772f 4abd 70b5 e03b 4da0 a63d 25a6 adbd
000003f0: cf54 89bd 049e 86bc 6e6c a7bd 4090 e63c

fc1.bias f4 [64]
-0.039618026 -0.025201514 0.07669808 -0.008630721 -0.029907688 0.0029147312 -0.03331301 -0.018888896
-0.067744024 0.004161492 0.019193664 -0.06477232 0.026103027 0.05292289 0.0762186 0.08776494
0.067465715 0.0137890065 0.014079271 -0.08517252 0.08251299 -0.0038814251 0.042914324 -0.036934428
-0.06815171 -0.07905749 -0.010351732 0.04374853 -0.033516407 0.07768221 0.05957573 -0.08495293
0.031160716 -0.082080305 0.030663747 0.04580093 0.0033429654 0.06100156 -0.013754674 0.048645593
0.084535174 0.04056213 -0.0064210743 0.04330819 -0.03418612 0.060223132 -0.06259058 -0.033913102
-0.02881168 -0.07441166 0.0026654126 0.061486445 -0.024508683 0.057515733 0.026412264 0.007725984
-0.06106881 -0.05135244 -0.08556182 0.02428653 0.055587746 -0.048983954 0.061710328 -0.09004082
00000000: 8346 22bd 6873 cebc e213 9d3d de67 0dbc
00000010: f800 f5bc 1305 3f3b 3973 08bd e3bc 9abc
00000020: 61bd 8abd 205d 883b 083c 9d3c 5aa7 84bd
00000030: 04d6 d53c acc5 583d 7f18 9c3d 1bbe b33d
00000040: 772b 8a3d 49eb 613c beac 663c ee6e aebd
00000050: 92fc a83d 825f 7ebb eec6 2f3d 8e48 17bd
00000060: 2093 8bbd e5e8 a1bd 509a 29bc a931 333d
00000070: 8048 09bd da17 9f3d ae05 743d cdfb adbd
00000080: c244 ff3c b819 a8bd 8a32 fb3c c299 3b3d
00000090: a715 5b3b c6dc 793d 495b 61bc 9a40 473d
000000a0: c720 ad3d 7a24 263d e067 d2bb ee63 313d
000000b0: bf06 0cbd 88ac 763d 7d2f 80bd 77e8 0abd
000000c0: 7906 ecbc 2465 98bd 34ae 2e3b 36d9 7b3d
000000d0: 6fc6 c8bc 9e95 6b3d 885e d83c 402a fd3b
000000e0: 4a23 7abd f056 52bd 093b afbd 8cf4 c63c
000000f0: faaf 633d 66a3 48bd f8c3 7c3d 5267 b8bd

fc2.weight f4 [1, 64]
0.08558373 0.027056292 0.051460203 -0.09310975 0.058923364 0.045653485 -0.028604155 -0.08485957
-0.074938305 -0.004613742 -0.08535397 0.110909835 -0.108501315 0.06845955 0.0038798521 0.11936885
-0.061183006 0.03662835 -0.006863877 0.10521327 -0.014171018 0.10608866 -0.009668115 -0.10142291
-0.03535375 -0.02796308 0.059170544 -0.033472966 0.041452847 -0.036220774 0.012523185 0.07164067
0.0132312635 -0.009869397 -0.017228324 -0.12279393 0.005115878 -0.088421464 -0.060818605 0.010912269
-0.04513873 0.12393403 0.031039009 -0.029046357 -0.056674957 0.030674437 -0.0020524876 0.0048400313
0.028124055 0.12401573 0.097394474 0.09179678 0.053731084 -0.025870964 0.0339147 -0.09763193
-0.02731891 -0.002911374 0.07790068 0.05962947 0.0011893273 -0.010261201 0.08794167 -0.08127746
00000000: 8646 af3d 28a5 dd3c efc7 523d 53b0 bebd
00000010: a059 713d 26ff 3a3d 4353 eabc dbca adbd
00000020: 4179 99bd e02e 97bb 10ce aebd b224 e33d
00000030: f035 debd 8534 8c3d 1e45 7e3b a877 f43d
00000040: 089b 7abd 9c07 163d 60ea e0bb 0e7a d73d
00000050: 8f2d 68bc 0345 d93d 0367 1ebc d1b6 cfbd
00000060: 18cf 10bd d412 e5bc d05c 723d f31a 09bd
00000070: 76ca 293d 3c5c 14bd 0c2e 4d3c 58b8 923d
00000080: f1c7 583c 40b3 21bc 6a22 8dbc 627b fbbd
00000090: 18a3 a73b 5016 b5bd ee1c 79bd 60c9 323c
000000a0: 64e3 38bd 20d1 fd3d 8545 fe3c a0f2 edbc
000000b0: 0024 68bd f548 fb3c 0783 06bb 2099 9e3b
000000c0: 6b64 e63c f6fb fd3d c176 c73d f3ff bb3d
000000d0: 2015 5c3d 58ef d3bc 24ea 0a3d 40f3 c7bd
000000e0: e8cb dfbc c0cc 3ebb 648a 9f3d 083e 743d
000000f0: 34e3 9b3a 991e 28bc c31a b43d cc74 a6bd
