assets/model/phrase021_speech_model.pth (torch, 145844 bytes, 7 tensors)

conv1.weight f4 [64, 13, 3]
0	0xbd935d6f	-0.071955554
1	0x3dc569fc	0.096393555
2	0xbe026520	-0.12733889
3	0xbb4c4149	-0.0031166843
4	0xbe00b212	-0.12567928
5	0x3dc94155	0.09826914
6	0x3d768d07	0.060193088
7	0xbdf57a34	-0.11986199
8	0x3cdaa325	0.026689121
9	0xbde98570	-0.11402404
10	0x3dc225f4	0.09479895
11	0x3d1d713e	0.038438074
12	0x3d3594b6	0.044331275
13	0xbdc421f2	-0.09576787
14	0xbd107a7e	-0.035273068
15	0xbda157c7	-0.0787807
16	0xbdbd92d5	-0.092565216
17	0x3c2833d5	0.010266264
18	0x3d55f1b5	0.052232463
19	0x3db4eb58	0.08833951
20	0xbd261951	-0.040551487
21	0x3dc66ad0	0.096883416
22	0xbd0f78f2	-0.03502745
23	0xbd902d03	-0.07039835
24	0x3cfb9c10	0.030714065
25	0xbd4cbb5f	-0.04998338
26	0xbd4d0719	-0.050055597
27	0x3df91068	0.12161332
28	0x3db8f899	0.09031791
29	0xbdf12e5a	-0.11776419
30	0xbc4a59d4	-0.012350518
31	0xba02aff7	-0.0004985327
32	0xbe103c8e	-0.140856
33	0x3cd35e81	0.025801899
34	0x3da7280b	0.081619345
35	0xbe0030d1	-0.12518622
36	0x3e270677	0.1631106
37	0x3c4db3fa	0.012555117
38	0xbd69243a	-0.056919314
39	0xbe0491ab	-0.12946193
40	0xbe1739b1	-0.14768101
41	0x3bbb91f5	0.0057241865
42	0xbdce3ffd	-0.100707985
43	0xbdce5a53	-0.10075822
44	0xbce85b86	-0.028363954
45	0xbc7ddf6f	-0.015495165
46	0x3d9ff426	0.078102395
47	0xbdd9cc66	-0.10634689
48	0xbdca8889	-0.09889323
49	0xbb6af697	-0.0035852545
50	0xbe0e144b	-0.13874929
51	0x3c040742	0.008058371
52	0x3e1ee280	0.1551609
53	0x3d8e6572	0.06952943
54	0x3d83dc62	0.06438519
55	0x3de469eb	0.11153015
56	0x3d29db50	0.04146892
57	0x3d83a465	0.0642784
58	0x3dfd21e7	0.12359982
59	0xbd98efa4	-0.07467583
60	0xbd8f27d1	-0.06990016
61	0x3e0db75e	0.1383948
62	0x3d2061ad	0.03915565
63	0xbdc43249	-0.09579904
64	0x3dfd78f9	0.12376589
65	0xbd72c3e7	-0.05926886
66	0xbe0db1f5	-0.13837416
67	0x3d250e86	0.040297054
68	0xbdd31042	-0.10305835
69	0x3d0e1f42	0.03469778
70	0xbe1909e9	-0.14945187
71	0xbdc109f9	-0.0942573
72	0x3c4c7b84	0.01248062
73	0xbd086e71	-0.03330845
74	0x3d13eecc	0.036116406
75	0x3e20edf1	0.15715767
76	0xbe10b8b2	-0.14132956
77	0xbe086c19	-0.13322486
78	0x3d934e3c	0.071926564
79	0xbce87cec	-0.02837988
80	0x3d6fd1ac	0.058549568
81	0xbd3de2ec	-0.046358988
82	0x3e1a9f40	0.15099812
83	0xbe0164f0	-0.12636161
84	0x3e0a3d5c	0.13499969
85	0x3d63dd71	0.055631105
86	0x3d8e121a	0.06937046
87	0x3df8778f	0.12132179
88	0xbe01d075	-0.12677176
89	0x3cad6c06	0.021169674
90	0x3dbece3a	0.09316678
91	0x3e1b409d	0.15161367
92	0x3e1c5afe	0.15269086
93	0xbdab2dcc	-0.083583444
94	0xbc198c07	-0.009371764
95	0xbe07a376	-0.13245949
96	0x3d957a88	0.072987616
97	0x3db2d2ce	0.08731614
98	0x3d2f1170	0.04274124
99	0xbcd96568	-0.026537612
100	0x3e1345ef	0.14382146
101	0xbd608883	-0.054817688
102	0xbc11eea0	-0.00890699
103	0x3dfe6ed3	0.12423482
104	0x3d333b0f	0.043757495
105	0x3da3dfb5	0.08001653
106	0x3da189eb	0.07887634
107	0x3d988425	0.074470796
108	0x3da5f38c	0.081030935
109	0xbba144d8	-0.004921537
110	0xbe14355d	-0.14473481
111	0x3d6b2dfd	0.057416905
112	0xbdad61cf	-0.08465921
113	0xbc25302d	-0.010082287
114	0x3c43f085	0.0119592
115	0x3de4a7e8	0.11164838
116	0xbe2700bd	-0.16308875
117	0x3e1ccbba	0.1531209
118	0x3e1c3f54	0.15258533
119	0xbcebfb50	-0.028806359
120	0xbd0958a6	-0.033531807
121	0x3db543d4	0.08850828
122	0x3db1509b	0.086579524
123	0xbcdefecb	-0.027221104
124	0x3db1fe03	0.08691027
125	0x3ddcd037	0.10781901
126	0x3d9953c5	0.07486681
127	0x3cf28c88	0.029608026
128	0xbb5b7204	-0.0033484707
129	0xbdb2bfee	-0.08728014
130	0x3e18ae2c	0.14910191
131	0x3e153e3d	0.14574523
132	0xbdbf2b4a	-0.093344286
133	0x3915c9a2	0.00014284861
134	0x3ded4da1	0.11587072
135	0x3e12f5cd	0.14351578
136	0xbe05923d	-0.13044067
137	0x3b81da3c	0.003962783
138	0xbd543354	-0.051806763
139	0xbdefc7d5	-0.11708037
140	0x3d7d6cc6	0.061871313
141	0x3d288c5a	0.041149475
142	0xbdb44edc	-0.08804104
143	0xbc1f25e4	-0.009713624
144	0xbd848a81	-0.0647173
145	0xbde7a1da	-0.113101676
146	0xbcf6d433	-0.030130481
147	0x3ca7da59	0.020489858
148	0xbd53605b	-0.051605564
149	0xbd66cffe	-0.0563507
150	0xbb3a27ed	-0.0028405145
151	0xbdabb6a1	-0.08384443
152	0xbd002515	-0.031285364
153	0x3d87b64a	0.06626566
154	0x3d3d9fe7	0.046295073
155	0x3e07eb9d	0.13273473
156	0xbd045253	-0.032305073
157	0xbda19e2b	-0.07891496
158	0x3d2253b4	0.039630607
159	0x39d47399	0.00040521918
160	0xbd40ba2c	-0.047052547
161	0x3dfa12f4	0.12210646
162	0xbdfa619e	-0.1222565
163	0x3d9f9f78	0.07794088
164	0xbd345432	-0.044025607
165	0x3a434e85	0.000745036
166	0xbd745e23	-0.05966009
167	0xbd0378d4	-0.032097653
168	0xbdd03e52	-0.10168137
169	0x3dbdf7be	0.09275769
170	0xbd858f26	-0.06521444
171	0xbdaf5fc7	-0.0856319
172	0x3cdb8fd1	0.026801975
173	0x3dfbe87f	0.123002045
174	0xbdd06441	-0.10175372
175	0xbe0e0c8f	-0.13871978
176	0x3d87dcfb	0.066339456
177	0x3dc5ccae	0.0965818
178	0x3d46c0e6	0.048523806
179	0x3d8e5d90	0.069514394
180	0x3c8d5570	0.017252654
181	0xbe19e2ce	-0.15027925
182	0xbdd1f93a	-0.10252614
183	0xbd6a9893	-0.057274412
184	0xbd60081e	-0.05469524
185	0x3b14d6ed	0.0022711114
186	0x39b71a4c	0.00034924073
187	0x3e008944	0.12552363
188	0x3e1dc1d6	0.15405974
189	0xbde50e63	-0.11184385
190	0x3bd84e6a	0.0066011446
191	0x3cec651a	0.028856803
192	0x3d81f7f6	0.06346123
193	0x3da13091	0.078705914
194	0xbc59ca0b	-0.0132928
195	0xbdd228c8	-0.10261685
196	0x3e05c226	0.13062343
197	0xbd19be64	-0.037535086
198	0x3d89f712	0.06736578
199	0x3e02a156	0.12756857
200	0xbbbc42b0	-0.0057452545
201	0x3d1c9129	0.038224373
202	0x3d92f319	0.071752734
203	0x3a6ee507	0.0009113107
204	0x3e0a3665	0.13497312
205	0xbd92ab83	-0.071616195
206	0x3e029107	0.12750636
207	0xbdd89f92	-0.105773106
208	0xbd44e870	-0.048073232
209	0xbd5dd92c	-0.05416219
210	0xbd249113	-0.040177416
211	0x3dda83d4	0.106696755
212	0xbe1e9fc2	-0.1549063
213	0xbddbd599	-0.107341
214	0x3c6ae825	0.014337574
215	0x3dbd32cd	0.09238205
216	0xbdbf1794	-0.09330669
217	0xbcaf0fea	-0.021369893
218	0x3d809f6e	0.06280409
219	0xbdfcc6a9	-0.12342579
220	0xbd0c5405	-0.034259815
221	0x3df7894f	0.120867364
222	0x39eb5f8c	0.0004489388
223	0x3daf2eca	0.08553846
224	0xbd1577f2	-0.036491342
225	0x3dc1f6ea	0.09470923
226	0xbe1c8feb	-0.15289275
227	0x3dd8fcbd	0.10595081
228	0x3ded1b1f	0.115774386
229	0x3de5ac1d	0.11214469
230	0xbe12f84f	-0.14352535
231	0x3de88938	0.113542974
232	0x3d502513	0.050816607
233	0xbd4a5506	-0.04939749
234	0xbbcf1c5b	-0.006320519
235	0xbd5a19d8	-0.053247303
236	0xbddf6390	-0.10907662
237	0xbe23f0b2	-0.16009787
238	0x3e12c40f	0.14332603
239	0x3d8628dc	0.06550762
240	0xbbf667bd	-0.007519691
241	0x3d94f095	0.0727245
242	0xbdd02d57	-0.10164898
243	0x3dddf007	0.10836797
244	0x3be86c28	0.0070929714
245	0x3d2a45bb	0.041570406
246	0xbdbddc45	-0.09270529
247	0x3d801685	0.06254295
248	0x3da90b21	0.08254076
249	0x3bae4eac	0.005319437
250	0xbdb87934	-0.09007493
251	0xbdd22792	-0.10261454
252	0x3df48a58	0.119404495
253	0x3e2c3b32	0.16819456
254	0xbe06f032	-0.13177565
255	0x3dd86091	0.105652936

conv1.bias f4 [64]
0	0x3d93043b	0.07178541
1	0x3df7c387	0.12097841
2	0x3d22f96e	0.039788656
3	0xbc6e8016	-0.014556905
4	0xbdbe9dfc	-0.09307477
5	0x3e050324	0.1298948
6	0xbd2d6e21	-0.042341355
7	0x3cf9872b	0.03045996
8	0x3d6a81db	0.057252746
9	0xbc9c01e9	-0.01904388
10	0xbd87ae53	-0.066250466
11	0x3d8d27e1	0.06892372
12	0x3ddbd86a	0.10734637
13	0x3c616c01	0.01375866
14	0xbdcff915	-0.101549305
15	0x3e03f889	0.12887777
16	0x3d008246	0.03137424
17	0x3e20854f	0.15675853
18	0x3d214857	0.03937563
19	0xbda012dd	-0.07816098
20	0xbd693ef8	-0.056944817
21	0x3d3f29a3	0.046670567
22	0xbd9919db	-0.07475635
23	0x3dbc2c7d	0.09188173
24	0x3c04424d	0.008072448
25	0xbe1c076b	-0.15237205
26	0xbdffa9e5	-0.12483577
27	0x3d8a8a3e	0.06764649
28	0xbd1daae9	-0.03849307
29	0xbc9d96fe	-0.019237038
30	0x3d1ed465	0.038776774
31	0x3d33a258	0.043855995
32	0x3dbf6d19	0.093469806
33	0x3d424400	0.04742813
34	0x3e07290e	0.13199255
35	0xbcd911f2	-0.026497815
36	0xbe107371	-0.14106537
37	0x3e0d2bce	0.13786241
38	0x3e1b8885	0.15188797
39	0x3d8b09b2	0.067889586
40	0xbdedc05c	-0.11608955
41	0x3b73332f	0.0037109365
42	0x3e116144	0.1419726
43	0x3dabd017	0.08389299
44	0x3da80d15	0.0820562
45	0xbe1f46b1	-0.1555431
46	0xbd3ffb55	-0.04687055
47	0xbe0c6147	-0.13708983
48	0x3d9347fc	0.07191464
49	0xbd29f190	-0.041490138
50	0xbcac34b3	-0.021021223
51	0x3d7243fa	0.05914686
52	0x3db901be	0.090335354
53	0x3d3f9d98	0.046781152
54	0xbcd1c352	-0.025605831
55	0x3e118c10	0.14213586
56	0xbdeaf465	-0.11472396
57	0xbddbf02c	-0.107391685
58	0x3e130cf9	0.14360417
59	0xbd04093d	-0.032235373
60	0x3d705644	0.05867602
61	0x3dc2dff5	0.09515373
62	0xbcbc3431	-0.022974106
63	0xbe1237af	-0.14279054

conv2.weight f4 [128, 64, 3]
0	0x3ca6da1a	0.02036767
1	0xbc634087	-0.013870365
2	0x3c335428	0.010945357
3	0x3c7a6919	0.015283846
4	0x3d08bec9	0.033385072
5	0x3d5ed833	0.054405402
6	0xbd81bd94	-0.06334987
7	0xbd46398b	-0.04839472
8	0xbd4e8be2	-0.05042637
9	0x3c8b4b00	0.017003536
10	0xbd09afad	-0.033614803
11	0xbd835fe1	-0.06414772
12	0xbd36233b	-0.044467192
13	0xbd264285	-0.04059078
14	0x3d84c057	0.064819984
15	0x3cc1347e	0.0235846
16	0xbd6177d7	-0.05504593
17	0xbd050a4e	-0.03248053
18	0xbcd6f480	-0.026239634
19	0x3d59ed12	0.053204603
20	0x3b94a90d	0.004536754
21	0x3bd5e64d	0.006527698
22	0x3c5b3472	0.013379203
23	0xba823855	-0.0009935001
24	0xbd222d93	-0.039594244
25	0x3c8c4d12	0.017126594
26	0xbc0a0f31	-0.0084264735
27	0x3d36dcd8	0.044644207
28	0xbd54ab46	-0.05192115
29	0x3d002513	0.031285357
30	0xbd3205da	-0.04346261
31	0x3d57f3c6	0.052722715
32	0x3cfac350	0.03061071
33	0xb96d5fbc	-0.00022637745
34	0x3ccb7bc5	0.024839291
35	0x3d380eda	0.04493604
36	0x3c7394f4	0.014867056
37	0x3ca18a5d	0.019719297
38	0xbd16b7b9	-0.036796305
39	0xbd06dd66	-0.032925986
40	0x3aefc8be	0.0018294079
41	0xbd5c6ffe	-0.05381774
42	0xbb94a9dd	-0.004536851
43	0x3c175514	0.009236593
44	0xbcbc94ce	-0.023020174
45	0xbb8208ca	-0.003968333
46	0x3c9ab509	0.018885152
47	0xbcc53998	-0.024075314
48	0x3d78ccd2	0.060742207
49	0x3c45200f	0.012031569
50	0x3d21b5a6	0.039479874
51	0xbd034152	-0.032044716
52	0xbd538878	-0.05164382
53	0x3d30c1d8	0.043153614
54	0x3c8bc4b6	0.017061573
55	0x3c9d0bc2	0.019170646
56	0xbb3d6868	-0.0028901342
57	0x3d4385ca	0.047735013
58	0xbb81203b	-0.0039406097
59	0x3c93e929	0.018055515
60	0x3d5c34f1	0.053761426
61	0xbb3f8ff5	-0.0029230092
62	0xbd902a1d	-0.070392825
63	0x3ceab81a	0.02865224
64	0xbd81e688	-0.063427985
65	0x3a888e3c	0.0010418366
66	0xbc0f05a4	-0.008729372
67	0xbc87e1f4	-0.016587235
68	0xbd78ae1c	-0.06071292
69	0x3d6928f3	0.056923818
70	0xbd4b887f	-0.04969072
71	0xbcf5dfc1	-0.03001392
72	0x3d5d6782	0.05405379
73	0xbb9add44	-0.004726084
74	0xbd43cd4a	-0.0478032
75	0xbd1292b1	-0.035784427
76	0xbca529c6	-0.02016152
77	0x3c233562	0.009961458
78	0xbc5dd20b	-0.013538848
79	0xbd04ef25	-0.03245463
80	0x3d4b4621	0.049627427
81	0xbd020c2e	-0.031749897
82	0x3ca41920	0.020031512
83	0x3d6197dd	0.05507647
84	0x3ced9c66	0.02900524
85	0x3d3380a6	0.04382386
86	0x3d6b5f97	0.05746421
87	0xbceed10e	-0.02915242
88	0xbd294984	-0.041329876
89	0x3c85e810	0.016346008
90	0x3d37a5c7	0.044835832
91	0xbc35e55f	-0.01110205
92	0x3d08fb5c	0.03344284
93	0xbd61cbfd	-0.05512618
94	0x3c0f2603	0.00873709
95	0xbc4bd1ef	-0.012440189
96	0xbc94bb6a	-0.018155772
97	0x3cc58e58	0.024115726
98	0xbce51bb7	-0.027967317
99	0xbcc2607b	-0.023727646
100	0x3d217dd3	0.039426636
101	0xbd603df5	-0.054746587
102	0xbc9b58a9	-0.018963175
103	0xbd3187bf	-0.04334235
104	0x3d555a96	0.052088343
105	0xbd86fdc3	-0.0659137
106	0x3b93814c	0.0045014974
107	0xbcc84448	-0.024446622
108	0xbd300ef3	-0.042983007
109	0xbcdb3af4	-0.02676151
110	0x3c89551f	0.016764222
111	0x3d87ea9c	0.06636545
112	0x3d516f45	0.051131506
113	0x3d38e806	0.04514315
114	0xbd886841	-0.0666051
115	0x38582a50	5.153782e-05
116	0x3ca91911	0.020641835
117	0x3d8c1d31	0.06841505
118	0x3cd766a7	0.026294066
119	0xbd609827	-0.054832604
120	0xbd8fa602	-0.07014085
121	0xbd7e6ce2	-0.062115557
122	0xbcc1ed33	-0.023672676
123	0x3d04d299	0.032427404
124	0xbd637416	-0.05553063
125	0x3d826d26	0.06368475
126	0xbc913f98	-0.01773052
127	0x3d39e78d	0.04538684
128	0xbd17f4d6	-0.037098728
129	0xbd5c491d	-0.053780664
130	0xbbad5cda	-0.00529061
131	0xbd6dcc12	-0.058055945
132	0x3d0be1aa	0.034150757
133	0x3b82e99f	0.003995135
134	0x3d7e16c0	0.062033415
135	0x3b8d2bc6	0.0043081967
136	0xbd64d289	-0.055864844
137	0x3c2ca3b4	0.010537077
138	0xbd816d43	-0.06319668
139	0x3cbbc38e	0.022920396
140	0x3d5004f3	0.05078597
141	0x3d8452dd	0.064611174
142	0xbd2ed1ab	-0.042680424
143	0x3cbe09ee	0.023198094
144	0xbd2c7db0	-0.042112052
145	0x3ced22e7	0.028947307
146	0xbca8cc7a	-0.020605315
147	0xbd801e49	-0.062557764
148	0x3d21cac7	0.039500024
149	0x3d250bc5	0.040294427
150	0x3d84ad51	0.0647837
151	0xbc370bc0	-0.011172235
152	0xbd4b78c2	-0.04967571
153	0x3bc88d36	0.0061203493
154	0x3d897b96	0.06713025
155	0xbc8ca304	-0.017167576
156	0x3d0a41a6	0.033754013
157	0x3d8dd487	0.06925302
158	0xbce702b1	-0.028199526
159	0xbd12ed6c	-0.035870954
160	0xbd8832d9	-0.066503234
161	0xbd5d6fe7	-0.054061797
162	0xbaa0a9d7	-0.0012257647
163	0xbd943157	-0.07235973
164	0xbd7509bd	-0.05982374
165	0x3d5b1fa0	0.053496957
166	0xbd530f58	-0.051528305
167	0xbbc56f9b	-0.0060252673
168	0xbb90cd5c	-0.004419012
169	0xbc80714a	-0.01567902
170	0xbd069a6c	-0.032862112
171	0x3cefe936	0.029286008
172	0x3d840ed9	0.064481445
173	0xbab429e2	-0.0013745392
174	0xbd24f0eb	-0.04026882
175	0xbcd79bd5	-0.026319424
176	0xbd652912	-0.05594737
177	0x3ce2b4b8	0.027674064
178	0xbd10aa5e	-0.035318725
179	0x3ca6e7de	0.020374235
180	0xbc5c1cc0	-0.013434589
181	0xbca5567c	-0.02018284
182	0xbd262a77	-0.04056784
183	0xbd18202c	-0.037140056
184	0xbcdad9e5	-0.026715228
185	0xbc85b868	-0.016323283
186	0x3d7b4d33	0.06135292
187	0xbc4dc652	-0.01255949
188	0xbc7b6a60	-0.015345186
189	0x3d8100d4	0.06298986
190	0xbd3071a7	-0.043077137
191	0xbd2b3827	-0.041801598
192	0x3b0bd369	0.0021335727
193	0xbd605b45	-0.05477454
194	0xbc879be2	-0.016553823
195	0xbcb851b4	-0.022499897
196	0x3bd270eb	0.0064221523
197	0xbd683f40	-0.056700945
198	0x3d571062	0.05250586
199	0x3d1f3e72	0.038877912
200	0xbb7d7ee0	-0.003868036
201	0xbd95db34	-0.073172
202	0x3d31c8fa	0.043404557
203	0xbd3a0f9b	-0.04542504
204	0x3d8e494a	0.069475725
205	0x3c9d9c64	0.019239612
206	0x3d818434	0.06324044
207	0x3cb6750f	0.022272615
208	0x3d5c6d38	0.053815097
209	0xbc32f0ca	-0.010921666
210	0x3c45bcdd	0.012068954
211	0xbd5ce980	-0.05393362
212	0x3b82299a	0.0039722444
213	0xbc0d728b	-0.008633266
214	0x3d69d697	0.057089414
215	0x3d09afb4	0.03361483
216	0xbd0633dd	-0.032764304
217	0xbccf7e30	-0.025328726
218	0x3ca73246	0.020409714
219	0x3ca831ad	0.0205315
220	0xbd84b071	-0.06478966
221	0xbcc26eb8	-0.023734435
222	0x3a2cb50d	0.0006588258
223	0x3d0655b8	0.03279659
224	0xbc87c037	-0.016571147
225	0xbd581fcc	-0.0527647
226	0x3d3a1955	0.045434315
227	0x3d395af2	0.045252748
228	0xbc364b10	-0.011126295
229	0xbc96aac7	-0.01839198
230	0xbb9b3339	-0.004736331
231	0x3cdf0b4d	0.027227068
232	0x3c5437e5	0.012952779
233	0xbc49e176	-0.0123218205
234	0x3a16b23e	0.0005748606
235	0x3d5f103d	0.054458845
236	0x3bbddd7d	0.0057942257
237	0xbc3abb9a	-0.011397267
238	0x3be9a102	0.0071297893
239	0xbcc0a0a5	-0.023514101
240	0x3d659f57	0.05606016
241	0xbd475dff	-0.048673626
242	0xbd32c508	-0.043644935
243	0xbb37145e	-0.0027935724
244	0x3d844b18	0.064596355
245	0xbb6ee2ff	-0.0036451218
246	0xbd8d1da0	-0.06890416
247	0xbc50a253	-0.012734014
248	0x3cbc6555	0.022997538
249	0x3bd3856a	0.006455113
250	0xbb9abfe1	-0.004722581
251	0x3cccabb9	0.024984227
252	0xbd448e30	-0.047987163
253	0x3d617ceb	0.05505077
254	0xbd6b592e	-0.057458095
255	0x3c53f078	0.01293575

conv2.bias f4 [128]
0	0x3d1b8bae	0.037975006
1	0xbd8f6f2f	-0.070036285
2	0x3d355759	0.044272754
3	0x3bf4d396	0.007471512
4	0x3d20e330	0.039279163
5	0xbccce147	-0.025009764
6	0x3d193a71	0.03740925
7	0xbb0fecde	-0.0021961252
8	0xbcb2d0a3	-0.021828001
9	0xbce5e55e	-0.028063472
10	0xbcc3545b	-0.023843935
11	0xbcbf6668	-0.02336426
12	0x3ad1593a	0.0015972026
13	0x3cf6cb4d	0.030126238
14	0xbd00ca9a	-0.031443216
15	0xbd6e08e6	-0.058113955
16	0x3c060488	0.008179791
17	0xbd7c00cb	-0.061524194
18	0xbd8bbfc8	-0.06823689
19	0x385466f7	5.0640632e-05
20	0xbd862ccb	-0.06551512
21	0xbc704860	-0.014665693
22	0xbcf84045	-0.030304084
23	0x3c969f6c	0.018386565
24	0xbd306b84	-0.043071285
25	0xbd2bea8f	-0.04197174
26	0x3b2feece	0.002684522
27	0x3ca67c45	0.020322928
28	0x3d185965	0.03719463
29	0xbd863809	-0.065536566
30	0xbcc2c54c	-0.02377572
31	0xbd080285	-0.033205528
32	0xbd69ae3b	-0.057050925
33	0xbd613ba6	-0.054988526
34	0xbc85191a	-0.01624732
35	0x3c871a93	0.016492164
36	0x39c9909c	0.0003844545
37	0xbc255ab1	-0.010092423
38	0xbc528bf8	-0.012850754
39	0x3c6ab1b4	0.014324594
40	0x3d4859b8	0.048913687
41	0xbbf9093d	-0.0075999782
42	0xbc99f6ac	-0.01879438
43	0xbd238eed	-0.039931227
44	0xbcdf8b86	-0.02728821
45	0xbd54f428	-0.051990658
46	0x3d433b0f	0.047663745
47	0x3c85ee33	0.016348934
48	0xbd82704a	-0.06369074
49	0x3d699d6c	0.057034895
50	0xbce854b0	-0.028360695
51	0x3c883346	0.016626012
52	0x3d10fac3	0.035395395
53	0x3ca5051f	0.020144043
54	0x3d64ffee	0.055908136
55	0x3aec07e3	0.0018007722
56	0xbc862cc9	-0.016378777
57	0xbb129f4b	-0.0022372778
58	0xbcd5f656	-0.026118439
59	0xbd8ec0e0	-0.06970382
60	0xbcb0d969	-0.021588044
61	0xbc0559d6	-0.008139094
62	0xbc4a366b	-0.012342076
63	0x3d3b66f1	0.04575247
64	0x3d438bb3	0.04774065
65	0xbcd4f182	-0.025994066
66	0xbc66ae90	-0.014079705
67	0x3af1f6b6	0.0018460366
68	0x3d47a3cb	0.04874019
69	0xbd1c975d	-0.03823029
70	0x3b8ff744	0.00439349
71	0xbd6d95ef	-0.058004316
72	0x3d140aa8	0.036142975
73	0xbd6c0e56	-0.05763086
74	0x3d8849d6	0.06654708
75	0x3c176e72	0.009242641
76	0xbd3cf0b9	-0.04612801
77	0xbd771e9e	-0.060331933
78	0x3d79c1d1	0.060975853
79	0xbd1163f7	-0.035495725
80	0xbbf2e4d6	-0.0074125333
81	0x3c3a377c	0.011365768
82	0x3c1a2324	0.009407792
83	0xbc96d166	-0.018410396
84	0x3cdc5fa9	0.026901083
85	0xbd0c1c3c	-0.034206614
86	0x3d896377	0.067084245
87	0xbd893a8d	-0.06700621
88	0xbd76ac39	-0.060222838
89	0xbd2ee524	-0.042698994
90	0xbbb32672	-0.0054672295
91	0x3d880ef8	0.0664348
92	0xbd89ddd5	-0.06731764
93	0xbd6eb5f0	-0.058278978
94	0xbcdb86e8	-0.026797727
95	0x3ce0f902	0.027462486
96	0xbd838c64	-0.06423262
97	0x3cf03faa	0.029327232
98	0xbd730d52	-0.059338875
99	0x3ce43ef7	0.027862055
100	0xbd96e9f5	-0.073688425
101	0xbca986c5	-0.020694146
102	0x3d16e766	0.036841772
103	0xbc4284de	-0.011872498
104	0x3cc064a1	0.023485484
105	0x3aca75db	0.0015446501
106	0xbd9c1969	-0.07622034
107	0x3d68df03	0.056853306
108	0xbd0f3ab8	-0.034968108
109	0xbd77ac5e	-0.060467117
110	0xbd1044df	-0.03522193
111	0x3c23474b	0.009965728
112	0x3d8fc3a4	0.07019737
113	0xbd3f35bc	-0.046682104
114	0xbd8d63b1	-0.0690378
115	0xbd4c1cd3	-0.049832176
116	0xbd2b45f7	-0.04181477
117	0x3ac91e8e	0.0015344189
118	0xbbd22ae7	-0.0064138058
119	0xbcb6b74a	-0.022304196
120	0xbc73388a	-0.014845023
121	0x3c2bb667	0.0104805
122	0xbd4f7d1f	-0.050656434
123	0x3d040496	0.032230936
124	0xbc92b059	-0.017906355
125	0x3d69426e	0.056948118
126	0xbc9486e4	-0.018130727
127	0x3c64727f	0.013943314

fc1.weight f4 [64, 128]
0	0x3d737578	0.0594382
1	0xbc6a6864	-0.014307115
2	0xbd834cf8	-0.06411165
3	0xbd248924	-0.04016985
4	0xbd709edc	-0.05874525
5	0xbd903014	-0.0704042
6	0xbd22f8b2	-0.039787956
7	0xbca3b698	-0.019984528
8	0x3d2757be	0.04085516
9	0xbd2710ad	-0.040787388
10	0xbd7ff800	-0.06249237
11	0xbd7d1248	-0.061785012
12	0x3dadd853	0.08488526
13	0x3cadea3a	0.021229852
14	0x3d9380a4	0.072022706
15	0x3d5530e0	0.052048564
16	0x3d94d9a6	0.07268076
17	0xbc842fef	-0.016136138
18	0xbd854fc1	-0.065093525
19	0x3d6abe95	0.05731066
20	0x3d49b3a1	0.049243573
21	0x3ca00a04	0.019536026
22	0xbd9efdef	-0.07763278
23	0xbd6936c3	-0.05693699
24	0xbd379132	-0.044816203
25	0xbc48cfb1	-0.012256549
26	0x3d3453e9	0.044025335
27	0x3d0293e9	0.03187934
28	0xbd869747	-0.065718226
29	0xbd636fa6	-0.055526398
30	0xbd9115d1	-0.07084239
31	0x3da632e4	0.08115175
32	0x3d148745	0.036261816
33	0xbd459fe3	-0.048248183
34	0xbd1af90e	-0.037835173
35	0xbd58a621	-0.052892808
36	0x3c9956ee	0.01871821
37	0x3be0e64e	0.006863392
38	0xbda24428	-0.07923156
39	0xbd195a20	-0.037439466
40	0xbd4cc9b1	-0.049997035
41	0xbd4a5087	-0.049393203
42	0xbd2962d5	-0.04135402
43	0x3da1b41a	0.0789568
44	0xbd864d97	-0.06557768
45	0xbd23581b	-0.039878946
46	0xbbea3dc0	-0.0071484745
47	0xbd9490d1	-0.07254184
48	0xbd8b0957	-0.06788891
49	0x3d8a690d	0.06758318
50	0xbcd83271	-0.02639124
51	0x3db2dbe6	0.087333485
52	0xbd9d6fc5	-0.07687334
53	0x3dabcd02	0.083887115
54	0x3d51da69	0.051233683
55	0xbc6d30da	-0.014476979
56	0xbc8a80b6	-0.016907077
57	0xbdadb3d7	-0.08481567
58	0xbd35c552	-0.044377632
59	0x3aaf49dc	0.0013373452
60	0x3d74b37d	0.059741486
61	0xbc717981	-0.014738441
62	0x3c7a44fd	0.015275237
63	0x3c7e19b6	0.01550906
64	0x3d91795b	0.07103225
65	0x3d0f4b14	0.03498371
66	0xbcd2497a	-0.025669802
67	0xbc06ec11	-0.008234994
68	0x3c8fc200	0.017548561
69	0x3d899a4e	0.067188844
70	0x3daaf350	0.083471894
71	0xbc5f66b3	-0.013635325
72	0x3cb1dc88	0.021711603
73	0x3d7bb98b	0.061456244
74	0x3c06971d	0.008214739
75	0x3d46bd01	0.048520092
76	0x3cf1c12b	0.029511055
77	0xbd1ec45d	-0.038761485
78	0x3d44d9fc	0.04805945
79	0xbc6e5883	-0.01454747
80	0xbc5b036f	-0.013367518
81	0xbbc51394	-0.006014297
82	0xbc2ef912	-0.0106795
83	0x3d0f53fa	0.034992196
84	0xbc97e6f8	-0.018542752
85	0xbd1bd05c	-0.038040504
86	0xbcfa1883	-0.030529266
87	0x3da671f0	0.081272006
88	0xbd82d75b	-0.06388732
89	0xbd3b960a	-0.045797385
90	0xbcc747e7	-0.024326278
91	0xbc18a94c	-0.009317707
92	0xbd3159e4	-0.043298617
93	0x3cbe0d7e	0.023199793
94	0xbc95222d	-0.018204773
95	0xbd1474de	-0.036244266
96	0x3c6f911a	0.014621997
97	0xbcfd04b6	-0.030886035
98	0x3d34cf20	0.044142842
99	0xbd7feb55	-0.06248029
100	0x3c96f97a	0.018429507
101	0xbd16e12c	-0.036835834
102	0x3c2778a6	0.010221636
103	0x3b3dd5ba	0.0028966502
104	0x3da2c6c1	0.079480655
105	0xbd89e377	-0.067328386
106	0x3c66518c	0.014057528
107	0xbd409adf	-0.047022697
108	0xbb75d4ae	-0.00375108
109	0xbd2b63cb	-0.041843217
110	0xbcf72e98	-0.030173585
111	0xbd11d081	-0.035599235
112	0xbd6386eb	-0.05554859
113	0x3d984530	0.074350715
114	0xbd19e662	-0.037573226
115	0xbcde0b6f	-0.027105061
116	0x3a498445	0.0007687251
117	0xbd111f88	-0.03543046
118	0x3cac2dae	0.021017876
119	0x3d8e1b4f	0.069388025
120	0xbda3c139	-0.07995839
121	0x3a4ea3dd	0.0007882694
122	0x3daf0e6e	0.08547674
123	0x3c9cf01e	0.019157466
124	0xbd8cf458	-0.06882542
125	0x3c673419	0.014111542
126	0x3da65046	0.0812078
127	0x3cbf080e	0.02331927
128	0x3d86b2f7	0.065771036
129	0xbd04ef59	-0.032454822
130	0x3bc921d4	0.006138066
131	0xbc2e2f3c	-0.010631379
132	0xbd93168f	-0.07182037
133	0x3db6c3f4	0.08924094
134	0x3da38224	0.07983807
135	0xbcdad918	-0.026714846
136	0x3d6aa90f	0.057290133
137	0x3c052f22	0.008128913
138	0xbc6cb1c1	-0.014446677
139	0xbd815761	-0.06315494
140	0x3c9338dd	0.01797145
141	0x3da72463	0.08161237
142	0xbccee23b	-0.02525436
143	0xbd8693c7	-0.06571155
144	0x3d466712	0.04843814
145	0xbd926345	-0.071478404
146	0x3ca10541	0.019655826
147	0xbda022fc	-0.07819173
148	0x3bc86efc	0.006116746
149	0xbd243e08	-0.04009822
150	0xbcaaa91d	-0.020832593
151	0x3c6ebee8	0.014571883
152	0x3d864014	0.06555191
153	0x3d4b2072	0.04959149
154	0x3cfad674	0.030619837
155	0x3d99dac4	0.07512429
156	0xbc446fd5	-0.011989553
157	0x3cfb77c1	0.030696752
158	0xbd895d1f	-0.067072146
159	0xbd1e6b22	-0.03867639
160	0x3be68f56	0.00703613
161	0x3d262eec	0.040572092
162	0x3c920e73	0.017829156
163	0x3d9a7e1f	0.07543587
164	0x3d9d5b13	0.07683387
165	0x3d8d00d1	0.06884921
166	0x3d3582c0	0.044314146
167	0x3d5b9fa8	0.053619057
168	0x3cb5c72e	0.022189703
169	0x3d56813e	0.05236935
170	0xbc6a553e	-0.01430255
171	0xbd83fb23	-0.06444385
172	0x3d1b3c58	0.037899345
173	0x3ca57e52	0.020201836
174	0xbdab478f	-0.08363258
175	0x3d38d458	0.04512438
176	0x3d20a1dc	0.03921686
177	0x3ceed089	0.029152172
178	0xbcad5ccf	-0.021162419
179	0xbd6d1a12	-0.05788619
180	0xbc9d8619	-0.019228982
181	0x3d3591ef	0.044328626
182	0x3d3aeb5a	0.045634605
183	0xbda09208	-0.07840353
184	0x3cd49831	0.025951477
185	0xbda332df	-0.07968687
186	0xbd5f3db5	-0.054502208
187	0x3d6dccca	0.05805663
188	0xbd9747c3	-0.07386734
189	0x3d158a49	0.036508832
190	0xbca13d89	-0.019682663
191	0xbd6a47c9	-0.057197366
192	0x3cd9b68e	0.026576307
193	0xbd598f6f	-0.053115305
194	0xbb89a608	-0.0042007007
195	0x3d23a0e2	0.03994835
196	0xbc8e7a5a	-0.017392326
197	0x3cec2f89	0.02883126
198	0x3d3b44af	0.0457198
199	0xbc842c1c	-0.016134314
200	0x3d70c352	0.058780022
201	0xbd0c7b9e	-0.034297578
202	0x3d70793a	0.05870936
203	0x3db26022	0.08709742
204	0xbd7d174d	-0.0617898
205	0x3cb95ccd	0.022627259
206	0x3d02afdc	0.031905994
207	0x3d643f06	0.055724166
208	0xbca9091f	-0.020634232
209	0x3d0afff5	0.033935506
210	0xbd3fdecc	-0.046843335
211	0x3d7d2183	0.061799537
212	0x3d84e69f	0.064893
213	0xbd8ab442	-0.06772663
214	0xbda718c2	-0.08159019
215	0x3ce645c4	0.028109439
216	0x3c7beb22	0.015375884
217	0x3d53a02d	0.051666427
218	0x3d4cf1dd	0.050035346
219	0x3d7ccb08	0.061717063
220	0xbd43da24	-0.047815457
221	0x3d647bd9	0.055782173
222	0xbc9c27c5	-0.019061932
223	0x3d69036e	0.056888036
224	0x3cfc7002	0.030815128
225	0x3a306439	0.00067288015
226	0xbd33d45f	-0.043903705
227	0x3be3e9fb	0.006955383
228	0x3d685ab3	0.056727123
229	0x3b9b88c5	0.004746529
230	0xbc8637e2	-0.016384069
231	0xbd35de0f	-0.044401225
232	0xbd728ea1	-0.059218053
233	0xbd3b349c	-0.04570447
234	0xbbf0a223	-0.007343547
235	0x3d27fc21	0.041011933
236	0x3d61d969	0.05513898
237	0xbc8a25dd	-0.016863758
238	0x3cdac347	0.026704444
239	0xbcd317d2	-0.025768194
240	0xb934f5d6	-0.00017257719
241	0x3d9a4b77	0.07533925
242	0xb9e2d3d0	-0.00043263892
243	0x3d3e561c	0.04646884
244	0xbd8d4263	-0.06897428
245	0x3d5fcc67	0.054638293
246	0xbda6afbb	-0.08138987
247	0x3cb196e7	0.021678401
248	0x3d12168a	0.035666026
249	0xbd27320b	-0.04081921
250	0xbba000ed	-0.004882923
251	0xbc0e6429	-0.008690872
252	0x3dac565e	0.08414911
253	0x3d251edf	0.040312644
254	0xbce12ea4	-0.02748806
255	0x3d083c6c	0.033260748

fc1.bias f4 [64]
0	0x3cc7b0d4	0.02437631
1	0xbc0b5214	-0.008503456
2	0xbb6aa8ef	-0.0035806259
3	0x3ca1b881	0.019741299
4	0xbd969fa3	-0.07354667
5	0xbd886dab	-0.066615425
6	0xbd3495ca	-0.044088162
7	0x3d7af7e6	0.06127157
8	0x3d22d7c5	0.039756555
9	0x3c42a6df	0.0118806055
10	0x3da0fdb0	0.07860887
11	0xbd39f451	-0.045399014
12	0x3a4e36ea	0.0007866459
13	0xbbbcefe5	-0.0057659023
14	0xbd084443	-0.033268224
15	0xbd2035b8	-0.03911373
16	0xbd174487	-0.036930587
17	0x3d75ceaf	0.060011562
18	0x3d29f155	0.041489918
19	0xbca39eee	-0.019973245
20	0xb983e676	-0.00025157974
21	0x3d13ad50	0.036053956
22	0xbd5d4340	-0.054019213
23	0x3d53250a	0.051548995
24	0x3cdf8e91	0.02728966
25	0xbd8c781e	-0.06858848
26	0x3d1b502d	0.03791826
27	0xbda3f4ef	-0.08005702
28	0x3d833e76	0.06408398
29	0x3d0391f0	0.0321216
30	0x3d2356e1	0.039877776
31	0xbd6ad6ac	-0.057333633
32	0x3b79c7e0	0.003811352
33	0xbd276b02	-0.040873535
34	0xbd027b6a	-0.031855978
35	0xbd6a2506	-0.057164215
36	0x3d96300b	0.07333382
37	0xbdb2573f	-0.08708047
38	0xbd0aa9e5	-0.03385343
39	0xbd7abb83	-0.06121398
40	0x3caae9ff	0.020863531
41	0x3b49710d	0.003073755
42	0x3c8bb85f	0.017055688
43	0xbd2bfc5c	-0.041988716
44	0xbd54c7cc	-0.051948354
45	0x3ccd881d	0.025089318
46	0xbd86c3a0	-0.06580281
47	0xbc2681af	-0.010162755
48	0xbb4369a0	-0.0029817596
49	0x3d5babed	0.053630758
50	0xbd079360	-0.033099532
51	0xbba82e20	-0.0051324517
52	0xbd7d906b	-0.061905306
53	0x3d220a3a	0.039560534
54	0xbcdd2ebb	-0.026999822
55	0x3d81aaaf	0.063313834
56	0xbd7a6a3b	-0.061136466
57	0xbc312588	-0.010812171
58	0xbd89d025	-0.067291535
59	0x3c75d4ac	0.015004318
60	0x3c19020a	0.009338865
61	0xbc57ec08	-0.013178833
62	0x3da60c8c	0.08107862
63	0xbd86d521	-0.0658362

fc2.weight f4 [1, 64]
0	0x3d59e24d	0.053194333
1	0x3d2e483b	0.042549353
2	0xbc2d7804	-0.010587696
3	0x3cd37e21	0.025816979
4	0xbdd7cf9a	-0.10537644
5	0xbdd2ac41	-0.10286761
6	0xbdbb59a8	-0.0914796
7	0xbdbc107f	-0.09182834
8	0x3df16705	0.117872275
9	0xbcd6e10d	-0.02623036
10	0xbda5fe48	-0.08105141
11	0xbdd1abc5	-0.102378406
12	0x3ca3dc63	0.02000255
13	0x3d96d717	0.07365244
14	0xbd1c381d	-0.03813945
15	0x3cfa51e0	0.03055662
16	0x3de788de	0.11305402
17	0x3bf203c4	0.007385703
18	0xbbc4dd52	-0.0060078287
19	0xbcbd9f10	-0.023147136
20	0x3cc42ca8	0.023947075
21	0xbd9bbda6	-0.07604532
22	0xbd9ba798	-0.07600325
23	0x3d75fba4	0.060054436
24	0xbdb8b159	-0.090182014
25	0xbd9adf23	-0.07562091
26	0x3d16273a	0.036658503
27	0xbd1966d8	-0.037451595
28	0xbdcec721	-0.100965746
29	0x3dd36e74	0.10323802
30	0xbc4d6c72	-0.012538062
31	0x3d84e3cb	0.064887606
32	0xbdd95ef0	-0.10613811
33	0x3ba4acd8	0.0050254874
34	0x3df50c38	0.11965221
35	0x3c24ac60	0.010050863
36	0x3da97c3c	0.08275649
37	0x3dcfd3fb	0.10147854
38	0xbd84ba9c	-0.064809054
39	0x3da9c258	0.08289021
40	0x3df9a876	0.121903345
41	0xbd5d59d8	-0.05404076
42	0xbdaebed2	-0.0853249
43	0x3dade867	0.08491593
44	0x3dada186	0.08478074
45	0x3dfa3219	0.122165866
46	0x3cfbf261	0.030755224
47	0x3c418633	0.011811781
48	0x3d95fbde	0.073234305
49	0xbd036a1c	-0.032083616
50	0x3c93353b	0.017969718
51	0xbba126a0	-0.0049179345
52	0xbc76ff0b	-0.015075455
53	0xbd4b6718	-0.049658865
54	0x3d654181	0.055970673
55	0xbd02aad0	-0.03190118
56	0x3de0e344	0.109808475
57	0x3c9fdd58	0.019514725
58	0xbda63d57	-0.081171684
59	0xbd833949	-0.06407411
60	0xbde8bfb4	-0.113646895
61	0x3df6404e	0.12023984
62	0x3dd19939	0.10234303
63	0x3df637c2	0.12022354
