assets/model/phrase018_speech_model.pth (torch, 145844 bytes, 7 tensors)

conv1.weight f4 [64, 13, 3]
0.03594434 0.01828825 0.078333996 -0.005101343 -0.11048358 0.1563726 0.074057855 -0.09105351
-0.0103254365 -0.027105326 -0.07712952 -0.028144075 0.0619765 0.057820734 -0.044729587 0.11147963
-0.16319235 -0.048129365 -0.008825357 0.12930645 -0.12521552 -0.09900479 0.10025427 0.071312465
0.05249475 0.01593701 0.1504394 -0.08479672 -0.115952365 -0.02890504 0.15036991 0.041048348
0.017398573 0.13013007 -0.061032854 -0.1046698 0.10590449 0.12396275 -0.07519416 -0.120480575
-0.12315099 -0.007358595 -0.076141536 -0.14234653 0.07681911 -0.0487169 0.15524021 0.034906376
0.042596724 -0.10909405 -0.12572771 -0.09498721 0.0008268235 -0.078105345 -0.013866729 0.017828202
0.018245973 0.061863486 0.023345053 -0.10249406 0.10097868 -0.108139105 -0.12635414 0.15051273
-0.060230706 0.05930558 0.11703388 0.12208142 0.009426068 0.04646151 -0.15541103 0.15421486
0.012735857 0.050282024 0.020338094 -0.07606638 0.108116545 0.009981542 -0.03048411 -0.003319061
0.07970967 0.015256152 0.056043364 0.15286852 -0.08951035 -0.108343154 0.11571612 -0.099564806
0.13205396 0.070605166 -0.09360287 0.008750533 -0.09269154 -0.036326565 -0.10261517 -0.14146209
-0.15189205 -0.07676533 0.14205813 0.053914968 0.10261561 -0.116072774 0.14045347 0.10940576
0.13594879 0.122657575 -0.0101719415 -0.010808816 0.14494707 -0.13105118 -0.15723713 0.06581874
-0.11893065 -0.021042956 -0.112128966 0.035062462 0.06801236 -0.106615864 -0.01670603 0.04484561
-0.036802735 -0.07397804 -0.045901563 -0.041510645 -0.13209124 0.0009789126 0.08516299 -0.15502879
0.02927405 0.022728823 0.04041634 -0.112955704 0.11134386 0.096133254 0.082755804 -0.007215722
-0.13078971 -0.02901249 0.031261165 0.010701217 0.08491285 0.13545413 -0.055422593 -0.076596655
0.15121362 0.109082386 -0.14318341 0.020383246 -0.06254822 0.06466409 -0.09417344 0.037578646
-0.07252663 -0.08635942 0.0906307 -0.03720838 0.0037718245 0.09888235 0.07870905 0.102047965
-0.038952976 -0.00023998914 -0.06960102 0.054738168 0.01826842 0.15306976 0.110893816 -0.014197625
0.09911896 0.026156334 -0.10205632 -0.07660964 0.14872724 -0.15348352 0.068270154 -0.15134068
-0.03211449 0.06291523 0.14606357 0.10920361 -0.093767755 -0.07016368 -0.09316786 0.07159597
-0.1002194 -0.15959643 0.14390278 0.15889704 -0.0863406 -0.097766474 0.13511324 -0.12829651
0.12803598 -0.01530912 0.06424292 -0.06884513 -0.032341886 0.05496283 0.12978257 -0.023441005
-0.05078546 -0.017908208 0.029664954 -0.015153599 -0.0741679 -0.024534872 -0.029496836 -0.0990185
0.027247963 -0.00038841384 0.035332385 0.079042636 0.06131831 -0.14513177 7.405214e-05 -0.08107201
0.005709856 0.036449865 -0.036742914 -0.079020165 -0.045259625 -0.021731358 -0.07286058 -0.14867839
-0.056893885 -0.12666962 -0.09602422 -0.026450822 -0.05832877 0.12004765 0.047398075 -0.07838341
0.020438552 -0.016724424 0.025651842 -0.052404 0.025822025 0.0011871302 -0.06371908 -0.069863304
0.015953261 -0.14179511 -0.071476206 0.12669142 -0.1562379 0.100439414 -0.12733516 -0.06706684
0.07559213 -0.12835525 -0.051758643 -0.035250198 -0.13567105 0.09786661 0.15192449 0.122695476
00000000: 5f3a 133d 3dd1 953c 936d a03d 2b29 a7bb
00000010: 3745 e2bd 2420 203e a5ab 973d 437a babd
00000020: 052c 29bc fd0b debc 15f6 9dbd 678e e6bc
00000030: 12db 7d3d 6fd5 6c3d 5f36 37bd 6f4f e43d
00000040: e51b 27be 4c23 45bd 3b98 10bc e968 043e
00000050: 7f38 00be 06c3 cabd 1c52 cd3d 450c 923d
00000060: bc04 573d 558e 823c c90c 1a3e e7a9 adbd
00000070: 6f78 edbd 43ca ecbc 92fa 193e 5022 283d
00000080: 7487 8e3c d140 053e 96fd 79bd 1f5d d6bd
00000090: 74e4 d83d 2fe0 fd3d 65ff 99bd 85be f6bd
000000a0: 9636 fcbd 5e20 f1bb 18f0 9bbd 4ac3 11be
000000b0: 5653 9d3d 5f8b 47bd 4af7 1e3e fdf9 0e3d
000000c0: e779 2e3d b46c dfbd c4be 00be a888 c2bd
000000d0: 30bf 583a b2f5 9fbd 4731 63bc 730c 923c
000000e0: 9478 953c 9164 7d3d 203e bf3c 68e8 d1bd
000000f0: e9cd ce3d 0978 ddbd fb62 01be 0220 1a3e
00000100: 79b4 76bd 68ea 723d 75af ef3d d305 fa3d
00000110: cb6f 1a3c 6d4e 3e3d 1224 1fbe 80ea 1d3e
00000120: 0eaa 503c 86f4 4d3d 139c a63c b1c8 9bbd
00000130: 356c dd3d 9f89 233c d0b9 f9bc 9a84 59bb
00000140: d33e a33d f0f4 793c ba8d 653d 9189 1c3e
00000150: 3451 b7bd 04e3 ddbd 93fc ec3d a2e8 cbbd
00000160: 2739 073e 7199 903d ddb2 bfbd 655e 0f3c
00000170: 10d5 bdbd 2acb 14bd e727 d2bd 70db 10be
00000180: 9789 1bbe 2437 9dbd b077 113e f1d5 5c3d
00000190: 2228 d23d 90b7 edbd 09d3 0f3e 2110 e03d
000001a0: 2936 0b3e e533 fb3d 37a8 26bc 7617 31bc
000001b0: 016d 143e 4832 06be c502 21be facb 863d
000001c0: ea91 f3bd 4762 acbc dfa3 e5bd a89d 0f3d
000001d0: 104a 8b3d 6b59 dabd 16db 88bc 08b0 373d
000001e0: 77be 16bd cc81 97bd 4703 3cbd 1107 2abd
000001f0: ed42 07be db4e 803a ef69 ae3d debf 1ebe
00000200: 22d0 ef3c cc31 ba3c 9b8b 253d 5255 e7bd
00000210: 4008 e43d 83e1 c43d e07b a93d dd71 ecbb
00000220: bded 05be 9aab edbc b50b 003d 2854 2f3c
00000230: cae6 ad3d 7db4 0a3e cd02 63bd b5de 9cbd
00000240: bed7 1a3e 9666 df3d ac9e 12be c4fa a63c
00000250: 4819 80bd 9b6e 843d 01de c0bd 11ec 193d
00000260: d788 94bd 35dd b0bd 979c b93d d067 18bd
00000270: b730 773b d482 ca3d 3632 a13d 86fe d03d
00000280: 288d 1fbd 98a5 7bb9 fb8a 8ebd 2135 603d
00000290: a7a7 953c 52be 1c3e 4c1c e33d 289d 68bc
000002a0: e2fe ca3d cf45 d63c e702 d1bd 84e5 9cbd
000002b0: f44b 183e c92a 1dbe 39d1 8b3d 0df9 1abe
000002c0: 7c8a 03bd b3d9 803d b091 153e 24a6 df3d
000002d0: 4f09 c0bd fab1 8fbd cace bebd e8a0 923d
000002e0: d43f cdbd 3f6d 23be 405b 133e e8b5 223e
000002f0: 57d3 b0bd ca39 c8bd 205b 0a3e 2960 03be
00000300: dd1b 033e 1ad3 7abc cb91 833d adfe 8cbd
00000310: ed78 04bd b420 613d b9e5 043e 5a07 c0bc
00000320: 6a04 50bd 3cb4 92bc eb03 f33c cd46 78bc
00000330: 57e5 97bd 5bfd c8bc 59a3 f1bc 36ca cabd
00000340: 1f37 df3c 06a4 cbb9 b1b8 103d 1be1 a13d
00000350: e928 7b3d 6c9d 14be 714c 9b38 1509 a6bd
00000360: be19 bb3b 744c 153d bd7f 16bd 53d5 a1bd
00000370: 2862 39bd f605 b2bc ee37 95bd 263f 18be
00000380: 9009 69bd aeb5 01be 59a8 c4bd 65af d8bc
00000390: 26ea 6ebd 8bdb f53d 7c24 423d 7b87 a0bd
000003a0: c06e a73c a901 89bc d023 d23c 94a5 56bd
000003b0: b688 d33c 7b99 9b3a 267f 82bd 7e14 8fbd
000003c0: 6ab0 823c bd32 11be 1e62 92bd 65bb 013e
000003d0: d4fc 1fbe 2eb3 cd3d 2664 02be 575a 89bd
000003e0: 0cd0 9a3d 8f6f 03be df00 54bd 8362 10bd
000003f0: 5aed 0abe 4a6e c83d 1892 1b3e c447 fb3d

conv1.bias f4 [64]
0.15957974 -0.026188152 -0.13081045 -0.0699012 -0.12959906 -0.13895144 -0.07839244 0.008073566
-0.12531385 -0.0987536 -0.16350898 -0.14845908 -0.04228814 0.15156356 -0.06824603 0.12654607
-0.15313432 0.13722831 -0.12581933 0.13978699 0.15552989 0.11473954 0.11115934 -0.14421092
-0.09336668 -0.14215146 0.078176744 -0.039522342 -0.16366066 -0.16441001 0.124719754 0.14997004
0.15045801 0.09242263 -0.051675078 -0.09709553 0.12873656 0.08305401 0.14189129 0.09881416
0.010501735 -0.07762674 0.1218001 0.11331444 -0.09207618 0.08107638 0.14539187 0.0027976038
-0.09818584 0.051343683 0.055088457 -0.08731468 -0.044393376 0.06906868 -0.14799063 -0.12803729
-0.0714971 0.11795096 -0.08101191 0.054571956 -0.04869317 -0.004140975 -0.029700806 -0.10844377
00000000: df68 233e 8988 d6bc 2df3 05be 5c28 8fbd
00000010: 9eb5 04be 4949 0ebe 378c a0bd fd46 043c
00000020: 4652 00be 543f cabd e66e 27be a805 18be
00000030: 5436 2dbd 7a33 1b3e 93c4 8bbd 4b95 013e
00000040: 3ecf 1cbe 9485 0c3e c8d6 00be 5224 0f3e
00000050: 3a43 1f3e 90fc ea3d 82a7 e33d 07ac 13be
00000060: 0837 bfbd 2790 11be 211b a03d 2ee2 21bd
00000070: a996 27be 195b 28be 126d ff3d bf91 193e
00000080: aa11 1a3e 1348 bd3d 3fa9 53bd 05da c6bd
00000090: 84d3 033e 3918 aa3d f34b 113e 145f ca3d
000000a0: 780f 2c3c c5fa 9ebd 5572 f93d 6711 e83d
000000b0: 7092 bcbd 600b a63d 9be1 143e 0158 373b
000000c0: a815 c9bd c14d 523d 6fa4 613d 0ad2 b2bd
000000d0: d4d5 35bd e173 8d3d db8a 17be 351c 03be
000000e0: 126d 92bd 4690 f13d 93e9 a5bd d886 5f3d
000000f0: 7d72 47bd 04b1 87bb 1b4f f3bc c417 debd

conv2.weight f4 [128, 64, 3]
-0.066598564 -0.037070565 -0.061146855 -0.0009036804 -0.015110992 -0.07098931 -0.010611643 0.054179322
0.029380549 -0.005094137 -0.051708993 0.030813606 0.027844153 0.01886998 -0.07914542 0.06413217
0.051948037 -0.05072801 0.03953159 -0.019670572 0.061865717 -0.012748463 -0.021428706 -0.023136962
-0.03698494 -0.07649676 -0.045786284 0.018448735 -0.0036104673 0.054398745 -0.010257129 -0.07257493
-0.05957206 -0.055373985 -0.03682264 -0.013110967 -0.033586033 -0.037875462 -0.04046046 -0.05270005
-0.009618431 0.07126484 0.031367525 0.06148451 0.04022186 0.06347593 -0.064533874 -0.0021274907
0.016668918 0.049563937 0.031447265 0.026888002 0.047811814 0.06483771 -0.0004508953 0.017643852
-0.05843792 0.05540289 -0.06410452 -0.0521877 -0.003016336 -0.03559606 0.03621329 0.01602409
-0.041417077 0.051107973 -0.014933951 -0.0051026274 -0.025977459 0.012755855 0.006863081 0.01950174
-0.06577018 0.06741488 -0.02139001 0.04187099 0.014017239 -0.062388606 -0.03600945 -0.06451274
0.051965047 -0.023284381 0.0050206245 -0.03328692 -0.06896947 -0.063617036 -0.035748053 0.06281907
-0.02019903 0.029747758 -0.03614865 0.06410417 -0.052087937 0.011706765 -0.040799774 0.03567839
0.05494213 -0.063064985 -0.05563688 0.018251317 0.009700069 -0.011756627 0.031406816 0.051525842
-0.052499462 0.00076882483 0.0100709405 -0.035368927 0.06255024 0.011440617 0.061387397 -0.041475248
0.0019087835 0.028162753 -0.061885208 -0.07203516 0.05080214 0.052285332 -0.013833487 -0.028376712
-0.024155505 -0.023541884 0.00071650866 0.057283245 -0.0040860414 0.044373743 -0.05188452 0.030459125
-0.059237037 -0.032147292 -0.044550948 -0.03960967 0.035638243 -0.033019934 0.058914457 0.034599766
-0.028301189 0.043646812 -0.005114911 0.052554734 0.034186605 -0.072921656 0.050483353 -0.03285203
-0.020648004 0.040646456 0.012942601 -0.005522281 -0.02027136 -0.06395036 0.043143433 -0.0011887155
0.031120772 -0.057737425 0.06706665 -0.07060999 0.009373093 0.056828156 -0.070789255 -0.015282891
0.060913116 0.035497464 -0.0056883697 -0.01954261 0.061686955 0.03634248 -0.05729174 0.046465818
0.019693064 0.01406025 0.014323633 -0.016310863 0.04355081 -0.05048552 -0.0016117092 0.0043506804
0.056961272 -0.02706594 -0.014655624 0.036404215 0.025893504 -0.028670631 -0.0110271005 0.022476602
0.016394269 -0.03625996 0.0074088573 0.051451944 0.056135308 0.039104734 0.05397119 0.05429933
-0.023184456 0.004525685 -0.0045760875 0.04782507 -0.010086095 0.055939898 0.043771867 -0.054521322
-0.028001036 -0.040845342 0.03125285 -0.011459676 0.027771346 0.03509292 -0.022232033 0.030989096
0.03409628 -0.06533716 -0.043035753 -0.029595941 0.049295355 -0.011091496 0.05597098 -0.029910443
-0.06545048 0.058071397 -0.07445624 0.007313128 0.0042007864 -0.050991654 0.03745623 -0.005640842
0.053592205 -0.067530826 -0.06511036 -0.0033805557 0.014871325 -0.015007447 0.01375546 -0.063540265
0.021826148 -0.052510574 -0.04567491 -0.032817643 0.0016378049 -0.007673688 -0.06706972 -0.03449469
-0.06974377 0.05845065 0.05846763 -0.061353464 -0.03340438 -0.020301213 -0.021254322 -0.038510527
-0.020305837 -0.013227954 -0.068622604 -0.020842277 0.042211913 -0.055615943 0.026915044 -0.03437738
00000000: d464 88bd 4ed7 17bd 2075 7abd f7e4 6cba
00000010: 1894 77bc d862 91bd 75dc 2dbc 23eb 5d3d
00000020: 7aaf f03c b8ec a6bb cfcc 53bd d16c fc3c
00000030: 6c19 e43c 3795 9a3c fe16 a2bd ba57 833d
00000040: 77c7 543d 2cc8 4fbd e0eb 213d 2e24 a1bc
00000050: e866 7d3d eede 50bc 418b afbc ba89 bdbc
00000060: 857d 17bd 55aa 9cbd 668a 3bbd cd21 973c
00000070: 979d 6cbb 38d1 5e3d 840d 28bc 2aa2 94bd
00000080: d501 74bd d5cf 62bd 56d3 16bd 62cf 56bc
00000090: 8291 09bd 4d23 1bbd deb9 25bd 02dc 57bd
000000a0: a096 1dbc 4df3 913d 3c7b 003d 2ed7 7b3d
000000b0: adbf 243d abff 813d 562a 84bd 5f6d 0bbb
000000c0: 418d 883c 8e03 4b3d d9ce 003d 3a44 dc3c
000000d0: 52d6 433d a2c9 843d 2566 ecb9 d789 903c
000000e0: 9a5c 6fbd 24ee 623d 3b49 83bd c5c2 55bd
000000f0: b8ad 45bb 2dcd 11bd 6354 143d f444 833c
00000100: f4a4 29bd 9856 513d 88ad 74bc f133 a7bb
00000110: aece d4bc effd 503c b2e3 e03b 1dc2 9f3c
00000120: 84b2 86bd d010 8a3d 1a3a afbc ea80 2b3d
00000130: 90a8 653c 328b 7fbd a57e 13bd 411f 84bd
00000140: 4dd9 543d e3be bebc 0d84 a43b de57 08bd
00000150: de3f 8dbd a649 82bd 8d6c 12bd 49a7 803d
00000160: 7078 a5bc 92b1 f33c 9b10 14bd 0c49 833d
00000170: 295a 55bd bbcd 3f3c aa1d 27bd 8123 123d
00000180: 000b 613d 3728 81bd 7fe3 63bd c983 953c
00000190: 0aed 1e3c de9e 40bc 6fa4 003d c30c 533d
000001a0: ad09 57bd f68a 493a 9600 253c 02df 10bd
000001b0: 571a 803d 6d71 3b3c 5a71 7b3d f3e1 29bd
000001c0: 2530 fa3a 93b5 e63c 587b 7dbd 2c87 93bd
000001d0: e815 503d 2529 563d daa5 62bc 4776 e8bc
000001e0: c4e1 c5bc e9da c0bc 15d4 3b3a d6a1 6a3d
000001f0: 33e4 85bb 3ec1 353d dd84 54bd 6a85 f93c
00000200: 89a2 72bd e1ac 03bd 0e7b 36bd c03d 22bd
00000210: 68f9 113d e93f 07bd 4950 713d 7cb8 0d3d
00000220: e5d7 e7bc 00c7 323d fc9a a7bb a243 573d
00000230: 4107 0c3d f357 95bd a2c7 4e3d da8f 06bd
00000240: 0126 a9bc e67c 263d 340d 543c 40f4 b4bb
00000250: 2010 a6bc 68f8 82bd 2bb7 303d acce 9bba
00000260: fdf0 fe3c 147e 6cbd 3d5a 893d f89b 90bd
00000270: 9a91 193c a4c4 683d f5f9 90bd 1765 7abc
00000280: 0880 793d ca65 113d 8165 babb d317 a0bc
00000290: 76ab 7c3d dadb 143d beaa 6abd f152 3e3d
000002a0: 5953 a13c f65c 663c acad 6a3c 5c9e 85bc
000002b0: 5662 323d e8c9 4ebd fd3f d3ba 2790 8e3b
000002c0: 3950 693d 64b9 ddbc 241e 70bc 961c 153d
000002d0: 9d1e d43c acde eabc 03ab 34bc da20 b83c
000002e0: 464d 863c 5385 14bd 00c6 f23b 46bf 523d
000002f0: 23ee 653d 492c 203d e510 5d3d f968 5e3d
00000300: 54ed bdbc 334c 943b 01f3 95bb 38e4 433d
00000310: 2640 25bc 3c21 653d 214a 333d c051 5fbd
00000320: 6e62 e5bc 724d 27bd fd02 003d 5dc1 3bbc
00000330: bc80 e33c 98bd 0f3d f41f b6bc d8dc fd3c
00000340: 8aa8 0b3d 7dcf 85bd 4246 30bd 3073 f2bc
00000350: ede9 493d 1bb9 35bc d441 653d bf06 f5bc
00000360: e70a 86bd 46dc 6d3d 837c 98bd f7a2 ef3b
00000370: c0a6 893b a0dc 50bd b46b 193d d0d6 b8bb
00000380: 8083 5b3d 9a4d 8abd 9558 85bd 508c 5dbb
00000390: dca6 733c cce1 75bc 955e 613c 6621 82bd
000003a0: c0cc b23c 5415 57bd 9d15 3bbd cb6b 06bd
000003b0: 9dab d63a 8f73 fbbb d95b 89bd 4e4a 0dbd
000003c0: d2d5 8ebd f369 6f3d c17b 6f3d c54d 7bbd
000003d0: 08d3 08bd bb4e a6bc 8b1d aebc 37bd 1dbd
000003e0: 6d58 a6bc 0fba 58bc 028a 8cbd 6cbd aabc
000003f0: 66e6 2c3d 8bcd 63bd f07c dc3c 4ccf 0cbd

conv2.bias f4 [128]
-0.02441233 0.028851716 0.068613045 -0.07260179 -0.009834566 -0.041653562 0.045530315 -0.050688688
0.015428013 0.029824328 -0.045552745 0.025290204 0.036223356 -0.046652008 0.042482983 0.03593775
-0.0034718271 0.06597902 -0.010783025 -0.047798842 0.07871893 -0.06845062 0.02435971 -0.010973561
0.02824685 -0.061009277 -0.010852653 0.03860123 0.021856027 -0.061277494 0.021461077 0.060390897
0.025896763 0.06720917 -0.07303325 0.011770966 0.016660668 -0.00092372 0.027124481 -0.006743421
0.024859503 0.015006793 -0.06528975 -0.0272818 0.045666732 -0.020383708 0.01224679 0.028751172
0.039650775 0.06377452 0.06612879 0.062267736 0.019423187 -0.0714428 -0.0033665989 -0.014397195
0.0104636755 0.04761447 0.0027329142 -0.051254403 -0.0483764 -0.06910229 0.06842471 0.009490268
0.01854391 0.018916303 0.0005264804 -0.040394254 0.018268807 -1.49827065e-05 -0.061851434 0.034906067
-0.024131155 0.061247896 0.048163563 0.060488157 -0.033661895 0.042133998 0.025759859 0.04349631
0.051019512 -0.050479542 -0.042326305 0.051606 -0.06391139 -0.032488205 0.071788505 0.07153174
0.0024707918 -0.043755893 0.045304615 -0.033570457 -0.03473863 0.041939802 0.053832393 -0.0016894242
-0.05679302 0.070841886 0.0050814077 -0.037173342 -0.042488184 0.054476015 -0.03148853 0.02917476
-0.01547065 0.032368645 -0.05539024 0.046601612 -0.048471395 -0.0018644686 -0.028052717 -0.02735991
-0.065000206 0.016370002 -0.017178629 -0.069820024 -0.071687415 0.011452116 -0.037837 -0.012574592
-0.033207215 -0.017638868 0.052591387 -0.05199712 -0.04920363 0.024323298 0.024819264 0.053674903
00000000: 5efc c7bc 6f5a ec3c ff84 8c3d 3fb0 94bd
00000010: 2921 21bc ed9c 2abd ff7d 3a3d f19e 4fbd
00000020: c7c5 7c3c 2652 f43c 8495 3abd 672d cf3c
00000030: f15e 143d 2d16 3fbd a302 2e3d 7633 133d
00000040: 9887 63bb 0220 873d 49ab 30bc b8c8 43bd
00000050: 6437 a13d d72f 8cbd 048e c73c 73ca 33bc
00000060: f065 e73c dde4 79bd 53cf 31bc 531c 1e3d
00000070: 690b b33c 1cfe 7abd 24cf af3c 725c 773d
00000080: 7325 d43c f6a4 893d 7592 95bd 03db 403c
00000090: f47b 883c cd25 72ba 2934 de3c eaf7 dcbb
000000a0: 28a6 cb3c 0ddf 753c a2b6 85bd 157e dfbc
000000b0: 0a0d 3b3d bcfb a6bc c3a6 483c 9487 eb3c
000000c0: da68 223d 379c 823d 886e 873d 740c 7f3d
000000d0: 601d 9f3c 9a50 92bd 28a2 5cbb 36e2 6bbc
000000e0: d66f 2b3c 6407 433d b11a 333b 23f0 51bd
000000f0: 5526 46bd 8085 8dbd 4122 8c3d 127d 1b3c
00000100: 66e9 973c 5df6 9a3c 8003 0a3a 7274 25bd
00000110: 77a8 953c 3c5e 7bb7 ee57 7dbd aaf9 0e3d
00000120: b3ae c5bc 13df 7a3d 2847 453d 6ec2 773d
00000130: 0ee1 09bd b394 2c3d 5706 d33c 3029 323d
00000140: d6f9 503d a3c3 4ebd 595e 2dbd d060 533d
00000150: fae3 82bd 5a12 05bd da05 933d 3c7f 923d
00000160: 02ed 213b 6139 33bd 5591 393d 2d81 09bd
00000170: 184a 0ebd 12c9 2b3d 5b7f 5c3d ab6f ddba
00000180: cc9f 68bd 8d15 913d f081 a63b 1343 18bd
00000190: 1708 2ebd 3e22 5f3d 1efa 00bd e8ff ee3c
000001a0: 9c78 7dbc fc94 043d e0e0 62bd 55e1 3e3d
000001b0: f189 46bd 2f61 f4ba d0ce e5bc e421 e0bc
000001c0: d41e 85bd 621a 863c 32ba 8cbc cdfd 8ebd
000001d0: dad0 92bd a8a1 3b3c f8fa 1abd a905 4ebc
000001e0: 4a04 08bd 637f 90bc 116a 573d effa 54bd
000001f0: bf89 49bd a741 c73c c551 cb3c 37da 5b3d

fc1.weight f4 [64, 128]
-0.06333474 -0.08537422 0.081049554 0.054192692 0.002920968 -0.023943227 -0.008498485 0.048595756
-0.030783167 -0.004766482 -0.08536133 -0.060022075 0.037443433 -0.028973265 0.042247847 -0.0023328613
0.044493537 -0.025478665 -0.048028663 -0.02465081 -0.0756527 -0.020715464 -0.021887569 0.0035484242
0.00654104 -0.0438464 -0.08417053 -0.03297881 -0.013676062 0.012164079 -0.0840777 0.07346833
-0.08400025 -0.030924391 0.03405422 -0.040481858 -0.03176393 0.06519179 0.08053526 0.030871509
0.047310963 0.059290458 -0.071245626 0.041688293 -0.06341557 0.03982588 -0.021005401 0.05130613
-0.081441216 -0.010055549 -0.0054506487 0.054509044 0.012130812 0.080426544 0.010484748 0.014234632
0.07677533 -0.060711093 0.0076950626 0.07339684 0.017071307 0.068479285 -0.07562315 -0.07081094
-0.0030510454 0.075757354 -0.0410862 -0.08160875 0.03105643 0.06218999 -0.09244628 -0.019650178
0.03861484 -0.020037236 -0.08988823 -0.088384256 0.0091535505 0.05198647 0.01529027 0.008856654
0.04735416 -0.059046872 -0.04907307 -0.029728021 0.026749212 -0.02956533 0.06208976 0.0208173
0.074694425 -0.008207504 -0.024686579 0.07180789 -0.058003947 -0.044468418 -0.06419914 0.059270892
0.056629345 0.055293888 -0.06387789 -0.06732904 0.0048843264 -0.05752287 0.079324454 0.03964988
-0.0367495 -0.051238585 -0.08027836 0.030092742 -0.0025030104 -0.06719812 0.07133967 -0.08921602
-0.049809482 -0.07078496 0.024080204 0.05229114 0.070566975 0.08810488 -0.05904867 0.016379137
0.004423711 -0.06270771 0.06164103 -0.057764836 0.058413737 0.0215615 -0.027509991 -0.056538437
-0.0012519406 -0.0012639945 0.036919985 0.01410384 -0.05018585 -0.04548474 0.03941893 -0.022574551
-0.017117096 0.04189594 -0.055654276 0.048040286 0.06999071 0.049943343 -0.056182485 0.015356028
0.035417818 0.039287582 -0.04960634 0.063280195 0.04000589 0.07619282 0.07642374 0.08543364
-0.06749281 -0.029587884 0.075312026 -0.01471734 0.011819624 -0.04478608 -0.057331707 -0.024243703
0.058382824 -0.076947935 0.0703925 -0.06017563 0.00054981315 -0.025126293 -0.01919003 -0.040763434
0.08347776 -0.04679878 -0.043770283 -0.07553881 -0.060970116 0.01043563 -0.00872834 0.037384998
-0.007088033 -0.07657683 -0.07409403 0.023874387 0.079816766 -0.08069417 -0.08647155 0.05590722
0.058417037 0.0023121126 -0.038132012 -0.04081613 -0.0713301 -0.054106027 0.061230157 -0.014327177
0.046041343 0.02622479 0.06280712 -0.008445667 -0.067072384 -0.023583777 -0.040717818 -0.055771675
-0.058703188 0.0021841216 -0.023565937 0.034735132 -0.06972037 -0.002031969 0.02976777 -0.01030173
-0.07795049 -0.08320736 0.050180946 0.006565449 0.027680729 0.06472356 0.045537427 -0.019017937
-0.03983635 -0.010015797 -0.08464961 0.07649884 -0.02841533 0.07525269 0.051775727 0.031055102
0.038122006 -0.08502788 -0.052741095 0.05301058 0.022174925 -0.0069113555 -0.010878215 0.0047886
-0.035834663 0.039311923 -0.02577479 0.015397447 -0.030987341 0.020923058 0.085739814 0.055788673
-0.08275966 0.062393893 0.006415821 0.0099270325 -0.07406129 -0.044418793 -0.08351646 -0.044976942
-0.017948365 0.0058962842 -0.012589951 0.024770115 0.002935426 0.028055565 -0.0018993528 0.050596714
00000000: a5b5 81bd aed8 aebd 4ffd a53d 28f9 5d3d
00000010: b66d 3f3b 9624 c4bc 3b3d 0bbc 580c 473d
00000020: fb2c fcbc 2630 9cbb ecd1 aebd b5d9 75bd
00000030: 495e 193d 5759 edbc 140c 2d3d ebe2 18bb
00000040: db3e 363d a2b8 d0bc b4b9 44bd 7ff0 c9bc
00000050: ceef 9abd 7ab3 a9bc 8f4d b3bc ae8c 683b
00000060: 3856 d63b 4898 33bd 9961 acbd ca14 07bd
00000070: 9011 60bc d84b 473c ee30 acbd 9076 963d
00000080: 5308 acbd 2655 fdbc 707c 0b3d 4ed0 25bd
00000090: e51a 02bd 4683 853d acef a43d 3fe6 fc3c
000000a0: 24c9 413d 8dda 723d 3ae9 91bd 58c1 2a3d
000000b0: 06e0 81bd 7620 233d 8513 acbc 6026 523d
000000c0: a7ca a6bd 08c0 24bc 5b9b b2bb e044 5f3d
000000d0: 50c0 463c acb6 a43d 38c8 2b3c 6038 693c
000000e0: 623c 9d3d 32ac 78bd dd26 fc3b 1551 963d
000000f0: 20d9 8b3c de3e 8c3d 4fe0 9abd 5305 91bd
00000100: 0cf4 47bb ac26 9b3d 014a 28bd 7d22 a7bd
00000110: 0e6a fe3c eeba 7e3d 7a54 bdbd 69f9 a0bc
00000120: 982a 1e3d 2125 a4bc 5217 b8bd ce02 b5bd
00000130: c6f8 153c c4ef 543d 0a84 7a3c 801b 113c
00000140: 70f6 413d 22db 71bd d800 49bd 2e88 f3bc
00000150: 2a21 db3c fe32 f2bc d551 7e3d 0b89 aa3c
00000160: 64f9 983d c478 06bc 823b cabc 0410 933d
00000170: 8c95 6dbd 8424 36bd d77a 83bd 09c6 723d
00000180: 2cf4 673d d87b 623d 69d2 82bd cfe3 89bd
00000190: b30c a03b 1a9d 6bbd dc74 a23d ea67 223d
000001a0: a586 16bd 8ddf 51bd fb68 a4bd 0e85 f63c
000001b0: 8c09 24bb 2b9f 89bd 881a 923d e4b6 b6bd
000001c0: 0705 4cbd b5f7 90bd d943 c53c 3c2f 563d
000001d0: 6b85 903d 5570 b43d 05dd 71bd 8a2d 863c
000001e0: c7f4 903b e66c 80bd 4e7b 7c3d d29a 6cbd
000001f0: 3e43 6f3d bea1 b03c a25c e1bc d994 67bd
00000200: 2818 a4ba 9eac a5ba 6939 173d cb13 673c
00000210: ae8f 4dbd 354e 3abd be75 213d 44ee b8bc
00000220: 2739 8cbc 149b 2b3d bdf5 63bd e4c5 443d
00000230: 4a57 8f3d 6491 4c3d 9b1f 66bd da97 7b3c
00000240: 4612 113d 04ec 203d 0430 4bbd 0c99 813d
00000250: 37dd 233d fb0a 9c3d 0d84 9c3d d5f7 ae3d
00000260: ac39 8abd 4a62 f2bc 313d 9a3d ff20 71bc
00000270: 19a7 413c 9c71 37bd a7d4 6abd bb9a c6bc
00000280: d422 6f3d e196 9dbd f129 903d b97a 76bd
00000290: 5621 103a a8d5 cdbc 6934 9dbc 8ff7 26bd
000002a0: 63f6 aa3d 14b0 3fbd 7848 33bd 17b4 9abd
000002b0: cdbb 79bd 34fa 2a3c 5001 0fbc 0321 193d
000002c0: bb42 e8bb 50d4 9cbd 9cbe 97bd 3894 c33c
000002d0: f976 a33d fc42 a5bd ff17 b1bd f8fe 643d
000002e0: b446 6f3d d086 173b 5030 1cbd d02e 27bd
000002f0: 8415 92bd 489e 5dbd 79cc 7a3d 89bc 6abc
00000300: d995 3c3d 5fd5 d63c 05a1 803d b25f 0abc
00000310: 3f5d 89bd c432 c1bc bac7 26bd d770 64bd
00000320: c172 70bd 7b23 0f3b 5a0d c1bc 6d46 0e3d
00000330: 8ec9 8ebd c82a 05bb 8adb f33c 96c8 28bc
00000340: 82a4 9fbd 9f68 aabd 898a 4d3d fa22 d73b
00000350: b2c2 e23c c98d 843d 7485 3a3d 81cb 9bbc
00000360: 712b 23bd 4c19 24bc c65c adbd 6cab 9c3d
00000370: 44c7 e8bc 151e 9a3d c912 543d 4567 fe3c
00000380: d225 1c3d 1923 aebd 0c07 58bd 9f21 593d
00000390: 30a8 b53c a778 e2bb 8a3a 32bc b0e9 9c3b
000003a0: 5ec7 12bd 8a05 213d a725 d3bc 9345 7c3c
000003b0: 2ad9 fdbc d566 ab3c 5b98 af3d aa82 643d
000003c0: e67d a9bd bd90 7f3d cf3b d23b fea4 223c
000003d0: 72ad 97bd 7bf0 35bd ae0a abbd be39 38bd
000003e0: 7308 93bc 9e35 c13b 1546 4ebc b2ea ca3c
000003f0: 4760 403b c9d4 e53c b4f3 f8ba 803e 4f3d

fc1.bias f4 [64]
-0.04627785 -0.030685276 -0.090635724 -0.016641406 0.026788581 -0.05608456 -0.010444924 0.03375327
0.043190293 -0.052376173 -0.028042182 -0.058202166 0.068560064 0.031306423 0.0870583 -0.0033200532
-0.026586737 -0.05372878 -0.014631373 -0.021404728 0.03877926 0.034069657 0.026032455 0.040800318
-0.076753095 -0.029999131 0.017226584 0.043554984 0.015114777 0.045025248 0.05352608 0.050537806
-0.0069639874 -0.027084451 -0.08151494 -0.03487108 -0.018321756 -0.053098414 -0.058542427 -0.037905563
-0.04960201 0.03363372 0.050176278 -0.077405185 0.0069710882 -0.002214604 -0.06686079 0.07166677
0.036487404 0.079480425 0.03556043 0.03838681 -0.01784415 0.0067532137 -0.006298095 -0.08193023
-0.026116654 0.022266412 0.07737132 0.016383734 0.07095759 0.08509054 0.04110477 -0.028938534
00000000: d88d 3dbd b05f fbbc 399f b9bd 8f53 88bc
00000010: ba73 db3c ecb8 65bd 3021 2bbc de40 0a3d
00000020: 4ee8 303d 6688 56bd b8b8 e5bc 6565 6ebd
00000030: 3869 8c3d 2a3b 003d 9f4b b23d 4095 59bb
00000040: 6ecc d9bc b612 5cbd 6db8 6fbc f858 afbc
00000050: 00d7 1e3d a08c 0b3d 0442 d53c 3c1e 273d
00000060: ba30 9dbd bdc0 f5bc c41e 8d3c b666 323d
00000070: f8a3 773c 656c 383d 2a3e 5b3d bb00 4f3d
00000080: 2932 e4bb 36e0 ddbc 4ef1 a6bd fad4 0ebd
00000090: 8217 96bc b97d 59bd 2fca 6fbd dd42 1bbd
000000a0: 7a2b 4bbd 83c3 093d a485 4d3d 9c86 9ebd
000000b0: ba6d e43b e422 11bb 4fee 88bd 07c6 923d
000000c0: d173 153d a2c6 a23d d0a7 113d 7d3b 1d3d
000000d0: e52d 92bc 104a dd3b 4060 cebb 09cb a7bd
000000e0: 98f2 d5bc 0d68 b63c db74 9e3d 2e37 863c
000000f0: 3752 913d f343 ae3d 7a5d 283d 8110 edbc

fc2.weight f4 [1, 64]
-0.113542594 -0.088863924 -0.11279682 -0.11346712 -0.032956235 0.119211316 0.0053806454 0.019584656
-0.11248499 0.063708276 0.0055261552 0.0806222 -0.108918205 0.014126205 -0.07205948 -0.104323015
0.099200234 0.0084980875 0.07512968 0.029952146 -0.03771446 -0.08171083 -0.039462 -0.043542407
-0.030185878 0.11918337 -0.005169782 -0.05428779 0.117746755 0.06359361 -0.0784555 -0.049855582
-0.051728986 -0.022635281 0.04998222 0.023945322 0.09026546 -0.085828684 -0.05689693 0.08705639
-0.034375265 0.044011444 0.029551504 -0.10960049 -0.114964746 -0.10011345 -0.089413 -0.06351507
-0.04885231 0.09279887 -0.0010522561 -0.054675348 -0.10994995 -0.07684575 0.044637546 -0.08037448
-0.0708206 -0.01610363 -0.037764966 -0.07450329 -0.036472365 -0.044344492 -0.004355803 -0.09856127
00000000: 0589 e8bd 4afe b5bd 0502 e7bd 7361 e8bd
00000010: 1efd 06bd 1025 f43d 2050 b03b 0070 a03c
00000020: 885e e6bd 7c79 823d c014 b53b 411d a53d
00000030: 8210 dfbd 9971 673c ec93 93bd 4ea7 d5bd
00000040: 7e29 cb3d 903b 0b3c 97dd 993d 345e f53c
00000050: 7a7a 1abd 0258 a7bd e8a2 21bd 8659 32bd
00000060: 6048 f7bc 6916 f43d 4667 a9bb e05c 5ebd
00000070: 3625 f13d 5e3d 823d 47ad a0bd 5e35 4cbd
00000080: c6e1 53bd a06d b9bc 28ba 4c3d fb28 c43c
00000090: 19dd b83d f3c6 afbd c10c 69bd 9f4a b23d
000000a0: 14cd 0cbd 5845 343d ff15 f23c 3976 e0bd
000000b0: a372 ebbd 4808 cdbd 2a1e b7bd 3014 82bd
000000c0: 5c19 48bd 550d be3d dbeb 89ba 42f3 5fbd
000000d0: 702d e1bd 4e61 9dbd dcd5 363d 609b a4bd
000000e0: 640a 91bd c3eb 83bc 70af 1abd 2e95 98bd
000000f0: 0c64 15bd 92a2 35bd 20bb 8ebb 7eda c9bd
