assets/model/phrase015_speech_model.pth (torch, 145844 bytes, 7 tensors)

conv1.weight f4 [64, 13, 3]
000000 03 2a e3 3d 18 1a 4d bd a2 a6 04 3e a7 8d 08 3d
       0.110919975 -0.050073713 0.1295419 0.033338215
000010 7f f9 3e bc 75 1b 93 3d 4d 91 04 3e 03 5f e1 bd
       -0.011656164 0.071829714 0.12946053 -0.1100445
000020 8c 2b 7c 3d fe 8d c8 bd 92 82 aa 3d ac 87 17 3e
       0.061564967 -0.09792708 0.083256856 0.14797848
000030 f7 40 60 bd d9 74 8e bd 83 a1 fb bb 94 6b 70 bd
       -0.054749455 -0.06955881 -0.007679166 -0.058696344
000040 73 3c 8a bd 9b 1d ae 3b 7b 26 94 bd 8d f0 61 bd
       -0.06749811 0.005313588 -0.07233902 -0.055161048
000050 b1 53 12 3e 5b d7 1d be e3 88 54 bd a1 63 a3 3d
       0.14289738 -0.15414183 -0.051888358 0.07977987
000060 25 95 9e bd cd 89 3e bb e2 f3 9b 3d 48 00 9d bd
       -0.07743291 -0.0029073835 0.07614876 -0.07666069
000070 de a5 d0 3c 1c fd 04 3e b3 98 d5 3b 78 16 92 bb
       0.025469717 0.12987179 0.0065184473 -0.004458245
000080 8f db 4a bb 66 33 cc 3d bc 2a 9a 3d 55 f7 be 3d
       -0.003095362 0.09970741 0.07527682 0.093245186
000090 2b 74 01 be c9 10 dd bc 68 9c a9 3c 25 3a e6 bd
       -0.12641971 -0.026985543 0.020704463 -0.11241559
0000a0 91 4d 8e bd e2 21 e0 bd 4f ca b5 3d 23 e0 ed 3d
       -0.06948388 -0.10943963 0.08876478 0.11615016
0000b0 2a 78 0a 3e 1f 5a 7c bc cb 87 f7 bd 72 85 dd 3d
       0.13522401 -0.015402346 -0.12086447 0.10816468
0000c0 63 96 2c be 20 f7 3f 3c 82 76 12 be 22 8f 02 be
       -0.16854243 0.011716634 -0.1430302 -0.12749913
0000d0 d0 98 cc 3d c8 d1 0d be bd 9a 11 be 4e d7 f2 3b
       0.09990084 -0.13849556 -0.14219184 0.00741092
0000e0 89 e8 12 3d 03 68 60 bd 06 a4 22 3e 4b 22 cc 3d
       0.035866294 -0.054786693 0.15882882 0.09967478
0000f0 c5 09 0e 3e 29 d5 99 3d bc b8 9d bd c7 88 83 3d
       0.13870914 0.0751136 -0.07701251 0.064225726
000100 78 9b db bd 52 f0 69 3d 64 ce af bd bb 50 72 bd
       -0.10723013 0.057113953 -0.08584288 -0.05915902
000110 a2 6e 65 bd e7 8a 7b 3c d8 8d e1 3d e1 e5 ad bc
       -0.05601371 0.015352941 0.11013383 -0.021227779
000120 62 f5 f7 3d 60 a8 d1 bd 47 f4 1b 3c db cb fc 3d
       0.1210735 -0.10237193 0.0095186895 0.1234357
000130 13 44 11 3e 8d 9d 18 bd 13 4c f5 bd 12 8b 53 3b
       0.14186125 -0.037259627 -0.11977401 0.0032278937
000140 88 58 11 bd 81 8c 14 3e ec d8 14 be 3e d8 54 3d
       -0.03548482 0.14506723 -0.14535874 0.051964037
000150 95 f7 e5 bd 52 31 ce 3d 75 80 0e 3e da 33 0e be
       -0.11228863 0.10068001 0.1391619 -0.13886967
000160 9d af bc 3d 30 3b 5a bd cf 78 ba bc 85 5d 1c bd
       0.09213183 -0.0532791 -0.022762684 -0.038175125
000170 7c b8 98 bd d7 c4 02 3e e5 91 98 bd 4f 4d 99 bd
       -0.074570626 0.12770401 -0.07449702 -0.074854486
000180 2b b6 13 3e c9 7f ca bd b9 09 10 be c5 80 cc bd
       0.1442496 -0.09887654 -0.14066209 -0.09985498
000190 49 d1 71 bc e5 f9 41 bc 69 06 10 be bc e6 ca 3d
       -0.01475937 -0.011839365 -0.14064945 0.0990729
0001a0 77 37 13 3e 66 c2 dd 3d 72 6c a5 bd f9 2a 85 bd
       0.14376627 0.10828094 -0.08077325 -0.06502337
0001b0 b4 79 1c 3e 3d e6 e8 bd 59 a5 b4 bd f0 be d9 3c
       0.15280801 -0.113720395 -0.088206 0.026580304
0001c0 89 38 02 be 19 cf e3 bd 9f 66 38 bd 09 ec e8 3d
       -0.12716879 -0.11123485 -0.045019742 0.11373145
0001d0 63 4f a0 3c 4e 70 bb 3d 8c e5 67 bd 8a 8e 14 be
       0.019569105 0.0915228 -0.056615397 -0.145075
0001e0 a5 f3 cc 3d 2d 32 2e bd f7 ff 3a bd 17 ff e2 3c
       0.10007409 -0.04252832 -0.045654263 0.027709527
0001f0 d1 b5 96 3d 89 55 40 bd c3 ad b8 bd 8d 30 d6 bd
       0.073588975 -0.046956573 -0.090175174 -0.10458479
000200 4e a6 f8 3c 36 9a 1f 3e 06 09 1e 3e 32 0c b0 bd
       0.030352738 0.1558617 0.1543313 -0.08596076
000210 b4 2a 02 3e c9 f8 f1 3d 83 04 16 3d 33 a6 20 3e
       0.12711602 0.1181503 0.036625396 0.156884
000220 77 45 ec bd 41 b8 68 3c f4 cc c3 3d dd 18 e6 3b
       -0.11536687 0.014204086 0.09560576 0.007022007
000230 9f c3 e5 3d a5 7b 81 bd ac f9 1c 3e 85 9a c9 bd
       0.112189524 -0.063224114 0.15329617 -0.098439254
000240 a5 35 ce bc 0e 68 a0 bc df 6b de 3d bf 40 41 bd
       -0.025172064 -0.019580867 0.108604185 -0.047180887
000250 06 42 de 3d f5 3a 7a 3d 39 f1 15 bd 7d 31 b8 3d
       0.10852437 0.061091382 -0.036607 0.08993814
000260 ff 14 92 3b 8b 11 e9 bd 78 69 21 bc b6 71 f6 3c
       0.0044580693 -0.11380299 -0.009851806 0.030083518
000270 96 32 14 be 3a 4b 12 bd 23 54 d0 bd 29 a8 0d 3e
       -0.14472422 -0.035716273 -0.10172298 0.1383368
000280 ff 41 bd bc 93 85 98 bd 74 6c 18 be 2b 18 5c bd
       -0.023102758 -0.07447352 -0.14885122 -0.053733986
000290 ac 88 0e be 3d 40 b6 3d 6c 23 9c bc 0d 20 f0 3d
       -0.13919324 0.08898971 -0.01905986 0.11724863
0002a0 52 ea 4a bd 10 1a 27 3e 58 e4 05 be 6c 10 12 bc
       -0.04953987 0.16318536 -0.13075387 -0.008915048
0002b0 f7 4c 94 3d 8c 5e 3f bd a6 11 06 bc e4 39 9d 3d
       0.072412424 -0.046721026 -0.008182919 0.076770574
0002c0 a3 e3 87 3d c9 4d e0 bc 42 85 a1 3d 41 80 90 bd
       0.06635215 -0.02738084 0.07886745 -0.070557125
0002d0 68 91 48 bd 75 92 11 be 29 17 bc 3d 00 2e 02 be
       -0.048966795 -0.14216025 0.09184105 -0.1271286
0002e0 c2 f1 2f bd 9d 60 ff bd c2 8d 8b 3d 9d a8 e3 3d
       -0.042955168 -0.124695994 0.068141475 0.11116145
0002f0 81 20 9c 3d 63 ab 1a be 5e 23 e6 3d 5f 18 8a 3d
       0.07623387 -0.15104441 0.112372145 0.0674293
000300 4b 93 5e bc ee 53 ed 3d 3d cf c4 bc 51 66 07 3d
       -0.013584922 0.11588274 -0.0240246 0.03305656
000310 94 96 6b bc 1f 34 46 bd c0 44 f8 3d 30 0b be 3c
       -0.014379162 -0.04838955 0.12122488 0.023198694
000320 e2 29 10 3e c3 49 05 3d a0 67 ca bd 46 88 54 bd
       0.14078477 0.032541048 -0.09883046 -0.051887773
000330 80 b6 ac bc 80 54 e8 bd b9 b9 8e 3d 50 89 1f be
       -0.021083117 -0.11344242 0.069690175 -0.15579724
000340 af 44 c4 bd 7a 83 8c bd 51 b7 15 3e db 93 f1 bd
       -0.09583413 -0.06861015 0.14620711 -0.11795779
000350 3b d0 34 3c 48 32 17 be 3a 66 09 bc c7 c0 8b bd
       0.011035974 -0.14765275 -0.008386189 -0.06823879
000360 06 ee 4c bd 1f 1c 2f 3c fd 29 f5 bd b3 1b d5 3c
       -0.050031684 0.010687857 -0.11970899 0.026014185
000370 42 27 84 3d 14 d7 e4 3d 44 dd c3 bd f6 c7 1e 3b
       0.064528 0.111738354 -0.095636874 0.0024228073
000380 a4 29 df 3d bc fa d6 3d e5 70 80 3d 4e b7 5d 3d
       0.10896614 0.104970425 0.06271533 0.05412989
000390 70 96 ec 3d 2f b4 e7 bc d0 4e f9 3c 73 43 1c be
       0.11552131 -0.02828416 0.030433089 -0.15260105
0003a0 5b e9 ed 3d c4 9d 84 bd 50 91 03 3e 53 ca ab bc
       0.11616775 -0.06475404 0.12848401 -0.0209705
0003b0 45 29 ce bc c3 d8 a3 3d 9d 01 d3 3d 96 4c 1d 3e
       -0.025166163 0.080003284 0.10303042 0.15361246
0003c0 20 18 f9 3c 8e 3d e7 3c e8 08 c2 bc ed 3b fb bc
       0.030407012 0.028227594 -0.023685887 -0.030668223
0003d0 ed 20 fd bc 07 c3 91 bb be 69 e1 bd f1 29 39 bd
       -0.03089949 -0.004448298 -0.11006497 -0.045206014
0003e0 86 b8 df 3d d6 21 a2 3d 17 f0 a7 3d b3 af 3f 3d
       0.10923867 0.0791661 0.082000904 0.04679842
0003f0 7e f5 53 bd d6 cf 1b be e8 fa 23 3d 80 26 1e be
       -0.05174779 -0.15216002 0.040034205 -0.15444374

conv1.bias f4 [64]
000000 a0 18 22 bd 7f 0e bc bd 23 00 ee 3d be 81 01 be
       -0.039574265 -0.091824524 0.1162112 -0.12647149
000010 75 dc e0 3d 7b cc 9f 3d 61 c4 1b 3e 72 6d f0 bd
       0.10979549 0.078026734 0.15211631 -0.11739625
000020 1b dd 8f 3d 07 60 cd bc 69 94 d2 3c 55 9b 14 3e
       0.070245944 -0.025070203 0.025705533 0.1451238
000030 02 d8 05 bd 65 9d 2d bd f8 f2 26 bc 36 2c 67 bd
       -0.032676704 -0.04238643 -0.010189764 -0.056438647
000040 19 24 f3 3d 4f 12 20 be bf a0 ab 3c f0 9c ed 3c
       0.118721195 -0.15631984 0.020950673 0.029005498
000050 41 71 ee bd c3 82 24 3e 9d fe af 3d 0c 91 b0 3d
       -0.11642695 0.16065507 0.085934855 0.086214155
000060 5e 93 12 3c 81 e2 04 be 22 17 d3 3c 4f e1 c0 3c
       0.008946268 -0.1297703 0.025767867 0.023544936
000070 96 6e aa 3d 60 b2 a9 b7 00 36 05 be a7 11 f9 bd
       0.08321874 -2.0229432e-05 -0.1300888 -0.1216157
000080 2e 69 48 3b 51 7f 28 3d d4 a5 64 3d fb cd 3c 3d
       0.003058027 0.041137043 0.05582221 0.046094876
000090 db 82 6f bd 61 70 d5 3d fb bd 05 bd cd 55 c3 bd
       -0.058474403 0.10421825 -0.032651883 -0.095378496
0000a0 b9 99 d0 3d fb 9e 3c 3d d1 68 21 3e fe d1 eb 3d
       0.1018557 0.046050053 0.1576264 0.11514662
0000b0 a5 25 73 bd 10 ad 6e 3c 16 30 2e bd 07 3f 62 3a
       -0.059362072 0.0145676285 -0.042526327 0.00086306076
0000c0 d7 b3 51 bc b9 78 6e 3c 92 02 35 bb 1e 1f d0 bc
       -0.012799225 0.01455515 -0.002761994 -0.025405463
0000d0 96 b0 21 3e e1 d4 0f be 71 08 1a be 1e 0c ea bd
       0.15790018 -0.1404605 -0.15042283 -0.114280924
0000e0 66 0c 44 bd 3c 2e cc bc 49 8c 9f bd 94 c2 21 be
       -0.047863387 -0.02492439 -0.07790429 -0.15796882
0000f0 b9 ec ef 3d 95 bc 06 3d 3a cf 01 3e 05 e8 6f bc
       0.11715073 0.03289469 0.12676707 -0.01464272

conv2.weight f4 [128, 64, 3]
000000 98 11 9b bd 5b 9f 40 bd b0 16 20 bc bd 99 38 bd
       -0.07571715 -0.047026973 -0.009771034 -0.04506849
000010 60 ae 7c bc bd a7 21 3d 4e 38 8a bd 98 cf 41 3d
       -0.015422434 0.03946661 -0.067490205 0.047317117
000020 e9 9c 98 3a a4 36 31 bc 75 35 7e 3d c2 01 75 3c
       0.0011643443 -0.01081625 0.0620627 0.014954032
000030 c1 dd 5c 3d 6e 80 23 bd 0b 29 79 3b 4e 51 c2 bc
       0.05392242 -0.039917402 0.0038018848 -0.02372041
000040 cb bc 63 bc f3 22 8d bd c6 6b 85 3d f0 3c 47 bd
       -0.013899992 -0.06891432 0.06514697 -0.0486421
000050 3a 2b 29 bd 99 cf 9d bd ed a9 5b 3d 42 25 02 3d
       -0.04130099 -0.07705612 0.05362885 0.031773813
000060 ec dc dd 3c 7f 2a 06 bd de f0 b4 3c ac ab 73 bd
       0.027082883 -0.03275537 0.02208751 -0.05948989
000070 23 b9 20 3c 4f e5 c5 3b d0 0f 5e bd a9 ff 73 3c
       0.009809765 0.0060392986 -0.0542143 0.014892497
000080 dc ca 10 bc 5f b8 61 bc ae 24 b4 3c d0 b3 25 bc
       -0.008837428 -0.013776868 0.021990146 -0.010113671
000090 54 56 f1 bc 38 1d c4 bc 76 92 82 bd 65 18 10 3d
       -0.02946011 -0.023939714 -0.063755915 0.035179514
0000a0 bb 00 59 bb 8b e0 77 3d a3 7d 16 3d e9 5e 25 bd
       -0.0033112008 0.060516875 0.03674091 -0.040373717
0000b0 17 a2 19 3d dc 55 20 3d b6 d7 b5 3c 1f 92 35 3d
       0.037508097 0.039144382 0.022197586 0.044328805
0000c0 c7 72 f3 3c 37 2a 09 bd 0f e8 4e bd a3 05 da bc
       0.029717816 -0.033487525 -0.050514277 -0.026614016
0000d0 f4 ce e1 bc 21 22 ef bc f3 85 9d 3c 9b 83 2a 3c
       -0.027564503 -0.029191079 0.019228911 0.010407354
0000e0 24 3f 0f 3d 8d a0 6e 3d f6 ca c4 bc 10 4d 79 bd
       0.034972325 0.058258582 -0.02402256 -0.06086451
0000f0 ab 1f 73 3c 67 bd 8a 3d cd 1e 70 3d 15 a4 f6 3b
       0.014839093 0.06774407 0.058623124 0.0075268843
000100 70 cb 24 bc a9 a1 0f bc be 62 46 bd 61 22 78 3d
       -0.010058269 -0.00876657 -0.04843401 0.06057966
000110 9f 9c 86 3d a8 48 35 3d b3 9b 4b 3d d3 eb 85 bd
       0.06572842 0.044258744 0.049709033 -0.065391205
000120 39 c3 76 bd f3 69 91 bd d7 eb d1 bc 09 0e 68 3d
       -0.060244773 -0.07100286 -0.025625153 0.05665401
000130 96 8b 91 bd c0 6a 3c 3d b0 09 56 bc 4e 88 4a 3d
       -0.07106702 0.046000242 -0.013063833 0.049446397
000140 b7 4c ba 3c d1 4b 88 3c bc f2 1f 3d 60 9b bf bb
       0.022741659 0.016637715 0.03904985 -0.0058473796
000150 78 68 06 bc 18 c4 3c 3d 83 81 a9 bc 26 4b 86 3c
       -0.008203618 0.046085447 -0.020691639 0.016393255
000160 aa 76 8d bd 55 9c 77 bd 92 1c d4 bc 0c 4b 2e bd
       -0.06907399 -0.060451824 -0.02589253 -0.04255204
000170 da 71 37 bc 68 53 37 bc 63 7c 4a 3b f4 19 65 ba
       -0.011196578 -0.011189319 0.0030896894 -0.0008739524
000180 01 63 37 bd 6b ec de 3c e3 2e 80 bc 52 34 b9 b9
       -0.04477215 0.027212342 -0.015647357 -0.0003532493
000190 bd b9 69 bd 98 b4 26 bd 85 04 ac 3c b7 b2 88 bd
       -0.0570619 -0.04069957 0.020998249 -0.06674712
0001a0 10 b7 54 bd 88 25 cf bc 3e 47 82 3b ce 73 3e bd
       -0.051932395 -0.025286451 0.003975778 -0.04649716
0001b0 6e 3d 1c bc 43 38 32 3d 60 af 22 3d a1 f5 33 3c
       -0.00953613 0.043510687 0.039718032 0.010983855
0001c0 3b 43 2c bd 67 57 79 3d 6e e3 dd 3b cf df 0c bd
       -0.042056303 0.06087437 0.0067714965 -0.034393128
0001d0 f4 bc 25 bd 8c 31 42 3d 6f c6 3a bd ef ce 20 bc
       -0.040463403 0.047410533 -0.045599397 -0.009814962
0001e0 02 bd bf 3c ba 07 b5 bc 51 e9 81 3d 77 b8 4e 3c
       0.023405556 -0.02209841 0.0634333 0.012617222
0001f0 42 e2 2a bd dd e8 2c 3d 0a 3f 0f bd 25 a3 db 3b
       -0.041719683 0.042214263 -0.034972228 0.006702798
000200 ca aa 14 3d b1 75 51 3d 39 a7 e5 bc 2d a1 77 bd
       0.03629569 0.05113763 -0.02803384 -0.060456444
000210 6c ef 3a bd c4 30 c3 bb 24 a3 53 bd 65 dc 3d bd
       -0.045638487 -0.005956741 -0.051669255 -0.046352763
000220 0a 70 9d bd 06 c9 4e 3d cf b4 96 bd 42 65 86 bd
       -0.076873854 0.05048468 -0.07358705 -0.06562282
000230 0a 8b bd bc 80 28 90 3d 19 22 66 3d 73 c4 67 bd
       -0.023137588 0.07038975 0.05618486 -0.056583833
000240 38 95 2e 3d 8d 95 53 bc 0b e9 02 3d 6d 19 0e 3c
       0.042622775 -0.012914074 0.03196053 0.008673054
000250 d9 95 39 3d c0 9a 85 bc 25 13 4e bb 51 2c 11 3d
       0.04530892 -0.016309142 -0.0031444516 0.035442654
000260 a7 46 62 3d b4 54 09 3d 86 05 64 bd ba 2e 97 bc
       0.05524316 0.033528045 -0.05566933 -0.018454898
000270 d3 3b 81 bd 82 b2 7b bd c6 de 5e bd 75 f5 22 bd
       -0.06310239 -0.061449535 -0.054411672 -0.039784867
000280 3c dd 75 bd 65 47 e1 bc 98 05 2e 3d 4b b6 5f bb
       -0.06002544 -0.027499864 0.042485803 -0.0034135755
000290 9f b6 df bc 29 be dd bc e3 02 55 3d 09 17 78 bd
       -0.02730876 -0.027068214 0.052004706 -0.060568843
0002a0 0b 03 16 bc 02 fa 76 bd 57 cf 6f 3d 53 42 d1 bc
       -0.009155999 -0.06029702 0.058547344 -0.025544321
0002b0 29 69 70 bd e9 81 97 bd 9c 0a 22 3d 5b 3b 2e 3d
       -0.05869404 -0.07397825 0.0395609 0.042537075
0002c0 7b d1 84 3d 95 8b 10 bd 99 72 66 bc d8 35 3d bd
       0.06485268 -0.035289366 -0.014065408 -0.046193928
0002d0 b3 1f fb bc 6c c4 c0 3b 89 a9 84 3d 30 2b 63 3d
       -0.030654764 0.0058827903 0.06477649 0.05546111
0002e0 3d fa 1b 3d ff 41 79 3a ef 0a 25 3c d3 73 39 3b
       0.038080443 0.00095084304 0.010073408 0.0028297796
0002f0 4d 76 ae bc 8d 56 74 bc 61 fe 8d bd ee b7 92 bd
       -0.021296645 -0.014913213 -0.069332846 -0.07163988
000300 37 5b c1 bc f2 3d 46 3d 16 f2 82 bd 11 c7 8a bd
       -0.023603065 0.04839892 -0.063938305 -0.0677625
000310 c7 e8 83 bc c6 bd 4b 3d c5 52 80 bc 47 5b d7 3c
       -0.016102208 0.04974153 -0.015664468 0.026288642
000320 46 42 71 bd 28 ac 62 bd 71 02 4b 3d e6 56 b0 bb
       -0.058901094 -0.055339962 0.049562875 -0.005381453
000330 28 52 68 bc c2 e3 50 bd 7f 2b 88 3d 21 b8 80 bd
       -0.014179744 -0.050998457 0.06648921 -0.0628512
000340 68 1e b4 3c a3 f4 c2 3c 30 87 67 3d 32 29 c0 3b
       0.021987155 0.023798293 0.05652541 0.005864286
000350 69 34 f4 3c 57 32 35 bd 62 dc 58 bd 2a 88 e5 bc
       0.029810147 -0.04423746 -0.05294455 -0.02801903
000360 9a d3 8c bd 2b 36 f3 3c 17 a3 09 bd ba c1 b6 bc
       -0.06876297 0.029688915 -0.0336028 -0.022309173
000370 ed 1e 05 bd 42 5e 83 bd 49 27 22 bd 29 01 80 bd
       -0.032500196 -0.064144626 -0.039588246 -0.06250221
000380 4e 78 4f bd 11 8e 71 3d 2d 86 25 bd da 07 87 3d
       -0.05065184 0.058973376 -0.040411163 0.065932944
000390 cb b7 3f bd bd 32 32 bd 08 ff 59 bd b7 dc 95 bd
       -0.046806138 -0.04350542 -0.053221732 -0.07317489
0003a0 ca 79 5a bd f1 77 7f bd 87 76 57 3c 78 f2 2d 3d
       -0.053338803 -0.062370244 0.013150818 0.042467564
0003b0 0b 63 10 3d d8 4a 41 bd e3 5e 6c 3d a0 90 52 bd
       0.035250705 -0.047190517 0.05770768 -0.051407456
0003c0 f3 93 03 bd 49 ca 84 bd 6f fc ce 3c 43 11 16 bd
       -0.032123517 -0.06483895 0.025266854 -0.036637556
0003d0 68 96 4f bb 74 2f 87 3d 7d cd 03 3d 5f 9b 80 3d
       -0.0031675342 0.06600848 0.03217839 0.06279635
0003e0 67 12 f2 bc 6a 7e 84 3a 5b f9 3a 3d 12 31 5d bd
       -0.02954979 0.0010108475 0.04564796 -0.054001875
0003f0 89 3e 26 3c c6 1d 89 bd 23 00 b0 bc f4 1a 8c bd
       0.0101467455 -0.06695132 -0.02148444 -0.068410784

conv2.bias f4 [128]
000000 7d bf 0e 3d 58 ab 7f 3d c5 39 fb bc 0f 7c 6a 3d
       0.034850586 0.062419266 -0.030667195 0.057247218
000010 78 0d ec bc bf e3 94 bd 07 9d f3 3b d9 cd 28 3d
       -0.028815016 -0.072700016 0.0074344906 0.041211937
000020 09 a0 19 bd 43 72 6d bd ca eb 2d bd 02 69 84 bb
       -0.037506137 -0.057970297 -0.042461194 -0.004040838
000030 68 f3 7c 3d a2 75 f1 bc 28 ed 09 3c 18 e5 9d bd
       0.061755568 -0.029475037 0.008418359 -0.07709712
000040 5f 8d 85 3d 6b ec 07 3d 5b ac 23 bb d1 57 9f 3c
       0.06521105 0.03318445 -0.0024974558 0.019451054
000050 ed 6c 89 bb 0c e3 ee bb 70 f7 49 3d 36 54 3a bd
       -0.004193893 -0.0072902497 0.04930824 -0.045490466
000060 56 f2 a3 3c 42 da 04 3d 78 cb 86 bd b4 6f c0 bc
       0.020013016 0.03243471 -0.06581777 -0.023490764
000070 0e e1 55 3c 2f a0 0c bd 6d cb 1b 3d 5d 4f 9c bd
       0.0130541455 -0.03433245 0.0380358 -0.07632325
000080 da 8f 01 bc 23 cc 20 bd 81 89 a5 3c ba fc 91 3c
       -0.007907832 -0.03925718 0.020207169 0.017820705
000090 a7 9f 81 bd 32 be e4 bc 67 f1 39 bc 19 cc cf bc
       -0.063292794 -0.027922723 -0.011349059 -0.025365876
0000a0 72 f9 42 3c b5 08 38 bd 33 9f b9 3c 90 43 0f 3b
       0.011900293 -0.04493018 0.02265892 0.0021860339
0000b0 47 2a 10 3d b7 47 07 3d b2 42 86 bd d8 88 b0 bc
       0.03519657 0.033027377 -0.0655569 -0.021549627
0000c0 a5 cf 80 3d 2f 05 a3 3c 67 00 32 3d 84 5f cb 3c
       0.06289605 0.019899933 0.043457415 0.024825819
0000d0 d5 c9 df bc eb d4 8f bd e9 4f 6d 3d c4 33 85 ba
       -0.02731792 -0.07023033 0.057937536 -0.0010162522
0000e0 80 9d 75 3d 5b de 15 bd 3c 2d 6b 3d ad 8b 78 bc
       0.059964657 -0.036589008 0.057416186 -0.01517002
0000f0 7a 8d 0a bd 8c f9 66 bd 5a df 7b 3d 9a 6a 05 bd
       -0.03382633 -0.05639033 0.0614923 -0.032572366
000100 bf 06 96 bb f1 5d d0 3c 73 b1 73 3c 76 a9 5f bd
       -0.004578441 0.02543542 0.01487385 -0.05460497
000110 5f 02 0a bd ed e2 00 3d 18 3c d3 bc 67 7e 78 bd
       -0.033693668 0.031466413 -0.02578549 -0.06066742
000120 f4 0a 95 3a 87 d4 81 3d 9b ca 70 bc c6 9f 48 bd
       0.0011371062 0.063393645 -0.014696742 -0.048980497
000130 9f a3 3f 3d 8d 1b 65 3d 5d d4 a1 3c b3 d7 7b 3d
       0.0467869 0.055934478 0.019754583 0.061485004
000140 c7 b3 4b 3d f6 9e 00 3d 16 32 4d bd 1f fd 72 3d
       0.049731996 0.031401597 -0.050096594 0.059323426
000150 a9 97 fe 3c 05 52 a3 bc be 38 52 bd bf dc 82 3d
       0.031078177 -0.01993657 -0.051323645 0.0638976
000160 bf 41 59 bd 28 7b 19 bd fa ed 51 bd 1b e4 04 3c
       -0.053041216 -0.037470967 -0.051252343 0.008111025
000170 bb 94 a3 bd 97 22 68 3c 43 b5 bb 3b 9e f2 ca bb
       -0.079873525 0.014168403 0.005728395 -0.006193473
000180 d6 24 b6 bc e2 c3 fd 3c e6 05 3b bd d9 e1 b3 3c
       -0.022234362 0.030977193 -0.045659922 0.021958278
000190 7a 68 51 bc 42 f6 d6 3a bc c5 92 3d 41 28 b1 bc
       -0.012781257 0.0016400295 0.07166621 -0.02162564
0001a0 54 a9 3c bd 6c a2 b7 bb 86 22 9c bb 85 bf 67 bd
       -0.04605992 -0.005604079 -0.0047648577 -0.05657913
0001b0 05 9e 0b 3d cf 10 3f bd 95 c4 cb bc 91 e4 9a 3c
       0.034086246 -0.04664689 -0.024874011 0.018907817
0001c0 03 ca 6d bd 10 c5 59 3d 3c 91 d4 3c 2a 6a 33 3d
       -0.05805398 0.05316645 0.02594816 0.043802418
0001d0 81 39 cb 3c 24 7b 67 bd 18 75 a2 3c 5b 5b 43 3d
       0.024807693 -0.05651392 0.019831225 0.047694545
0001e0 b2 78 07 3c da fb 04 bd 17 96 8c bd e9 0c 36 bc
       0.008268522 -0.032466747 -0.06864565 -0.011111476
0001f0 0f 30 38 bc 22 81 08 3a aa 28 1b bd 90 ca 0d 3d
       -0.011241927 0.00052072306 -0.037880577 0.034617007

fc1.weight f4 [64, 128]
000000 c8 35 9f 3c 8c 73 91 3d 17 cc ab 3d 54 06 54 bd
       0.019434825 0.07102117 0.083885364 -0.051763847
000010 84 3f 04 bd 77 72 a1 3d 64 6f ba 3d ef 0f 3b bd
       -0.032287136 0.078831606 0.09103277 -0.045669492
000020 a0 13 43 bd 9b eb 83 bd 7e d4 c0 3c eb bf 7c 3d
       -0.047626138 -0.064414226 0.023538824 0.061706465
000030 b6 6f 00 3d e6 10 81 3c f4 8a 68 bd 97 9a 1b bd
       0.031356536 0.015755128 -0.05677314 -0.037989225
000040 db c8 33 bd 38 be 78 3d 88 0a ea bb d5 90 22 bd
       -0.043892723 0.06072828 -0.0071423687 -0.039688904
000050 4f b3 7c bc 0c fe e8 bc 87 95 ec bc 21 4c 25 bd
       -0.01542361 -0.028441451 -0.028879894 -0.040355805
000060 6f b6 7a 3d 35 cf 48 3d e8 09 5b 3c a9 64 0c 3d
       0.06120914 0.049025733 0.013369061 0.034275685
000070 18 f6 19 3d 43 e4 39 bd e8 bd 4e 3b ff 3f 38 3c
       0.03758821 -0.045383703 0.0031546298 0.011245727
000080 24 04 c9 3c 7e 38 8e 3d 76 9e 7d bc b1 22 d9 bc
       0.024538107 0.06944369 -0.015479675 -0.0265058
000090 7d bc 5f bd 4f 4d b6 3c c7 4d e1 3c 53 35 bb 3d
       -0.054623116 0.02225366 0.027502907 0.0914103
0000a0 05 4b 74 3d 83 6d 18 3d 3f 69 16 3c 39 87 9c 3d
       0.059641857 0.037213814 0.009180366 0.07642979
0000b0 7c 2f 71 3d c0 6e 8c 3c 84 2a 7f bd 74 d8 21 3d
       0.058883175 0.017142653 -0.062296405 0.039513066
0000c0 20 67 82 3d bd 5d 91 bd 51 57 d2 3a e0 b8 e6 bc
       0.06367326 -0.07097957 0.0016047751 -0.028164327
0000d0 95 e4 3b 3d bb c7 26 bd d9 c4 26 bd ba 5e 87 bb
       0.04587229 -0.04071782 -0.040715072 -0.0041311653
0000e0 8f 53 03 bd af f0 8f bc 51 71 d5 3c 38 9d e1 3c
       -0.03206211 -0.017570822 0.02605501 0.027540788
0000f0 4f dd e1 3c 94 15 e6 3c c3 28 f8 3c 79 f8 b6 bd
       0.027571348 0.028086461 0.030292874 -0.08934111
000100 18 f9 d9 3b e2 17 60 3d 05 82 8a bd da b0 3e 3d
       0.0066520087 0.054710276 -0.067630805 0.046555378
000110 17 42 a9 bc ea 71 9d 3d f6 1f 62 bc 89 7e 69 3d
       -0.020661397 0.07687743 -0.013801565 0.05700544
000120 81 11 77 bd 18 4d 89 3c 7b b0 be b7 34 45 84 bd
       -0.060319427 0.016760394 -2.2731945e-05 -0.06458512
000130 29 05 b5 3d 2c ca 4c bd b2 51 a8 3d da 39 4b 3d
       0.08838875 -0.049997494 0.08218707 0.04961572
000140 e2 ee 5b 3d 6d 8e ae 3d 8a 45 82 bd db 9f 7a 3d
       0.053694613 0.08523259 -0.0636092 0.061187606
000150 6e 1f 7d bb e3 6b 83 bd c0 bb 9a 3d cd cb 02 3d
       -0.003862347 -0.06417062 0.07555342 0.03193264
000160 66 88 73 bd 38 06 b0 bc 0e 8b a6 bd 99 39 23 bc
       -0.05945625 -0.02148734 -0.08131991 -0.009962463
000170 79 10 1d bd 88 24 79 bd 0b 79 ba bd 2f 09 97 3d
       -0.038345788 -0.060825855 -0.09105118 0.073747985
000180 56 09 8d 3d 87 e1 68 bc 48 9c b7 bc 98 5a 87 bd
       0.06886546 -0.014213926 -0.022413388 -0.06609076
000190 b2 bb 6b bc b2 a1 6d bc 40 31 0b 3d 8e 6a a3 3b
       -0.014388012 -0.014503883 0.033982515 0.0049870675
0001a0 23 cf f1 3c aa ed b8 bd ab 90 ba 3c 72 bb 6c bd
       0.029517716 -0.09029706 0.022774061 -0.05779595
0001b0 f5 15 8b 3d d0 3a 56 3c 53 d9 ab bc 8b da 2d 3d
       0.06791297 0.013075545 -0.020977652 0.042444747
0001c0 7a cc 0e 3d 5c 7c a3 bd b3 fd 5a 3d 88 fa 80 bd
       0.034862973 -0.07982704 0.053464603 -0.06297785
0001d0 15 95 48 bd a1 7d b1 bd 03 e0 a3 3d 1f 2a 70 bd
       -0.0489703 -0.0866654 0.08001711 -0.05863392
0001e0 66 2f 26 bd 9b 78 b5 3c fb 3b e5 bc 76 24 0c 3d
       -0.040572546 0.022152236 -0.027982702 0.03421446
0001f0 5e c0 aa 3d 78 0c af ba 32 f2 b3 3d 9d 71 38 bd
       0.083374724 -0.0013355156 0.087864295 -0.045030225
000200 95 b4 17 bd 2c 54 6b bd 0f 36 81 bc 5d eb 89 bd
       -0.03703745 -0.05745332 -0.015772847 -0.06734345
000210 ea 33 11 bc ce 97 62 3d af ec e8 3c 1e e4 93 bd
       -0.008862475 0.055320553 0.028433172 -0.07221244
000220 40 ef ec 3c ba e6 2f bd ef f5 86 3d 7b 34 83 bd
       0.028922677 -0.042944647 0.06589877 -0.06406494
000230 c8 08 5c bd 35 01 23 3d 1f 96 97 3d 56 1d a7 3d
       -0.053719312 0.039796073 0.0740168 0.08159892
000240 54 a5 74 3d cc ea 44 3d bd 0a 99 3d e2 c2 44 3d
       0.05972798 0.048075482 0.07472751 0.048037417
000250 8b 62 58 3d c0 b3 9e bd 1b 0c c4 bc 63 9c 8a bd
       0.052828353 -0.07749128 -0.023931554 -0.0676811
000260 15 e2 87 3c 50 d8 ab 3d 3e 7f 74 3d d1 e5 61 3d
       0.016587297 0.08390868 0.05969166 0.05515081
000270 be ea 16 3c 97 1c ad 3d f4 14 e0 bc 60 98 a2 bb
       0.00921124 0.08452719 -0.027353741 -0.004962012
000280 c6 a6 b1 bc c0 c3 58 bd 5d 27 3a bd 35 bd 42 3d
       -0.02168597 -0.052921057 -0.045447696 0.047543723
000290 47 7b b1 3d 92 7f 90 3d 93 3c 9e 3d 06 ab b1 bd
       0.086660914 0.07055582 0.07726397 -0.08675198
0002a0 e8 f9 1a 3d 1b 98 27 3d 2a 10 b3 bd c4 c7 09 3d
       0.037835985 0.040916543 -0.087433174 0.033637777
0002b0 3e d0 cb 3c a0 42 2b 3d 57 49 f7 bc d7 31 3f 3d
       0.024879571 0.041811585 -0.030186338 0.04667839
0002c0 88 b2 41 bd 9e 28 97 bd f3 62 7e 3c c8 56 40 bd
       -0.0472894 -0.07380794 0.015526521 -0.04695776
0002d0 bc ab 2e 3d f9 64 51 3c 68 b9 45 3d f8 e1 22 bd
       0.042644247 0.012780421 0.04827252 -0.03976628
0002e0 63 4e 7a bd ea 1b e7 3b 3d 2e d5 3c 6d ac 94 bd
       -0.06110991 0.007052888 0.026023025 -0.0725945
0002f0 56 9f a0 3d 65 f8 49 3d 71 fd 85 bd fb 7d c6 bc
       0.07842891 0.049309153 -0.06542481 -0.024229994
000300 21 d5 8e 3d 45 82 e6 3c b4 50 2c bd 2f 41 74 3d
       0.06974245 0.02813829 -0.042069152 0.059632476
000310 b6 9e fc 3c dd f7 9a 3d 7a e0 a4 bc 33 0e 8d 3c
       0.030837398 0.075668074 -0.02012657 0.017218685
000320 dc 77 9a 3d 69 f4 63 bb 69 fb a3 bc 8c 20 e0 3c
       0.075423926 -0.003478313 -0.020017343 0.02735927
000330 48 ac 53 bd 1d ae 3d bd d9 60 b0 3d 41 87 5f 3d
       -0.051677972 -0.046308625 0.08612222 0.054572348
000340 eb 9d 14 3d d7 2a 7e bd 00 33 1e 3c f6 43 da 3b
       0.036283415 -0.062052574 0.009655714 0.0066609336
000350 11 7a 90 3d 98 81 46 3b 8a 77 17 bd 65 f3 6a bd
       0.07054532 0.0030289646 -0.036979236 -0.057361025
000360 6d ba 43 3d fb 86 26 3d dc e6 b6 bc 9c d1 0d 3d
       0.04778521 0.04065607 -0.02232688 0.034623727
000370 77 cc eb bb 9a 6a 70 bd 9e e0 5a 3d 55 58 a8 3d
       -0.007196005 -0.058695413 0.053436868 0.08219973
000380 e9 5a a4 bd 40 b5 86 3c 99 cc e0 bc 86 12 d7 bc
       -0.08025152 0.016443849 -0.02744131 -0.02625395
000390 61 c9 2b 3c ae 1d b4 bd b4 d2 1a bd 25 08 4b bd
       0.010485024 -0.087947235 -0.0377986 -0.049568314
0003a0 bd 92 a3 3d 89 5b 88 3d 0b 58 82 bd 3e 99 4d bd
       0.079869725 0.06658084 -0.06364449 -0.05019497
0003b0 11 0f a1 bd 16 55 1a 3c 4e 69 8b 3d 93 c7 84 bd
       -0.07864202 0.0094197 0.06807195 -0.06483378
0003c0 24 9f 82 bc 25 c0 a5 bd ff 24 24 3d 59 a5 6d 3c
       -0.015945025 -0.08093289 0.040074345 0.014504754
0003d0 c7 dc 24 bd 18 67 a2 3d 9f a9 a0 3c 46 ff 66 3d
       -0.040249612 0.0792982 0.019612132 0.05639579
0003e0 87 e0 82 bd 4e ba 66 bd d8 5e 0d bd 43 db 39 bc
       -0.063904814 -0.056330018 -0.03451428 -0.01134378
0003f0 83 99 2a 3c 39 e0 22 bd b5 b6 99 bd 85 0f 93 bd
       0.010412577 -0.039764617 -0.07505552 -0.071806945

fc1.bias f4 [64]
000000 16 08 3b bd 8b fc f5 3b 2a d7 d8 3c 00 8b 8a 3c
       -0.04566201 0.007506912 0.026469786 0.016911983
000010 d9 0c 76 3d 72 d9 24 bd c4 0a e6 3c fd e1 af bb
       0.060070846 -0.040246435 0.028081305 -0.005367516
000020 78 93 6c bc 92 a4 83 bd 45 0c b7 bd 65 f9 2d bd
       -0.014439456 -0.06427874 -0.08937887 -0.04247417
000030 c6 c8 60 3d cd 52 fb 3c 43 d7 16 3d 94 0b 6c 3d
       0.054878972 0.03067913 0.036826383 0.05762823
000040 c9 23 8c 3d 91 5d a4 3c 41 13 e7 bc 42 24 4d 3d
       0.06842763 0.020064147 -0.028207423 0.050083406
000050 b4 f5 b2 bd 18 af ed bc 05 2f 8b bd ca 14 a3 3d
       -0.087382704 -0.029014155 -0.06796078 0.079629496
000060 5b a5 d6 bc 6a 8a 88 bd de e5 7c bd 6b 71 7a 3d
       -0.026201895 -0.066670254 -0.061742656 0.06114332
000070 b5 2e a5 bd 0f b1 61 bd 4b 88 b1 bd 46 ac 89 bd
       -0.08065549 -0.055100497 -0.08668574 -0.06722312
000080 7a 43 1e 3d 86 0b 61 bd 21 3b 9e bd 33 d5 6e bd
       0.03863857 -0.05494263 -0.07726122 -0.05830879
000090 b9 b9 58 3d d8 4e f2 bc c0 15 2f bb 02 87 f1 ba
       0.052911494 -0.029578611 -0.0026715845 -0.0018427076
0000a0 25 89 1a bd b6 8d 98 bd 56 9f 10 3a 5d 2f ea 3c
       -0.037728447 -0.07448904 0.0005516907 0.028587038
0000b0 eb cb 9b 3d 6f 7e a3 bd a0 0b 0e 3d d3 75 af 3d
       0.07607254 -0.079831 0.034679055 0.08567395
0000c0 e3 d2 97 bd f9 d5 63 3d 8d fc 9e bd b0 11 0d 3d
       -0.0741327 0.055623982 -0.07763014 0.034440696
0000d0 8e b2 17 3d 58 22 b1 3c c4 5f 81 bd 1a a0 ba bd
       0.037035517 0.021622822 -0.06317094 -0.09112568
0000e0 c6 94 77 bd fe 51 60 3d 26 5d 01 3d 32 c9 94 bd
       -0.060444616 0.054765694 0.031582974 -0.072649375
0000f0 92 3b 84 bd 03 f6 81 3d c4 69 4e bd 0e 85 a0 bd
       -0.06456675 0.06345751 -0.050393835 -0.07837878

fc2.weight f4 [1, 64]
000000 7a ff 26 bd 8b 83 c7 3c 5f 41 38 3c 80 58 58 bb
       -0.040770985 0.024354717 0.011246054 -0.0033011734
000010 ad 2c 8f 3d 97 ad ee bd 88 9c f4 3d de b6 75 3d
       0.06990943 -0.116542034 0.119439185 0.05998885
000020 c8 c9 7d bd af 57 f3 3d f1 e4 e1 bc 0a be 84 bd
       -0.06196001 0.11881959 -0.027574988 -0.064815596
000030 50 91 db 3c b2 59 38 3d 56 4a ba bd 84 10 b1 3d
       0.026802689 0.045007415 -0.0909621 0.08645728
000040 89 00 d8 bb d3 17 a6 3c a3 7c 96 bd 28 8a bc bc
       -0.0065918607 0.020275032 -0.07347991 -0.023015097
000050 42 74 83 3d 79 80 0e 3d f5 53 94 bd 55 b6 90 3d
       0.06418659 0.03479049 -0.07242576 0.07066027
000060 20 08 11 bd 60 e7 61 bd 30 78 6b 3c 33 07 8f bc
       -0.03540814 -0.055152297 0.014371917 -0.017459488
000070 96 b6 34 bd 74 c4 82 3c 81 fb 20 bd 1c 57 20 bd
       -0.04411944 0.015962817 -0.039302353 -0.039145574
000080 5c 90 8d bd d8 fc 43 bd 3f 69 ba bd 5f 29 13 3d
       -0.069123 -0.047848552 -0.09102105 0.035928126
000090 e3 83 0f bd 80 52 65 3d 90 85 1d bc b2 ea ef bc
       -0.035037886 0.05598688 -0.009614363 -0.029286716
0000a0 8a 08 9b 3d 78 4a ef 3d 3f 77 08 3d 02 e4 bd bc
       0.07569988 0.11684126 0.033316847 -0.023180012
0000b0 a0 29 3d 3c 36 a8 4b bc d2 ec ad bd 63 5f cb bd
       0.011545569 -0.012430241 -0.084924355 -0.09930303
0000c0 11 2c ad bb 3a 8a b7 ba e6 13 a8 bd ae 0e e9 3d
       -0.005284794 -0.0014002987 -0.0820692 0.11379753
0000d0 86 01 bb ba 7e 71 d0 3d 15 1e e8 3d 53 96 d0 bd
       -0.0014267422 0.10177897 0.11333863 -0.10184922
0000e0 20 55 a2 3d 88 e1 9a 3d 8c b8 56 bd e6 6d 1f 3d
       0.079263926 0.07562548 -0.05242209 0.038923167
0000f0 d5 59 cd bd be fd c4 3d 6d fd d2 bd fc 15 45 bb
       -0.100269 0.0961871 -0.103022434 -0.0030072918
