assets/model/phrase014_speech_model.pth (torch, 145844 bytes, 7 tensors)

conv1.weight f4 [64, 13, 3]
00000000: 4833 823d 0c2f 95bc c87c 1bbc cc14 3abd
00000010: c80d b6bd e679 013e c815 a5bd c157 893d
00000020: 829d 3cbd 0028 053d 4652 ca3d e816 413d
00000030: 9ac2 ccbd 0c89 fa3d d492 06be 914e 373d
00000040: a290 5e3d 9ab6 933d 6b26 bd3d f5c5 f93d
00000050: 4d56 f0bd 28a8 adbd 1d07 b73c a866 413d
00000060: 1c01 88ba fd7d e13d 65c0 1cbe 28e3 103e
00000070: 731b fe3d eadc 0c3e b7fc 94bd ec6f a33d
00000080: 2e3c 093d 3a06 9cbd 8489 b13d 2a24 a1bd
00000090: eff8 efbc 013f 62bd 161a 733d 5613 04bd
000000a0: 2e3c e33d 031b fd3d e84c 24be 53e3 c73c
000000b0: ea68 eebb 598a cfbc 1639 a33d 7d87 c7bc
000000c0: 9fb8 9fbd 3893 2d3c bde4 e9bb 1276 33bd
000000d0: a4ca 923d f60d dc3d 172d ccbd 288a 3b3d
000000e0: ea71 1a3e ee6d 00be e911 bcbd 7d0c 7cbd
000000f0: efc4 1e3e 5182 0cbe 8add 4abc 9be1 6cbd
00000100: 6048 1c3e 3faf 113e d13f 06bd 9ad0 aebd
00000110: ce1f 0b3e 4769 cebd 880a a3bd 0313 21bd
00000120: 2a50 cc3d 864f c5bd 2062 c1bd f4f3 8bbd
00000130: 31c9 ef3b 0deb 25be 1515 703c a388 e93d
00000140: 45e9 633c da47 10be efc7 85bb a32d 2d3d
00000150: 49bc 6c3c 367a cebd 9ab2 063e 3639 d2bd
00000160: 013a a0bd 67fc a23c 31fc 833d ca0c febd
00000170: eb9e 06be 8a97 543d 25ea e03c b669 40bd
00000180: 9612 193e 969d 093c b5a6 d2bd 9318 eabd
00000190: 86df b4bd bce7 2ebd 65a5 0fbe a179 c0bd
000001a0: 1b17 133e 6c8c e2bc 07e2 8ebd 5ae3 053e
000001b0: 60ad 15be 2cc8 e73d 7811 13be e04e bfbd
000001c0: 8c9b ee3d 1ec2 f1bd 093f 14bd 2f87 0fbd
000001d0: 5571 233e fbca dabd 5419 273e 1f38 1f3c
000001e0: 71ef a83c b2aa 193d 9850 17bd b756 02bc
000001f0: 7f5b c53c b533 033e 3bfa 08be 9cef 0d3d
00000200: 90ab 193e 1da1 afbc e592 1bbd fc9e bc3d
00000210: 3e71 eb3d cc70 1bbc 114c e63d 4ae5 adbd
00000220: e406 9dbd f661 d8bd 6b3b 3d3d a4f5 47bc
00000230: 6bef d33b 55fc e7bc b8e1 c5bc 65df 633d
00000240: 8c80 7fbd 3fde b0ba 4112 07be f7aa 41bd
00000250: 5b03 463d ce6e 74bd c211 39bc c46b 65bc
00000260: ae6a d8bc 8afd c6bc 35b1 19bd 440c ea3d
00000270: cca0 e43c 920e afbd 76bc 8bbd 801d d83d
00000280: 9aa1 4e3d ef6e 88bd fd82 f73d 70f0 133b
00000290: 05f9 a5bd ed66 b2bc 27e7 02bc 85c5 febd
000002a0: 187c 1a3d 931b 0d3e 3f2c 083e 2acf 06be
000002b0: 391f f93c 6b35 03be b132 ae3d 0380 b7bd
000002c0: 4386 1e3d 3745 b33d 3082 ab3c d3d2 b9bb
000002d0: 5e1a d93d d4e0 183e 8479 1b3d e398 68bd
000002e0: 50be 003e ebe6 5f3d 9e4a fd3d aa67 edba
000002f0: 8795 80bd e0cd b83c 572d cfbd 76d6 e03d
00000300: 328a b0bc b18f 243e 7f2d 243d 04b6 20be
00000310: ef96 a63d 5d7e cf3d 1709 673d 70ce 9cbd
00000320: a755 aabd 064f 0bbe 13d7 0c3e 9b9f 1e3d
00000330: 17b1 003e 28ac bebd 6aed 613d e2b7 47bd
00000340: 6ccd d43d 715d de3d 25ed 0c3e c617 03be
00000350: 406d a5bc b325 113e 2940 03be e614 8c3d
00000360: 0d18 463d cde3 923c e92d 1fbe ec57 34bd
00000370: dcf6 f6bd ef2c c0bd 1dae 16be 9703 ed3d
00000380: 1fc1 823d 4975 83bd fab3 a73d 7d72 9b3d
00000390: a797 12bc 40ee b1bd d22c 2f3b 20a9 123e
000003a0: 4892 fabd 8e3c 25bd 7596 70bd 1c9d 26bd
000003b0: 45a8 0e3e 0da1 7c3d fdc8 61bd 55c8 ec3d
000003c0: 66bd cabd 01bd 44bd 1977 f2bd ec25 e1bd
000003d0: a305 ef3c 95d3 1c3e d957 eabd 23b5 bd3d
000003e0: 548c bd3d 9b3a 033e 7b13 12be 8f1d 7f3c
000003f0: c1f6 12be 2d3b a03d 82d4 923c 983f 023e
0.06357437 -0.01821091 -0.009490199 -0.04542999 -0.08889347 0.12644157 -0.08060795 0.06706191
-0.04604865 0.03250885 0.09878974 0.047140986 -0.09998055 0.12233171 -0.13141948 0.04475266
0.05433715 0.07212563 0.09235843 0.121959604 -0.117352106 -0.08479339 0.022342259 0.04721704
-0.0010376307 0.110103585 -0.15307768 0.14149153 0.12407579 0.13756147 -0.07274764 0.07980332
0.033504657 -0.07618375 0.08668807 -0.07868226 -0.029293505 -0.055235866 0.05935105 -0.032245003
0.11095463 0.12358668 -0.16044962 0.024400389 -0.0072756903 -0.025334524 0.07969873 -0.024356598
-0.077988856 0.010594182 -0.0071378634 -0.043813772 0.07167557 0.1074485 -0.09969538 0.045786053
0.15082517 -0.12541935 -0.091831036 -0.061535347 0.15504812 -0.13721587 -0.012381921 -0.05783234
0.15261984 0.14227007 -0.032775704 -0.08535881 0.13586351 -0.10078674 -0.07960993 -0.03932477
0.099762276 -0.096343085 -0.09442544 -0.0683364 0.007317685 -0.16202946 0.014653464 0.114030145
0.013910596 -0.14089909 -0.004082672 0.04227985 0.014449188 -0.10081904 0.13154069 -0.10264818
-0.07823563 0.019895745 0.06444586 -0.12404783 -0.1314656 0.05190233 0.027455399 -0.046975814
0.14948496 0.008399388 -0.10285703 -0.114304684 -0.08831696 -0.042701468 -0.14027937 -0.09398199
0.14364283 -0.027654849 -0.06976705 0.13075009 -0.14616919 0.11317477 -0.14362133 -0.09341216
0.11650762 -0.11804603 -0.036192928 -0.03504103 0.15961201 -0.10683247 0.16318256 0.00971797
0.020621987 0.037516303 -0.036942095 -0.007955245 0.02409148 0.12812693 -0.13376705 0.034652337
0.15006852 -0.02143913 -0.037981886 0.09210011 0.114962086 -0.009487342 0.11244977 -0.08490999
-0.0766733 -0.105655596 0.046199244 -0.012204561 0.00646775 -0.028318563 -0.024155483 0.055632968
-0.06237845 -0.0013493969 -0.13190557 -0.047282185 0.048343044 -0.059675984 -0.011295738 -0.014002744
-0.026418056 -0.024290819 -0.037522513 0.11428121 0.027908705 -0.08547701 -0.068230554 0.10552502
0.050447084 -0.06661784 0.12085531 0.0022573732 -0.08104137 -0.021777594 -0.007989681 -0.124400176
0.037716 0.1378005 0.13298129 -0.13164964 0.030410396 -0.12813346 0.08505762 -0.08959963
0.03870226 0.08753436 0.020936102 -0.005670884 0.10600732 0.14929515 0.037957683 -0.05678643
0.12572598 0.05466358 0.12367748 -0.0018112559 -0.0627852 0.022559106 -0.1011607 0.10978405
-0.021550272 0.16070439 0.04008245 -0.15694433 0.08134257 0.10131524 0.056405153 -0.07656562
-0.08317118 -0.13604364 0.1375392 0.03872643 0.12567554 -0.0931018 0.055158056 -0.04875935
0.103907436 0.10857666 0.13762338 -0.12802038 -0.020193696 0.14174537 -0.12817444 0.068399236
0.04836278 0.01793089 -0.15544857 -0.04402916 -0.120588034 -0.093835704 -0.14714856 0.1157295
0.06384491 -0.06418855 0.08188625 0.07590196 -0.00894729 -0.08688021 0.0026729596 0.14322329
-0.12234932 -0.040340953 -0.058737237 -0.040677175 0.13931377 0.061677027 -0.055123318 0.11561648
-0.09899406 -0.04803181 -0.11839122 -0.10993561 0.029177492 0.15315087 -0.11442537 0.09263065
0.09255281 0.12815325 -0.14265244 0.015571012 -0.14351942 0.07823787 0.017923597 0.12719572

conv1.bias f4 [64]
00000000: 76e4 9b3d 238f 143d e703 0abe 4c77 6b3d
00000010: 0006 aa3d e77d 7dbd fae7 0a3e 7105 5fbd
00000020: 4a7c dbbd 245d d23d 5433 74bd c5ec 8d3d
00000030: 3841 d73c 05be 10be 4b5a eebd 2768 1ebe
00000040: 5238 433d f91a 273b e5c2 233d e111 d43d
00000050: 7060 d6bc c6a3 0c3e 1887 9b3d 1f50 d3bd
00000060: 8e34 56bc a0e1 7abd 8a01 f4bd d3a5 8cb9
00000070: 988e cbbd ba32 a23d 4783 863b b478 893d
00000080: c64d bd3d dbc0 cebd b757 8b3d e70c 1ebe
00000090: 7d0e 183e f6fd 2b3d 5da4 13be f39f 133e
000000a0: 2def e1bc 66b9 e6bd e51c a8bd 8de4 72bd
000000b0: 2306 ca3d af6b 923d 6d97 903c 0d23 733d
000000c0: 33a6 09be 248c 2f3d 0a1b 493d b68c 90bd
000000d0: c578 a63d d191 903c f484 90bd 22e0 8c3d
000000e0: cee2 c5bc 62ac c83d f737 3d3c 0d39 43bd
000000f0: b83e f2bd 706c debd ba5e 193e 1595 8cbc
0.07611935 0.03626932 -0.13478051 0.057486817 0.08301926 -0.061887648 0.13565055 -0.05444855
-0.10717066 0.102716714 -0.059619263 0.06929926 0.026276216 -0.14134987 -0.11638316 -0.15469418
0.047661133 0.0025498255 0.039980788 0.10354973 -0.026169032 0.1373435 0.075941265 -0.10318016
-0.013074053 -0.06125033 -0.11914356 -0.0002682643 -0.09939307 0.079198316 0.004105005 0.067124754
0.0924335 -0.10095378 0.0680384 -0.1543461 0.14849277 0.041990243 -0.14418168 0.14416485
-0.027579868 -0.11265831 -0.08208636 -0.059299994 0.09864452 0.07149445 0.01765033 0.0593596
-0.13442306 0.042858258 0.049098052 -0.070580885 0.08128504 0.017647656 -0.07056609 0.068786874
-0.024156 0.097985044 0.011548988 -0.04766183 -0.11828369 -0.108605266 0.14977542 -0.017160932

conv2.weight f4 [128, 64, 3]
00000000: 11ba 0dbd 2b6a 95bd 7e18 10bd d80e 0dbc
00000010: 7585 62bd 6ce9 8f3d 4339 b53c df9b 053d
00000020: 2e73 0f3d 0381 96bd 65f7 1a3d 8ab4 4dbd
00000030: 452d e63c 1555 e8bc 2b9b f23a 45dc 63bd
00000040: 22dd 923b 7e22 13bc ec49 f23b 0715 40bd
00000050: dcb1 82bd fac7 2d3d 8870 bfbb 9dbb b43c
00000060: 09d6 48bb e3bd 123d 71b1 543d 361d cebc
00000070: 2e32 2b3d 511f 4e3d 8304 2b3d bd1a 1c3d
00000080: faa1 563d d082 383d a049 e1bc d257 3a3d
00000090: a717 82bd 8292 153d db38 ebbc b6dc 24bd
000000a0: 01b5 75bd 3046 7bbd 2ec0 693d 519c 273d
000000b0: 7806 213d 547c 1f3c e5f3 013d 7633 813d
000000c0: b01c 753d d71e c1bc f573 6e3b 524c 23bd
000000d0: dc16 583c 2f71 7a3b 3620 813d 30ce f7bc
000000e0: b5cd 7dbd 952a 803d c38f bc3c fb4b 4bbc
000000f0: 98cc 053d 1080 4a3c 4a92 cabc 00c0 2eb9
00000100: 9c53 1ebd 1ae9 dbbc 3466 81bd d1e3 333d
00000110: 525a 01bc f063 933c da7b 623d 7489 43bd
00000120: df3e a33c 7918 bbbc a5e3 7b3d 4c90 7cbc
00000130: b7d4 87bd 4dc7 16bc d88e 3abd 01a1 813b
00000140: f5f9 473c cfb5 413d 00a6 38bc 0698 dbbb
00000150: cf45 043d 3ae0 19bc dd43 f93b 62a5 a2ba
00000160: 764e f8bc a45e 7cbd 25d7 433c bdf8 80bd
00000170: 74a2 60bd 1e00 51bd c169 13bc 7486 18bd
00000180: 9ae4 5a3d 7c72 50bd 76f2 6abd 72aa 853d
00000190: 6b36 1b3d e8de 433d 1f93 f83c db2a 713b
000001a0: 8320 783d c672 89bd 10bc 083d 0e41 4ab9
000001b0: 8681 373c f1d6 4dbd 1e40 683d bfcd 56bb
000001c0: d6b4 00bd 4bd3 9fbd fbc1 b63c d008 8e3b
000001d0: bd00 7dbd ab59 b4bb 568d e3bc 5a89 e83c
000001e0: 7b83 dcbc 7ba2 333c 3760 993c 92a2 e53c
000001f0: 35e9 58bd a3f4 54bc 0b47 98bd 8ec6 cfbb
00000200: b823 1dbd cf4a 3cbd 8fcd 41bc 3760 c13c
00000210: c587 0b3d 18a5 823d d9dc 253d 370e cfba
00000220: b1d7 56bd baaf 5e3d 1523 87bd 96f2 9ebc
00000230: 6ff8 de3c 408f 39bb c487 623d a831 1c3c
00000240: 72a6 88bd cd0c 5dbc 1a5a fabc 95a8 9abd
00000250: 77dd 803c 8289 b0bc ee2d f63c 407f 18bc
00000260: c256 75bc 30af 30bd b810 613c 3c3d 473b
00000270: bdc2 0f3d 38fb b63c 7774 4fbd f907 7dbc
00000280: b9a6 13bd 666b 113d 64a1 30bd 1d8b 8fbd
00000290: b05b e8bc b143 37bd 9020 643c 80e9 6b3d
000002a0: d7c4 6fbc 5208 1e3d 0e63 45bd 3bac 5fbd
000002b0: e124 bc3c 6b7d 05bd 6840 8a3a f002 5dbd
000002c0: f98e 043d a63a 063d 82f5 65bd c9e6 15bd
000002d0: b096 74bc 09fd d63b dc61 2fbc bf97 1d3d
000002e0: 0a09 9bbd e16e 13bd 538c f8bb f687 dfbc
000002f0: 567b 57bd 3ed3 dabc 17d0 b53c 871c 52bd
00000300: 19e2 93bc ceca ffbc 3e4e 4b3d 7ca8 6e3d
00000310: 8867 93bd f54e 25bd 961c ccbb 5ab8 55bc
00000320: c669 d43b 728d d83c e0b6 85bd 218f 89bd
00000330: 3519 873d 0b13 9fbc d219 c43c 5f63 3dbd
00000340: 27e8 39bd 5e03 4f3d d8fa 73bd 1958 6b3d
00000350: 1396 60bc c438 72bc 8541 7e3d 8e93 123d
00000360: f8d9 41bd d052 94bc 339d 28bd 7408 8dbd
00000370: e09b ae3b c4d3 1a3d 820a 83bc 85d5 86bd
00000380: daf7 1cbd 486f 94bd e34f 5fbd 5c1c e03b
00000390: d5e8 c3bc 2f91 02bd 376f 4939 3264 79bd
000003a0: 979d 5f3d 35b3 95bc 498c 4bbc 7a0a 37bc
000003b0: 4a50 8a3d 7c56 b33c 9235 4dbd 4fb9 41bd
000003c0: fa4c 08bc 9777 613d 3a70 a5bb 4a55 233c
000003d0: 6fa3 86bc 9d9b a5bc d04c 493d 70ed acbb
000003e0: dfad 7b3d 4eac f1bb 3ef0 8ebc 42dc 813c
000003f0: 3877 67bd e881 98bc 7342 71bd f534 95bd
-0.034601275 -0.072956406 -0.035179608 -0.008609496 -0.055303056 0.070269436 0.022122031 0.032619353
0.035021953 -0.07348826 0.03783359 -0.050221004 0.028097758 -0.028360883 0.0018509378 -0.055629987
0.0044819275 -0.008980392 0.007394066 -0.046895053 -0.0638158 0.04242704 -0.005842272 0.022062117
-0.0030645153 0.03582562 0.051927034 -0.025160413 0.041795902 0.050322834 0.04175235 0.038111437
0.052400567 0.045046628 -0.027500927 0.04549391 -0.063521676 0.036516674 -0.028713634 -0.04024955
-0.059987072 -0.061346233 0.057068042 0.04092056 0.03931281 0.009734232 0.031726737 0.063086435
0.05984181 -0.023574276 0.0036385034 -0.039867707 0.013189044 0.0038214435 0.06304972 -0.030249685
-0.061963756 0.06258122 0.02301777 -0.012408252 0.03266582 0.012359634 -0.02472796 -0.00016665459
-0.038653955 -0.02684455 -0.06318322 0.043918435 -0.007895069 0.01799199 0.055293895 -0.047738507
0.01992744 -0.022838818 0.061496396 -0.015415262 -0.06632369 -0.00920279 -0.045546383 0.0039559607
0.0122055905 0.047292527 -0.011270046 -0.006701472 0.032293137 -0.009391839 0.007606967 -0.0012408907
-0.03031085 -0.061613694 0.01195315 -0.06297443 -0.054842427 -0.051025502 -0.008997382 -0.0372376
0.053440668 -0.05089043 -0.057360135 0.065266505 0.037893694 0.04782 0.03034359 0.0036799225
0.06057788 -0.067113444 0.033382475 -0.00019288456 0.011200314 -0.050253812 0.056701772 -0.0032776443
-0.03142246 -0.07803973 0.022309294 0.0043345466 -0.061768282 -0.0055038533 -0.027777355 0.028385807
-0.026918164 0.010964031 0.018722637 0.028031621 -0.05295678 -0.012997779 -0.07435425 -0.0063408082
-0.038364142 -0.04596978 -0.011828794 0.02360545 0.034065027 0.063791454 0.04049382 -0.0015797083
-0.052451793 0.054366805 -0.06598488 -0.019402783 0.027218072 -0.0028314143 0.055305257 0.009533323
-0.06672372 -0.0134918215 -0.030560542 -0.07551686 0.015730603 -0.021549944 0.030051198 -0.0093076825
-0.014974298 -0.04313582 0.013736896 0.0030401489 0.035097826 0.022336587 -0.05064818 -0.015443795
-0.03604767 0.035502814 -0.043122664 -0.07008956 -0.028364033 -0.04474229 0.013923779 0.05759573
-0.014634333 0.038582154 -0.04819017 -0.05460761 0.022966804 -0.03259031 0.0010547759 -0.05395788
0.03236291 0.032770775 -0.056142338 -0.036597047 -0.014928505 0.006560926 -0.010704484 0.038474794
-0.075700834 -0.035994414 -0.0075850873 -0.02728651 -0.052607857 -0.026712056 0.022193952 -0.051296737
-0.018052148 -0.031224634 0.049635164 0.058266148 -0.071974814 -0.040358502 -0.0062289936 -0.013044441
0.0064823357 0.026434634 -0.06529021 -0.06716753 0.06596605 -0.01941826 0.023938093 -0.046237346
-0.045387413 0.05054032 -0.059565395 0.057457063 -0.0137076555 -0.014784042 0.062074203 0.03578525
-0.04732701 -0.018105894 -0.04116554 -0.06886378 0.0053286403 0.03779961 -0.015996221 -0.06583694
-0.038322307 -0.07247788 -0.054519545 0.006839318 -0.023914734 -0.03187674 0.00019210285 -0.06088657
0.05459365 -0.01827393 -0.012423583 -0.011171931 0.06753595 0.021891825 -0.050099917 -0.047295865
-0.008319134 0.05504569 -0.005048779 0.009969065 -0.016435353 -0.020215804 0.04914552 -0.005277328
0.061445113 -0.0073752766 -0.01744854 0.015852097 -0.05651018 -0.018616632 -0.05890126 -0.072854914

conv2.bias f4 [128]
00000000: 2d58 8abc b623 f73c 17b8 3fbd d541 79bc
00000010: 2224 633d 2586 76bd 116a 0dbd 66cb dbbc
00000020: 7f5b 4f3c 1d9e 69bd 484d 6d3c d33a adbc
00000030: 6ed8 1c3c d0f3 893d 44a6 d5bc 437e 603d
00000040: 7e2c f03c 72bf 463d 4aa5 8abd 14a7 483d
00000050: 4635 8abd 9d5c 38bc 1265 973c 16de 553c
00000060: 4090 0fbd 0828 11bc e254 88bd 5ba9 513d
00000070: 4255 46bd 1d1c 403c f4b1 53bd 885c 3a3d
00000080: 053e 353d 1441 5a3d a7f2 4e3d 33d0 a43c
00000090: 4b24 90bd d5a6 e8bb 6faf 7c3d 1f8c d4bc
000000a0: 9c3e 923a 90fb ffbc 7890 373c 1cc3 af3c
000000b0: 06e1 8a3d 4a46 6c3c 532d e7b7 c501 863d
000000c0: 8ddb 55bc 1db9 26bd 3263 09bd 75b6 fb3b
000000d0: 2c01 5dbd fd22 6d3d 8dd0 0abd 63e2 ea3c
000000e0: 54d4 db3a 5a02 2ebd 787c cdbc 1a5c 683d
000000f0: 5866 debc ec3e e3bc 3cb9 cbbc 683f 23bd
00000100: d0b5 80bd ccce 863c 4084 653d 6fa2 34bd
00000110: 35ac 37bd 9493 873d 6b4a 1b3c f343 f03c
00000120: 8ec4 e5bc 9fc9 8fbd 95fb 3abd 9bf2 04bd
00000130: 619e 2e3d 22e5 7f3d 21be a1bd 9ff1 f3bc
00000140: dc7d 443b 8978 d33b dedb 8bbd eb8a 633d
00000150: 0d73 723d 9731 b63b 7ee3 483c 29ec 4e3c
00000160: d0fd 0ebc 6651 33bd 0a02 56bd 46d9 8e3d
00000170: 3c88 23bd 8a59 fc3c 2587 be3a 33e0 8abd
00000180: 6804 13bd 2289 92bd 152c 30bd ced5 263d
00000190: 493e 50bd ec9b 8dbd 0b14 d43c 6ea5 853d
000001a0: 922f 07bd 8950 a0bd ba92 26bd 9b8e 91bd
000001b0: 8ee8 bdba 306f c9bc a65b 013d 3ccb a43c
000001c0: 2fdf 2bbd 2f33 2ebd 98ce ccbc 0013 133d
000001d0: 52d5 b2bc 02ff 24bd ed13 0bbd 245c d03c
000001e0: 8f18 3bbc 6ea2 cd3c 6126 ee3c 20cb 32bb
000001f0: 267c 873d 684d 5dbd 17db 15ba a1d0 353c
-0.016887749 0.030168395 -0.04680642 -0.0152134495 0.05545438 -0.060186524 -0.03452498 -0.026830386
0.012656092 -0.057035554 0.014483757 -0.021146214 0.009573085 0.06735957 -0.026080258 0.054807913
0.02931809 0.04852242 -0.06769808 0.048987463 -0.06748442 -0.0112525495 0.018480811 0.013053438
-0.035049677 -0.008859642 -0.06656815 0.0511869 -0.048421152 0.011725453 -0.05168338 0.0454984
0.0442486 0.05328472 0.05052438 0.020118808 -0.07038172 -0.007099966 0.061690744 -0.025945721
0.0011157575 -0.031247884 0.011203878 0.02145534 0.06781201 0.014421055 -2.7558452e-05 0.06543306
-0.013052833 -0.04070388 -0.033541866 0.0076816627 -0.053956196 0.057894696 -0.033890296 0.028672403
0.0016771653 -0.04248271 -0.025083765 0.05672846 -0.02714841 -0.027739964 -0.0248686 -0.03985539
-0.06284678 0.01645603 0.056034327 -0.04410022 -0.044841964 0.06619945 0.009478192 0.029329276
-0.028047826 -0.07020878 -0.045650084 -0.03245793 0.04263151 0.062474377 -0.07897592 -0.0297783
0.0029982245 0.006453578 -0.06829046 0.055552404 0.059191752 0.005560111 0.01226127 0.012629547
-0.008727506 -0.0437788 -0.05224804 0.06975035 -0.039924845 0.030804414 0.0014536126 -0.06781044
-0.035892874 -0.07155062 -0.04301079 0.040731244 -0.05084065 -0.06914505 0.025888463 0.06525694
-0.03300435 -0.07827861 -0.040667273 -0.07107278 -0.0014488862 -0.024589151 0.031581543 0.020116441
-0.04196089 -0.04252928 -0.025000855 0.03590679 -0.021830235 -0.040282257 -0.03395455 0.025434561
-0.011419429 0.025101867 0.029071035 -0.0027281716 0.06615476 -0.0540289 -0.0005716546 0.011097104

fc1.weight f4 [64, 128]
00000000: 49db 913d e94c 903d 9b81 91bd d9e3 063d
00000010: 18fb a63d ca39 203d 2099 f73b 16b8 99bc
00000020: 1fed babc 0941 c8ba 03de 653d 56e3 a4bd
00000030: 222d 923d f33e fcbb 6536 8cbb 55b2 3f3d
00000040: ea9a 713c a304 623c 2d71 54bd 3dc7 8fbd
00000050: 32bf 41bb fab8 713d 01fd ef3b aa5f 6c3d
00000060: abcb 953d 0e2b 2bbc 9d60 a4bb ec47 753c
00000070: fff4 913d f5b8 5b3d 30fe 413c 2b5e b03c
00000080: b1c7 5ebd b266 05bc 4060 37bd 32e2 2b3d
00000090: 6969 253d 1f7a 12bd 69a2 81bb dff9 a33d
000000a0: 6487 c4bc 4bac 9d3d 87d3 9a3d a499 493d
000000b0: be79 36bc 0aa2 ad3d eaf3 703d 25c3 263d
000000c0: b00b 0d3c 7594 57bd 55d0 63bb 31ae abbd
000000d0: 6556 3cbd d3dc 57bd b66e 89bd 0f53 a6bd
000000e0: b77c 953d a2c3 923d e7b5 9c3d 102f 0a3d
000000f0: 42da 8cbd 210a 8a3c 778d 17bd 86b0 a73d
00000100: 784f 7a3d 8116 b5bb 9317 a03d 46ad aa3d
00000110: 5d21 203d d3c1 183c a986 6bbd 5fe6 2fbd
00000120: 9f30 1f3b ffbd d83c 7b6a 3e3d 5595 16bd
00000130: 1bff 543d f02c 353d 2819 083d ee7e e23c
00000140: ffb5 ad3d 74d4 9ebd 9d6e 51bb 8669 b13c
00000150: 9ea6 533d 54a6 3c3d 889d 61bd b54c 7fbd
00000160: ef75 b03d cdf1 013d 3a3a a83c d8f3 49bd
00000170: c236 9d3d cc22 75bd fbf4 f7bb aa4f 003c
00000180: 209d 2fbd 2fd8 34bd eeb2 733d 2a50 ac3d
00000190: 6399 893d 7b06 9e3c f4c5 c539 6c51 17bd
000001a0: ee0a 1f3d 7e4b 73bd 01a1 f93c e8b0 8f3a
000001b0: 1322 ca3c f16d 183d 7d4c cabb 2317 86bd
000001c0: 7339 893d b100 673d 742a 77bc 6cb3 ccbc
000001d0: 1c87 963d 7266 8d3d 546f 8ebc 3b7f 8f3d
000001e0: 1cbb 843d b5dd 823d 06b5 623d 209e a5bd
000001f0: 26ed 3ebd 0846 12bd ce78 49bd 304f 1bbc
00000200: 57be 0bbd 6a6a a3bb 36ad 273d 9243 6e3c
00000210: 7b21 0dbc 9201 39bd f0c9 9d3d 324a 6fbd
00000220: 1f69 2c3a dc89 773d baef d33c 5b89 0fbd
00000230: c0f5 ca3c 884d 66bd f64b 8dbd b883 a03d
00000240: e4b5 51bd 1b8e 8abd 16a0 6dbc dd03 09bd
00000250: 3e59 973d f105 ca3c 515f 99bd 7e89 863d
00000260: 6434 1d3d 1c45 a33d 8cb0 2ebd 42cc d9bc
00000270: 9c58 37bd 7738 85bd 831c 80bd 9a66 5ebd
00000280: 5e1b 8abd 8e93 8abd 1be3 f63c bae7 d4bb
00000290: ff9f 893c 9dfc 7ebd c4f6 b3bd 3cbc 303d
000002a0: f07d 263d 14bf 30bb 0a0b 76bd 90b9 08bd
000002b0: 6e5d 723d fe0a 44bd dd5b ee3c bd17 8bbd
000002c0: 7796 bdbd 6cb0 363d 7740 fab9 3df7 4bbd
000002d0: 5ced bbbd d102 f63c 9568 bc3c 5f7d 3fbd
000002e0: 5f90 253d b854 233d 0b25 c5bc c551 8fbc
000002f0: 0403 b2bd 22c2 e63c 00ab 0cbd 1905 39bd
00000300: 1739 9cbd 244c 213d 3c61 3ebd 7051 42bd
00000310: 98a8 253d 9984 7fbd f22a 583d f82b 74bc
00000320: 89b7 81bb fe34 443d 50f2 3f3c e5c3 083d
00000330: f774 b3bc dcd8 063d 2926 2c3d 126d 8fbc
00000340: e779 bdbc 4022 64bc b92f d53b 9d12 883d
00000350: f0c0 373d d1bc a4bd fe7f 963d 532e a0bd
00000360: 6f3f 3dbd afb3 07bd 3b19 adbd d358 a4bd
00000370: 581b 3c3d f009 2abc 4c68 5f3d fef2 f2bc
00000380: 23e1 d73c 391b b8bd 416a 79bd 0f88 173c
00000390: 877b 43bc e37b e7bc 7270 41bd 0bf6 ca3c
000003a0: ca5c 32bd 8874 a53d 84c8 5f3d 3813 abbd
000003b0: f573 90bd c012 9abd 0183 2f3d 5850 2abd
000003c0: cc8b ec3c 2c2a b2bd 9a8a 6ebd bc56 a4bd
000003d0: 384c 0fbd 1ff4 83bd cd64 d53c eaaf e53c
000003e0: a61c 593c 1046 3e3b f163 89bd 849c 69bd
000003f0: 5e88 4dbd c33e a03d 74a0 0f3b 6fb3 693c
0.071219034 0.070459194 -0.071047984 0.032932136 0.08153361 0.039117612 0.0075560957 -0.018764537
-0.022818146 -0.0015278171 0.05611993 -0.080511734 0.07137515 -0.007697934 -0.0042789453 0.04680093
0.014746407 0.013795051 -0.051865745 -0.070204236 -0.0029563424 0.059014298 0.0073238616 0.05770842
0.07314237 -0.010447277 -0.0050164 0.014970761 0.071268074 0.053643186 0.011840388 0.021529278
-0.05438966 -0.00814216 -0.044769526 0.041963764 0.04038373 -0.035760995 -0.0039561284 0.080066435
-0.02399034 0.07698878 0.07559877 0.04921879 -0.011137424 0.08478172 0.058826365 0.040713448
0.008608744 -0.052631814 -0.0034761627 -0.08382834 -0.04598083 -0.05270083 -0.067105696 -0.08121311
0.07299178 0.0716622 0.076518826 0.03373629 -0.06877567 0.016850533 -0.037000146 0.08187966
0.061110944 -0.0055263643 0.078169964 0.083338305 0.039094318 0.009323555 -0.05750147 -0.04294431
0.0024290455 0.026457785 0.046488266 -0.036763508 0.0520011 0.04423231 0.033227116 0.027648415
0.084819786 -0.07755366 -0.00319568 0.021656763 0.05167257 0.04605706 -0.055081874 -0.062329013
0.08616244 0.03172474 0.020535577 -0.049304813 0.0767646 -0.059847638 -0.0075670457 0.007831493
-0.042874455 -0.04415148 0.059496813 0.084137276 0.06718709 0.0192902 0.00037722255 -0.036942884
0.038828783 -0.059398167 0.03047228 0.0010962756 0.024674451 0.037214223 -0.006173669 -0.06547382
0.06700411 0.056397144 -0.015085805 -0.024987899 0.07349989 0.069043055 -0.01738707 0.07006689
0.06481001 0.063899435 0.05534842 -0.080868006 -0.04661288 -0.03571132 -0.049187474 -0.009479329
-0.03411707 -0.004987051 0.04093667 0.014542477 -0.008613939 -0.045167513 0.07704532 -0.058420368
0.00065769436 0.060434207 0.025871146 -0.0350431 0.024775386 -0.056226283 -0.06899254 0.07837623
-0.051198855 -0.06765386 -0.0145034995 -0.03345095 0.073900685 0.024661036 -0.07488883 0.06569193
0.03838004 0.07972166 -0.042648837 -0.026586656 -0.04476224 -0.065049104 -0.06255438 -0.054297067
-0.06743501 -0.06766425 0.03013759 -0.0064973505 0.016799925 -0.06225263 -0.08787301 0.043148264
0.040647447 -0.002696936 -0.06006912 -0.03338009 0.059171133 -0.047862045 0.029096538 -0.06791637
-0.092572145 0.044601843 -0.00047731746 -0.04979633 -0.09176132 0.03003064 0.022999087 -0.046750423
0.040420886 0.039875716 -0.024065515 -0.017495045 -0.086919814 0.028168742 -0.034342766 -0.045170877
-0.076280765 0.039379254 -0.04647945 -0.047440946 0.040443987 -0.062382314 0.05277533 -0.014903061
-0.0039586467 0.0479021 0.011715487 0.033389945 -0.02190636 0.032921657 0.04202858 -0.017508063
-0.023129417 -0.013924181 0.006505933 0.06644175 0.044861734 -0.08043826 0.07348631 -0.07821336
-0.046203073 -0.033130344 -0.08452078 -0.080247544 0.045924515 -0.010378346 0.054542825 -0.029656883
0.02635247 -0.08989567 -0.060892347 0.0092487475 -0.011931307 -0.028257316 -0.047226377 0.024775526
-0.04354552 0.08078867 0.054634586 -0.08353275 -0.07053367 -0.075231075 0.042849544 -0.041580528
0.028875254 -0.0869945 -0.05823765 -0.08024356 -0.034984797 -0.06443047 0.026049042 0.028037984
0.013251459 0.002903346 -0.067085154 -0.05703403 -0.050178878 0.07824471 0.0021915706 0.014263972

fc1.bias f4 [64]
00000000: f335 4ebd ae6a abbc 50a8 babc 0651 1bbc
00000010: 4e12 63bd 00d1 f1ba d6f0 663d 1340 473d
00000020: a914 a8bd 06e5 8ebc 3704 96bd 93e8 86bc
00000030: ad04 753d f460 423d 5056 d4bb f84a 1ebc
00000040: 00f7 b7bc 1bec 45bd 8b9a 90bd d912 90bd
00000050: 44ee 063d f954 873d 22c7 c5bc c40a babb
00000060: 56a9 613d 86fb 953d 80fe 46bc cab0 93bd
00000070: c2c4 3d3d dbb7 a53d 6fe4 f53c 2216 98bd
00000080: 0c7c 17bc 4393 12bd 8716 a2bd fae5 0fb9
00000090: 046b 0d3d bef5 273b 551d 543d 8ac6 03bd
000000a0: 055f be3c 6bc2 22bd dadf 4a3d a560 69bd
000000b0: aa03 613d bf9b 9b3d e4f3 9ebc cee5 8dbd
000000c0: 9097 36bc 8b57 6c3d 1f52 fd3c 6cae 863d
000000d0: bc72 ae3d 0aff 07bc 50d0 5b3c f3ac 973d
000000e0: 0ac9 3f3d 1077 30bd 8f8a ac3d d36e 1fbd
000000f0: b565 9d3d a58e 16bd de05 58bd 6151 9ebc
-0.05034442 -0.020924892 -0.022785336 -0.009479767 -0.05543738 -0.0018449128 0.056382023 0.04864509
-0.082070656 -0.017443191 -0.07325023 -0.016468322 0.059818912 0.047455743 -0.006480016 -0.009661429
-0.022456646 -0.04832087 -0.07060727 -0.07034845 0.03294207 0.06608004 -0.024142805 -0.005677553
0.055093132 0.07323365 -0.0121456385 -0.07211454 0.04633022 0.08091708 0.030016152 -0.074260965
-0.009245884 -0.03578497 -0.07914453 -0.00013723216 0.034525886 0.0025628651 0.051785786 -0.032171763
0.023238668 -0.039736193 0.049529888 -0.056976933 0.054935135 0.075980656 -0.019403405 -0.069285974
-0.011144534 0.057700675 0.030922947 0.06576237 0.085179776 -0.008300552 0.013416365 0.07406034
0.046822585 -0.043082297 0.084248655 -0.03892405 0.07685415 -0.03675713 -0.05273997 -0.019325914

fc2.weight f4 [1, 64]
00000000: 4fe1 b93d 33d2 e03c c0bb 873b b02d 84bd
00000010: ac2f 38bd 88bc b5bd dea5 a7bd b9a8 81bd
00000020: edb2 853d eb87 513c 9635 ae3c c859 893d
00000030: 17c2 553d 9a60 ce3d 1093 e53c 1c89 a33d
00000040: 45f0 e63d 0194 15bd 9c20 9fbd c616 763d
00000050: bc21 7e3c f71c 9abd 2f21 ddbd 634e c83d
00000060: 60f6 9cbd dbf6 993d b04d 78bd 9056 31bc
00000070: ef51 543b 6344 df3d 16a8 c5bd 0e4b f23d
00000080: 1b33 c63d 3837 95bd 7054 473c a168 24bd
00000090: 750b 023d 1b2a dd3d cde6 fa3d c823 e3bd
000000a0: 033b a6ba b927 963d a42d 9a3d 8edd b1bd
000000b0: c847 703d 7524 76bd a500 863d 373f 30bb
000000c0: 9867 f8bc b618 e43d bdb5 d43d 11c9 26bd
000000d0: be88 77bd 64e8 8dbb 1009 59bc 3cef 1c3d
000000e0: 6e7b b03c 30df 7b3d 1416 7e3d f00f 70bd
000000f0: 8603 923c d196 d53d cdb7 1ebd a822 e53c
0.09076177 0.02744398 0.0041422546 -0.06454027 -0.04496734 -0.0887385 -0.081859335 -0.063310094
0.06528268 0.012788753 0.021265786 0.067065775 0.05218705 0.10077019 0.028024226 0.07985136
0.112762965 -0.0365181 -0.077698916 0.060080312 0.015510973 -0.07525056 -0.10797345 0.09780576
-0.0766418 0.07517787 -0.060620964 -0.010823861 0.003239747 0.109017156 -0.096512005 0.11830722
0.09677716 -0.07285923 0.012166128 -0.040138844 0.031749208 0.107990466 0.12251053 -0.11090809
-0.0012682382 0.07331795 0.075282365 -0.08684836 0.058662206 -0.060093362 0.06543092 -0.0026893148
-0.030322835 0.11137526 0.10386226 -0.040719096 -0.060433142 -0.0043306816 -0.01324679 0.03831409
0.02154323 0.061492145 0.062032774 -0.05860895 0.017823946 0.104291566 -0.038749505 0.027970627
