assets/model/phrase008_speech_model.pth (torch, 145844 bytes, 7 tensors)

conv1.weight f4 [64, 13, 3]
0.06695849 0.057735972 0.065230705 -0.05732445 0.1286345 0.048012536 -0.07715012 0.07887105
0.09834089 0.043231655 -0.0027787648 0.15453422 0.017642919 0.1306255 0.15630008 0.15668933
0.14057617 -0.12172043 0.120025 -0.10035904 -0.14744034 -0.035304055 -0.035418425 -0.013802294
0.10761258 0.16189814 0.06854267 -0.11544725 0.0063693007 0.13477626 0.020200264 0.07116514
-0.06084619 -0.12117766 0.13506657 -0.034392726 0.015304318 -0.15019453 -0.1111755 0.07058189
-0.09731196 -0.0473413 0.08420252 -0.13894437 -0.11038595 0.027842665 -0.15630367 -0.004590166
0.053782877 0.05762582 -0.023249948 -0.13760981 -0.09774075 0.05595236 -0.022938924 0.08968262
-0.048515577 -0.07905096 -0.07910012 0.008196921 0.07195789 0.06676529 -0.08027215 0.16764502
0.101533264 0.12347662 -0.03225449 -0.14326826 0.10036298 0.08639999 0.13806203 -0.16477902
0.07155826 -0.0032574628 0.0731275 0.041591648 -0.032084398 0.028248556 0.1235455 -0.034072425
-0.06689824 -0.15047838 0.061075892 0.03627148 0.0059580314 0.11572883 0.09590676 0.12162304
-0.14193583 0.011888667 0.049002618 -0.07897382 0.040178984 0.09532321 -0.06169884 0.14419755
0.14468552 -0.1136176 -0.008331482 -0.08970804 0.037434757 -0.034376893 -0.06615477 0.06719423
0.07003298 -0.029940031 0.026583022 -0.025649974 0.050873667 -0.110570796 0.13951625 0.06807627
-0.028043903 -0.09510105 -0.1451621 0.11049442 0.022551382 0.08894623 -0.087365024 0.15132143
-0.12394575 0.015808607 -0.013234929 -0.06821819 0.074489795 -0.016901033 -0.049625624 -0.15470405
-0.08230158 -0.14528629 0.15024926 0.103252895 0.08374218 0.043074157 -0.13716677 -0.039879326
-0.13039503 0.09751415 -0.041793097 0.043354206 0.026887214 -0.10237493 0.04896001 -0.010018154
0.032376684 0.032003224 -0.07285602 -0.052136704 -0.042494185 -0.056816615 0.09349118 -0.03847259
0.11758988 0.050395377 0.13678646 -0.10787243 -0.1020292 0.14332631 0.08416378 -0.06341608
0.13404915 0.080565855 0.048339784 -0.11469422 0.09076576 0.02985347 -0.07116679 -0.10083555
0.10846416 0.018599724 0.16128305 0.021484127 -0.14345567 -0.010587472 -0.15624921 -0.12257093
0.06335117 0.09833292 -0.040440533 -0.065848745 -0.12374941 -0.0008534468 0.028346857 0.029335137
0.10030487 0.03447051 0.14828597 -0.13937262 0.0016751047 -0.054938223 0.10164589 -0.049096934
-0.03832812 0.08419432 -0.025554175 -0.0044144113 0.16046788 -0.046122607 -0.14673635 -0.13621089
0.0010800133 -0.05218495 0.13084535 0.11935883 -0.037483927 0.062651575 -0.07487714 0.034664758
0.06351779 -0.08733373 0.14113304 -0.14894663 -0.15612903 0.07039197 -0.10197849 -0.009254876
0.025769029 0.10526587 0.08159496 0.040517766 -0.052376393 -0.1376739 -0.13115989 0.108307846
0.11705936 0.13592578 -0.11006278 0.096256 0.049611483 0.07934248 -0.14608645 0.043516815
-0.061652735 0.13526757 -0.02984556 0.0630543 0.15835798 -0.06737435 0.103850536 0.0031729687
-0.029237244 -0.07415057 -0.091718175 0.06834946 -0.07699532 0.018827524 -0.032388736 0.14858083
-0.0884004 -0.069832265 -0.032062728 -0.1264104 -0.107152015 0.12888402 0.06041177 0.16128786
00000000: 8821 893d 8e7c 6c3d ad97 853d 0bcd 6abd
00000010: c3b8 033e cba8 443d e200 9ebd 2587 a13d
00000020: f366 c93d ad13 313d f01b 36bb 383e 1e3e
00000030: e287 903c b1c2 053e 210d 203e 2b73 203e
00000040: 33f3 0f3e 9048 f9bd abcf f53d 0a89 cdbd
00000050: 9afa 16be fc9a 10bd e912 11bd 0423 62bc
00000060: fc63 dc3d a0c8 253e 1960 8c3d 9c6f ecbd
00000070: 91b5 d03b ca02 0a3e 067b a53c 07bf 913d
00000080: db39 79bd fe2b f8bd e44e 0a3e 63df 0cbd
00000090: f6be 7a3c 98cc 19be fbaf e3bd 3d8d 903d
000000a0: 7e4b c7bd f3e8 41bd 5f72 ac3d 6f47 0ebe
000000b0: 0712 e2bd 4d16 e43c 120e 20be 1a69 96bb
000000c0: 6f4b 5c3d 0d09 6c3d ad76 bebc 96e9 0cbe
000000d0: 4d2c c8bd 4d2e 653d 69ea bbbc 85ab b73d
000000e0: 45b8 46bd 78e5 a1bd 3eff a1bd 614c 063c
000000f0: a95e 933d 3ebc 883d ba65 a4bd 23ab 2b3e
00000100: acf0 cf3d 4fe1 fc3d 491d 04bd eab4 12be
00000110: 1b8b cd3d 7af2 b03d 2260 0d3e d5bb 28be
00000120: 238d 923d 287b 55bb dfc3 953d 015c 2a3d
00000130: ee6a 03bd 8469 e73c 6c05 fd3d 878f 0bbd
00000140: f201 89bd 0117 1abe b72a 7a3d 6791 143d
00000150: 973b c33b 3d03 ed3d c36a c43d 8015 f93d
00000160: a057 11be afc8 423c f8b6 483d 07bd a1bd
00000170: b892 243d d138 c33d ecb7 7cbd 86a8 133e
00000180: 7128 143e 58b0 e8bd c580 08bc d9b8 b7bd
00000190: 3055 193d c9ce 0cbd 277c 87bd 219d 893d
000001a0: 736d 8f3d cc44 f5bc a3c4 d93c e51f d2bc
000001b0: e860 503d f172 e2bd 59dd 0e3e 926b 8b3d
000001c0: 54bc e5bc 57c4 c2bd 60a5 14be e64a e23d
000001d0: adbd b83c 7129 b63d 6fec b2bd 01f4 1a3e
000001e0: 45d7 fdbd 0d81 813c 51d7 58bc fab5 8bbd
000001f0: 1b8e 983d 0974 8abc 3d44 4bbd bd6a 1ebe
00000200: bb8d a8bd eec5 14be f1da 193e 4176 d33d
00000210: 0581 ab3d 876e 303d 7275 0cbe 8158 23bd
00000220: 4686 05be 80b5 c73d 3d2f 2bbd 2e94 313d
00000230: 9342 dc3c f3a9 d1bd 4b8a 483d 2f23 24bc
00000240: 6a9d 043d d015 033d 8935 95bd 4c8d 55bd
00000250: 620e 2ebd 8ab8 68bd 4e78 bf3d 6f95 1dbd
00000260: f7d2 f03d 626b 4e3d c011 0c3e 38ec dcbd
00000270: aff4 d0bd 22c4 123e 0f5e ac3d 4ae0 81bd
00000280: 2e44 093e b6ff a43d f0ff 453d cee4 eabd
00000290: 66e3 b93d 448f f43c e5bf 91bd de82 cebd
000002a0: 7522 de3d 735e 983c 6227 253e 7bff af3c
000002b0: 0be6 12be 1377 2dbc cbff 1fbe 7806 fbbd
000002c0: 42be 813d c562 c93d f9a4 25bd b5db 86bd
000002d0: 5570 fdbd d8b9 5fba ab37 e83c 3e50 f03c
000002e0: a46c cd3d f330 0d3d 47d8 173e b2b7 0ebe
000002f0: 308f db3a e706 61bd b82b d03d de19 49bd
00000300: f2fd 1cbd 126e ac3d fd56 d1bc c4a6 90bb
00000310: b151 243e 0feb 3cbd 0e42 16be de7a 0bbe
00000320: 3c8f 8d3a e3bf 55bd 53fc 053e 6772 f43d
00000330: bf88 19bd 784f 803d 3059 99bd a2fc 0d3d
00000340: 9d15 823d 07dc b2bd 2e85 103e 7785 18be
00000350: 4ae0 1fbe aa29 903d 19da d0bd c3a1 17bc
00000360: 9219 d33c a295 d73d 421b a73d f5f5 253d
00000370: a188 56bd 63fa 0cbe c74e 06be 81d0 dd3d
00000380: d1bc ef3d 2130 0b3e 9868 e1bd de21 c53d
00000390: 6935 4b3d 4f7e a23d b097 15be b03e 323d
000003a0: 9487 7cbd 9583 0a3e ad7e f4bc 9d22 813d
000003b0: 9828 223e 90fb 89bd 97af d43d 95f1 4f3b
000003c0: f282 efbc 41dc 97bd bdd6 bbbd cdfa 8b3d
000003d0: b9af 9dbd 2e3c 9a3c 0daa 04bd 9325 183e
000003e0: 450b b5bd 3804 8fbd 3554 03bd ba71 01be
000003f0: 8472 dbbd 2cfa 033e 5572 773d a528 253e

conv1.bias f4 [64]
-0.070429415 0.15311411 -0.13133891 0.037376262 0.0814836 -0.1558791 -0.11188703 -0.09129053
-0.047410157 -0.13531572 0.09288507 -0.08981042 0.09749407 0.08964734 0.08585293 0.06756926
0.108331546 0.120906346 -0.15714476 -0.16501847 -0.16229226 0.01719262 0.039026037 -0.072357126
-0.10218815 0.03415339 -0.07538042 0.12746282 -0.014095989 0.1277396 0.08746421 -0.0369485
-0.05031153 0.06736375 0.10653386 0.11908689 0.085389785 -0.146453 0.1057913 -0.14145735
0.041645247 -0.10001402 0.06911358 0.03245018 -0.0023653894 0.15780392 0.0280003 -0.012848192
0.08806462 0.15203999 -0.12528819 0.020527737 -0.0141878165 -0.04511764 0.006100434 0.054123648
0.036949925 -0.056092486 0.07133467 -0.0473321 0.01548623 0.042351086 -0.08279753 0.010226918
00000000: 4c3d 90bd f2c9 1c3e b57d 06be da17 193d
00000010: e0e0 a63d c59e 1fbe 0725 e5bd 88f6 babd
00000020: 2731 42bd 3490 0abe 873a be3d 87ee b7bd
00000030: f9aa c73d 0699 b73d a9d3 af3d c161 8a3d
00000040: eedc dd3d bf9d f73d 8eea 20be 9afa 28be
00000050: f12f 26be 8ad7 8c3c c4d9 1f3d f92f 94bd
00000060: 0548 d1bd 6de4 0b3d 0d61 9abd 9d85 023e
00000070: ddf2 66bc 2bce 023e 7020 b33d 4f57 17bd
00000080: 7613 4ebd 01f6 893d 6d2e da3d d4e3 f33d
00000090: d7e0 ae3d c6f7 15be 1ca9 d83d 32da 10be
000000a0: 3594 2a3d 27d4 ccbd 6c8b 8d3d 7bea 043d
000000b0: a604 1bbb 5a97 213e e360 e53c 3981 52bc
000000c0: 395b b43d 5fb0 1b3e 8c4b 00be c929 a83c
000000d0: 0474 68bc 46cd 38bd 26e6 c73b c2b0 5d3d
000000e0: ce58 173d 3cc1 65bd e917 923d 4edf 41bd
000000f0: f5b9 7d3c 5578 2d3d c091 a9bd ce8e 273c

conv2.weight f4 [128, 64, 3]
0.04338377 0.0012958178 -0.013851288 0.026579361 -0.031765386 -0.015866349 0.037931964 -0.009876051
-0.0115551995 -0.002218938 0.013335232 -0.035943426 -0.058670677 -0.04168804 0.05184075 -0.00031104631
-0.049049675 0.015801884 0.005646551 0.03680584 0.059185546 -0.06518182 0.05828278 0.06351525
0.029217213 0.04528629 -0.01297275 -0.061262384 -0.06159347 0.007847005 0.0641123 0.04268303
0.062053505 0.016618842 -0.042508256 0.038323354 -0.006259299 -0.030665765 -0.011478964 0.06447885
-0.04053362 -0.046318408 0.017573088 0.06769864 0.033859827 -0.055153918 -0.021187996 -0.023503345
-0.014119813 0.07021601 0.052220147 0.01043557 0.04255873 -0.042921804 0.07005742 -0.036120173
0.032210074 -0.05222178 -0.02096259 0.06632922 -0.024541155 0.041635923 0.023777273 -0.05982838
-0.073468596 -0.0758673 0.0010136813 0.07398888 0.040368594 -0.030827053 -0.060642373 0.059401248
-0.041339803 0.010938365 -0.016996417 -0.041367162 0.020072108 0.06672186 0.018604841 0.04532798
-0.05173857 -0.0010134149 0.028699594 0.027952194 -0.062525034 -0.052805074 -0.034537934 -0.055804327
0.0031807492 -0.05780556 0.050147925 0.023214925 0.05766471 0.07041933 -0.033261526 0.001370192
-0.06654227 -0.047126964 0.018356109 -0.002926416 -0.048239775 -0.0627019 0.0008653385 0.013547277
0.03809527 0.064104095 0.029335653 -0.024623748 -0.0077421158 0.06422662 0.025111282 0.04213931
0.05961454 0.06671292 0.005982641 -0.023107583 0.025425524 0.028976612 0.06916724 0.043780778
-0.065113924 -0.06282364 0.06922651 0.016604193 -0.052696995 -0.034322716 -0.03483709 0.027967522
0.011232789 0.031028906 0.015901428 0.039951306 0.045247175 -0.06345696 0.05803613 0.0038223942
-0.03793112 0.002374356 -0.06463567 0.011876706 -0.018086025 0.05308562 -0.07116299 -0.032516737
-0.033144344 0.040923133 -0.036749143 -0.052573144 0.06119545 -0.036464192 0.04454649 0.06883319
-0.042963155 -0.063643806 0.020586297 -0.067168035 -0.047587484 0.041363727 0.022707386 -0.06664198
-0.06941692 0.05968042 0.03515595 0.055269778 -0.018143566 0.019469896 -0.044011567 0.020704769
-0.019620698 -0.032459874 0.046411797 -0.046919633 -0.05702842 -0.062118232 0.0052136993 0.01718192
0.053461216 0.04071545 -0.023403132 -0.025132041 -0.061424408 0.025138915 -0.04174232 0.053218253
0.050516002 0.06099698 -0.062737636 -0.018686509 0.047726076 0.056004494 -0.018805677 0.06774199
-0.0055580065 -0.02603677 0.008500405 0.061646692 0.015286696 0.007652638 -0.027440198 0.05267018
0.0012961179 -0.039886553 -0.049367987 -0.03307882 0.009757743 0.02348023 -0.063132696 0.006617693
0.015698135 -0.012515019 -0.018249417 0.05943995 -0.010096399 -0.048577257 -0.027033158 -0.06988348
-0.009972489 0.048002634 0.055809285 -0.057910576 -0.067510664 0.005216262 -0.04563443 -0.013808171
0.012388356 0.033310298 -0.037288226 -0.06815747 0.018753417 0.04088759 0.016048785 -0.02772959
0.0074271467 -0.07111661 0.024840746 -0.06641141 -0.038515422 0.046387088 -0.023238549 0.06746604
0.043542337 0.037020985 0.06699076 0.065571025 0.04228483 -0.041218672 -0.0018627464 0.055789765
-0.034236256 0.037875094 -0.06798767 0.07059613 -0.011416684 0.053304266 0.042131923 -0.065026745
00000000: 2eb3 313d 6ed8 a93a 83f0 62bc f6bc d93c
00000010: 6c1c 02bd 25fa 81bc 8c5e 1b3d 29cf 21bc
00000020: 0552 3dbc 9a6b 11bb 047c 5a3c 6a39 13bd
00000030: aa50 70bd 14c1 2abd f756 543d ee13 a3b9
00000040: 50e8 48bd f472 813c b406 b93b b8c1 163d
00000050: 8b6c 723d 0c7e 85bd edb9 6e3d 4914 823d
00000060: f058 ef3c 1e7e 393d a88b 54bc 44ee 7abd
00000070: 6f49 7cbd b990 003c 4f4d 833d 67d4 2e3d
00000080: d12b 7e3d 3d24 883c 231d 2ebd f3f8 1c3d
00000090: ce1a cdbb c536 fbbc 4412 3cbc 7d0d 843d
000000a0: 9506 26bd 5fb8 3dbd 70f5 8f3c 96a5 8a3d
000000b0: 9ab0 0a3d 13e9 61bd 7392 adbc 168a c0bc
000000c0: ca56 67bc 69cd 8f3d cbe4 553d f4f9 2a3c
000000d0: 1052 2e3d c6ce 2fbd 447a 8f3d bff2 13bd
000000e0: b6ee 033d 81e6 55bd bdb9 abbc 9dd7 873d
000000f0: 880a c9bc 6e8a 2a3d 8ec8 c23c 9a0e 75bd
00000100: b476 96bd 5160 9bbd 80dd 843a 7b87 973d
00000110: 8a59 253d 0489 fcbc 2364 78bd b94e 733d
00000120: ed53 29bd d436 333c 123c 8bbc 9d70 29bd
00000130: 436e a43c 78a5 883d 2e69 983c d5a9 393d
00000140: d3eb 53bd 90d4 84ba 691b eb3c 00fc e43c
00000150: 200d 80bd 224a 58bd a677 0dbd 1493 64bd
00000160: 1e74 503b 86c5 6cbd e967 4d3d 3a2d be3c
00000170: d531 6c3d 0238 903d 3d3d 08bd 0498 b33a
00000180: 5047 88bd 3408 41bd 8d5f 963c 1dc9 3fbb
00000190: 1297 45bd db69 80bd e2d7 623a 66f5 5d3c
000001a0: c909 1c3d 0249 833d 5351 f03c beb7 c9bc
000001b0: 93b1 fdbb 3f89 833d 2db6 cd3c 459a 2c3d
000001c0: 602e 743d c9a0 883d 080a c43b 1d4c bdbc
000001d0: 3049 d03c 5c60 ed3c 8ea7 8d3d 7953 333d
000001e0: 735a 85bd aea9 80bd a1c6 8d3d 8405 883c
000001f0: ced8 57bd fa95 0cbd 56b1 0ebd 251c e53c
00000200: bb09 383c 5530 fe3c b643 823c fba3 233d
00000210: 1a55 393d b9f5 81bd 4bb7 6d3d 2281 7a3b
00000220: a95d 1bbd 159b 1b3b b55f 84bd 8496 423c
00000230: 2529 94bc 4f70 593d e7bd 91bd 4530 05bd
00000240: 5dc2 07bd 049f 273d 4586 16bd f056 57bd
00000250: 15a8 7a3d 7a5b 15bd 6176 363d 6af8 8c3d
00000260: 22fa 2fbd af57 82bd 98a4 a83c 658f 89bd
00000270: 18eb 42bd 036d 293d d704 ba3c 977b 88bd
00000280: 752a 8ebd 7573 743d afff 0f3d 9062 623d
00000290: d1a1 94bc 557f 9f3c 7945 34bd 0c9d a93c
000002a0: 96bb a0bc a5f4 04bd 4c1a 3e3d cd2e 40bd
000002b0: a296 69bd b06f 7ebd aed7 aa3b 19c1 8c3c
000002c0: 26fa 5a3d 3ec5 263d edb7 bfbc b6e1 cdbc
000002d0: 2998 7bbd 20f0 cd3c fff9 2abd 62fb 593d
000002e0: dee9 4e3d f8d7 793d 977c 80bd 7314 99bc
000002f0: 6b7c 433d f864 653d 5d0e 9abc 50bc 8a3d
00000300: f01f b6bb 104b d5bc 4845 0b3c 3e81 7c3d
00000310: 0d75 7a3c fbc2 fa3b 44ca e0bc b0bc 573d
00000320: 80e2 a93a 1560 23bd 1636 4abd a87d 07bd
00000330: f1de 1f3c 9c59 c03c b74b 81bd 3cd9 d83b
00000340: 6099 803c cb0b 4dbc cd7f 95bc 4e77 733d
00000350: 5e6b 25bc f2f8 46bd a474 ddbc 121f 8fbd
00000360: a763 23bc 699e 443d 4798 643d a433 6dbd
00000370: 0843 8abd 2ded aa3b 2beb 3abd ab3b 62bc
00000380: 88f8 4a3c 6170 083d 8abb 18bd 2596 8bbd
00000390: c4a0 993c bf79 273d be78 833c 2a29 e3bc
000003a0: 6c5f f33b 96a5 91bd d27e cb3c b502 88bd
000003b0: 59c2 1dbd 6300 3e3d c55e bebc a32b 8a3d
000003c0: 7359 323d 51a3 173d 7432 893d 1a4a 863d
000003d0: dc32 2d3d e9d4 28bd 6627 f4ba cf83 643d
000003e0: 513b 0cbd ea22 1b3d 1f3d 8bbd b494 903d
000003f0: 0b0d 3bbc 9355 5a3d 8692 2c3d be2c 85bd

conv2.bias f4 [128]
0.012977678 -0.049231067 0.024626771 0.01047091 0.058033805 -0.026006246 0.01862023 -0.046692148
0.04146642 -0.06270794 0.027097533 -0.026372615 0.036961973 -0.033641744 0.046209738 0.02672174
-0.025182243 -0.024616595 -0.049487535 -0.0160161 -0.05270695 0.05613854 0.0011660323 0.024231076
0.04574029 -0.035022274 0.06512394 -0.07665558 -0.06647523 -0.0063105943 0.06446366 -0.06567062
-0.06750111 -0.04018026 -0.023402506 0.021581247 -0.021109607 -0.0023342457 -0.073991396 0.017036237
-0.0035920646 0.05002444 -0.028868852 -0.04871112 0.04069056 -0.037709977 0.042754292 0.031696677
-0.044979658 0.06816882 0.019196792 0.0004166527 -0.020390136 -0.010129689 0.0120441895 0.036674522
-0.0366156 0.03177042 0.06812245 0.059051454 0.039828 0.012179294 0.03914399 -0.023646498
0.064175256 -0.04197837 -0.0013866721 -0.04036163 -0.019496331 0.049433973 0.023562396 0.059319153
-0.021790419 -0.065035515 0.009638749 0.0066176658 0.037610743 0.05746982 0.027783148 0.024786668
0.04098113 -0.040367935 -0.006811441 -0.039496947 -0.026791621 0.055675466 -0.00025144746 -0.05626179
-0.03091314 0.0044882237 -0.047982182 -0.03321243 -0.057552245 0.044265945 0.03847255 0.0026292496
0.07216228 -0.025840927 0.02502675 0.022918368 -0.04248978 -0.015698528 -0.008100147 -0.037005246
0.022729049 0.050421566 -0.011468809 0.020477282 -0.014873408 0.013802866 -0.07611355 0.016957967
-0.05429571 0.060169093 0.036001116 -0.0050839335 0.0036292514 0.056203324 -0.019712973 -0.03229889
0.05943078 0.004561225 -0.002958672 0.015353189 -0.031760603 0.06841492 0.021001285 -8.5176915e-05
00000000: 54a0 543c 84a6 49bd 15be c93c 2e8e 2b3c
00000010: dbb4 6d3d 0d0b d5bc 7489 983c 4440 3fbd
00000020: b1d8 293d 056d 80bd a5fb dd3c 620b d8bc
00000030: 7065 173d edcb 09bd 6c46 3d3d 8de7 da3c
00000040: fe4a cebc bea8 c9bc 71b3 4abd 3234 83bc
00000050: 3ee3 57bd 87f1 653d 8dd5 983a 4080 c63c
00000060: 2c5a 3b3d 8473 0fbd b35f 853d 9afd 9cbd
00000070: 2a24 88bd 1ac9 cebb 8605 843d 517e 86bd
00000080: 063e 8abd 0e94 24bd 9db6 bfbc 28cb b03c
00000090: 0eee acbc 25fa 18bb cd88 97bd 948f 8b3c
000000a0: d868 6bbb 6de6 4c3d 5f7e ecbc 5085 47bd
000000b0: 25ab 263d c775 1abd 201f 2f3d 60d4 013d
000000c0: 973c 38bd 189c 8b3d 9742 9d3c 2e72 da39
000000d0: 3709 a7bc fff6 25bc fe54 453c 0638 163d
000000e0: 3dfa 15bd b321 023d c883 8b3d f0df 713d
000000f0: af22 233d a98b 473c 7355 203d 4db6 c1bc
00000100: 516e 833d 83f1 2bbd ffc0 b5ba 3d52 25bd
00000110: c5b6 9fbc 477b 4a3d ed05 c13c a4f8 723d
00000120: d281 b2bc 5731 85bd d8eb 1d3c 01d9 d83b
00000130: b90d 1a3d 7965 6b3d 7c99 e33c 690d cb3c
00000140: d4db 273d d958 25bd 8232 dfbb 8dc7 21bd
00000150: 1a7a dbbc f50b 643d b5d4 83b9 c372 66bd
00000160: 8e3d fdbc f311 933b f788 44bd c209 08bd
00000170: e7bb 6bbd 3550 353d 6595 1d3d 7d4f 2c3b
00000180: d1c9 933d 5ab0 d3bc e604 cd3c 4dbf bb3c
00000190: c309 2ebd 339a 80bc 7bb6 04bc d092 17bd
000001a0: 4532 ba3c d886 4e3d ace7 3bbc f9bf a73c
000001b0: 98af 73bc 6b25 623c 6ce1 9bbd 6feb 8a3c
000001c0: 2e65 5ebd de73 763d e875 133d 2097 a6bb
000001d0: bcd8 6d3b 7535 663d 1a7d a1bc d74b 04bd
000001e0: b16d 733d 5476 953b 47e6 41bb f18b 7b3c
000001f0: 6817 02bd 1f1d 8c3d e30a ac3c 02a1 b2b8

fc1.weight f4 [64, 128]
-0.06507814 -0.026011527 -0.05845163 0.08726927 -0.031558484 0.06322322 -0.02609104 0.060860433
-0.040455442 -0.026605576 -0.06850692 0.06922471 0.078113414 -0.029891144 -0.086550765 -0.050827496
2.2925436e-05 -0.05683512 -0.009012535 0.057779633 -0.01899387 -0.0872134 -0.020467132 0.010461681
-0.0674923 -0.016132906 -0.074682616 -0.03704651 0.063186236 -0.044643585 0.029483162 -0.04937814
-0.06898377 0.0150028765 -0.0059670582 0.05944004 0.014278822 -0.0025750697 -0.05100959 0.03599637
-0.018628746 -0.07253243 -0.08302322 -0.015500613 -0.0747376 -0.08411056 -0.043554712 -0.05526578
-0.0017523691 0.050561346 0.061404712 -0.048566476 0.06462047 -0.0726323 0.057304494 -0.012422897
-0.007856466 -0.008026436 -0.08821125 0.044896536 0.011344679 0.029468805 -0.027840648 0.069169305
-0.077629544 0.03892892 0.07163914 0.05173669 -0.078904875 0.061948337 0.020595647 -0.046952706
-0.00418552 0.012027152 -0.0860474 0.05041615 0.087640025 -0.013585836 -0.043345284 -0.0526512
0.08370597 0.06490793 0.052933536 0.06885735 0.05727043 -0.06844997 -0.08779931 -0.048898753
-0.004967101 -0.0017398819 -0.052398954 0.028942496 -0.016279243 0.0839367 -0.07409265 -0.01712314
0.08731895 0.08654901 -0.007162839 -0.08395663 0.07174591 -0.080397055 0.06526638 0.0732118
0.048019774 0.019492619 0.08370092 0.0703607 -0.07037601 0.008450188 -0.0014645383 0.038773693
0.08335919 0.033259407 -0.008098118 0.04038986 0.006249279 0.047906063 -0.032748144 0.016276248
-0.010226212 0.07441845 -0.08639953 -0.040986154 -0.07837862 -0.0033030063 -0.051762387 0.08624507
-0.016650302 0.080230564 -0.07284674 0.0768261 -0.03962249 0.04290707 0.070051365 0.011571835
0.008187963 0.044166427 0.05679915 -0.030234227 0.007984446 -0.07941903 0.04475146 -0.05404832
-0.077189356 0.07624034 0.06063403 0.04158764 0.066226296 -0.016818715 -0.041502576 0.0318619
-0.023216546 -0.039635397 -0.051271718 -0.034120757 0.03840356 0.0185638 -0.02278289 0.04812548
0.06832794 0.05715802 -0.01793213 0.003123873 -0.023349734 0.006627018 0.003276797 -0.011199734
-0.055277813 -0.011422127 -0.045058403 0.07371075 0.041791465 -0.080214895 0.0027264953 -0.040451936
0.08230748 0.06551075 0.058186125 0.005112965 -0.028744776 0.062993884 -0.049209975 0.04914329
-0.06805445 0.005728913 -0.047624163 -0.07930584 0.071152225 0.021409236 -0.01716571 -0.010338914
-0.039833788 0.06777342 0.078605935 -0.082855836 0.039476134 0.0138618015 -0.026079314 -0.022559663
-0.04064984 0.07534422 -0.049453057 -0.0015716595 0.023262976 0.06778521 0.08079661 -0.007712567
-0.021826454 -0.028158583 0.034099177 0.047636457 -0.005743628 -0.039992217 -0.018840542 -0.04773175
0.032995746 -0.08884346 0.040940985 0.06218612 -0.045347136 0.016467322 0.058363553 -0.07147053
-0.019912586 0.062663294 0.026915431 0.087302536 -0.013178751 0.055191997 0.038986083 0.04617407
-0.053742584 0.07073549 0.08430593 -0.08409218 -0.086698085 -0.014086559 0.024809312 -0.03984483
-0.031666446 -0.0050534895 -0.038461108 0.0063836933 -0.008291176 0.09362198 -0.057382934 0.06756643
-0.017226428 0.03509001 0.035684437 0.02885648 -0.077093095 -0.07848831 0.034555104 -0.044222668
00000000: b047 85bd 2016 d5bc fa6a 6fbd 3bba b23d
00000010: 7843 01bd 2d7b 813d e0bc d5bc ca48 793d
00000020: 9bb4 25bd f0f3 d9bc 5b4d 8cbd afc5 8d3d
00000030: edf9 9f3d 46de f4bc 8741 b1bd 7e30 50bd
00000040: 0050 c037 f1cb 68bd 50a9 13bc 56aa 6c3d
00000050: 0899 9bbc f09c b2bd b0aa a7bc 7867 2b3c
00000060: 6739 8abd 2829 84bc 33f3 98bd 15be 17bd
00000070: c967 813d 31dc 36bd ac86 f13c bc40 4abd
00000080: 5d47 8dbd a0ce 753c 5087 c3bb 6677 733d
00000090: b8f1 693c 80c2 28bb 6fef 50bd ee70 133d
000000a0: 509b 98bc e28b 94bd 1408 aabd 48f6 7dbc
000000b0: 0710 99bd 2842 acbd 6d66 32bd 5f5e 62bd
000000c0: c0af e5ba 6a19 4f3d 8283 7b3d a4ed 46bd
000000d0: bd57 843d 3ec0 94bd 1eb8 6a3d 6889 4bbc
000000e0: 68b8 00bc 5081 03bc 1aa8 b4bd 6ee5 373d
000000f0: 08df 393c 9068 f13c 1212 e4bc a3a8 8d3d
00000100: 3dfc 9ebd ee73 1f3d 8bb7 923d dae9 533d
00000110: e198 a1bd 8abd 7d3d 34b8 a83c 7b51 40bd
00000120: b026 89bb 880d 453c 9f39 b0bd 2a81 4e3d
00000130: 9d7c b33d 2097 5ebc d38a 31bd c9a8 57bd
00000140: 096e ab3d 73ee 843d d6d0 583d 1505 8d3d
00000150: 6694 6a3d 7f2f 8cbd 20d0 b3bd 0f4a 48bd
00000160: 10c3 a2bb c00c e4ba 49a0 56bd d018 ed3c
00000170: 0c5c 85bc 01e7 ab3d e3bd 97bd d445 8cbc
00000180: 47d4 b23d 9b40 b13d 40b6 eabb 74f1 abbd
00000190: 85ef 923d 36a7 a4bd 61aa 853d 11f0 953d
000001a0: 62b0 443d fcae 9f3c 636b ab3d 4519 903d
000001b0: 4c21 90bd a872 0a3c c0f5 bfba 2ad1 1e3d
000001c0: 39b8 aa3d 043b 083d f8ad 04bc d66f 253d
000001d0: c0c6 cc3b 2639 443d eb22 06bd c455 853c
000001e0: d88b 27bc b368 983d 3df2 b0bd 19e1 27bd
000001f0: f884 a0bd 4077 58bb cc04 54bd 41a1 b03d
00000200: 3766 88bc ec4f a43d ac30 95bd 0157 9d3d
00000210: 314b 22bd 53bf 2f3d 1777 8f3d cb97 3d3c
00000220: ce26 063c dbe7 343d 3aa6 683d c5ad f7bc
00000230: 32d1 023c 72a6 a2bd 4f4d 373d c561 5dbd
00000240: 7415 9ebd e523 9c3d 635b 783d cd57 2a3d
00000250: a7a1 873d 67c7 89bc 9bfe 29bd a081 023d
00000260: a030 bebc ba58 22bd 4b02 52bd 35c2 0bbd
00000270: 0d4d 1d3d 1c13 983c 2fa3 babc 391f 453d
00000280: 85ef 8b3d 871e 6a3d 67e6 92bc e4b9 4c3b
00000290: f147 bfbc 7527 d93b 88bf 563b 177f 37bc
000002a0: fd6a 62bd df23 3bbc 298f 38bd a9f5 963d
000002b0: 872d 2b3d b547 a4bd 00af 323b eeb0 25bd
000002c0: d390 a83d 802a 863d 9354 6e3d a98a a73b
000002d0: 2a7a ebbc f002 813d 6690 49bd 794a 493d
000002e0: 2260 8bbd 9bb9 bb3b 8e11 43bd 1a6b a2bd
000002f0: 42b8 913d 6c62 af3c 1a9f 8cbc 8c64 29bc
00000300: c128 23bd cacc 8a3d 26fc a03d 52b0 a9bd
00000310: bab1 213d 9c1c 633c 49a4 d5bc 0bcf b8bc
00000320: 7280 26bd 124e 9a3d 4a8f 4abd 2400 ceba
00000330: ff91 be3c f9d2 8a3d b178 a53d b4b9 fcbb
00000340: 64cd b2bc d4ac e6bc 94ab 0b3d 721e 433d
00000350: 0b35 bcbb e1ce 23bd 7b57 9abc 5e82 43bd
00000360: 8c26 073d 8ff3 b5bd bcb1 273d dfb6 7e3d
00000370: ebbd 39bd 7ae6 863c 9f0e 6f3d 245f 92bd
00000380: b81f a3bc 9d55 803d c07d dc3c accb b23d
00000390: b0eb 57bc 0111 623d dfaf 1f3d 0621 3d3d
000003a0: 2f21 5cbd c5dd 903d 96a8 ac3d 8538 acbd
000003b0: c48e b1bd 50cb 66bc e63c cb3c 5534 23bd
000003c0: adb4 01bd be97 a5bb 6589 1dbd 4d2e d13b
000003d0: b6d7 07bc e1bc bf3d 5e0a 6bbd 4560 8a3d
000003e0: 701e 8dbc 8bba 0f3d d829 123d 6d64 ec3c
000003f0: fce2 9dbd 7bbe a0bd a789 0d3d d422 35bd

fc1.bias f4 [64]
0.065089636 -0.07044382 -0.022253048 0.048895545 -0.05485236 0.021557521 0.06545779 0.03666731
0.035394788 0.07413307 0.044955265 0.056109093 -0.08447249 0.016238526 -0.013824485 0.021948285
-0.04635575 0.061315767 0.07582132 -0.007144187 -0.043846328 -0.00083173206 0.0153160365 -0.024399608
-0.0063795596 -0.008972377 0.011180093 -0.084098265 0.06612748 -0.007017173 0.05593235 0.037398763
0.062072918 -0.07281413 -0.062252875 0.034132674 0.06562441 0.03781441 0.005653943 0.057600573
-0.009277798 0.030207833 0.0067131 -0.06527661 0.04446461 -0.023639286 -0.00844568 -0.0007851422
-0.036044825 -0.08451562 0.0037154555 0.03785585 0.046058472 0.06963684 0.058648698 0.076106675
0.045540027 0.058369376 -0.040009428 -0.08546164 0.08697199 0.08218331 -0.046238136 0.081740215
00000000: b74d 853d d944 90bd 064c b6bc b246 483d
00000010: deac 60bd 6699 b03c bc0e 863d 7630 163d
00000020: 20fa 103d 14d3 973d 0323 383d a6d2 653d
00000030: eaff acbd a806 853c 1880 62bc e4cc b33c
00000040: 87df 3dbd 3e26 7b3d 3548 9b3d c919 eabb
00000050: 3598 33bd 9808 5aba 1df0 7a3c b0e1 c7bc
00000060: a00b d1bb e000 13bc b52c 373c b63b acbd
00000070: d86d 873d 50f0 e5bb 5219 653d 722f 193d
00000080: 2c40 7e3d 931f 95bd dffc 7ebd b4ce 0b3d
00000090: 1766 863d 48e3 1a3d b644 b93b 94ee 6b3d
000000a0: e801 18bc 6b76 f73c 90f9 db3b beaf 85bd
000000b0: 8620 363d 2da7 c1bc c05f 0abc 00d2 4dba
000000c0: bda3 13bd 8616 adbd 007f 733b bc0e 1b3d
000000d0: cfa7 3c3d c29d 8e3d 9e39 703d d1dd 9b3d
000000e0: 2e88 3a3d ba14 6f3d ede0 23bd 8306 afbd
000000f0: 5f1e b23d b94f a83d 3364 3dbd 6a67 a73d

fc2.weight f4 [1, 64]
0.074110165 -0.059205405 -0.06616882 0.03245236 0.072160855 -0.026314128 0.039863538 -0.10501423
-0.07060057 -0.086961895 0.024772292 -0.11027603 0.02510509 0.009474292 -0.0045884997 -0.10709289
0.082755886 0.09493706 0.015307546 -0.11308197 0.06874726 0.05638208 0.106488235 0.0026499995
0.017848551 -0.11335915 -0.068865806 0.032601077 0.07294172 0.042068467 -0.06435899 -0.066114604
0.051620528 0.09048598 -0.019962057 -0.07215092 0.01775299 -0.087529935 -0.089835666 -0.0373444
0.098736554 0.0921685 -0.07081288 -0.06705199 -0.07864705 -0.11612079 -0.010346442 -0.032863274
0.05066959 0.10485178 0.056380644 -0.07783409 -0.032276135 0.054933093 -0.025717411 -0.0031075336
0.038967855 0.09989056 -0.05391559 -0.110124685 -0.1016877 0.021946967 0.089146405 0.075136565
00000000: 12c7 973d 5e81 72bd 8583 87bd c4ec 043d
00000010: 12c9 933d ba90 d7bc f347 233d b311 d7bd
00000020: 0897 90bd 1419 b2bd 43ef ca3c 66d8 e1bd
00000030: 31a9 cd3c 103a 1b3c 205b 96bb 8453 dbbd
00000040: eb7b a93d 5c6e c23d 80cc 7a3c 8597 e7bd
00000050: 5dcb 8c3d e5f0 663d 8116 da3d 9dab 2d3b
00000060: 2037 923c d828 e8bd 8409 8dbd b588 053d
00000070: 7862 953d fc4f 2c3d a5ce 83bd 1867 87bd
00000080: 0c70 533d b750 b93d 7887 a3bc ddc3 93bd
00000090: b86e 913c e542 b3bd c3fb b7bd 71f6 18bd
000000a0: 6436 ca3d d7c2 bc3d 5806 91bd 8e52 89bd
000000b0: b411 a1bd bdd0 edbd 2084 29bc a49b 06bd
000000c0: ea8a 4f3d 88bc d63d 64ef 663d 7b67 9fbd
000000d0: fb33 04bd 8601 613d 52ad d2bc c3a7 4bbb
000000e0: c29c 1f3d 6c93 cc3d 98d6 5cbd 0d89 e1bd
000000f0: a441 d0bd 20ca b33c 6492 b63d 33e1 993d
