assets/model/phrase005_speech_model.pth (torch, 145844 bytes, 7 tensors)

conv1.weight f4 [64, 13, 3]
0.04927542 0.07316099 -0.060297437 0.0674145 -0.009485346 -0.03158866 0.06639316 -0.0764308
0.014630348 -0.032657173 -0.11143046 0.011384388 0.10029341 0.1096379 0.12229761 -0.12875172
-0.0008385365 -0.0222583 0.039422218 0.123513155 0.119203925 0.07020344 0.06945027 -0.04302822
0.12256677 -0.0013840968 -0.05066724 -0.13810879 0.11528862 -0.10554838 0.10646059 -0.12756988
0.15077686 -0.011386731 0.044347804 0.12650262 -0.0412127 0.07440314 0.14049587 0.021654874
-0.029051863 0.05614185 0.053644918 0.016415913 0.06882178 -0.09018099 -0.12213304 -0.108235225
-0.052122213 -0.018299079 -0.040556643 -0.07642907 0.10128426 0.03890504 -0.025216522 -0.12678349
-0.15772307 0.050283823 -0.12736557 0.040059194 0.04563205 -0.029575301 0.09612604 0.13720223
-0.11543724 0.12284932 0.05502202 -0.017018992 0.037120998 -0.1290543 -0.019458553 0.05891832
-0.04825664 -0.03358541 0.14735919 -0.09772009 0.014783952 0.10930739 -0.0533061 -0.07663191
0.1507302 -0.12527227 0.088947125 0.13134354 -0.014795286 -0.14489673 -0.14349449 0.075463355
-0.1408689 -0.06963875 0.031256516 -0.10872466 0.118245594 -0.09419816 0.15836915 0.109612435
0.020631002 0.0019610228 0.15137431 0.0249364 -0.029830942 -0.12306064 0.030946102 0.12149161
-0.14631042 -0.06257559 -0.06274531 0.024464997 -0.13607594 0.13671537 -0.023938028 -0.13347854
0.12219216 -0.014541766 0.08004971 -0.014144231 0.14456797 0.04819403 0.11832678 0.04518283
-0.054319095 0.0606328 0.052416813 -0.09546897 0.04005538 0.019744806 0.11798356 0.0038430816
0.1367059 0.0096119195 0.07974183 0.0035985832 -0.1573936 0.043415822 0.014230852 -0.10199851
0.06556862 0.085986 0.00916274 -0.099401355 0.06818525 -0.029693916 -0.04717893 -0.06381418
0.0327261 0.074829005 -0.15659788 -0.020107543 0.12339015 0.084389344 -0.0063929595 -0.1511272
-0.041372836 0.09620125 0.10937865 -0.044838343 -0.14633639 0.02122882 -0.117672645 0.11191422
-0.051265217 0.047858756 -0.06315483 0.060181927 -0.010167556 0.14562806 0.12996371 -0.1253542
-0.08576996 0.1270116 -0.019542098 -0.08847511 0.0071194116 0.021613598 -0.11226418 0.11639737
0.00013400534 -0.069037735 0.0809703 -0.036452353 0.0645107 -0.1571999 0.0814337 -0.0292199
0.07541858 0.013437764 -0.04342188 0.029382223 -0.122841336 -0.05184501 -0.058119413 -0.06739023
-0.123432994 0.024188144 0.023092853 -0.11275942 0.10541481 0.01081106 -0.1251043 -0.109327294
0.0246846 -0.13895497 0.013299858 0.11395632 0.02466609 -0.11640567 0.1338929 -0.15806465
-0.06586097 -0.11076276 -0.14151974 0.008462901 0.10785839 -0.07370798 -0.09378439 -0.012024968
0.041239247 -0.002512998 -0.045873187 -0.1405565 -0.14906237 -0.08570296 0.1360528 0.04026247
0.0666586 -0.15728518 -0.017455623 0.06166521 0.12696972 0.158226 0.08905779 0.11188737
-0.12520684 0.06434018 0.039785296 0.056646854 0.15256366 -0.04626929 -8.5771084e-05 -0.05541563
-0.033108696 0.068070546 0.13761482 -0.09014092 0.14240333 -0.09011156 0.07777886 0.14476582
-0.07480672 0.111092 -0.15796813 -0.14994301 0.014451951 -0.0670414 0.017601311 0.098487586
00000000: 06d5 493d 6ed5 953d 72fa 76bd 9d10 8a3d
00000010: 6d68 1bbc 1c63 01bd 23f9 873d c087 9cbd
00000020: 21b4 6f3c 87c3 05bd a735 e4bd 9685 3a3c
00000030: a266 cd3d d689 e03d 2b77 fa3d 7ed7 03be
00000040: 3bd1 5bba 0a57 b6bc 3179 213d 77f4 fc3d
00000050: 3021 f43d d2c6 8f3d f13b 8e3d 5c3e 30bd
00000060: 4904 fb3d 956a b5ba 7488 4fbd 646c 0dbe
00000070: 711c ec3d c029 d8bd 0308 da3d aea1 02be
00000080: 4065 1a3e 698f 3abc 0ba6 353d e789 013e
00000090: a6ce 28bd ac60 983d 26de 0f3e 9065 b13c
000000a0: 2cfe edbc fff4 653d c6ba 5b3d aa7a 863c
000000b0: 6ff2 8c3d d0b0 b8bd e320 fabd 6eaa ddbd
000000c0: 1a7e 55bd f3e7 95bc b91e 26bd d886 9cbd
000000d0: 1f6e cf3d e45a 1f3d e192 cebc 88d3 01be
000000e0: 2882 21be 69f6 4d3d 1f6c 02be 1c15 243d
000000f0: ace8 3a3d e747 f2bc bbdd c43d be7e 0c3e
00000100: 5c6a ecbd 6d98 fb3d c55e 613d 6a6b 8bbc
00000110: 300c 183d cf26 04be 8b67 9fbc 5654 713d
00000120: c1a8 45bd db90 09bd 54e5 163e 7821 c8bd
00000130: 6438 723c 8edc df3d 7f57 5abd 31f1 9cbd
00000140: 0459 1a3e 6047 00be e929 b63d ec7e 063e
00000150: ed67 72bc cf5f 14be 38f0 12be 888c 9a3d
00000160: f03f 10be c39e 8ebd d506 003d 09ab debd
00000170: bf2a f23d f7ea c0bd 862b 223e 7c7c e03d
00000180: 5902 a93c 8184 003b de01 1b3e 6c47 cc3c
00000190: 0560 f4bc 3807 fcbd ae82 fd3c 98d0 f83d
000001a0: 66d2 15be a227 80bd 9d80 80bd d16a c83c
000001b0: 7e57 0bbe 1dff 0b3e af19 c4bc 99ae 08be
000001c0: e23f fa3d 9640 6ebc 1af1 a33d 34bd 67bc
000001d0: a009 143e 1a67 453d 5055 f23d a211 393d
000001e0: b37d 5ebd 195a 783d 03b3 563d 3c85 c3bd
000001f0: 1c11 243d dcbf a13c 5da1 f13d 36dc 7b3b
00000200: a2fc 0b3e 507b 1d3c af4f a33d 35d6 6b3b
00000210: ca2b 21be cad4 313d 8528 693c 98e4 d0bd
00000220: d748 863d 6e19 b03d 511f 163c f092 cbbd
00000230: b5a4 8b3d a840 f3bc b23e 41bd 02b1 82bd
00000240: ce0b 063d f33f 993d 325b 20be 93b8 a4bc
00000250: fab3 fc3d 52d4 ac3d 087c d1bb 17c1 1abe
00000260: 9076 29bd 2905 c53d ea01 e03d 69a8 37bd
00000270: 35d9 15be 10e8 ad3c 5bfe f0bd 4833 e53d
00000280: 7afb 51bd 8b07 443d 5257 81bd 5381 763d
00000290: d295 26bc 861f 153e 3515 053e da5c 00be
000002a0: 29a8 afbd 540f 023e c016 a0bc 7032 b5bd
000002b0: f449 e93b 000f b13c c3ea e5bd bf61 ee3d
000002c0: c983 0c39 a863 8dbd c2d3 a53d 104f 15bd
000002d0: 301e 843d 03f9 20be b6c6 a63d 925e efbc
000002e0: 0e75 9a3d 112a 5c3c 24db 31bd fdb2 f03c
000002f0: 3d94 fbbd 6f5b 54bd 9f0e 6ebd e403 8abd
00000300: 70ca fcbd 3726 c63c 392d bd3c 69ee e6bd
00000310: b8e3 d73d df20 313c 571b 00be fde6 dfbd
00000320: 5c37 ca3c 364a 0ebe a6e7 593c ee61 e93d
00000330: 8a10 ca3c 1966 eebd 381b 093e b3db 21be
00000340: 1ee2 86bd 96d7 e2bd 8dea 10be fba7 0a3c
00000350: dce4 dc3d 36f4 96bd 0812 c0bd 5f04 45bc
00000360: 7cea 283d 1cb1 24bb 86e5 3bbd 0bee 0fbe
00000370: cea3 18be 0985 afbd 6d51 0b3e 42ea 243d
00000380: 4e84 883d 5e0f 21be 18ff 8ebc a994 7c3d
00000390: 5a04 023e ff05 223e ee63 b63d 3525 e53d
000003a0: 3936 00be c9c4 833d e8f5 223d 8806 683d
000003b0: a639 1c3e de84 3dbd 00e0 b3b8 80fb 62bd
000003c0: fc9c 07bd 9268 8b3d e6ea 0c3e cd9b b8bd
000003d0: 2ed2 113e 698c b8bd 864a 9f3d 7e3d 143e
000003e0: 4434 99bd 3484 e33d 66c2 21be a98a 19be
000003f0: e0c7 6c3c 004d 89bd a030 903c dcb3 c93d

conv1.bias f4 [64]
-0.1477848 0.14686048 0.07207335 -0.023472276 0.039079137 0.10869525 -0.10133356 -0.123629466
0.0063735708 0.12889399 -0.046162054 -0.15142089 0.013004819 -0.15011719 -0.1526183 0.09329196
0.034658805 -0.12028852 -0.018603701 -0.1501417 0.043433793 -0.025353158 0.14310333 0.022694595
-0.049871076 -0.10820066 -0.12290723 0.041393038 0.15471885 -0.06698809 0.067875 0.16516086
0.05889452 0.06786167 0.14286275 -0.11534326 0.09204768 0.0685922 -0.10383417 0.0035828736
-0.028587503 -0.088085905 -0.10059851 0.029199917 -0.15947498 0.08497665 0.08193225 -0.14725123
0.06272607 -0.16170408 -0.12414061 0.15161954 0.15885389 -0.074007004 0.113304846 0.12052163
-0.11329183 -0.0954945 -0.1456015 -0.15095453 0.0085837655 -0.0046388884 0.06603265 0.08696449
00000000: e654 17be 9862 163e 319b 933d ee48 c0bc
00000010: 7211 203d 9d9b de3d f887 cfbd 7231 fdbd
00000020: 63d9 d03b c9fc 033e 6c14 3dbd 140e 1bbe
00000030: 2a12 553c 52b8 19be f947 1cbe db0f bf3d
00000040: 64f6 0d3d d459 f6bd ca66 98bc bfbe 19be
00000050: a2e7 313d 6db1 cfbc ae89 123e 04ea b93c
00000060: 9d45 4cbd 4f98 ddbd c9b6 fbbd bf8b 293d
00000070: 9e6e 1e3e 0d31 89bd 0c02 8b3d ee1f 293e
00000080: 613b 713d 0ffb 8a3d 9d4a 123e 1639 ecbd
00000090: 7e83 bc3d 117a 8c3d 02a7 d4bd a5ce 6a3b
000000a0: 5730 eabc 6266 b4bd 9706 cebd aa34 ef3c
000000b0: 694d 23be 3d08 ae3d 18cc a73d 07c9 16be
000000c0: 8776 803d c195 25be 6f3d febd 2742 1b3e
000000d0: 98aa 223e fc90 97bd 5f0c e83d 0bd4 f63d
000000e0: 8c05 e8bd 9f92 c3bd 8f18 15be d393 1abe
000000f0: eca2 0c3c d101 98bb 203c 873d 701a b23d

conv2.weight f4 [128, 64, 3]
0.024449043 0.00910345 -0.030718727 0.011848822 -0.005395168 0.05802704 0.0359008 0.007780933
-0.013954281 -0.07960251 0.02541938 0.044118624 -0.03731069 0.052460063 0.009619625 -0.05847647
-0.004369691 0.050383408 -0.011456307 0.069899485 0.0534582 -0.05656368 0.054229483 0.017229842
-0.0016122748 -0.035036467 0.044044293 -0.0027088395 -0.022203824 -0.061459266 -0.061434906 -0.00082485855
0.033492006 0.04512061 -0.063744344 -0.024064455 -0.037703652 -0.007871958 0.042476784 -0.010877453
0.047524314 -0.05665685 -0.07119817 -0.0543798 0.019069126 0.06790621 -0.053015973 0.035977397
0.03571395 0.04629337 -0.013960288 0.029791785 0.035614714 -0.032408718 -0.013339026 0.03358053
0.031515002 -0.049056087 -0.032024134 0.046221696 -0.02542031 -0.07023136 0.052010726 0.051223956
0.044539 0.06712028 -0.020321952 0.041616395 0.060676772 -0.054457925 -0.061650146 -0.04316338
0.03378784 -0.02629872 -0.06643279 -0.033379097 -0.009531513 -0.037629873 0.035392378 -0.04514511
-0.011705093 -0.06499339 0.03956213 0.031331502 -0.00043547756 0.011048266 -0.008874887 -0.011289753
0.07002492 -0.006089288 0.04826695 -0.006141448 0.00939788 0.0062198145 0.0058159027 0.023173844
0.04151009 -0.014925075 0.0051505864 0.0680332 0.061627816 0.03812825 -0.07691251 0.05908623
0.05155285 0.068392284 -0.05584893 -0.05181112 -0.014574166 -0.0004450452 0.069635846 -0.05097489
-0.032998774 0.043327995 0.057529822 0.05702883 0.02644407 -0.008182567 0.0552508 -0.06314564
-0.032293525 0.018684437 0.070879176 0.06604314 -0.053167224 -0.048426684 -0.003219033 -0.024019524
0.05771815 0.05844723 0.06188931 -0.03293328 -0.05480383 0.056364216 0.016163854 -0.019187868
-0.021760238 -0.038460333 -0.010435986 -0.060821287 0.007948965 0.061279193 -0.0026173727 0.03270931
-0.0682447 -0.004810881 0.043051492 -0.03208749 -0.0016804924 0.06906885 -0.02698701 0.041837323
-0.003504365 -0.019643558 0.017374972 -0.0009361915 -0.039268553 0.01711785 -0.04639311 -0.03564657
0.04646475 -0.04805726 -0.04413869 0.011513714 0.06470124 0.057405174 -0.022182949 0.04810331
0.0110757705 -0.014778226 -0.0601931 0.008243866 -0.010064933 0.00020963831 0.061869558 0.01913044
-0.04266909 0.04060937 -0.031015111 -0.0021363462 0.010911774 0.034466986 -0.0066099637 -0.0054211
0.053743113 -0.009672764 -0.05482389 -0.032514922 -0.010387837 0.054599516 -0.019020032 0.010667924
-0.024978219 -0.011079073 -0.022991447 0.065874 0.062429994 -0.063069426 0.044764936 0.060616698
-0.05335388 -0.056786135 0.010414973 -0.065665476 -0.010906588 -0.027817624 -0.0007469207 0.008310232
-0.009247919 0.0351294 0.063579634 -0.026198663 -0.04753496 0.002788104 -0.075563386 0.0475682
-0.06397442 -0.03852164 -0.045617323 -0.017390864 0.03470482 -0.017494189 -0.054296844 0.031052131
0.0062930924 -0.048666272 -0.005260083 0.02732635 0.066475004 0.0058821025 0.015805528 0.009386171
-0.046117876 -0.0005087424 -0.04903035 0.055143777 0.06673903 -0.06971519 -0.024167655 -0.055704392
-0.07008774 0.039412916 -0.010035209 -0.021142725 -0.016594518 0.05646746 0.05926825 0.026404694
0.054032754 0.06477078 0.024429891 0.0009673976 -0.043512635 -0.057705563 0.0023860713 -0.009044264
00000000: 5c49 c83c a326 153c d7a5 fbbc 9021 423c
00000010: f3c9 b0bb c3ad 6d3d b80c 133d 32f7 fe3b
00000020: 7fa0 64bc a406 a3bd 4e3c d03c bbb5 343d
00000030: 18d3 18bd 5de0 563d a29b 1d3c 0685 6fbd
00000040: a02f 8fbb d55e 4e3d 3cb3 3bbc 7627 8f3d
00000050: fcf6 5a3d 51af 67bd bc1f 5e3d 9925 8d3c
00000060: f752 d3ba 6682 0fbd ca67 343d c986 31bb
00000070: cbe4 b5bc b6bc 7bbd 2ba3 7bbd 523b 58ba
00000080: ea2e 093d 64d0 383d 658c 82bd d222 c5bc
00000090: 256f 1abd 63f9 00bc 23fc 2d3d 5837 32bc
000000a0: dba8 423d 0311 68bd 59d0 91bd 5abd 5ebd
000000b0: db36 9c3c 6912 8b3d 4727 59bd 095d 133d
000000c0: ca48 123d 1e9e 3d3d b1b9 64bc e70d f43c
000000d0: bce0 113d 01bf 04bd ee8b 5abc bd8b 093d
000000e0: e015 013d 09ef 48bd bd2b 03bd f652 3d3d
000000f0: 413e d0bc 76d5 8fbd 3309 553d 36d0 513d
00000100: 876e 363d 5b76 893d 397a a6bc f475 2a3d
00000110: 3588 783d 460f 5fbd dd84 7cbd 16cc 30bd
00000120: 1e65 0a3d 6a70 d7bc ea0d 88bd 85b8 08bd
00000130: 102a 1cbc c821 1abd 99f7 103d 14ea 38bd
00000140: b8c6 3fbc 411b 85bd e60b 223d 7655 003d
00000150: cf50 e4b9 c903 353c f967 11bc a8f8 38bc
00000160: 3a69 8f3d a688 c7bb 91b3 453d 333e c9bb
00000170: 91f9 193c 96cf cb3b 5493 be3b 13d7 bd3c
00000180: 7c06 2a3d 4d88 74bc 40c6 a83b fe54 8b3d
00000190: 736d 7c3d 5e2c 1c3d 4e84 9dbd 6704 723d
000001a0: 1529 533d 4111 8c3d d9c1 64bd e637 54bd
000001b0: 7cc8 6ebc f554 e9b9 3d9d 8e3d 0ccb 50bd
000001c0: b929 07bd b278 313d 64a4 6b3d 1097 693d
000001d0: 3ca1 d83c 2c10 06bc aa4e 623d 8052 81bd
000001e0: 3746 04bd 1b10 993c 1a29 913d a041 873d
000001f0: e0c5 59bd 0f5b 46bd 69f6 52bb 98c4 c4bc
00000200: de69 6c3d 5d66 6f3d a57f 7d3d 0ce5 06bd
00000210: fb79 60bd 2ade 663d 0f6a 843c e02f 9dbc
00000220: 8742 b2bc 9588 1dbd b3fb 2abc be1f 79bd
00000230: 603c 023c e4ff 7a3d 3a88 2bbb 33fa 053d
00000240: e1c3 8bbd 98a4 9dbb c356 303d 2c6e 03bd
00000250: f843 dcba f873 8d3d dd13 ddbc 9d5d 2b3d
00000260: 7da9 65bb 87eb a0bc f555 8e3c c06a 75ba
00000270: 10d8 20bd bc3a 8c3c b406 3ebd 2302 12bd
00000280: d251 3e3d b1d7 44bd c5ca 34bd 04a4 3c3c
00000290: 1582 843d b021 6b3d 04b9 b5bc fa07 453d
000002a0: 2677 353c 5f20 72bc 0a8d 76bd 4811 073c
000002b0: 64e7 24bc 5bd2 5b39 ef6a 7d3d 71b7 9c3c
000002c0: c9c5 2ebd 0356 263d 6713 febc f101 0cbb
000002d0: 4cc7 323c 412d 0d3d 6598 d8bb 7ca3 b1bb
000002e0: bd21 5c3d 837a 1ebc 048f 60bd 5e2e 05bd
000002f0: bf31 2abc bea3 5f3d e6cf 9bbc 84c8 2e3c
00000300: 1f9f ccbc 0085 35bc 8f58 bcbc f3e8 863d
00000310: 98b6 7f3d 8b2a 81bd 705b 373d 3749 783d
00000320: 9989 5abd 9498 68bd 90a3 2a3c 9f7b 86bd
00000330: 8cb1 32bc c9e1 e3bc 00cd 43ba a427 083c
00000340: 9584 17bc d9e3 0f3d 0a36 823d 949e d6bc
00000350: 05b4 42bd 9fb8 363b fac0 9abd dfd6 423d
00000360: 0505 83bd dec8 1dbd 3bd9 3abd 4977 8ebc
00000370: a426 0e3d f94f 8fbc 5e66 5ebd 0a61 fe3c
00000380: 4936 ce3b 4956 47bd c65c acbb 82db df3c
00000390: 0c24 883d a7be c03b 987a 813c 74c8 193c
000003a0: 19e6 3cbd 205d 05ba 0cd4 48bd 71de 613d
000003b0: 79ae 883d d6c6 8ebd 3ffb c5bc 4a2a 64bd
000003c0: 298a 8fbd 706f 213d b86a 24bc 8233 adbc
000003d0: 3af1 87bc 6c4a 673d 44c3 723d a84e d83c
000003e0: 7351 5d3d 8ba6 843d 3221 c83c f498 7d3a
000003f0: 4e3a 32bd ab5c 6cbd a25f 1c3b 652e 14bc

conv2.bias f4 [128]
-0.030285746 0.05268922 -0.066406325 0.024740055 -0.061837077 0.024144907 0.027239596 0.020202488
-0.039921425 -0.027973447 0.026178429 -0.048389424 -0.05876591 -0.0002065301 0.021253278 -0.05766697
0.0007498312 0.027278204 0.051411115 -0.07155334 -0.061012886 -0.023470445 0.055445295 0.05556171
0.024448048 -0.048184186 0.046949457 0.053571418 0.061024662 0.0014287758 0.020224422 -0.0071316175
-0.06569244 -0.0040760175 -0.07212424 0.06923214 0.01087201 -0.01623668 0.035400297 -0.041904893
-0.04123632 0.042386215 0.05604319 0.033604257 0.011358926 -0.03523524 -0.043493725 0.044635855
-0.05096957 0.06522714 -0.05664039 0.04119551 -0.060486782 0.02599524 -0.007350007 -0.070806794
0.05615469 0.00636303 -0.056986213 -0.0687809 0.0726919 0.036706716 0.03916842 0.04064985
0.053531483 -0.020163795 -0.010114175 -0.01653484 0.011593286 0.037071615 -0.047862962 0.05293167
-0.040157385 0.06931341 0.0703146 -0.048416175 -0.056002185 -0.04490527 0.06153337 -0.019315785
-0.027810888 0.022335969 -0.03478179 -0.061554622 -0.05789171 0.005230299 -0.066944934 0.019676507
-0.06978235 0.034349807 0.042357054 -0.03187116 -0.008974058 0.015338007 -0.07299695 0.018868724
0.047012985 0.04705517 0.05461721 -0.039665785 -0.034489825 -0.022413518 0.0034968876 0.051209543
0.06036546 0.03639626 0.0017021657 -0.01906219 -0.024186872 -0.008699139 -0.055751327 -0.069722235
-0.03872934 0.07191342 0.016613543 0.020387005 -0.056382038 -0.024260074 0.026714636 0.035226084
0.06290106 -0.06981159 -0.06790104 0.0016923425 -0.06779106 0.03415468 0.045878947 -0.021461817
00000000: d019 f8bc a7d0 573d 0a00 88bd a8ab ca3c
00000010: e048 7dbd 8acb c53c 9325 df3c b07f a53c
00000020: a684 23bd 9228 e5bc 2574 d63c fd33 46bd
00000030: 86b4 70bd 0090 58b9 5b1b ae3c 3334 6cbd
00000040: 5290 443a 8a76 df3c 7694 523d 8f8a 92bd
00000050: a6e8 79bd 1745 c0bc 9b1a 633d ad94 633d
00000060: 4647 c83c c85c 45bd 134e 403d b46d 5b3d
00000070: fff4 793d c345 bb3a b0ad a53c 58b0 e9bb
00000080: c289 86bd 1d90 85bb e0b5 93bd 95c9 8d3d
00000090: 8420 323c c902 85bc e7ff 103d 77a4 2bbd
000000a0: 6ae7 28bd 2b9d 2d3d 8b8d 653d 9ea4 093d
000000b0: ca1a 3a3c d452 10bd 7a26 32bd 16d4 363d
000000c0: 78c5 50bd cf95 853d c1ff 67bd a0bc 283d
000000d0: fdc0 77bd f8f3 d43c 54d8 f0bb 2703 91bd
000000e0: 7602 663d f780 d03b 606a 69bd 00dd 8cbd
000000f0: 7edf 943d c859 163d 116f 203d 7580 263d
00000100: d443 5b3d 8b2e a5bc edb5 25bc 1374 87bc
00000110: c4f1 3d3c 68d8 173d f40b 44bd e1ce 583d
00000120: 127c 24bd 30f4 8d3d 1a01 903d 0a50 46bd
00000130: 8c62 65bd 97ee 37bd 6a0a 7c3d 233c 9ebc
00000140: a9d3 e3bc ecf9 b63c 5a77 0ebd b320 7cbd
00000150: dc1f 6dbd ee62 ab3b 6d1a 89bd a030 a13c
00000160: 0cea 8ebd 62b2 0c3d 977e 2d3d 558b 02bd
00000170: ed07 13bc 444c 7b3c 6d7f 95bd 9592 9a3c
00000180: b090 403d ecbc 403d 4cb6 5f3d 9778 22bd
00000190: 3445 0dbd 8e9c b7bc 0a2c 653b 19c1 513d
000001a0: c641 773d 3f14 153d 341b df3a 4f28 9cbc
000001b0: 8c23 c6bc d586 0ebc 815b 64bd 88ca 8ebd
000001c0: a8a2 1ebd 5847 933d 2019 883c a602 a73c
000001d0: daf0 66bd 10bd c6bc a7d8 da3c 3a49 103d
000001e0: 45d2 803d 61f9 8ebd b30f 8bbd 97d1 dd3a
000001f0: 0ad6 8abd c7e5 0b3d 90eb 3b3d b1d0 afbc

fc1.weight f4 [64, 128]
0.03715211 0.033214197 -0.018348316 -0.02803716 -0.05665809 -0.09044758 0.08738595 -0.0010756255
-0.054714505 -0.069578595 -0.039376758 0.053543262 0.051312964 -0.030670136 -0.0092459135 -0.021552566
0.0835814 -0.03552622 -0.06837718 -0.010246979 -0.023003768 0.08840855 -0.018526597 0.090104006
0.077088214 0.054015756 -0.043747727 -0.058516353 -0.036710337 0.056994986 0.037341617 -0.044699665
-0.084789105 -0.08542408 0.07031478 0.025059717 0.03325699 0.009992902 -0.030314041 -0.042178903
0.041415337 0.06698983 -0.026876995 -0.072370805 -0.0827064 -0.0003876974 -0.011682243 -0.07536795
0.0072990386 -0.014634638 -0.06655114 -0.009438087 0.03630512 -0.0709445 0.0038194149 -0.006040302
0.006893908 0.08682291 0.07410426 0.030499412 0.06722291 0.012449627 -0.07837012 0.06644862
0.04711124 -0.073460236 0.029249473 -0.0022619546 0.017302027 0.04132793 -0.011329102 -0.07808638
-0.0007722315 0.081580736 0.018120399 -0.009449044 -0.029820569 0.027023816 -0.015766915 0.072970904
0.036738046 -0.0143212415 0.04958798 -0.01725662 -0.048873 -0.04914888 -0.05390395 -0.067428745
0.067764595 -0.07474187 0.055924855 -0.05082311 -0.026359003 -0.06901055 0.019884152 0.083790876
-0.0547889 0.0024545342 0.008138108 -0.08675583 0.015135382 -0.06772566 0.052905697 -0.024049127
-0.06039666 -0.08111927 -0.083530776 0.0075044213 0.008108025 0.03869818 0.06924138 -0.04875726
0.012546333 0.04117147 0.024233267 -0.048946906 -0.011135005 0.05441562 0.011361495 0.016819727
0.0720472 0.07085779 -0.0262888 -0.053057026 0.075822644 0.017247237 -0.061552964 0.039893404
-0.08559009 -0.05110221 -0.052649487 0.049193233 0.054199565 0.01314946 -0.023637155 -0.039931886
0.016767725 -0.0723699 -0.028242972 0.043699685 0.04801381 -0.087654255 -0.061893906 -0.07301505
0.05393946 -0.036604572 0.032685485 0.060561303 0.06005037 0.067588076 0.074638575 -0.078806445
0.018764263 0.0137227755 -0.04524992 -0.0039985944 -0.060601246 0.048025064 -0.048093826 -0.021337219
-0.039596483 0.06276534 0.06435728 -0.051983725 -0.0658882 0.0060400874 0.059671637 0.07131978
0.023806084 -0.041161828 0.07362301 0.046620727 0.016020022 0.033762477 -0.0040709167 0.01792487
-0.022465652 0.06016055 -0.036586083 -0.087725 -0.032365154 -0.03962277 -0.04267887 -0.053356677
0.0692526 -0.0025342458 0.0043771756 0.0041331714 0.06316313 -0.013222243 0.007586452 -0.02699157
0.058620036 0.030171148 -0.011843571 -0.08477439 -0.0065783947 -0.06149565 -0.038720682 0.0864144
-0.078923225 -0.074900135 0.07403889 0.0708662 0.081126906 0.06670786 -0.016643247 -0.050635166
-0.019179054 0.025189465 0.08974737 0.08288365 -0.045109153 0.06999201 0.057371758 -0.028027702
-0.037727173 0.055698786 -0.017491905 0.03541427 -0.03181903 -0.056766834 -0.047742758 -0.009018451
-0.053561077 -0.0123937875 -0.0664563 0.020951005 -0.030386914 -0.0499464 0.029958932 -0.03787944
0.04531156 -0.088715956 -0.0027988674 0.03297489 0.0017063044 -0.088959254 -0.03274213 0.08110249
-0.0750349 -0.02038747 0.031800807 0.040490873 0.03336688 0.06425781 0.0053537283 0.057890527
-0.02318268 0.03372194 0.025301406 -0.07290617 0.0861775 -0.035170335 0.025857627 0.02593794
00000000: d02c 183d 9c0b 083d 354f 96bc 30ae e5bc
00000010: 5012 68bd 953c b9bd 68f7 b23d 01fc 8cba
00000020: 511c 60bd 397f 8ebd 8649 21bd 2e50 5b3d
00000030: 8b2d 523d f03f fbbc 2c7c 17bc 028f b0bc
00000040: ba2c ab3d f183 11bd 5609 8cbd f2e2 27bc
00000050: 6672 bcbc 8b0f b53d 17c5 97bc 7388 b83d
00000060: 6de0 9d3d a03f 5d3d d130 33bd d8ae 6fbd
00000070: 945d 16bd 9373 693d 86f3 183d ff16 37bd
00000080: e9a5 adbd d2f2 aebd 3201 903d 094a cd3c
00000090: 7b38 083d 45b9 233c 2755 f8bc c9c3 2cbd
000000a0: 21a3 293d f731 893d 252d dcbc 2537 94bd
000000b0: f961 a9bd dd43 cbb9 e166 3fbc 835a 9abd
000000c0: c62c ef3b 1fc6 6fbc f74b 88bd 35a2 1abc
000000d0: adb4 143d 5a4b 91bd 264f 7a3b baed c5bb
000000e0: 4be6 e13b 36d0 b13d f9c3 973d e7d9 f93c
000000f0: 2aac 893d 85f9 4b3c 8380 a0bd 3716 883d
00000100: b7f7 403d 5272 96bd 979c ef3c 4d3d 14bb
00000110: fbbc 8d3c 7a47 293d b39d 39bc c1eb 9fbd
00000120: 946f 4aba cd13 a73d 3b71 943c 2ad0 1abc
00000130: 444a f4bc 0d61 dd3c 9e29 81bc c571 953d
00000140: a27a 163d a4a3 6abc c41c 4b3d c15d 8dbc
00000150: 0e2f 48bd 5650 49bd 63ca 5cbd 1518 8abd
00000160: 2ac8 8a3d 4412 99bd 7611 653d e52b 50bd
00000170: d6ee d7bc 6755 8dbd 17e4 a23c 8d9a ab3d
00000180: 536a 60bd 40dc 203b b355 053c 0aad b1bd
00000190: 65fa 773c c0b3 8abd a5b3 583d ad02 c5bc
000001a0: 7d62 77bd dc21 a6bd 2f12 abbd a6e7 f53b
000001b0: 86d7 043c fc81 1e3d 6dce 8d3d b1b5 47bd
000001c0: 228f 4d3c 6aa3 283d d884 c63c 8d7c 48bd
000001d0: 996f 36bc eae2 5e3d 9025 3a3c 86c9 893c
000001e0: 7b8d 933d e41d 913d 9c5b d7bc 5352 59bd
000001f0: e748 9b3d 144a 8d3c f61e 7cbd 4467 233d
00000200: db49 afbd 8d50 51bd fda6 57bd d87e 493d
00000210: 5d00 5e3d d570 573c b5a2 c1bc 9e8f 23bd
00000220: 785c 893c ac36 94bd ce5d e7bc 71fe 323d
00000230: 21aa 443d 1384 b3bd 7784 7dbd ea88 95bd
00000240: a0ef 5c3d adee 15bd 37e1 053d 210f 783d
00000250: 60f7 753d 9e6b 8a3d 1cdc 983d 4665 a1bd
00000260: 83b7 993c 7ed5 603c fb57 39bd a406 83bb
00000270: 0339 78bd eeb5 443d 08fe 44bd 64cb aebc
00000280: ec2f 22bd 1d8b 803d c0cd 833d e3ec 54bd
00000290: 65f0 86bd edeb c53b 3f6a 743d 1b10 923d
000002a0: fa04 c33c 4e99 28bd a9c7 963d 60f5 3e3d
000002b0: 6c3c 833c 864a 0a3d 5365 85bb 2dd7 923c
000002c0: e309 b8bc e96a 763d 4adb 15bd 2aa9 b3bd
000002d0: 5391 04bd 7c4b 22bd 0ad0 2ebd 888c 5abd
000002e0: 4fd4 8d3d 9715 26bb 696e 8f3b 8e6f 873b
000002f0: ac5b 813d 1ba2 58bc c697 f83b 6d1d ddbc
00000300: 901b 703d 7c29 f73c 8a0b 42bc 329e adbd
00000310: 938f d7bb dde2 7bbd 9499 1ebd 08fa b03d
00000320: 80a2 a1bd 3e65 99bd b4a1 973d 4c22 913d
00000330: dd25 a63d 219e 883d 6b57 88bc d266 4fbd
00000340: 641d 9dbc 235a ce3c 78cd b73d e7be a93d
00000350: 60c4 38bd f957 8f3d a6fe 6a3d 5a9a e5bc
00000360: cf87 1abd 6924 643d 2f4b 8fbc 8e0e 113d
00000370: ac54 02bd 5784 68bd e98d 43bd 20c2 13bc
00000380: dc62 5bbd 500f 4bbc 3e1a 88bd 71a1 ab3c
00000390: faed f8bc 9994 4cbd 6f6c f53c 7927 1bbd
000003a0: 9d98 393d b6b0 b5bd 346d 37bb ae10 073d
000003b0: 13a6 df3a 4530 b6bd 9d1c 06bd 1019 a63d
000003c0: e6ab 99bd a003 a7bc 9041 023d c2d9 253d
000003d0: b6ab 083d 9999 833d 546e af3b 9e1e 6d3d
000003e0: 9be9 bdbc 0420 0a3d e544 cf3c d44f 95bd
000003f0: d47d b03d c50e 10bd 60d3 d33c ce7b d43c

fc1.bias f4 [64]
0.0064126696 -0.057519097 -0.08956759 -0.029973196 -0.08359403 -0.067980394 -0.066827625 -0.08848798
0.008213208 -0.0139707215 0.04001782 0.025999013 -0.03456738 0.062051672 0.083461426 -0.03699837
-0.05157468 0.012611434 0.08466796 -0.07306873 0.039407473 -0.036599923 0.019197673 -0.014513761
0.07784922 0.05883295 -0.008595891 0.08031773 -0.07034312 -0.0051497445 0.068434484 -0.07116075
-0.07583161 -0.010065161 0.030255169 0.027671598 -0.023531795 0.020700738 0.0034060793 -0.069927834
-0.013676896 0.07970895 -0.072447926 -0.024615943 -0.062167022 0.037175562 -0.0010677055 -0.081257544
0.08255544 -0.027820272 0.08190902 -0.02964053 0.06386193 0.0850408 0.000177679 -0.06772497
-0.01760967 0.051152937 -0.010191511 -0.027504245 -0.016254805 0.0286465 0.014920889 0.080849625
00000000: 5f21 d23b 2599 6bbd 366f b7bd 598a f5bc
00000010: 5933 abbd 4e39 8bbd ecdc 88bd 3039 b5bd
00000020: b190 063c 74e5 64bc bae9 233d e2fb d43c
00000030: 8696 0dbd e529 7e3d d3ed aa3d 9a8b 17bd
00000040: f93f 53bd 30a0 4e3c 6566 ad3d 0fa5 95bd
00000050: bb69 213d cde9 15bd 7044 9d3c 20cb 6dbc
00000060: 696f 9f3d d2fa 703d c8d5 0cbc 9f7d a43d
00000070: 0e10 90bd 30bf a8bb 6127 8c3d babc 91bd
00000080: 9a4d 9bbd 58e8 24bc b0d9 f73c 8caf e23c
00000090: c0c5 c0bc 9894 a93c 8738 5f3b 5336 8fbd
000000a0: 0f15 60bc 723e a33d 945f 94bd 60a7 c9bc
000000b0: d9a2 7ebd 6745 183d 40f2 8bba 5b6a a6bd
000000c0: d412 a93d 57e7 e3bc ebbf a73d b2d0 f2bc
000000d0: 0bca 823d df29 ae3d 584f 3a39 64b3 8abd
000000e0: 2842 90bc be85 513d 4cfa 26bc 9550 e1bc
000000f0: cc28 85bc 11ac ea3c bf76 743c 7d94 a53d

fc2.weight f4 [1, 64]
0.06761029 0.018458331 0.10919132 -0.0421038 -0.109122664 0.026336119 0.079939626 0.029799264
0.015878947 -0.11667545 -0.08006537 -0.101825394 -0.014291658 0.079855464 -0.020300135 0.017254874
0.034376238 0.11805913 -0.014639312 0.021271307 -0.0022413472 0.083246246 -0.06928868 -0.01943633
0.07859711 0.035497054 0.064499974 0.11673951 -0.10116745 0.068198696 -0.022059724 0.051792398
-0.112097085 -0.02404271 -0.02884534 0.03072898 0.11891098 0.06487933 0.09622925 -0.09415956
0.05076657 0.08078097 -0.0060056383 0.010655746 -0.07778789 0.009632928 0.11637111 -0.087029636
0.006391538 0.052106194 -0.06473328 0.06569566 -0.035631582 0.095131636 -0.12104446 -0.09745986
-0.021067336 -0.069482446 0.05351312 0.07705114 -0.11413114 0.040551394 0.036408767 -0.009083316
00000000: 4477 8a3d ed35 973c b39f df3d 0975 2cbd
00000010: b47b dfbd d8be d73c 63b7 a33d 961d f43c
00000020: 9114 823c 8af3 eebd 50f9 a3bd d589 d0bd
00000030: 8f27 6abc 438b a33d 784c a6bc 185a 8d3c
00000040: 19ce 0c3d fcc8 f13d bad9 6fbc 2a41 ae3c
00000050: 91e3 12bb 027d aa3d 39e7 8dbd f038 9fbc
00000060: 86f7 a03d 5c65 113d 9018 843d 2015 ef3d
00000070: e130 cfbd c2ab 8b3d 98b6 b4bc 4424 543d
00000080: 2893 e5bd 38f5 c4bc 104d ecbc 58bb fb3c
00000090: 9a87 f33d 74df 843d d713 c53d bad6 c0bd
000000a0: 9bf0 4f3d 7e70 a53d f2ca c4bb 7095 2e3c
000000b0: 424f 9fbd 6ed3 1d3c fa53 ee3d 983c b2bd
000000c0: 1b70 d13b 4e6d 553d e292 84bd 728b 863d
000000d0: 6cf2 11bd 60d4 c23d 28e6 f7bd 0999 c7bd
000000e0: 6895 acbc d04c 8ebd 9330 5b3d fdcc 9d3d
000000f0: 96bd e9bd 3819 263d 5c21 153d 30d2 14bc
