assets/model/phrase012_speech_model.pth (torch, 145844 bytes, 7 tensors)

conv1.weight f4 [64, 13, 3]
0.060126834 0.070909955 -0.020228779 -0.017105056 -0.02703573 0.05896127 0.009766558 0.1303447
0.010366969 0.1581758 -0.13738184 0.071718134 -0.13111909 0.11873269 0.00043886248 0.13578306
-0.13814203 0.0061015724 0.02007714 -0.13200288 0.07202644 0.081121564 -0.11450836 0.10282372
-0.031856846 -0.099445045 0.034614976 0.12480359 0.027319908 0.12885481 -0.12102307 0.07420031
0.0009776033 0.15065134 -0.14889762 -0.03327409 -0.063435875 0.015373653 0.13633507 0.110953525
0.046789035 0.013773578 -0.13879153 0.05754135 0.10928758 0.07425269 0.10294762 -0.14790393
0.065795176 -0.093280196 0.023016706 0.097090594 -0.12561728 -0.009082287 0.051812325 -0.056580905
0.15887591 -0.0008486951 -0.09086699 0.112393804 0.0710839 0.16859727 0.030186957 0.12188653
-0.15407789 -0.13707726 0.006774362 -0.066074885 -0.007844629 -0.035757978 0.008105441 0.12224897
-0.08579038 0.084844306 0.027264975 0.11350945 -0.106418386 0.11487962 0.08981661 0.12417455
-0.013244588 0.1311951 -0.07296715 0.12524055 0.07840784 0.08523985 0.0787671 0.12589233
0.057085443 -0.050574884 0.040152863 -0.12866177 -0.152532 0.019964784 0.15359128 0.0971766
0.119127855 0.061739553 -0.11846889 0.12467081 -0.1446676 -0.15074962 0.119127825 0.03352225
0.024702461 -0.041000888 0.12227297 0.09107182 0.13153958 -0.13081057 -0.10216909 -0.033136137
-0.08732921 -0.113694035 0.12581617 -0.013587736 -0.0520911 0.068473704 -0.023233201 -0.0020903328
-0.09324842 0.11476725 -0.11093197 0.012291169 0.14358883 0.044861965 0.046451047 0.10445432
-0.1513956 0.074806586 0.09164672 -0.09721285 -0.15496425 0.11883435 -0.01875816 0.11181905
0.011301315 -0.115826 -0.07516127 0.045245644 0.10464964 -0.071651086 -0.12698738 0.06543479
0.06509184 0.13048312 -0.110193186 -0.07870459 -0.10542364 0.076426685 -0.09950738 -0.13029432
0.15889533 0.04091842 -0.007817759 -0.07233103 -0.027390147 -0.08784315 0.14855282 -0.15767002
-0.04321395 0.0059177293 0.091611385 0.07334114 0.04183894 -0.084289365 -0.029103464 0.11280625
-0.021741971 -0.09614376 0.054917466 -0.118757896 0.1338025 -0.08952141 0.036224306 0.00836753
-0.036649622 -0.056415208 0.1041339 0.034891658 -0.112663165 -0.095945485 -0.00085835054 0.11925322
-0.030859765 -0.07630827 0.06848891 -0.08769322 -0.01157941 0.04364658 -0.11991488 0.16036695
-0.15032668 -0.08752112 0.02674249 -0.06257406 0.12260132 0.11664458 0.04536639 0.043855403
-0.10791645 0.13906181 -0.045408715 -0.14948949 0.034058113 -0.14800866 -0.028102698 -0.008452125
0.12991364 -0.080448404 0.14532149 0.019358326 -0.13953345 -0.075919546 -0.109063774 -0.14445376
0.10074101 0.05600229 -0.049520805 0.01716622 -0.032183222 -0.082812436 -0.09613526 -0.044312824
-0.13474685 -0.14400052 0.009275985 -0.053126372 -0.06586056 -0.069483854 0.116702296 0.045771502
-0.014409568 0.13464804 0.06821582 -0.12240948 -0.117158845 -0.030017557 -0.15116277 -0.014887177
0.12132959 0.12947384 0.003945839 0.019439897 0.1004383 0.017282777 -0.10423173 -0.06253942
-0.06601245 0.09194622 0.019421533 0.023844538 0.021749139 0.042738628 -0.027394833 0.035689045
00000000: 8e47 763d 3d39 913d d3b6 a5bc e71f 8cbc
00000010: 097a ddbc 5f81 713d ea03 203c 1579 053e
00000020: 38da 293c d6f8 213e d3ad 0cbe f5e0 923d
00000030: 1544 06be 202a f33d 2017 e639 b70a 0b3e
00000040: 1b75 0dbe b3ef c73b d078 a43c c32b 07be
00000050: 9982 933d 1023 a63d 5c83 eabd 3e95 d23d
00000060: 537c 02bd d8a9 cbbd 6fc8 0d3d 0699 ff3d
00000070: 00ce df3c 84f2 033e f1da f7bd 55f6 973d
00000080: ec22 803a 5844 1a3e 9e78 18be 6a4a 08bd
00000090: abea 81bd c6e1 7b3c 6c9b 0b3e 9a3b e33d
000000a0: dca5 3f3d 93aa 613c 5e1f 0ebe 7bb0 6b3d
000000b0: 2bd2 df3d cb11 983d 34d6 d23d 2174 17be
000000c0: 9fbf 863d b009 bfbd 888d bc3c 6fd7 c63d
000000d0: d1a1 00be dfcd 14bc 2939 543d 61c1 67bd
000000e0: 5eb0 223e f77a 5eba 7918 babd b92e e63d
000000f0: 7094 913d c3a4 2c3e a34a f73c a59f f93d
00000100: 98c6 1dbe fb5d 0cbe 78fb dd3b 4552 87bd
00000110: c286 00bc f576 12bd afcc 043c ab5d fa3d
00000120: deb2 afbd dac2 ad3d cc5a df3c a477 e83d
00000130: e2f1 d9bd 0246 eb3d c5f1 b73d 3a4f fe3d
00000140: d4ff 58bc 0258 063e cd6f 95bd 0f3f 003e
00000150: 4a94 a03d 3b92 ae3d a550 a13d ebe9 003e
00000160: 6dd2 693d 9c27 4fbd 5477 243d e9bf 03be
00000170: 5931 1cbe 308d a33c 0847 1d3e 8604 c73d
00000180: 4ef9 f33d 9de2 7c3d d19f f2bd 6953 ff3d
00000190: be23 14be 1c5e 1abe 4af9 f33d a04e 093d
000001a0: d15c ca3c 8cf0 27bd 406a fa3d dd83 ba3d
000001b0: 50b2 063e 35f3 05be 073e d1bd c2b9 07bd
000001c0: a8d9 b2bd 6bd8 e8bd f4d5 003e 189f 5ebc
000001d0: 7a5d 55bd f13b 8c3d 8e53 bebc f7fd 08bb
000001e0: 07f9 bebd 180b eb3d 4d30 e3bd e660 493c
000001f0: f308 133e 2ec1 373d 7443 3e3d 26ec d53d
00000200: 7307 1bbe 3234 993d 47b1 bb3d 8817 c7bd
00000210: f3ae 1ebe 6c5f f33d b6aa 99bc 6301 e53d
00000220: 2729 393c 2f36 edbd 27ee 99bd 7f53 393d
00000230: 8d52 d63d cebd 92bd fb08 02be ad02 863d
00000240: df4e 853d 5e9d 053e f7ac e1bd df2f a1bd
00000250: 59e8 d7bd 9885 9c3d 86ca cbbd e06b 05be
00000260: 75b5 223e 139a 273d 0f16 00bc 4b22 94bd
00000270: 4d61 e0bc 1ce7 b3bd 3b1e 183e 4074 21be
00000280: 1c01 31bd 83e9 c13b c09e bb3d e133 963d
00000290: 4f5f 2b3d e79f acbd 636a eebc f706 e73d
000002a0: 381c b2bc 05e7 c4bd 23f1 603d 5737 f3bd
000002b0: 8603 093e 0057 b7bd f05f 143d f717 093c
000002c0: ea1d 16bd a213 67bd 2744 d53d 8eea 0e3d
000002d0: f2bb e6bd 117f c4bd ee02 61ba 083b f43d
000002e0: 9ecd fcbc 8347 9cbd ea43 8c3d 8198 b3bd
000002f0: 91b7 3dbc c2c6 323d ef95 f5bd 3c37 243e
00000300: 3def 19be 463e b3bd 1113 db3c d426 80bd
00000310: 6716 fb3d 5be3 ee3d 1cd2 393d b9a1 333d
00000320: 4d03 ddbd 3866 0e3e 7dfe 39bd c613 19be
00000330: 8580 0b3d 958f 17be a137 e6bc c87a 0abc
00000340: 1508 053e 22c2 a4bd 28cf 143e 5a95 9e3c
00000350: dbe1 0ebe b57b 9bbd d45c dfbd b0eb 13be
00000360: 4d51 ce3d a862 653d 54d6 4abd 2ca0 8c3c
00000370: 8ed2 03bd 9199 a9bd 90e2 c4bd 5d81 35bd
00000380: 14fb 09be df74 13be 4dfa 173c 0a9b 59bd
00000390: e7e1 86bd 8d4d 8ebd 9d01 ef3d e67a 3b3d
000003a0: 1c16 6cbc 2de1 093e bcb4 8b3d d2b1 fabd
000003b0: faf0 efbd 61e7 f5bc 6aca 1abe 59e9 73bc
000003c0: a67b f83d ca94 043e 194c 813b 6b40 9f3c
000003d0: 98b2 cd3d 9c94 8d3c 7277 d5bd ab14 80bd
000003e0: 8931 87bd 4d4e bc3d e819 9f3c 9f55 c33c
000003f0: 402b b23c b30e 2f3d 216b e0bc ad2e 123d

conv1.bias f4 [64]
-0.037793722 0.025418686 0.07967961 0.09989932 0.044790916 -0.15576105 0.07110293 -0.14764884
-0.016162703 -0.08978496 -0.14711119 0.13410684 0.09947458 0.14729117 0.1485521 0.037096445
0.003908773 0.050367612 -0.04773333 -0.12095184 0.13448787 -0.0024825893 -0.15414932 0.12272818
-0.10873217 0.0037545487 -0.1338717 -0.09517506 -0.15857609 0.0744573 -0.11450015 0.04029173
0.02662427 -0.03710601 0.048180073 -0.0028684135 -0.06361322 -0.1480909 -0.07939394 -0.028396863
0.13585071 -0.11400576 0.072742745 0.02683729 -0.12859817 -0.085647464 0.06236552 0.12102717
0.04073814 0.15089332 -0.051039234 0.15136974 -0.0014855027 -0.09226176 -0.011191511 0.05401051
0.06493805 0.058444727 0.09535658 -0.009784395 0.14666629 -0.12132204 -0.023201311 -0.022952443
00000000: 97cd 1abd d93a d03c 102f a33d 0498 cc3d
00000010: ae76 373d d37f 1fbe 6a9e 913d 4231 17be
00000020: a567 84bc 2de1 b7bd 51a4 16be 4e53 093e
00000030: 54b9 cb3d 7fd3 163e 0b1e 183e 71f2 173d
00000040: 2a15 803b 454e 4e3d 0684 43bd 99b5 f7bd
00000050: 30b7 093e f0b2 22bb 52d9 1dbe e958 fb3d
00000060: f9ae debd e00e 763b aa15 09be 24eb c2bd
00000070: c561 22be 127d 983d 0e7f eabd f108 253d
00000080: 241b da3c 79fc 17bd 7858 453d fefb 3bbb
00000090: a647 82bd 24a5 17be 4a99 a2bd 8aa0 e8bc
000000a0: 731c 0b3e da7b e9bd 26fa 943d e0d9 db3c
000000b0: 3daf 03be f067 afbd fd72 7f3d 18dd f73d
000000c0: 09dd 263d c783 1a3e 840e 51bd ab00 1b3e
000000d0: 33b5 c2ba bcf3 bcbd 995c 37bc 203a 5d3d
000000e0: 3efe 843d bd63 6f3d 504a c33d ba4e 20bc
000000f0: b02f 163e b177 f8bd ad10 bebc c306 bcbc

conv2.weight f4 [128, 64, 3]
-0.030645126 0.031015648 -0.027078625 -0.005490024 -0.017740486 0.04163238 -0.07646284 -0.059631124
-0.0361704 -0.07905769 -0.038002867 0.03133899 -0.063105695 -0.080441676 -0.007432938 -0.08273074
-0.008529793 0.037224013 0.027877811 -0.011729579 0.007959602 0.05022762 -0.057560973 -0.056777034
-0.06966931 0.02169354 0.049133215 -0.07883887 -0.009347175 -0.056255363 0.020879615 -0.054956876
0.059681725 -0.05437888 -0.029942939 0.0035661785 0.01308379 -0.0070063537 -0.026798055 0.015677158
0.026816668 0.00013593395 0.04248096 0.007148768 0.023406977 -0.04479722 -0.054320287 -0.0014590768
-0.00085623364 -0.053037465 -0.042896632 -0.03165929 -0.07235062 -0.08351573 -0.074288815 -0.002955903
0.050503325 -0.041471023 0.0039895163 0.037460875 0.012588794 0.023951828 -0.009770622 -0.075321235
0.033757966 0.0376846 -0.016461495 0.04491022 -0.04334168 0.024387876 0.006515636 -0.06227031
-0.057849973 -0.025536824 0.025418688 0.02809324 0.018787408 0.01152457 0.002837862 -0.061551105
-0.067039244 -0.05278944 0.04946953 0.016812062 -0.03210329 -0.005466254 -0.04037773 -0.066714905
0.029193634 -0.028220588 0.02307135 -0.030033072 -8.548432e-05 0.0040854807 -0.03930853 0.04912854
0.04835722 -0.0051864726 0.040524475 -0.011352546 0.053411774 0.026005056 -0.030671593 -0.08018157
-0.045652512 0.013245062 -0.0022782756 -0.024388596 0.002228384 -0.043400243 0.051664796 -0.080678284
0.059406865 -0.053354964 0.031447027 0.041988384 -0.011763365 0.055541635 -0.07341235 0.059207115
0.04361959 -0.06548656 0.029640641 -0.026456827 -0.074313916 0.0488376 -0.0711494 0.050758317
-0.0051969704 0.0577521 -0.02308163 0.048801966 -0.07607179 -0.030918883 0.023979407 -0.00074366736
-0.039594002 0.01818447 0.012876115 -0.04778179 -0.030956062 -0.02138692 0.032927237 0.034271322
-0.029777681 -0.00025908812 0.030896094 -0.06013466 -0.07721613 0.024979552 -0.06107709 0.038896818
-0.06680319 -0.03238459 -0.076348655 -0.00473309 -0.0172713 -0.056464184 -0.045681994 -0.054362115
0.019378517 0.0027961717 -0.039583027 0.02024016 0.049266215 -0.08245987 0.026524073 0.004976032
-0.062371176 0.016597088 -0.017143963 0.029139023 -0.03401841 0.018110337 0.031485926 -0.05823236
0.053071283 0.046976317 0.025817621 -0.042038534 -0.027149536 0.036057267 0.018738244 0.035281453
-0.009920086 0.04994329 -0.04373818 -0.010794682 -0.039602075 -0.07978799 -0.059620693 -0.062494997
-0.06279233 0.048050538 0.027085194 -0.05506587 0.06563428 -0.005960715 -0.019675711 -0.017383704
-0.009162599 -0.045158863 -0.036286954 0.019748896 -0.070988044 0.046241585 0.034180965 -0.025974995
0.029538833 -0.031301588 0.04233454 -0.035383742 -0.013349912 -0.020391136 0.06746456 0.007997917
0.033001322 -0.0205012 -0.026192142 0.009761918 0.075926885 0.067127235 -0.06376435 0.05880418
0.05444265 -0.059897687 0.058965918 -0.030472085 -0.06931504 0.045766424 0.047588184 0.059392527
0.06653794 0.050832395 0.051634435 0.01854478 0.014904712 0.06184598 0.061182134 -0.018802814
-0.055785496 0.03177063 -0.03625076 -0.01171492 0.008777428 -0.03479142 0.016583994 -0.025005117
0.012056913 0.024433421 -0.052494142 0.048354268 0.020633478 0.017342672 0.007694726 0.04789675
00000000: 7d0b fbbc 8714 fe3c fed3 ddbc a9e5 b3bb
00000010: 7f54 91bc b786 2a3d 8d98 9cbd c43f 74bd
00000020: 6a27 14bd 00e9 a1bd e5a8 1bbd 505d 003d
00000030: 8f3d 81bd 9bbe a4bd 0190 f3bb bc6e a9bd
00000040: 8bc0 0bbc 3578 183d 0260 e43c 6c2d 40bc
00000050: fe68 023c 7abb 4d3d 0ec5 6bbd 098f 68bd
00000060: c8ae 8ebd a7b6 b13c e93f 493d 4676 a1bd
00000070: e524 19bc 066c 66bd ba0b ab3c 761a 61bd
00000080: d374 743d 63bc 5ebd e54a f5bc 8cb6 693b
00000090: 655d 563c 8e95 e5bb 9887 dbbc 626d 803c
000000a0: a1ae db3c 7e89 0e39 8400 2e3d 3640 ea3b
000000b0: fdbf bf3c 4a7d 37bd f37e 5ebd 7e3e bfba
000000c0: de74 60ba d03d 59bd 61b4 2fbd 2cad 01bd
000000d0: 902c 94bd 4c0a abbd bc24 98bd d3b7 41bb
000000e0: 93dc 4e3d 85dd 29bd 7dba 823b 9370 193d
000000f0: 3b41 4e3c a036 c43c f514 20bc 0542 9abd
00000100: cb45 0a3d 2b5b 1a3d 42da 86bc c7f3 373d
00000110: 0c87 31bd 15c9 c73c 1e81 d53b 270f 7fbd
00000120: 18f4 6cbd 9a32 d1bc da3a d03c cb23 e63c
00000130: 0de8 993c 8dd1 3c3c 6cfb 393b 031d 7cbd
00000140: df4b 89bd bd39 58bd 90a0 4a3d 73b9 893c
00000150: bd7e 03bd 431e b3bb 1e63 25bd d3a1 88bd
00000160: 7d27 ef3c dd2e e7bc 2100 bd3c eb07 f6bc
00000170: 0b46 b3b8 7fdf 853b fb01 21bd 023b 493d
00000180: 3812 463d 49f3 a9bb fefc 253d 0700 3abc
00000190: 4ec6 5a3d 8e08 d53c fe42 fbbc 3c36 a4bd
000001a0: 21fe 3abd d101 593c 1f4f 15bb 98ca c7bc
000001b0: 140a 123b 74c4 31bd 779e 533d a83a a5bd
000001c0: 9d54 733d bc8a 5abd 99ce 003d 03fc 2b3d
000001d0: 21bb 40bc a07f 633d 3759 96bd 2983 723d
000001e0: 75aa 323d d11d 86bd eed0 f23c fdbb d8bc
000001f0: e531 98bd ef09 483d c7b6 91bd f4e7 4f3d
00000200: 594b aabb 778d 6c3d b015 bdbc 92e4 473d
00000210: 87cb 9bbd 9949 fdbc 7670 c43c acf2 42ba
00000220: 522d 22bd 99f7 943c 57f6 523c d7b6 43bd
00000230: 9197 fdbc 9f33 afbc b6de 063d 1660 0c3d
00000240: 53f0 f3bc 38d6 87b9 ce19 fd3c c34f 76bd
00000250: 7e23 9ebd eba1 cc3c f92b 7abd 4552 1f3d
00000260: 1cd0 88bd b4a5 04bd af5c 9cbd 0918 9bbb
00000270: 8b7c 8dbc fd46 67bd 0b1d 3bbd cfaa 5ebd
00000280: b2bf 9e3c fa3f 373b d021 22bd b1ce a53c
00000290: 5fcb 493d b8e0 a8bd 0349 d93c fb0d a33b
000002a0: eb78 7fbd 9ef6 873c 7f71 8cbc f6b4 ee3c
000002b0: e356 0bbd 215c 943c 63f7 003d 0e85 6ebd
000002c0: 4661 593d 3d6a 403d 7a7f d33c 9930 2cbd
000002d0: b468 debc c9b0 133d f280 993c 4983 103d
000002e0: db87 22bc 5691 4c3d ce26 33bd 2edc 30bc
000002f0: c935 22bd e367 a3bd d434 74bd c1fa 7fbd
00000300: 4499 80bd a4d0 443d c5e1 dd3c c08c 61bd
00000310: 446b 863d 1a52 c3bb f52e a1bc 4568 8ebc
00000320: ba1e 16bc 80f8 38bd a1a1 14bd 70c8 a13c
00000330: 2e62 91bd d167 3d3d 5701 0c3d 83c9 d4bc
00000340: 6cfb f13c 1836 00bd fc66 2d3d 8bee 10bd
00000350: 97b9 5abc 500b a7bc dc2a 8a3d b209 033c
00000360: 652c 073d 22f2 a7bc e790 d6bc 74f0 1f3c
00000370: 8e7f 9b3d 017a 893d e296 82bd a7dc 703d
00000380: 42ff 5e3d 4757 75bd 3f86 713d 98a0 f9bc
00000390: 0bf5 8dbd 9375 3b3d d4eb 423d 9445 733d
000003a0: 0b45 883d a135 503d a17e 533d 39eb 973c
000003b0: e532 743c 3652 7d3d 1e9a 7a3d 5c08 9abc
000003c0: 557f 64bd ec21 023d ad7b 14bd f0ef 3fbc
000003d0: 34cf 0f3c 7381 0ebd 28db 873c 88d7 ccbc
000003e0: 5c8a 453c 9928 c83c 1904 57bd 200f 463d
000003f0: 8a07 a93c 3812 8e3c 0a24 fc3b 622f 443d

conv2.bias f4 [128]
0.026260374 -0.04278521 0.029104292 -0.049747385 -0.06459483 -0.001873826 0.030733341 -0.0356382
0.04042589 0.06491299 -0.062359232 0.007100258 -0.06533011 -0.052878413 0.0032503242 0.037446596
0.039713886 0.022980524 0.009800606 -0.01159418 0.06379373 -0.034229603 0.05850902 0.020549424
0.058051575 -0.025703674 -0.060355477 0.016022619 0.0030924454 -0.016203908 -0.07066691 -0.04018887
0.02035986 0.046876434 0.04256688 0.028344562 0.044165447 -0.016710466 0.038131278 -0.066350736
0.009543704 -0.031982064 0.054490507 0.048789706 -0.060596656 0.025794616 -0.00662616 0.04731795
0.0072806566 -0.056412388 0.031067202 -0.036682334 -0.02016859 -0.056119584 -0.06482217 -0.042790633
-0.034990624 -0.047687672 -0.022573285 -0.06030309 -0.002726159 0.03186036 -0.018962527 -0.025143595
0.022960635 0.059200373 0.007469911 0.0033126452 -0.01365896 -0.014646412 0.06399207 0.049946703
-0.01017868 -0.041427642 -0.022634782 0.025770068 0.022872128 -0.050425977 0.013865239 0.05784889
0.046878815 -0.06492509 -0.011078598 -0.032370575 -0.054292638 0.010563365 -0.0211093 -0.074353404
-0.039285213 0.026832765 -0.03882286 0.04355332 0.045555823 -0.062046822 -0.07511685 -0.0423654
-0.0727513 0.062351212 0.026439574 -0.064220466 -0.016245086 0.04536859 -0.01980989 -0.04975095
0.05521774 -0.009349997 0.0016464478 0.039264098 0.02480135 -0.03176831 -0.0628726 0.06046309
-0.030255811 -0.022079982 -0.01639833 -0.05254841 -0.055017654 -0.023417888 0.029814491 -0.06881529
0.051758252 0.010868257 -0.010428921 -0.0051731593 -0.0011328984 0.07124573 0.06629824 -0.047168013
00000000: ff1f d73c 8b3f 2fbd 206c ee3c eac3 4bbd
00000010: 4b4a 84bd 2b9b f5ba 7dc4 fb3c 5cf9 11bd
00000020: 9e95 253d 1af1 843d 656c 7fbd 48a9 e83b
00000030: cbcb 85bd 0997 58bd 6403 553b 9a61 193d
00000040: 07ab 223d a741 bc3c b992 203c 84f5 3dbc
00000050: 4aa6 823d 5734 0cbd 27a7 6f3d 4457 a83c
00000060: 7dc7 6d3d 8390 d2bc 4e37 77bd de41 833c
00000070: a0aa 4a3b 0fbe 84bc d0b9 90bd 169d 24bd
00000080: b9c9 a63c 8101 403d 9c5a 2e3d db32 e83c
00000090: d4e6 343d 63e4 88bc 8b2f 1c3d e5e2 87bd
000000a0: 325d 1c3c a0ff 02bd 7031 5f3d b7d7 473d
000000b0: 3334 78bd 3b4f d33c 4220 d9bb 77d0 413d
000000c0: 9392 ee3b ad10 67bd a580 fe3c 3740 16bd
000000d0: 9938 a5bc a6dd 65bd 7cc1 84bd 3b45 2fbd
000000e0: 5452 0fbd 2654 43bd 9ceb b8bc 5f00 77bd
000000f0: 5ca9 32bb 0280 023d 4d57 9bbc f1f9 cdbc
00000100: f117 bc3c 177c 723d 28c6 f43b f718 593b
00000110: d5c9 5fbc 81f7 6fbc 460e 833d ea94 4c3d
00000120: 7ac4 26bc 08b0 29bd 946c b9bc c01b d33c
00000130: 545e bb3c 788b 4ebd 072b 633c f5f2 6c3d
00000140: 0004 403d 72f7 84bd 0283 35bc 0297 04bd
00000150: f561 5ebd f711 2d3c 69ed acbc 9946 98bd
00000160: 88e9 20bd 63d0 db3c b804 1fbd f764 323d
00000170: be98 3a3d cf24 7ebd ddd6 99bd 5787 2dbd
00000180: a2fe 94bd fc63 7f3d ce97 d83c 0586 83bd
00000190: 6a14 85bc 6ad4 393d 5a48 a2bc a7c7 4bbd
000001a0: ff2b 623d bb30 19bc 9fcd d73a 64d3 203d
000001b0: 332c cb3c 7d1f 02bd 5ac3 80bd 25a8 773d
000001c0: 09db f7bc 14e1 b4bc ca55 86bc 003d 57bd
000001d0: 315a 61bd dfd6 bfbc 853d f43c 08ef 8cbd
000001e0: 7600 543d c610 323c 11de 2abc 9b83 a9bb
000001f0: c37d 94ba 48e9 913d 5fc7 873d 3f33 41bd

fc1.weight f4 [64, 128]
0.056611884 -0.08808609 0.010664318 0.06925523 0.016978297 0.007866105 -0.037634365 -0.0250218
-0.04430126 -0.034333408 0.08363492 -0.010587333 0.05916679 0.032288946 -0.05406493 -0.0014301442
-0.01368895 -0.020422863 0.076522246 -0.08014612 -0.07042769 0.046308756 -0.07453308 0.016488342
-0.003512769 0.00554195 -0.05325719 -0.046193033 0.07547985 0.057179887 0.06793221 -0.049142875
-0.011406555 0.05659208 0.056091014 0.008180602 0.055742297 0.040130757 -0.011479492 -0.054740317
-0.034964234 -0.07428235 0.044834074 -0.029942317 -0.040524777 0.026047412 -0.048214857 0.0632392
0.04338554 -0.026579536 0.06261689 0.029744972 -0.07940516 -0.06282795 0.04170157 0.050910536
0.08157062 0.018860672 -0.05674814 -0.062296208 -0.07377282 0.030530844 -0.027966661 0.020596964
0.031527516 -0.056915086 0.014797939 -0.075313546 0.08038419 -0.057542663 -0.023775972 -0.011130487
-0.06873085 -0.028941832 -0.0044075847 -0.031818647 0.06642805 -0.023359839 -0.07977382 -0.07569185
-0.0066805086 -0.0075228503 -0.010983736 -0.03202171 -0.08455745 -0.08108397 0.069825076 0.05857382
-0.09594231 0.03651725 0.060524434 0.06554783 0.041122936 -0.070648864 0.0045093996 -0.07859829
0.07062081 0.08492345 0.008852702 0.038033277 -0.045682386 0.012263548 -0.08915133 -0.06743544
0.07643931 -0.07901604 0.02508374 0.022759393 0.0050588767 -0.08580864 -0.007132453 -0.053833105
0.071391195 -0.085634954 0.04017156 0.0042915028 -0.00023635723 0.056351285 0.030761342 -0.03676646
0.06702941 -0.007667801 0.048003938 -0.04609538 0.052524753 -0.057464328 -0.08696622 -0.01775051
0.0836795 -0.06374551 -0.058283206 -0.06819917 0.04391815 -0.037775967 0.020368716 -0.026370145
0.087136075 -0.04411782 0.051416572 0.014599895 0.07185046 0.07376976 0.08269468 -0.068017505
-0.07015341 -0.06840736 -0.046000656 0.0392964 -0.013138881 0.047847465 -0.04622954 0.001740702
0.020103004 -0.013694573 0.054704003 0.042588416 0.071845025 0.03376258 -0.067703955 -0.07976399
-0.048561703 0.067541726 -0.0024449066 -0.013940897 0.022565778 -0.04383316 -0.08755515 -0.03105208
0.011631095 0.06980573 0.034668177 0.07680624 0.008725808 0.05010313 -0.08363926 -0.08017576
0.02115815 -0.0007667706 0.09083214 -0.07422785 0.011304972 0.07541792 -0.023227148 0.08920669
0.076374926 0.018614728 0.087309904 -0.037534 -0.028427558 -0.08032003 -0.059048977 0.0397654
0.08443896 -0.009725609 -0.054733153 -0.059878673 -0.026816865 0.02793548 0.05417328 0.0772277
-0.017770313 -0.07857078 0.06181773 0.079771996 0.074565545 -0.010630199 0.015780875 -0.066903375
0.019550683 -0.012189513 -0.038877457 0.05221773 0.078803204 -0.03251758 -0.045064922 0.018184751
-0.0388942 -0.0033522772 0.034428827 -0.018873405 0.06580574 -0.048973195 -0.05515976 0.08317233
-0.0487329 0.041333623 0.018324524 -0.056204196 -0.0153703885 0.052776575 0.02563434 0.055245508
-0.008049322 -0.022264587 0.042068254 0.03262919 0.07812135 -0.0028134587 -0.010394091 0.023133041
0.009275216 -0.010758489 0.018223187 0.08584585 0.061224293 -0.016072795 -0.008033752 0.06106367
0.0014602247 -0.04324824 0.06906547 0.021186765 -0.03473169 0.020572305 -0.036386374 -0.053129718
00000000: dde1 673d 7b66 b4bd 64b9 2e3c b0d5 8d3d
00000010: 1216 8b3c d6e0 003c 7e26 1abd 85fa ccbc
00000020: 3d75 35bd 30a1 0cbd c948 ab3d 7e76 2dbc
00000030: e058 723d 6a41 043d 3073 5dbd ad73 bbba
00000040: 9e47 60bc d94d a7bc b2b7 9c3d a623 a4bd
00000050: 653c 90bd 40ae 3d3d cda4 98bd 8f12 873c
00000060: 7c36 66bb 3f99 b53b 3624 5abd e834 3dbd
00000070: 2e95 9a3d 7535 6a3d 0b20 8b3d 0a4a 49bd
00000080: 8fe2 3abc 19cd 673d b1bf 653d ef07 063c
00000090: 0952 643d 2660 243d 7b14 3cbc 6237 60bd
000000a0: a836 0fbd 5821 98bd efa3 373d 9749 f5bc
000000b0: 4ffd 25bd 6261 d53c f17c 45bd 8e83 813d
000000c0: 09b5 313d 54bd d9bc 493d 803d baab f33c
000000d0: 2c9f a2bd f1ab 80bd 44cf 2a3d 9187 503d
000000e0: 7f0e a73d b281 9a3c bd70 68bd 4f2a 7fbd
000000f0: 3416 97bd d21b fa3c 571a e5bc f7ba a83c
00000100: ff22 013d cb1f 69bd 0e73 723c fd3d 9abd
00000110: 77a0 a43d dbb1 6bbd d4c5 c2bc a55c 36bc
00000120: c3c2 8cbd 6c17 edbc 806d 90bb 4554 02bd
00000130: 6e0b 883d 225d bfbc 7560 a3bd 5404 9bbd
00000140: 2be8 dabb 3e82 f6bb 21f5 33bc 3229 03bd
00000150: 752c adbd 5a0f a6bd 7300 8f3d 1aeb 6f3d
00000160: 677d c4bd 1d93 153d 78e8 773d f13d 863d
00000170: 8670 283d 5ab0 90bd 96c3 933b 24f8 a0bd
00000180: a5a1 903d 59ec ad3d ec0a 113c c8c8 1b3d
00000190: 741d 3bbd 0ced 483c f994 b6bd 981b 8abd
000001a0: 378c 9c3d 29d3 a1bd 6a7c cd3c e871 ba3c
000001b0: efc4 a53b 71bc afbd 5ab7 e9bb 1a80 5cbd
000001c0: 8c35 923d 6161 afbd ef8a 243d bc9f 8c3b
000001d0: a9d6 77b9 9bd0 663d 36ff fb3c 6d98 16bd
000001e0: b746 893d 2d42 fbbb c79f 443d 82ce 3cbd
000001f0: 3224 573d b75f 6bbd 581b b2bd 8469 91bc
00000200: 2860 ab3d 028d 82bd 5fba 6ebd 02ac 8bbd
00000210: 85e3 333d f9ba 1abd 4bdc a63c 3406 d8bc
00000220: 6674 b23d e3b4 34bd 2f9a 523d 6634 6f3c
00000230: 5526 933d 9a14 973d d45b a93d c34c 8bbd
00000240: 97ac 8fbd 2819 8cbd 2f6b 3cbd 43f5 203d
00000250: 7644 57bc b4fb 433d 305b 3dbd 4428 e43a
00000260: 0eaf a43c 345f 60bc 4e11 603d 3171 2e3d
00000270: 7c23 933d a24a 0a3d 5fa8 8abd 4e5b a3bd
00000280: a3e8 46bd 5153 8a3d ba3a 20bb 5c68 64bc
00000290: dedb b83c 668a 33bd 1d50 b3bd ef60 febc
000002a0: 5990 3e3c 4ef6 8e3d 3800 0e3d 974c 9d3d
000002b0: b1f6 0e3c f138 4d3d 0f4b abbd 3033 a4bd
000002c0: db53 ad3c 1b01 49ba 3306 ba3d c504 98bd
000002d0: 7d38 393c b674 9a3d dc46 bebc ffb1 b63d
000002e0: 756a 9c3d ea7d 983c 89cf b23d 40bd 19bd
000002f0: e9e0 e8bc d47e a4bd 57dd 71bd 0be1 223d
00000300: 55ee ac3d 2958 1fbc df2f 60bd 5743 75bd
00000310: 0baf dbbc f3d8 e43c cde4 5d3d 8e29 9e3d
00000320: 0c93 91bc b8e9 a0bd 9734 7d3d 805f a33d
00000330: d2b5 983d 492a 2ebc e546 813c a304 89bd
00000340: c128 a03c 86b6 47bc f83d 1fbd 42e2 553d
00000350: 9363 a13d 2731 05bd ff95 38bd 30f8 943c
00000360: 864f 1fbd e1b1 5bbb 3e05 0d3d 669c 9abc
00000370: 29c5 863d 1e98 48bd 33ef 61bd 4156 aa3d
00000380: 269c 47bd 724d 293d 501d 963c 5f36 66bd
00000390: 15d4 7bbc 402c 583d 1bff d13c 1d49 623d
000003a0: 4ee1 03bc 3964 b6bc c34f 2c3d 2fa6 053d
000003b0: 16fe 9f3d 0162 38bb fa4b 2abc 8181 bd3c
000003c0: 13f7 173c 6044 30bc cb48 953c f3cf af3d
000003d0: 53c6 7a3d 18ab 83bc 00a0 03bc e61d 7a3d
000003e0: 0365 bf3a 1125 31bd 3272 8d3d de8f ad3c
000003f0: d142 0ebd 4087 a83c e109 15bd 8c9e 59bd

fc1.bias f4 [64]
-0.085554205 -0.037190884 0.049727246 0.0042040646 -0.026278049 0.044705573 0.023809519 0.004854931
0.010630592 0.030968083 -0.049901668 -0.07867241 0.023949139 -0.040466618 0.0104588345 -0.062439978
0.005492635 -0.026624119 -0.05080151 -0.0013442799 -0.08080604 -0.045306817 0.039163094 0.009902358
-0.022070415 0.0493283 0.017608404 0.013485745 -0.002425477 -0.067605436 -0.042659108 -0.006401442
0.02722644 -0.06399023 0.02358196 0.076185815 0.053543445 0.0155694885 -0.03153231 -0.053754583
-0.07002193 -0.0149788335 0.04804634 -0.08481568 0.046985395 -0.026328156 0.045357984 0.0002785921
-0.0720834 -0.025198946 0.0825348 -0.0736986 -0.06358558 -0.04958745 0.007417624 -0.066868365
0.06221182 -0.07207738 -0.0027653114 -0.0073107225 0.0010476984 0.024278589 0.075269476 -0.006642834
00000000: 0b37 afbd 7855 18bd ccae 4b3d 40c2 893b
00000010: 1045 d7bc 311d 373d 2e0c c33c 1d16 9f3b
00000020: ef2b 2e3c c7b0 fd3c b165 4cbd 001f a1bd
00000030: fc30 c43c 53c0 25bd 885b 2b3c 10c1 7fbd
00000040: 90fb b33b d31a dabc 3f15 50bd 8c32 b0ba
00000050: a37d a5bd a493 39bd 7b69 203d 803d 223c
00000060: 04cd b4bc 790c 4a3d 803f 903c 50f3 5c3c
00000070: c0f4 1ebb b874 8abd 51bb 2ebd 30c3 d1bb
00000080: fc09 df3c 4f0d 83bd f42e c13c 4f07 9c3d
00000090: 5f50 5b3d 2b17 7f3c 0628 01bd c42d 5cbd
000000a0: a867 8fbd c869 75bc 3dcc 443d d8b3 adbd
000000b0: c273 403d 25ae d7bc 4bc9 393d 0010 9239
000000c0: 76a0 93bd 056e cebc 0108 a93d 4bef 96bd
000000d0: 2839 82bd 361c 4bbd 8a0f f33b 48f2 88bd
000000e0: d2d1 7e3d 4e9d 93bd 3a3a 35bb c98e efbb
000000f0: ed52 893a e4e3 c63c e226 9a3d 21ac d9bb

fc2.weight f4 [1, 64]
-0.0090080155 -0.023631036 0.016205102 0.1185032 -0.018939696 -0.09879565 -0.07288136 0.07199027
0.011839745 -0.058056686 0.038598858 -0.030098602 0.035569 -0.072850324 -0.027640432 -0.09753528
-0.036732487 -0.0769867 0.12376143 -0.027973019 -0.026183086 0.06577633 0.07351764 -0.027849302
0.08364542 0.028958324 -0.044485077 0.055149272 -0.019165516 0.033905886 -0.08211046 -0.11210813
-0.00043551624 -0.111734934 0.02146104 -0.007732681 -0.06466309 -0.007045097 -0.021823606 0.11070416
0.092931494 0.076828554 -0.00707118 -0.07514489 0.018508568 0.041434444 0.035670348 -0.0053008944
0.0663547 0.111980826 -0.080866046 -0.036021903 -0.02503796 0.025175989 -0.11304233 0.008164608
-0.08845679 0.077854484 0.039309703 -0.038612183 -0.088556916 -0.056816757 -0.084105015 -0.046093136
00000000: 5b96 13bc e095 c1bc 90c0 843c ceb1 f23d
00000010: 6c27 9bbc 6055 cabd d342 95bd a26f 933d
00000020: 7dfb 413c d9cc 6dbd d619 1e3d 5891 f6bc
00000030: cdb0 113d 8d32 95bd 306e e2bc 94c0 c7bd
00000040: ce74 16bd 34ab 9dbd a276 fd3d ac27 e5bc
00000050: e97d d6bc beb5 863d 6b90 963d 3824 e4bc
00000060: 4a4e ab3d 023a ed3c fc35 36bd 34e4 613d
00000070: 0001 9dbc e6e0 0a3d 8729 a8bd f298 e5bd
00000080: 0056 e4b9 49d5 e4bd 10cf af3c 6e62 fdbb
00000090: 156e 84bd 8fda e6bb 6bc7 b2bc ddb8 e23d
000000a0: de52 be3d 4a58 9d3d 5bb5 e7bb 90e5 99bd
000000b0: 489f 973c 2ab7 293d 121b 123d 20b3 adbb
000000c0: f9e4 873d 3456 e53d 199d a5bd b48b 13bd
000000d0: 681c cdbc e03d ce3c bd82 e7bd d9c4 053c
000000e0: d528 b5bd 2c72 9f3d 3603 213d cf27 1ebd
000000f0: 545d b5bd b0b8 68bd 403f acbd 28cc 3cbd
