assets/model/phrase010_speech_model.pth (torch, 145844 bytes, 7 tensors)

conv1.weight f4 [64, 13, 3]
0.1461167 0.04934614 0.12974595 0.09538587 0.14925162 -0.16593398 -0.15288734 0.089302555
0.102117926 -0.043281753 -0.11684602 -0.10773177 -0.1537762 0.15192708 -0.032289743 -0.05600133
0.02286842 0.1111589 -0.13804172 0.06702481 -0.1191229 -0.115333624 0.026586011 0.12698822
0.06373597 -0.0013964793 0.064498715 -0.121761285 0.077431 -0.016630992 -0.024520846 0.086536504
-0.077168845 -0.061511382 0.032141536 0.056061853 -0.06382784 0.09581344 0.12165516 -0.14606135
0.13425824 -0.012340031 0.08408641 -0.16056897 0.004086556 0.021087086 0.083202764 0.14663662
-0.039307304 -0.056474086 -0.08712673 0.048651904 -0.035964046 0.13676828 -0.057535775 -0.10680272
0.09617546 0.036085438 0.028580299 -0.053377055 -0.06416451 0.055741068 -0.05504587 0.0143726645
0.05672373 -0.12720259 -0.03885796 -0.15798767 0.13702998 -0.072490476 -0.11068008 0.03366964
-0.11965174 0.13137715 -0.1377435 0.015439996 -0.044973623 0.16366209 -0.114119895 -0.08163276
0.078349605 -0.11455007 -0.048544727 0.0846006 0.034708925 -0.007720314 0.06778738 -0.019341962
0.09590198 -0.06048731 -0.03208853 0.114129625 -0.1490231 -0.1383651 0.12752786 0.1369569
-0.10592476 -0.062426694 0.061254293 -0.037173577 -0.10608836 0.106382824 0.08059058 -0.0198189
0.102593474 -0.09453004 -0.028904276 -0.14120644 -0.12066877 -0.027305257 0.028743783 -0.014371806
-0.027086604 -0.1426685 -0.042037964 0.014170493 0.1277735 0.029126821 0.11331776 0.11850218
-0.1378658 -0.15937155 0.045280337 -0.049970776 0.04572673 -0.1359969 0.16549839 -0.1417431
-0.084373645 -0.08358063 -0.01856663 -0.08629969 -0.11969922 -0.08006512 0.15659916 0.119712494
0.15168075 0.098999344 -0.121069774 0.15143669 0.06435047 0.0713095 0.058985434 0.04338099
0.07496894 0.039356217 0.06528518 -0.07450715 0.13641785 -0.054799017 0.05986209 0.09175632
0.032900084 0.04863773 -0.08372592 0.16273642 0.023660848 0.0114275655 0.11919065 0.06410298
-0.08466941 0.120555185 -0.033980995 0.03711824 0.124887325 -0.08199869 -0.11385246 -0.033440996
-0.1227935 -0.107086554 0.13533351 -0.0081453435 -0.023459349 0.041820657 0.048365332 -0.11702302
-0.090656385 -0.07242499 -0.062409017 0.08377669 -0.048080333 -0.037830595 0.15353347 -0.046669338
0.13089384 0.030137518 -0.13705811 0.047491096 -0.097220205 0.051116157 0.08738393 -0.032473262
0.031510286 -0.08713627 0.009830442 0.03088952 -0.13573073 0.053138994 -0.054622855 0.076756
-0.09156627 0.002160726 0.12393387 -0.07089252 -0.07316237 -0.15393674 -0.05561717 -0.13979155
-0.010803764 0.022758063 -0.0167434 -0.06767514 -0.036152996 0.006229336 0.048776027 0.08092678
0.045322627 -0.11687583 0.098331004 -0.06843649 0.0707725 -0.07483267 -0.07375156 0.05737282
0.053392712 -0.11976394 -0.062019587 0.11670874 0.107738554 0.019047532 -0.07499891 0.011881659
-0.03449401 0.05904727 -0.0853994 0.07978627 -0.11280111 0.08381207 -0.05095025 0.13006645
-0.11748318 -0.066456504 0.06732665 -0.041289043 -0.10017152 0.058671556 0.11771311 0.027273223
-0.04040398 -0.018938383 0.13716684 -0.044580314 -0.05214642 0.15173002 0.030571353 0.12915495
00000000: 9e9f 153e 2e1f 4a3d 1fdc 043e ab59 c33d
00000010: 6bd5 183e 99ea 29be 808e 1cbe 42e4 b63d
00000020: 3423 d13d 3548 31bd f74c efbd 79a2 dcbd
00000030: 8277 1dbe c692 1b3e 4042 04bd a761 65bd
00000040: 8e56 bb3c 47a7 e33d cf5a 0dbe 4e44 893d
00000050: b5f6 f3bd 0934 ecbd e8ca d93c 3309 023e
00000060: 0188 823d 120a b7ba e717 843d fb5d f9bd
00000070: 2594 9e3d b83d 88bc f1df c8bc 0d3a b13d
00000080: b30a 9ebd 5cf3 7bbd d8a6 033d 1da1 653d
00000090: 2cb8 82bd d639 c43d 5726 f93d 1b91 15be
000000a0: fe7a 093e d72d 4abc 7f35 ac3d 316c 24be
000000b0: 84e8 853b d3be ac3c 3666 aa3d e927 163e
000000c0: b200 21bd 5f51 67bd 806f b2bd 3847 473d
000000d0: 094f 13bd fc0c 0c3e a2aa 6bbd 62bb dabd
000000e0: a4f7 c43d 53ce 133d 3b21 ea3c e6a1 5abd
000000f0: af68 83bd bf50 643d c777 61bd 537b 6b3c
00000100: 2457 683d 6541 02be 8629 1fbd 85c7 21be
00000110: 9651 0c3e e375 94bd 3dac e2bd 2de9 093d
00000120: f90b f5bd bb87 063e a20c 0dbe 09f8 7c3c
00000130: 4336 38bd 0997 273e b1b7 e9bd 142f a7bd
00000140: c275 a03d 3a99 eabd d6d6 46bd 1443 ad3d
00000150: f22a 0e3d b0fa fcbb 1cd4 8a3d 0973 9ebc
00000160: 4268 c43d 8bc1 77bd 436f 03bd cbbc e93d
00000170: 8399 18be 95af 0dbe aa96 023e 6e3e 0c3e
00000180: 15ef d8bd 22b3 7fbd c8e5 7a3d 5243 18bd
00000190: db44 d9bd 3ddf d93d ad0c a53d 3f5b a2bc
000001a0: 871c d23d f798 c1bd a9c8 ecbc 6c98 10be
000001b0: 3021 f7bd 46af dfbc 1578 eb3c b977 6bbc
000001c0: bae4 ddbc b117 12be 0030 2cbd 5b2b 683c
000001d0: 0ed7 023e 5f9b ee3c 2413 e83d 45b1 f23d
000001e0: b12c 0dbe 4c32 23be e077 393d 28ae 4cbd
000001f0: f44b 3b3d c542 0bbe 6978 293e 1a25 11be
00000200: 17cc acbd 522c abbd 0c19 98bc e4bd b0bd
00000210: dd24 f5bd 2ef9 a3bd 885b 203e d32b f53d
00000220: 3352 1b3e 2bc0 ca3d 6ef3 f7bd 3812 1b3e
00000230: 2eca 833d b70a 923d b69a 713d 44b0 313d
00000240: 5189 993d fc33 213d 3db4 853d 3497 98bd
00000250: 1fb1 0b3e ef74 60bd f331 753d bdea bb3d
00000260: 3dc2 063d 5b38 473d 7f78 abbd 60a4 263e
00000270: 65d4 c13c af3a 3b3c 3a1a f43d 6c48 833d
00000280: 2867 adbd a3e5 f63d a82f 0bbd 4c09 183d
00000290: edc4 ff3d eeee a7bd 7b2b e9bd 6df9 08bd
000002a0: 297b fbbd 3250 dbbd de94 0a3e 0c74 05bc
000002b0: d22d c0bc 234c 2b3d ba1a 463d c4a9 efbd
000002c0: 0eaa b9bd 8e53 94bd 99a0 7fbd 1d93 ab3d
000002d0: e2ef 44bd 41f4 1abd e137 1d3e 5928 3fbd
000002e0: 0909 063e f5e2 f63c f658 0cbe 0686 423d
000002f0: 631b c7bd 2d5f 513d 59f6 b23d af02 05bd
00000300: ee10 013d 8074 b2bd dd0f 213c 050c fd3c
00000310: fffc 0abe 46a8 593d 37bc 5fbd 4032 9d3d
00000320: 1987 bbbd f89a 0d3b 0ad1 fd3d 1930 91bd
00000330: 27d6 95bd 98a1 1dbe d4ce 63bd 8425 0fbe
00000340: 4502 31bc 1e6f ba3c 7429 89bc 4499 8abd
00000350: 2a15 14bd 751f cc3b 5fc9 473d f1bc a53d
00000360: 38a4 393d 985c efbd c461 c93d 6e28 8cbd
00000370: 2cf1 903d df41 99bd 0f0b 97bd c3ff 6a3d
00000380: 51b2 5a3d cc46 f5bd 4008 7ebd fe04 ef3d
00000390: 08a6 dc3d 9209 9c3c 0799 99bd 4aab 423c
000003a0: 9749 0dbd 8ddb 713d e1e5 aebd fc66 a33d
000003b0: 4504 e7bd aaa5 ab3d 36b1 50bd 2430 053e
000003c0: 059b f0bd 591a 88bd 8ee2 893d b31e 29bd
000003d0: ba26 cdbd 9651 703d 9213 f13d 186c df3c
000003e0: a57e 25bd ab24 9bbc 7775 0c3e d999 36bd
000003f0: 7c97 55bd 1d5f 1b3e c670 fa3c 3241 043e

conv1.bias f4 [64]
-0.019262241 -0.124879606 0.11841285 0.049937025 -0.14643735 0.1526666 0.06277506 -0.14594832
0.061204482 0.13233426 0.022427738 -0.11555509 -0.07237733 -0.016278947 0.08539027 -0.07998906
-0.09480241 -0.05018389 0.014158788 0.07261723 0.00053522404 -0.13420846 0.11717334 0.09886618
-0.1600262 0.12822011 0.060892116 0.031867787 0.14264022 0.10309572 0.10682093 -0.04248548
-0.051470697 0.029659769 0.1058797 0.00069453486 0.12723486 0.14866093 -0.07813521 -0.10647112
-0.02598161 -0.06344082 0.12751943 0.10105153 -0.1279285 -0.0995191 -0.12882067 -0.08248908
0.15214142 -0.14930135 -0.025632048 -0.14490698 0.03895669 0.11223856 -0.12158257 -0.15279634
-0.021806663 0.070345856 -0.013990651 -0.15665905 -0.15325263 -0.13578948 0.12381763 -0.069678746
00000000: d9cb 9dbc e1c0 ffbd 7082 f23d c48a 4c3d
00000010: acf3 15be a254 1c3e 3690 803d 7a73 15be
00000020: 8db1 7a3d a282 073e 60ba b73c 26a8 ecbd
00000030: 913a 94bd 6d5b 85bc 18e1 ae3d 4ed1 a3bd
00000040: c427 c2bd 9f8d 4dbd 43fa 673c 58b8 943d
00000050: 474e 0c3a f16d 09be 93f8 ef3d 5a7a ca3d
00000060: e8dd 23be 224c 033e 036a 793d cc87 023d
00000070: 4710 123e d923 d33d efc4 da3d 4105 2ebd
00000080: f0d2 52bd 0bf9 f23c 75d7 d83d 7211 363a
00000090: db49 023e 923a 183e 5a05 a0bd 880d dabd
000000a0: 63d7 d4bc 43ed 81bd 7494 023e 1bf4 ce3d
000000b0: b0ff 02be abd0 cbbd 91e9 03be 09f0 a8bd
000000c0: f6ca 1b3e 74e2 18be 4dfa d1bc 7f62 14be
000000d0: 0d91 1f3d 55dd e53d 4800 f9bd a576 1cbe
000000e0: e3a3 b2bc 7d11 903d 0b39 65bc 3b6b 20be
000000f0: 42ee 1cbe 660c 0bbe 1994 fd3d bbb3 8ebd

conv2.weight f4 [128, 64, 3]
-0.008389751 0.051444657 -0.01224347 0.05677826 -0.070278354 -0.050107285 0.043758173 0.014488505
-0.039390426 0.058771003 0.02145023 0.048055265 -0.046652388 0.05980193 -0.0073264893 0.026307035
0.052495472 0.043970753 -0.052365985 0.05457093 0.029951086 -0.015305511 -0.066891044 -0.013365801
-0.0662599 0.009276678 -0.050048128 -0.041188303 0.030068135 -0.019863363 0.04049065 0.049136356
-0.020338269 -0.008669075 -0.008522333 -0.04233092 -0.028529871 -0.0011231601 -0.02496722 0.053686026
0.061312925 0.021499088 0.03413244 -0.045724925 0.019077243 -0.030592049 -0.07228312 0.043125182
0.0025398768 0.069085516 -0.053060632 -0.012432613 -0.030748125 0.030491428 -0.0404445 -0.02553214
0.01369158 0.04699346 -0.042969882 -0.030862657 0.03495842 -0.04202534 -0.046308447 -0.022197952
-0.06223755 -0.042097643 -0.03144525 -0.07124628 -0.054978136 0.07426286 0.050547823 -0.012365108
0.013118602 -0.052425947 0.041590694 -0.0692005 -0.031927444 -0.052862044 -0.011002757 0.0036086736
-0.05995474 0.061175648 -0.0589032 -0.05327272 -0.019082714 -0.038693734 0.059627693 -0.040416554
-0.009058173 -0.04033764 0.046111114 0.05082197 0.04961265 0.010490722 0.059129756 -0.06082352
-0.05012351 0.0015456153 -0.035660334 0.051997907 0.021869652 -0.035379376 0.011373662 -1.7427148e-05
-0.008242481 0.018036144 0.05699961 -0.06489705 -0.0067778737 -0.04602568 -0.052626554 0.037254617
0.05530916 0.055868026 0.024202697 0.030156277 0.06926967 0.056119166 0.019454438 -0.0023156847
0.040501427 -0.03450399 -0.05528311 -0.06008274 -0.03251313 0.046521585 -0.020993482 0.06918686
0.022525208 -0.059715785 0.029291047 -0.036288176 -0.045529176 0.055002585 0.015632978 0.005353307
0.0012488728 -0.009580881 -0.006291669 0.03835585 0.056142125 -0.07047815 -0.0023827583 0.034633406
-0.042697202 -0.0031844496 0.06764084 0.07039764 -0.044423245 0.005100668 -0.047925178 0.061883356
-0.06558423 -0.06084956 -0.030809663 -0.064931445 -0.04834325 -0.0044499547 -0.020597056 0.061769992
0.012151805 0.034098595 -0.027231356 0.00961474 0.022984276 0.032039575 -0.0528896 0.06132693
-0.012534661 0.047405973 -0.052020952 -0.05298113 -0.06013319 -0.0014720703 -0.0043115737 -0.026786506
-0.039066248 -0.008667189 0.0076184194 -0.026668185 0.06895715 0.029535089 -0.042497925 0.013058603
0.031454597 0.012134097 -0.009715601 0.012886862 0.048075248 -0.060978655 -0.0691023 0.057018567
0.06859296 0.04222144 -0.054582 0.015002905 -0.06890638 -0.04022646 0.019111512 -0.032737084
-0.026506336 0.06306583 -0.03910393 0.05863048 -0.07409985 0.02822051 -0.06427296 0.035236675
0.065836206 -0.07231309 0.0009416665 -0.06883733 -0.0337293 -0.013406065 -0.06918902 -0.057540912
-0.019162383 0.029837703 -0.0051596714 0.06879464 -0.062719814 0.039746813 0.037969206 0.07035592
0.027132917 0.038992804 0.027070599 0.037435807 -0.018276118 0.047168456 -0.04323665 0.06903328
0.06805763 -0.07007031 0.06282315 -0.07054008 -0.018289112 0.05760667 -0.012247171 0.052639164
0.041939363 0.06799458 -0.047920804 -0.06497155 0.019798025 0.014720106 -0.069820024 0.0074636275
-0.049788654 -0.0066127013 -0.016423943 0.048581194 0.01295498 -0.070574254 0.0343921 -0.013483147
00000000: 2b75 09bc a2b7 523d d698 48bc 5290 683d
00000010: 19ee 8fbd 4c3d 4dbd c53b 333d 3261 6d3c
00000020: db57 21bd ddb9 703d 65b8 af3c 99d5 443d
00000030: 9316 3fbd def2 743d 0c13 f0bb da81 d73c
00000040: 7e05 573d ad1a 343d b77d 56bd c485 5f3d
00000050: fb5b f53c f7c3 7abc 2cfe 88bd 3cfc 5abc
00000060: 45b3 87bd 35fd 173c 44ff 4cbd 11b5 28bd
00000070: 7351 f63c 7eb8 a2bc 86d9 253d 3443 493d
00000080: 719c a6bc bc08 0ebc 41a1 0bbc 3063 2dbd
00000090: 7ab7 e9bc 0037 93ba 0e88 ccbc e1e5 5b3d
000000a0: 4323 7b3d db1e b03c 75ce 0b3d 0f4a 3bbd
000000b0: e147 9c3c 2d9c fabc 2c09 94bd 08a4 303d
000000c0: 1074 263b b57c 8d3d 1b56 59bd 29b2 4bbc
000000d0: 7ee3 fbbc 29c9 f93c 22a9 25bd c728 d1bc
000000e0: a652 603c 377c 403d 3001 30bd afd3 fcbc
000000f0: 8f30 0f3d c322 2cbd edad 3dbd 7bd8 b5bc
00000100: cdec 7ebd 946e 2cbd bccc 00bd 92e9 91bd
00000110: c130 61bd 2017 983d 3c0b 4f3d 0697 4abc
00000120: 68ef 563c 97bc 56bd 015b 2a3d feb8 8dbd
00000130: 5ac6 02bd df85 58bd e844 34bc 7f7f 6c3b
00000140: 1a93 75bd 5193 7a3d 7b44 71bd 7f34 5abd
00000150: 5a53 9cbc 527d 1ebd 2b3c 743d d48b 25bd
00000160: bb68 14bc 1539 25bd 02df 3c3d b32a 503d
00000170: a236 4b3d 47e1 2b3c 0b32 723d 1522 79bd
00000180: 4f4e 4dbd 3e96 ca3a 9210 12bd c2fb 543d
00000190: fc27 b33c f7e9 10bd 9958 3a3c 8430 92b7
000001a0: 790b 07bc 89c0 933c 6c78 693d bfe8 84bd
000001b0: ed18 debb 6c85 3cbd f18e 57bd 4c98 183d
000001c0: dc8b 623d dfd5 643d bc44 c63c 4c0a f73c
000001d0: 42dd 8d3d 36dd 653d ea5e 9f3c bec2 17bb
000001e0: d3e4 253d 0e54 0dbd 8b70 62bd 5219 76bd
000001f0: 7d2c 05bd 6b8d 3e3d 86fa abbc d7b1 8d3d
00000200: c986 b83c 8a98 74bd c7f3 ef3c e9a2 14bd
00000210: cd7c 3abd 644a 613d bb10 803c cb6a af3b
00000220: 38b1 a33a 21f9 1cbc 582a cebb 061b 1d3d
00000230: 49f5 653d d956 90bd 0d28 1cbb c2db 0d3d
00000240: 43e3 2ebd 33b2 50bb 4887 8a3d a32c 903d
00000250: 26f5 35bd 8123 a73b 314d 44bd 6779 7d3d
00000260: 0651 86bd 633d 79bd 8c64 fcbc c7fa 84bd
00000270: 9203 46bd edd0 91bb 28bb a8bc 8802 7d3d
00000280: 5d18 473c f8aa 0b3d 4b14 dfbc 2487 1d3c
00000290: 8549 bc3c ee3b 033d c4a2 58bd f231 7b3d
000002a0: 2e5e 4dbc c42c 423d ec13 55bd be02 59bd
000002b0: 384e 76bd 7cf2 c0ba 1a48 8dbb 606f dbbc
000002c0: ee03 20bd d300 0ebc efa3 f93b 3d77 dabc
000002d0: 6839 8d3d 92f3 f13c 4e12 2ebd c0f3 553c
000002e0: 89d6 003d 17ce 463c 2f2e 1fbc 6b23 533c
000002f0: 8dea 443d c1c4 79bd 8285 8dbd 4d8c 693d
00000300: 777a 8c3d 63f0 2c3d 6091 5fbd bfce 753c
00000310: ca1e 8dbd 80c4 24bd bf8f 9c3c 5217 06bd
00000320: d123 d9bc a828 813d 712b 20bd 8426 703d
00000330: aac1 97bd b32e e73c 8ba1 83bd 5554 103d
00000340: 22d5 863d e318 94bd 2bda 763a 96fa 8cbd
00000350: bc27 0abd 1da5 5bbc f9b2 8dbd 05b0 6bbd
00000360: 6efa 9cbc 336e f43c 7612 a9bb 34e4 8c3d
00000370: 3f73 80bd 8ecd 223d 9985 1b3d c416 903d
00000380: da45 de3c ebb6 1f3d 29c3 dd3c 4a56 193d
00000390: ccb7 95bc b633 413d ea18 31bd 5261 8d3d
000003a0: cc61 8b3d 0681 8fbd 6ca9 803d 5177 90bd
000003b0: 0cd3 95bc f9f4 6b3d 5ca8 48bc 2a9c 573d
000003c0: 9cc8 2b3d be40 8b3d 9b48 44bd ce0f 85bd
000003d0: 782f a23c 992c 713c cdfd 8ebd 7291 f43b
000003e0: 30ef 4bbd 5caf d8bb 818b 86bc 13fd 463d
000003f0: 2041 543c 3c89 90bd bbde 0c3d 6be8 5cbc

conv2.bias f4 [128]
0.03638147 0.021117939 -0.055047885 -0.058062997 -0.020669451 -0.00093964016 -0.038634118 -0.02831337
0.00847491 -0.072933644 0.033220045 0.027856087 -0.00023071837 0.014332861 -0.060742296 0.012096657
0.0027519031 -0.04808537 0.025765773 0.004455343 -0.04403856 0.063683264 -0.03531423 -0.011151719
0.017195245 0.04810244 -0.06901661 -0.043552138 0.021183925 0.066866644 -0.029964542 0.031778187
-0.03440801 0.058038753 0.017484523 -0.046543375 0.015701916 -0.0052426183 -0.027023215 -0.05168025
-0.005023645 0.025610104 -0.046189737 0.01216646 0.02596242 0.060764175 0.020141896 0.062856816
0.01596697 -0.051250726 0.022116667 0.0044332915 -0.057056915 0.069665045 -0.07771814 -0.022690004
0.07087152 -0.07179199 0.05826816 -0.01658273 0.044737894 0.00951142 -0.010552517 0.055904895
-0.057050936 -0.03869743 -0.025113678 -0.04590814 0.059413757 -0.031491913 -0.049939267 0.066125564
0.009974933 -0.01790303 0.014899305 0.033814717 0.04011162 -0.03561713 0.048241325 -0.001741135
0.014159892 0.04046154 0.044016376 -0.01746441 0.027826112 0.05745552 0.04314153 0.024481107
-0.022866737 0.048382293 -0.01553591 0.050019342 0.02956525 0.00715866 -0.027555332 -0.033486858
-0.030954707 -0.04935933 0.016093431 -0.014939258 0.020977631 -0.063855834 0.009818175 -0.053496595
-0.043760102 0.024446793 -0.04300114 0.048385933 -0.011615052 -0.058707684 -0.065254726 0.004089384
-0.057519045 -0.006087812 0.023021823 0.059255946 0.03884635 -0.07645603 -0.018538259 -0.01906743
0.020827515 0.021508943 -0.018528584 -0.016279778 -0.067630276 0.0423849 -0.027344992 0.021109505
00000000: bc04 153d 87ff ac3c e479 61bd 77d3 6dbd
00000010: fb52 a9bc 2f52 76ba cf3e 1ebd 71f1 e7bc
00000020: 59da 0a3c 3c5e 95bd be11 083d 7332 e43c
00000030: feec 71b9 60d4 6a3c eacc 78bd 0f31 463c
00000040: 4659 343b 2af5 44bd be12 d33c 20fe 913b
00000050: c761 34bd 5f6c 823d a7a5 10bd b3b5 36bc
00000060: 0bdd 8c3c 1007 453d 9558 8dbd ba63 32bd
00000070: e989 ad3c 61f1 883d 3378 f5bc d829 023d
00000080: 6aef 0cbd 0bba 6d3d b43b 8f3c 44a4 3ebd
00000090: 4ea1 803c 45ca abbb ca5f ddbc abae 53bd
000000a0: 639d a4bb 48cc d13c 7331 3dbd d555 473c
000000b0: 24af d43c dbe3 783d 9e00 a53c 13bb 803d
000000c0: 2acd 823c 48ec 51bd 032e b53c 2545 913b
000000d0: 83b4 69bd 8cac 8e3d b02a 9fbd 63e0 b9bc
000000e0: 1625 913d ae07 93bd 98aa 6e3d 81d8 87bc
000000f0: 153f 373d c9d5 1b3c 77e4 2cbc 88fc 643d
00000100: 3eae 69bd 3281 1ebd 33bb cdbc 2c0a 3cbd
00000110: d75b 733d aafd 00bd 1e8d 4cbd d76c 873d
00000120: e76d 233c 60a9 92bc 371c 743c 4d81 0a3d
00000130: 154c 243d 45e3 11bd b298 453d cc36 e4ba
00000140: e4fe 673c 00bb 253d 844a 343d 8611 8fbc
00000150: 96f3 e33c 7b56 6b3d 2cb5 303d 9a8c c83c
00000160: 0653 bbbc 832c 463d 548a 7ebc 15e1 4c3d
00000170: d332 f23c 3193 ea3b b8bb e1bc 8429 09bd
00000180: ba94 fdbc 022d 4abd 5fd6 833c cac3 74bc
00000190: 48d9 ab3c d9c6 82bd 69dc 203c 3f1f 5bbd
000001a0: cb3d 33bd a444 c83c f721 30bd 5430 463d
000001b0: 0f4d 3ebc 7877 70bd 45a4 85bd 3d00 863b
000001c0: 1799 6bbd 457c c7bb 4398 bc3c 5db6 723d
000001d0: 5a1d 1f3d fb94 9cbd 8cdd 97bc 4d33 9cbc
000001e0: 779e aa3c 8633 b03c 42c9 97bc 2b5d 85bc
000001f0: be81 8abd ca9b 2d3d 9b02 e0bc d7ed ac3c

fc1.weight f4 [64, 128]
-0.058863066 0.08718126 -0.04880799 -0.01611077 0.011019997 -0.07988308 0.08247561 0.0048570633
-0.08610147 0.045285873 0.019623838 0.05242645 -0.008088887 0.034771085 0.08053281 0.020389065
0.027165532 0.0023932755 -0.079587065 0.025455296 -0.06547034 0.076938115 -0.050274268 -0.035429113
0.018963963 -0.022976376 0.040167935 -0.07451197 0.019480802 0.07646494 0.017335944 0.00034623593
-0.07476675 -0.04431584 -0.027579654 0.02580373 0.061197944 -0.025771357 -0.060451053 -0.04495642
0.03916111 0.011997111 -0.03030724 -0.055366006 0.08661584 -0.076097555 -0.05198094 0.0262338
0.049355216 0.08738119 0.035546325 -0.013115048 0.038342275 0.04533095 0.035248935 -0.048463207
0.026812457 0.06928628 0.048255436 0.041442357 -0.0775121 0.08586546 0.03524188 -0.0066427737
-0.023410127 0.009661354 0.007956997 -0.02874842 -0.033103157 0.083528616 0.03140393 -0.0073227957
-0.0873124 -0.087098196 0.024763495 0.05133631 0.0064181834 0.07700751 -0.049316943 0.026181825
-0.062683195 0.077422164 -0.009191804 0.025797792 0.034523115 -0.019200325 -0.007343121 -0.06718621
0.028676875 0.074786566 -0.07553204 -0.07071426 0.069519125 -0.019285113 0.037630968 -0.07692673
-0.016259052 0.074276455 0.04201352 -0.073688135 -0.006524816 -0.067966685 0.062256075 0.02328705
-0.017586432 -0.086269885 -0.07878435 0.08719487 -0.01746814 -0.079443365 -0.07531923 0.038500033
0.062187172 0.07685477 -0.011473857 -0.0751231 0.06616568 -0.05243641 0.046168335 0.0069898516
0.086975925 -0.07791554 -0.02899877 -0.025610775 0.054687016 0.03058073 -0.08008357 0.036079176
0.023883594 0.05397603 0.026292691 -0.06005237 -0.023522591 -0.0114861475 -0.029014168 0.036360268
-0.04591093 -0.009212942 -0.011106046 0.07218379 -0.051701903 0.015389333 0.012227797 0.045472704
-0.048757695 -0.034519043 -0.06253082 -0.0757662 0.002641623 0.05813223 -0.06305861 0.0067948257
-0.015468963 -0.049697954 0.07050768 0.03373777 0.05968029 -0.0706038 0.045255657 -0.06778404
-0.0005176034 -0.030677332 0.06357243 -0.034126356 -0.024803398 0.041920286 0.0706383 0.037028033
0.005815023 -0.040294163 -0.038082395 -0.055729963 0.073665835 -0.04960686 0.07859505 0.0079235295
0.047445953 -0.035766605 0.053287953 -0.039720867 0.079778664 -0.06594353 -0.084425956 0.057301342
0.03653632 -0.02748355 0.027507257 0.029332668 0.042449106 0.00052527577 0.013345709 0.030565843
-0.04004949 0.04212658 -0.0040907604 -0.009283515 -0.022644663 0.0041437726 -0.073560715 0.06609251
-0.06717059 -0.010451303 0.053359948 -0.0070867543 0.0067467694 0.06497786 0.012334954 0.07154186
0.06783698 -0.06633382 0.044649374 -0.05668034 -0.09429441 0.07326527 -0.013349779 0.031682797
-0.08048148 -0.05132172 -0.082272545 0.0152744735 -0.07229404 -0.031311158 0.06970559 0.024929961
0.024899067 -0.0096003115 -0.015630007 -0.049167477 -0.027575027 -0.08389191 0.021810628 -0.056761388
-0.0666949 -0.022883374 -0.025345962 -0.08737308 -0.05371327 0.007843568 0.024087582 0.05812408
-0.06744977 0.018381234 -0.024714505 -0.037160993 -0.00308241 0.041283805 0.008193712 -0.07399902
-0.02926523 -0.079925776 -0.051161192 -0.060537495 -0.021130808 -0.026846824 0.025182456 0.08724994
00000000: 661a 71bd 178c b23d e3ea 47bd bcfa 83bc
00000010: 388d 343c be99 a3bd f9e8 a83d 0028 9f3b
00000020: f855 b0bd ae7d 393d 2cc2 a03c 1ebd 563d
00000030: 4087 04bc 206c 0e3d 63ee a43d f806 a73c
00000040: 408a de3c 80d8 1c3b 8bfe a2bd a087 d03c
00000050: 5015 86bd bb91 9d3d 64ec 4dbd 1e1e 11bd
00000060: 505a 9b3c f438 bcbc 2287 243d bb99 98bd
00000070: 3496 9f3c a799 9c3d 1c04 8e3c 0087 b539
00000080: 4f1f 99bd 8784 35bd baee e1bc 5862 d33c
00000090: b2aa 7a3d 741e d3bc 869b 77bd 3924 38bd
000000a0: 6667 203d 888f 443c e446 f8bc 77c7 62bd
000000b0: a563 b13d 09d9 9bbd f7e9 54bd 44e8 d63c
000000c0: b228 4a3d e9f4 b23d 0699 113d 80e0 56bc
000000d0: ca0c 1d3d f2ac 393d 3061 103d 5b81 46bd
000000e0: cca5 db3c f7e5 8d3d 7ea7 453d 76bf 293d
000000f0: aabe 9ebd 3bda af3d ca59 103d a0ab d9bb
00000100: 98c6 bfbc a84a 1e3c 105e 023c ce81 ebbc
00000110: 2d97 07bd 0d11 ab3d 68a1 003d 10f4 efbb
00000120: d8d0 b2bd 8a60 b2bd d0dc ca3c 0646 523d
00000130: a04f d23b 1db6 9d3d 9000 4abd 447b d63c
00000140: 0c60 80bd 838f 9e3d 3899 16bc e455 d33c
00000150: 1c68 0d3d 004a 9dbc 909e f0bb ec98 89bd
00000160: c4eb ea3c b329 993d 8bb0 9abd a3d2 90bd
00000170: 0b60 8e3d d0fb 9dbc ee22 1a3d c38b 9dbd
00000180: b431 85bc 411e 983d 5e16 2c3d cee9 96bd
00000190: 20ce d5bb 1e32 8bbd 3a00 7f3d 7cc4 be3c
000001a0: 6c11 90bc 44ae b0bd b059 a1bd 3993 b23d
000001b0: 5819 8fbc 34b3 a2bd f840 9abd 36b2 1d3d
000001c0: fab7 7e3d 0966 9d3d d8fc 3bbc 24da 99bd
000001d0: df81 873d 90c7 56bd 021b 3d3d 200b e53b
000001e0: 6f20 b23d 2f92 9fbd d48e edbc b0cd d1bc
000001f0: 7eff 5f3d 7084 fa3c db02 a4bd c2c7 133d
00000200: 87a7 c33c f815 5d3d c563 d73c 79f9 75bd
00000210: 73b2 c0bc 6530 3cbc 1faf edbc 81ee 143d
00000220: 190d 3cbd e1f1 16bc 22f6 35bc 18d5 933d
00000230: 60c5 53bd 8a23 7c3c 1957 483c 9641 3a3d
00000240: 26b6 47bd d763 0dbd 2910 80bd 4f2b 9bbd
00000250: 141f 2d3b 101c 6e3d df24 81bd 21a7 de3b
00000260: 8971 7dbc 1590 4bbd 5566 903d 9e30 0a3d
00000270: 5273 743d ba98 90bd ff5d 393d 5cd2 8abd
00000280: c7af 07ba 074f fbbc 4332 823d 14c8 0bbd
00000290: 7f30 cbbc 9bb4 2b3d d0aa 903d b5aa 173d
000002a0: f38b be3b 7e0b 25bd 49fc 1bbd 1a45 64bd
000002b0: 1dde 963d 9030 4bbd 71f6 a03d b1d1 013c
000002c0: b056 423d 0180 12bd 7844 5a3d 59b2 22bd
000002d0: ff62 a33d 670d 87bd 84e7 acbd d0b4 6a3d
000002e0: 1ca7 153d 2f25 e1bc e656 e13c 104b f03c
000002f0: 1ddf 2d3d a9b2 093a f6a7 5a3c 3865 fa3c
00000300: ef0a 24bd ec8c 2c3d c90b 86bb e219 18bc
00000310: 4d81 b9bc 7cc8 873b 00a7 96bd 835b 873d
00000320: bc90 89bd f13b 2bbc f68f 5a3d 0138 e8bb
00000330: 0114 dd3b 1d13 853d 8c18 4a3c 8a84 923d
00000340: 1dee 8a3d 07da 87bd 43e2 363d a529 68bd
00000350: 6d1d c1bd 1a0c 963d 08b9 5abc d2c5 013d
00000360: 79d3 a4bd b936 52bd 827e a8bd c941 7a3c
00000370: e60e 94bd 2140 00bd cec1 8e3d eb39 cc3c
00000380: 21f9 cb3c a04a 1dbc 800a 80bc d663 49bd
00000390: 06e5 e1bc 86cf abbd 34ac b23c a17e 68bd
000003a0: 5697 88bd ea75 bbbc 56a2 cfbc a8f0 b2bd
000003b0: 7202 5cbd 4f82 003c 5253 c53c 8413 6e3d
000003c0: 1b23 8abd 3e94 963c 1376 cabc 2036 18bd
000003d0: 4202 4abb 3519 293d eb3e 063c cc8c 97bd
000003e0: a3bd efbc 20b0 a3bd 668e 51bd 2af6 77bd
000003f0: 841a adbc dfed dbbc 704b ce3c 19b0 b23d

fc1.bias f4 [64]
0.016588517 0.061770674 0.08795882 -0.032729335 -0.07266876 0.06030574 -0.007952475 -0.01769077
-0.028780628 0.05717156 0.07699112 0.0053650006 -0.011071594 0.085517846 0.046144724 0.06529253
0.042437565 -0.041393243 -0.044697117 -0.040113922 -0.08668346 -0.0062363828 0.06925667 -0.06345935
0.018815488 -0.05893777 -0.009708577 0.04913356 0.018536203 0.0064708805 -0.040196978 0.08525313
-0.0405247 -0.067115426 -0.0010538587 -0.01714889 0.04464303 0.032893017 -0.016255662 0.027327264
-0.040002856 0.044870995 0.022314044 -0.0018691202 0.055464633 -0.06074271 -0.080034226 -0.027510986
0.0053891814 0.02366584 0.08444068 -0.04642445 0.07980563 0.026588574 0.048168205 0.058718823
0.022121035 -0.07990668 0.061909176 -0.05478237 -0.047856998 0.08810795 0.03763268 -0.083020985
00000000: a4e4 873c 3f03 7d3d c123 b43d 320f 06bd
00000010: 5cd3 94bd 2703 773d 194b 02bc 3cec 90bc
00000020: 5ac5 ebbc ba2c 6a3d 85ad 9d3d e3cc af3b
00000030: a265 35bc fb23 af3d 4002 3d3d 17b8 853d
00000040: 03d3 2d3d f68b 29bd 5314 37bd 7f4e 24bd
00000050: 1987 b1bd 925a ccbb 71d6 8d3d faf6 81bd
00000060: f022 9a3c bb68 71bd b910 1fbc 4640 493d
00000070: 3cd9 973c ae09 d43b 96a5 24bd 3199 ae3d
00000080: 3afd 25bd d073 89bd a121 8aba d47b 8cbc
00000090: 9cdb 363d d4ba 063d 982a 85bc 6ddd df3c
000000a0: 09da 23bd a6ca 373d f1cb b63c 44fd f4ba
000000b0: e22e 633d 59cd 78bd fce8 a3bd b85e e1bc
000000c0: bb97 b03b ddde c13c 3cef ac3d 9027 3ebd
000000d0: 2271 a33d 48d0 d93c 064c 453d 2683 703d
000000e0: 2c37 b53c 1da6 a3bd 7a94 7d3d 7a63 60bd
000000f0: b305 44bd f171 b43d ba24 1a3d e806 aabd

fc2.weight f4 [1, 64]
0.051018193 0.005602163 -0.07285173 -0.07347424 0.0975987 -0.08235565 -0.09668137 0.04649329
-0.123092964 0.09989984 0.04629498 0.043094523 0.0949683 -0.08583364 -0.0037708613 0.04116766
0.09445865 -0.10089413 -0.09030227 -0.05896647 0.08595119 0.0996072 0.106398925 -0.08298798
-0.0034768134 -0.03158968 0.08814585 -0.008561134 -0.078157574 -0.018545883 0.08771899 -0.10992201
0.08814348 0.11215901 0.0882246 0.11757996 -0.113541245 -0.11131083 -0.10672666 -0.1135632
-0.036692325 -0.05129458 -0.04538807 -0.118733175 -0.11782857 0.07127443 -0.11997262 0.10954891
0.03200769 0.036337864 -0.08213358 0.015256688 -0.07252505 -0.04662428 0.115028426 -0.030369172
0.050825387 0.05384394 0.08659196 -0.058861658 -0.03481642 0.053890333 -0.04281144 0.07360999
00000000: 74f8 503d 5992 b73b 4a33 95bd aa79 96bd
00000010: d4e1 c73d 14aa a8bd e200 c6bd c06f 3e3d
00000020: 2a18 fcbd 4a98 cc3d ce9f 3d3d e283 303d
00000030: bd7e c23d 8cc9 afbd 8e20 77bb 6c9f 283d
00000040: 8973 c13d 95a1 cebd 66f0 b8bd d386 71bd
00000050: 2d07 b03d dcfe cb3d aee7 d93d 9af5 a9bd
00000060: 40db 63bb 2e64 01bd d085 b43d 0044 0cbc
00000070: 1411 a0bd 89ed 97bc 04a6 b33d ca1e e1bd
00000080: 9284 b43d 9fb3 e53d 19af b43d c3cd f03d
00000090: 5088 e8bd eff6 e3bd 8293 dabd d393 e8bd
000000a0: b14a 16bd 441a 52bd d7e8 39bd 612a f3bd
000000b0: 1b50 f1bd 54f8 913d 34b4 f5bd 2e5b e03d
000000c0: 7f1a 033d 03d7 143d a735 a8bd 30f7 793c
000000d0: 0388 94bd 1af9 3ebd 0694 eb3d c5c8 f8bc
000000e0: 482e 503d 778b 5c3d 2057 b13d ec18 71bd
000000f0: aa9b 0ebd 1cbc 5c3d 0c5b 2fbd d6c0 963d
