assets/model/phrase019_speech_model.pth (torch, 145844 bytes, 7 tensors)

conv1.weight f4 [64, 13, 3]
000000 80 ba 81 3c 1a cd 19 3e a8 bb b7 3d 6f 6b 13 3e
       0.015836 0.15019646 0.089713395 0.14396451
000010 ff 44 05 3e fb 9b 5c 3c f7 63 28 3e 16 d5 10 be
       0.13014601 0.013464923 0.16444384 -0.14143786
000020 24 a6 cc 3d 2c da d5 bd 49 1d 47 bc ba 82 5c 3d
       0.09992626 -0.104420036 -0.012152978 0.053835608
000030 70 41 7b 3d 26 53 45 bd 57 52 83 3c 83 03 1f 3e
       0.061341703 -0.048175 0.016030474 0.15528683
000040 48 7b 23 3e d0 f7 2a bd 5f 9a 52 3d d7 8c ce bd
       0.15964997 -0.04174024 0.05141675 -0.10085457
000050 9e 79 6a 3d 39 62 be 3b 9c dd 4e 3d 76 7a f0 bd
       0.05724489 0.005810049 0.050504312 -0.117421076
000060 27 cb f6 3d 68 bb c5 bd 61 9c 2e 3d 9d c2 18 3e
       0.12050467 -0.096548855 0.042629603 0.14917989
000070 52 fa 83 bd 1d 99 c2 bd 60 b6 70 bd 4c 16 83 3d
       -0.06444229 -0.0950186 -0.058767676 0.06400737
000080 91 1a 51 bd 74 0b 58 bd 3d 43 0e be 0d 7b 43 bd
       -0.051050726 -0.052745298 -0.13892837 -0.047724772
000090 c1 e1 01 bd 71 3d db bd ce cf b0 3b a0 0e 92 3d
       -0.031709436 -0.107050784 0.005395866 0.07131696
0000a0 dc 74 87 3b 8d 21 0c bd fb fe a9 3b e5 9f 8a bc
       0.004133804 -0.034211684 0.0051878667 -0.016921947
0000b0 70 ef a7 bd 1a a5 e2 3d 2a 43 8b bd 7e c7 d1 3d
       -0.08199966 0.11066647 -0.0679992 0.10243128
0000c0 b2 23 76 3d d9 1a be bd 7e a9 15 be de 46 02 3e
       0.060092635 -0.092824645 -0.14615437 0.12722346
0000d0 0e 3d 87 bd 67 a4 44 bd 90 b9 16 bc cc 7f f2 bd
       -0.06603442 -0.04800835 -0.009199515 -0.118407816
0000e0 16 f3 11 3e 3e 77 1a be a4 fa ca bd 93 3e 07 3e
       0.14252886 -0.1508455 -0.09911087 0.13207464
0000f0 2e 1c b9 bd 22 40 b2 3a a9 ae a3 bd 9a 1a d8 3c
       -0.09038578 0.0013599435 -0.07992298 0.026379872
000100 55 ac 14 be 1f 5a 8f 3c 68 c4 7e bc 10 6c 08 be
       -0.14518864 0.017499028 -0.015549757 -0.13322473
000110 bc 34 25 3e 60 43 00 bd dc cd c9 bd 84 aa 0a 3e
       0.16133398 -0.031314254 -0.09853718 0.13541609
000120 4e c9 b8 bd f2 da 82 bd ec e2 2b 3e 52 84 19 be
       -0.09022771 -0.06389417 0.16785783 -0.14991882
000130 b0 8d c1 bd 69 95 03 be b5 94 07 3e 50 88 cb bd
       -0.09450853 -0.12849964 0.13240321 -0.09938109
000140 a7 27 22 3e ce 11 9d bc aa 30 97 bc f9 05 07 3b
       0.15835439 -0.019173529 -0.018455822 0.0020602925
000150 c7 53 ce bc 88 d3 5e bd 6d b8 68 bc 80 0f 0c bc
       -0.025186433 -0.05440095 -0.014204127 -0.008548617
000160 4f e6 5d 3d 57 e7 d9 bd dc 2b 25 3e dd 91 22 bd
       0.054174718 -0.10639828 0.16130012 -0.039689887
000170 3a da 3c bd ca 08 06 bc 63 f5 40 bd 18 4d 02 3e
       -0.046106555 -0.008180806 -0.04710902 0.12724721
000180 45 8f 83 bd 47 aa 11 3e db f5 0f 3e 74 64 db 3d
       -0.06423811 0.14225112 0.1405863 0.10712519
000190 02 62 c8 bd f8 fc 00 be ed de 20 be bc d6 10 3e
       -0.097843185 -0.125965 -0.1571004 0.14144415
0001a0 87 f8 08 3e c9 aa 33 3b 29 e6 13 be 62 c1 9c bd
       0.13376056 0.0027415028 -0.14443268 -0.07654072
0001b0 7a 68 f5 bd 47 63 98 3c a8 6e 6b bd 21 4b 8d 3d
       -0.11982818 0.018602027 -0.057478577 0.06899095
0001c0 9a 81 12 be 12 0f 46 ba ce 4e 1f bd df b2 d2 3c
       -0.14307252 -0.0007555346 -0.038893513 0.025720058
0001d0 e9 78 22 bd a7 db b5 bd de 84 01 be fa 17 be bc
       -0.03966609 -0.08879786 -0.12648341 -0.023204792
0001e0 a4 83 e5 3d 5b 39 fb bd d2 87 63 bd 70 4f 1a 3d
       0.11206749 -0.12266799 -0.05554945 0.037673414
0001f0 de 3a c0 3d 7e c8 54 bc 29 4c 02 be 8c 3b 17 3e
       0.09386228 -0.012987254 -0.12724365 0.14768809
000200 29 9c d1 bd 8e c2 1f 3c da ed 2d 3d 19 2f 1d be
       -0.10234863 0.009750975 0.04246316 -0.15349998
000210 41 79 0a be a9 75 31 bd 0f 9d b0 3d 28 77 4d 3c
       -0.13522817 -0.0433251 0.086237065 0.012540616
000220 0a 82 5a 3d 3f d4 c5 3d d7 c1 22 3e dc 50 0e 3d
       0.05334667 0.09659623 0.15894257 0.034745082
000230 f6 43 16 3e 56 1f fd bd f0 8b 23 3e 9c 8e 0a 3e
       0.14674363 -0.123594925 0.1597135 0.13530964
000240 87 24 ba 3c 44 8c 5a bc 1d 7e 1a be 3a 83 b2 bc
       0.022722496 -0.013339106 -0.15087171 -0.02179109
000250 02 12 1c 3e 1b 78 f8 bd b8 9e da 3d 21 cd 95 bd
       0.15241244 -0.12132283 0.106748044 -0.07314516
000260 42 50 9a 3d 1f 78 7e 3d c7 71 14 be 76 dd ef 39
       0.07534839 0.062126275 -0.14496528 0.00045750634
000270 5c 84 84 3d f0 61 df bd a3 45 c3 3d df e1 9d bc
       0.06470558 -0.10907352 0.095347665 -0.019272743
000280 15 71 07 be 43 b0 d5 3b 19 6a a6 3d a9 92 a9 bd
       -0.13226731 0.006521256 0.08125705 -0.08279926
000290 29 11 a8 bd 78 7e 8f bd af 4f d0 3d 53 37 08 bd
       -0.08206398 -0.07006544 0.101714484 -0.033255886
0002a0 dd 21 95 bd 5f 77 de 3d 21 8e eb 3d 9c 91 7e 3c
       -0.072818495 0.10862612 0.11501718 0.015537646
0002b0 e8 10 dd 3d 25 63 8d bd ee c4 f9 3d f8 79 94 bd
       0.1079424 -0.06903676 0.121957645 -0.07249826
0002c0 7d 54 8c 3d 55 c0 d1 3d af 08 b4 3d 1e ab 08 3d
       0.06852052 0.102417625 0.08790719 0.033366315
0002d0 88 c5 e4 3d 0c 08 c9 3c 50 fd 75 3d a0 81 ba bd
       0.111704886 0.02453997 0.06005603 -0.09106755
0002e0 a3 09 a3 bd b0 5a 63 3c bc 98 aa bd b8 a1 f5 bd
       -0.079608224 0.013876602 -0.08329913 -0.11993736
0002f0 46 8d cf 3d de 4f 11 3e 86 09 2a bc 18 ce 9c 3d
       0.10134368 0.14190623 -0.010378247 0.07656497
000300 29 84 e6 3d 6b a5 d4 bd 84 ca 42 bd d1 44 8a 3d
       0.11255676 -0.103831135 -0.047556415 0.06751407
000310 aa d0 90 bd 4a d2 01 3e ae 82 e4 bd 7e 05 05 3e
       -0.070710495 0.12677875 -0.11157738 0.12990376
000320 40 1f b8 bc 6f d0 c9 3d 77 d8 b5 bd 18 82 1e 3e
       -0.022475839 0.09854209 -0.08879178 0.15479314
000330 24 12 20 be 22 e8 9f bd 4d 6f 1b be ae 26 f9 bd
       -0.1563192 -0.07807948 -0.15179177 -0.12165581
000340 b4 af 99 3d 38 c8 0a be 88 a6 e1 bd 16 9f 01 3e
       0.07504216 -0.1355294 -0.110180914 0.12658343
000350 7f 7a cd bd 13 cc 47 bd 38 10 d0 3d a9 a6 a4 3c
       -0.1003313 -0.048778605 0.101593435 0.020099001
000360 ff 07 09 3e 5f eb a3 3d 43 f3 ca bc 8f 27 74 bd
       0.13381957 0.08003878 -0.0247742 -0.05960804
000370 6b ad fb bc 65 0a 9d 3c f9 2f 9d 3c e9 8f 0a 3e
       -0.03072234 0.019169996 0.019187914 0.1353146
000380 71 bf 55 bd 37 97 85 3d 05 48 4e 3d b1 b4 c6 3d
       -0.052184526 0.065229826 0.050361652 0.09702433
000390 e4 e6 16 bd 6d 13 0d bd a8 66 e1 3c 6e 34 d5 3d
       -0.03684129 -0.034442354 0.02751477 0.10410391
0003a0 2d 31 6e bb c8 d5 cb bd c7 db ca bd 2e 6c 65 3d
       -0.003634523 -0.09952885 -0.099052005 0.05601137
0003b0 28 62 5e 3d 57 a2 11 3e 5e 11 65 bb 87 00 16 bd
       0.054292828 0.14222084 -0.0034952979 -0.036621597
0003c0 74 9e c5 3d 16 3b de 3d 74 92 5e bd 8b e1 2a 3d
       0.09649363 0.108511135 -0.054338887 0.041719
0003d0 0c 7b 13 be 97 41 11 bd f0 d2 01 3e 47 ad b1 3d
       -0.14402407 -0.035462942 0.12678123 0.08675628
0003e0 e8 d0 02 3e 40 e9 8d bc f0 08 d5 bd 9d bc 4b 3d
       0.12775004 -0.017323136 -0.10402095 0.049740423
0003f0 bc 34 c4 3c 2f ab 5f 3d ab 3f 33 3c ff e2 c2 3d
       0.023950927 0.054606613 0.010940473 0.09515952

conv1.bias f4 [64]
000000 a8 de 12 3e 00 3a 70 3c bf e0 87 3d 41 ca 1b be
       0.14342749 0.014662266 0.06634664 -0.15213872
000010 36 88 e2 bd f3 55 af bd 6c 08 f4 bd 89 8e ce bd
       -0.110611364 -0.085613154 -0.11915669 -0.1008578
000020 ce 61 aa bd a9 69 e0 bd 5f 1c 42 3d 7e 3e 05 3e
       -0.08319436 -0.10957653 0.047390338 0.1301212
000030 67 b1 6d bd 60 68 d0 bd 44 38 dc 3d 84 57 04 3e
       -0.058030512 -0.10176158 0.10752919 0.1292401
000040 af 94 08 3e 83 ea d9 3d 94 a1 ff 3d fa 55 84 bc
       0.13337968 0.10640433 0.124819905 -0.016154278
000050 28 d3 eb bd ba 77 17 be c9 41 29 bb 5d ab a9 bd
       -0.11514884 -0.14791766 -0.0025826565 -0.08284638
000060 c2 97 8a 3c 24 bd 81 bd de 46 07 bb ba c0 9c 3d
       0.016918067 -0.06334904 -0.0020641605 0.07653947
000070 41 53 0d 3e 39 f7 68 3d 55 35 de bd e4 2b dc b9
       0.1380129 0.056876395 -0.10850016 -0.0004199437
000080 8c 5e a9 3d 95 5b 9b 3d ba a1 d4 bd 46 2c 09 be
       0.082699865 0.07585827 -0.103824094 -0.13395795
000090 4a 08 ef 3d 54 bb b3 3d a1 7b bc bd 8f e2 16 be
       0.11671503 0.087759644 -0.09203268 -0.14734863
0000a0 eb 59 bd 3b 14 0f 8d 3c 04 9e 4f 3d 67 82 04 be
       0.0057785413 0.017219104 0.050687805 -0.1294037
0000b0 04 a3 05 3e 5c a4 f7 bd 3d 9d 85 bc 1e b1 1e bd
       0.13050467 -0.12091896 -0.016310329 -0.03874313
0000c0 07 a8 d3 bd e9 62 0e be 75 a2 8e 3d 00 3b 6f 3c
       -0.10334783 -0.13904919 0.0696458 0.014601469
0000d0 1b a5 14 3c 25 a7 00 be fe ea c3 bd fe 47 14 3d
       0.009072567 -0.1256376 -0.095663056 0.03620147
0000e0 8e d0 fa 3c 7c 39 e0 3c 05 b7 75 3d f0 49 51 bc
       0.030617025 0.02737116 0.059988994 -0.012773976
0000f0 4d 56 4f bc ac f7 a2 3d f7 bb c6 bd f4 de 7f 3b
       -0.012654853 0.07957396 -0.0970382 0.0039042803

conv2.weight f4 [128, 64, 3]
000000 25 2c b0 3c 1b 46 4f bc 23 a4 db 3c fd 0c e5 3c
       0.021505425 -0.012650992 0.026811665 0.027960295
000010 b8 5e 45 bd 11 f3 80 bd 83 28 26 bd a3 f7 cf 3c
       -0.048186034 -0.06296361 -0.04056598 0.025386637
000020 25 5c 07 bd 58 39 8e bd 3a bf fd bc 89 d0 25 3d
       -0.03304686 -0.06944531 -0.030974973 0.040482078
000030 a6 6a 0b bc 94 66 db ba 2f 35 61 bd d7 d3 60 3d
       -0.008509314 -0.0016738945 -0.05498236 0.054889526
000040 50 e1 07 3d f9 a0 7e 3d 20 65 11 3b 5e 28 1a bc
       0.03317386 0.062165234 0.002218552 -0.009409038
000050 e8 0c c0 3c bb 58 f9 3c 8b 07 32 bb da ad 3c 3d
       0.023443654 0.030437818 -0.002716514 0.046064235
000060 e0 27 84 3d 32 48 65 3c 02 06 2e bd 9a 28 fd 3c
       0.06452918 0.0139942635 -0.0424862 0.03090315
000070 4b 59 5e bd ca b0 76 bd 47 7a b0 bc 3f 1e 33 bd
       -0.054284375 -0.060227193 -0.021542681 -0.043730017
000080 fe 87 dc 3b 9c d3 45 bd 1d e2 a0 bc 8c 09 90 bd
       0.0067300787 -0.04829751 -0.01963907 -0.07033071
000090 7a 8e 86 bd 2c 8f 17 bd a8 4a 8c bc c4 60 f4 3c
       -0.06570144 -0.037001774 -0.017125443 0.029831298
0000a0 55 9a 32 3c fa 82 87 bd d5 1e b8 3c 95 20 89 bd
       0.010901053 -0.06616779 0.02247564 -0.06695668
0000b0 4c 2d f6 bc 9d 4a 83 bd 58 d6 85 3d 7f ba 0f bd
       -0.030050896 -0.06410716 0.065350235 -0.035089966
0000c0 55 fe 2a bd 90 7b 98 3a 30 60 09 bd de 02 4e 3d
       -0.041746456 0.0011633504 -0.033538997 0.050295703
0000d0 7e 3e 41 3d 24 58 92 bd 07 92 2f 3b 55 8b b7 3c
       0.047178738 -0.07145718 0.002678992 0.022405306
0000e0 f6 8f 37 bd 7f 91 6f 3d 3d 98 38 3d 7a 23 89 bc
       -0.044815026 0.058488365 0.04506706 -0.01674055
0000f0 5c 87 0a 3d 92 42 ba bc 8f f5 97 3c 5a 0f 51 3d
       0.033820495 -0.022736821 0.018549709 0.05104003
000100 49 dd 5f 3d 3f 4a 8a bd d3 24 53 bd 64 51 57 bd
       0.054654393 -0.067524426 -0.05154879 -0.052567855
000110 00 5d f7 bc ad 7c 41 bd 4f 09 51 3d 2f 32 93 bd
       -0.030195713 -0.04723804 0.051034268 -0.07187306
000120 33 14 51 bd f8 bd 46 bc 17 d5 4b bd 12 21 83 bd
       -0.051044654 -0.012130253 -0.049763765 -0.06402792
000130 72 34 93 3d 64 2c 7f 3d 08 58 c7 3c ea 89 87 3d
       0.071877375 0.062298194 0.024333969 0.06618102
000140 00 8c 40 bd ec c8 2f 3d 6b b4 c5 bc d4 e1 88 3c
       -0.047008514 0.042916223 -0.024133882 0.016709246
000150 06 83 76 3d d9 53 65 3d 06 16 2a 3a 5c 0d 63 bd
       0.060183547 0.055988166 0.0006488267 -0.055432662
000160 fa c3 03 bd 78 3f 9e 3c 38 ba 0f bd 7c 65 89 bd
       -0.03216932 0.019317374 -0.0350897 -0.0670881
000170 d0 93 ca 3c ee c0 23 bd 7f b2 3f bd ca 23 9f bc
       0.024728686 -0.039978914 -0.046801087 -0.019426245
000180 40 9a 91 3c 4f cc 75 3d 15 7b 4f bd a1 12 83 bd
       0.017773747 0.060009297 -0.05065449 -0.064000376
000190 d6 df 9a bd a4 4f 0c bd 68 b0 d6 3c 2d 52 64 3d
       -0.075622246 -0.03425564 0.026207164 0.05574243
0001a0 f5 8e e1 bc 4e 6c 3e 3d 32 e4 65 3d 32 36 12 3d
       -0.027533988 0.046490006 0.056125827 0.035696216
0001b0 1c 62 82 bd 20 25 05 bd 11 d0 97 bd 81 e8 77 bd
       -0.06366369 -0.03250611 -0.074127324 -0.060524467
0001c0 c6 a4 d2 bc c8 e4 01 bd 57 97 59 bd d8 29 a7 3b
       -0.025713336 -0.031712323 -0.053122845 0.0051014237
0001d0 6d b7 6b 3c d0 aa 47 bd 40 e3 b5 3b 10 93 56 bd
       0.014386994 -0.048746884 0.005550772 -0.052386343
0001e0 24 bf d5 39 4f f0 33 bc 79 b1 31 3d 84 b8 8b 3b
       0.00040768937 -0.010982587 0.04338214 0.0042639393
0001f0 9d 32 81 3d a8 e5 72 3c d7 54 f3 3c 5a d3 1e 3d
       0.06308482 0.014825262 0.02970354 0.03877578
000200 ea b0 4f bd fc f9 28 bd da b1 b7 3c 7a bc a1 bb
       -0.050705828 -0.04125403 0.022423673 -0.0049357982
000210 55 d0 5d bd 9c 17 d8 3c 79 9a 74 bd ad 32 87 ba
       -0.05415376 0.026378445 -0.05971763 -0.0010314785
000220 6c 91 9b bd c5 52 81 3d fa fb 07 3d df 1e c8 bc
       -0.075960964 0.06314615 0.033199288 -0.024428783
000230 7c fb 9d bd a7 cd 2d 3d c3 b1 05 3d 8a f7 71 bd
       -0.077139825 0.042432453 0.03264023 -0.059073962
000240 21 af 86 bd 44 bc 44 bd 85 68 83 3c ed 38 31 bd
       -0.06576372 -0.048031107 0.01604105 -0.04326718
000250 4b 2b 64 bd cc e8 5d 3d fc e1 29 3d 22 84 07 3d
       -0.05570535 0.05417709 0.04147528 0.033084996
000260 a5 0c 94 3a e7 d7 14 3d de 03 aa 3c 6b 65 7f 3b
       0.0011295272 0.036338713 0.020753797 0.0038970362
000270 d2 f2 a8 bb a9 1c 1b 3c 32 a6 e9 bc 5c 8f 07 3d
       -0.0051558996 0.009467282 -0.02852163 0.033095703
000280 e2 2b 6b bd 40 2b fd 3c 40 51 ff 3b 36 e3 ef bc
       -0.057414897 0.030904412 0.007791668 -0.029283147
000290 d0 1e 0f bc 90 39 84 3c 3a b1 e0 39 5c c1 bd bc
       -0.008735374 0.01614073 0.00042856653 -0.02316349
0002a0 5f ae 89 3c a7 90 7b bd ec 51 80 bd 20 17 83 bc
       0.01680678 -0.061417248 -0.06265625 -0.016002238
0002b0 c7 08 d4 3c 3c 7b dc 3c de 19 18 bb 56 ab 2b 3d
       0.025883092 0.026914231 -0.0023208777 0.041911446
0002c0 27 90 5e 3b de 2d 93 3d a2 9f 2c 3d 6e 9a ee bc
       0.0033960433 0.07186483 0.042144425 -0.029126372
0002d0 28 dc 2c bd ac 0f 8a bc 92 18 12 3d f1 99 74 bd
       -0.042202145 -0.016853176 0.035667963 -0.059717122
0002e0 87 87 c4 bc dd 40 5b 3c e5 2a 00 bd ad ef 85 bc
       -0.023990406 0.013382164 -0.031290907 -0.016349638
0002f0 01 91 21 bd 80 6e 91 bd 2d 70 66 bd 3f ec 83 3d
       -0.039444927 -0.07101154 -0.056259323 0.06441545
000300 a8 07 2a bd c9 3f 0f 3d 95 ba 78 3d 76 7e a5 bc
       -0.041511208 0.03497294 0.060724813 -0.020201903
000310 cd d7 23 3d 2b cd 55 bd e4 8c 74 bd cf 57 78 bd
       0.040000726 -0.052197617 -0.059704676 -0.060630616
000320 f1 8e 52 bd d8 54 8c 3d e9 e0 92 bd 44 14 5f 3c
       -0.05140585 0.0685212 -0.071718045 0.013615672
000330 74 f7 b4 bb aa 05 6a bd a9 26 8f 3c ce 6c f9 bb
       -0.005522663 -0.057134308 0.01747449 -0.0076118475
000340 92 d6 71 3d 49 bc 11 3c b9 40 98 3d 47 a4 82 3c
       0.05904252 0.008894988 0.0743422 0.015947474
000350 68 11 a0 3b 7a 3c 76 3d a5 53 6d bd 70 d7 10 3d
       0.0048848875 0.06011627 -0.057941098 0.035361707
000360 4b 92 f7 bb c7 a2 13 3d be 09 17 bc 40 d2 7e 3b
       -0.0075552813 0.03604391 -0.009218631 0.0038882643
000370 9f 27 4f 3d 5f 18 89 bd 45 b1 52 3d 18 9e 84 bd
       0.050574895 -0.066941015 0.05143859 -0.064754665
000380 88 4e 55 bd 16 d4 b1 3a 04 15 86 3d 9c 6e ab 3c
       -0.052076846 0.0013567235 0.06546977 0.020926766
000390 6a d0 91 bd df 52 7e bd 5d d0 f0 bb 3d 5e e9 3c
       -0.0711983 -0.06209075 -0.0073490576 0.02848732
0003a0 d5 e0 14 bd b1 4e a9 bc 39 aa 8b bd 80 19 19 3d
       -0.03634723 -0.020667406 -0.06819577 0.037377834
0003b0 44 fd 3f 3d 1e 43 52 3c ca b4 86 3d 2e 33 38 3d
       0.046872392 0.012833385 0.065774515 0.044970684
0003c0 a1 c0 59 bd 5f e0 5c 3b 1e f9 82 3d 80 2f 06 bd
       -0.05316222 0.0033703072 0.063951716 -0.032760143
0003d0 0c 3f 51 3d b6 ef 8d ba db 4a 85 bc 34 ea d2 3c
       0.051085517 -0.0010828886 -0.016271045 0.025746442
0003e0 54 60 03 3c 79 85 d5 bb 57 91 a9 3c 6f db 9d bc
       0.008018572 -0.0065161553 0.020699186 -0.019269673
0003f0 64 cd a8 3c 3a be 90 bd 8c 86 7d bd a9 79 75 bd
       0.02060575 -0.07067533 -0.061895892 -0.059930477

conv2.bias f4 [128]
000000 4e 3e 7d bc b2 31 a8 bc ce 48 fe bc 0b 36 8d bd
       -0.015456749 -0.02053151 -0.031040575 -0.068950735
000010 5c c6 56 3d b4 f2 dc bc f6 bc e7 bb ca f2 d7 bb
       0.052435264 -0.026971199 -0.0070720864 -0.006590222
000020 86 a6 0a bd c6 54 f1 ba 98 a5 30 bd d8 39 2f 3d
       -0.033850215 -0.0018412105 -0.043126673 0.042779773
000030 82 78 a1 3c 8f fb 7d bd 48 59 7d bd 7e 07 d1 3c
       0.019710783 -0.062007483 -0.061852723 0.025516268
000040 d0 ef 68 3d 53 03 db 3c a7 e0 6c bd f9 fa 19 3d
       0.056869328 0.026734984 -0.057831433 0.03759286
000050 1c 4e 61 3c 91 97 fb 3c 1c 23 f8 3c 7d 29 ca bb
       0.013751533 0.030711921 0.030290179 -0.0061694966
000060 a6 3c 43 3a 9e 8e 72 bd 83 af 9b bc 7b fa 4f 3d
       0.0007447697 -0.05921804 -0.019004589 0.050775986
000070 8e 14 74 3c 27 24 9b bc 43 db ae 3c 9e f5 5b bd
       0.014897479 -0.018938137 0.021344787 -0.053701036
000080 99 14 3c bd 15 16 95 bd 28 fe 10 bd ef 31 44 3d
       -0.04591808 -0.072796024 -0.035398632 0.047899183
000090 6b 0b 8a bd 94 a2 2f 3a 84 16 64 3c ac b0 d7 bc
       -0.06740459 0.0006699946 0.013921384 -0.02632936
0000a0 09 c0 61 bd 0f c9 5c bd 6e b2 71 3d 2c 18 42 3d
       -0.05511478 -0.053902682 0.059008054 0.047386333
0000b0 01 87 66 3c 28 21 8a 3c 18 eb b2 bc c3 f8 1d bd
       0.014070273 0.016861513 -0.021840617 -0.038567316
0000c0 82 5e 05 bd 3b d7 d4 bc 1c f1 ca bc 33 e4 7d 3d
       -0.032560833 -0.025981536 -0.024773173 0.061985206
0000d0 45 1b 6a 3d 24 12 09 3d 44 4f c9 3c 0c 19 c1 3b
       0.057154913 0.033464566 0.02457393 0.0058928784
0000e0 8c c0 3f 3d d7 26 51 3c d5 cc 3b bd 16 28 70 3d
       0.046814486 0.012765608 -0.04584964 0.05863198
0000f0 ef 2b 7f bc 7c 69 b2 bc 1f a4 a0 bc af f2 f5 3c
       -0.015574439 -0.021778814 -0.019609509 0.030022947
000100 ed 45 de 3c f4 d4 8b bd 7a 91 fd 3c d7 d6 59 3d
       0.027132953 -0.06827727 0.030953158 0.053183403
000110 7e 29 6d bd 61 e7 3f 3d 0c 78 36 bd d6 dc 30 bd
       -0.0579009 0.04685152 -0.04454808 -0.043179356
000120 5c 6b 3f 3d 8f 9e fa bc 43 19 56 bd b7 e5 0c 3d
       0.046733245 -0.030593185 -0.052270185 0.03439876
000130 29 b4 11 3c 57 ca 0c bd b0 31 00 bd ea 2c 99 bd
       0.008893051 -0.034372654 -0.031297386 -0.0747927
000140 f6 a7 cd 3c 76 8d 59 3d 73 67 13 bd c3 8a 9b bd
       0.025104504 0.053113423 -0.03598733 -0.07594826
000150 ba 4e 76 bd fd 1d d8 bc b6 5d a2 bc 4c 6d 6f 3b
       -0.060133673 -0.026381487 -0.019820075 0.0036533652
000160 f8 e6 44 3c d6 35 17 3d 67 64 0c 3d dd a3 8c bd
       0.012017958 0.036916576 0.03427544 -0.06867192
000170 eb ad 61 bd b6 f6 ff 3b 36 8c 81 bd 04 c1 48 bd
       -0.0550975 0.0078113927 -0.06325571 -0.0490122
000180 b1 01 51 3d f2 25 60 bd ae 76 8d 3d 65 45 0f bd
       0.051027004 -0.054723687 0.06907402 -0.03497829
000190 52 72 08 bd 8d 83 3a 3c ec cd 94 3b 93 5b 31 3d
       -0.03331215 0.011383903 0.0045411494 0.043300223
0001a0 c8 ce 22 3d bb 4b 75 3c 2e 9b a6 bc 19 9d 24 bd
       0.039747983 0.014971669 -0.020337667 -0.040188882
0001b0 3d 4c 25 3d 2a e5 48 3d 1e d5 98 3c 2e dc ef 3c
       0.04035591 0.049046673 0.01865631 0.029279795
0001c0 b2 26 9f bc eb af f5 bc f9 4e 45 3d 5f 49 5f bd
       -0.019427631 -0.02999111 0.048171017 -0.05451333
0001d0 a2 e3 00 bd f8 44 6e 3d 51 ba 72 3d 67 3f 82 3d
       -0.031467088 0.058171242 0.059259716 0.06359749
0001e0 ec 3b a4 3b fe d0 14 3d e1 56 9b bd f5 96 76 3d
       0.005012026 0.036332123 -0.0758493 0.060202558
0001f0 7c a2 9d bd 5d 28 3f 3d 08 e2 a0 bd 40 81 51 3d
       -0.07697007 0.046669353 -0.07855612 0.051148653

fc1.weight f4 [64, 128]
000000 3a ff 79 bd 8a 1f 9a bd 29 99 af 3d d2 20 7f 3d
       -0.06103442 -0.07525547 0.08574135 0.06228716
000010 11 9f 5d bd 9e f7 9f 3d 31 d6 b5 3b 73 6a a0 bb
       -0.054106776 0.07810901 0.0055492152 -0.0048955022
000020 25 e3 e8 bc 5d 90 27 bd eb ab a9 bb c4 c4 43 bd
       -0.028428623 -0.04090916 -0.005177965 -0.047795072
000030 64 a1 08 3d 87 c2 67 bd d1 85 bd bc b4 a7 ad bc
       0.03335704 -0.056582 -0.023135098 -0.021198131
000040 7a 70 e6 bc c8 85 b9 3d 28 d3 ab 3d c5 65 44 3d
       -0.028129805 0.0905872 0.08389884 0.047948617
000050 a5 c7 93 bd 66 d5 af 3c 15 23 a3 bd 07 0a 92 bd
       -0.072158135 0.021464061 -0.07965676 -0.07130819
000060 8c 4a 1e bc 66 8a b5 bc d3 cd 80 3d 9f 31 10 bd
       -0.009661328 -0.02216072 0.06289258 -0.035203572
000070 94 11 14 3d 6c 67 98 3b 02 d1 73 3d b7 14 52 3d
       0.036149576 0.0046510007 0.059525497 0.051289286
000080 e4 78 d9 ba 60 d5 9f bd fe a5 7a bd 47 52 a9 bd
       -0.0016591814 -0.0780437 -0.06119346 -0.08267646
000090 4a 04 16 3d 23 07 79 3d 00 29 b4 3b 46 49 1d bd
       0.036625184 0.06079782 0.0054980516 -0.038399957
0000a0 e0 61 85 3d c8 f5 ab 3c 2f 45 7e bd c8 50 ab 3c
       0.06512809 0.020991221 -0.062077697 0.020912543
0000b0 55 d1 95 3d dc 0c 2b 3d 5a 0f e6 bc b9 0a 2a 3d
       0.073153175 0.04176031 -0.028083492 0.041514132
0000c0 ea a8 5c 3d bc 79 88 3d 25 06 66 3d 66 99 fb 3c
       0.053872027 0.06663844 0.056158204 0.030712795
0000d0 8e 06 8e 3d 82 bc 8e 3d de 29 5f 3c 94 a0 52 bc
       0.06934844 0.06969549 0.013620822 -0.012855668
0000e0 17 2f 6d bd 4f 1d 12 bd 5b 35 78 bd 4e 5e 1b 3c
       -0.057906236 -0.035672482 -0.06059776 0.009482933
0000f0 c0 0b ce bc ab b7 4d bd 83 ba 9d bd 51 7d 0b 3d
       -0.025152087 -0.050223988 -0.0770159 0.034055058
000100 4f 8d cb 3a 1c da 55 3c fb ed 82 bc 23 b7 49 3d
       0.0015529784 0.01305249 -0.015982619 0.04924692
000110 6e bf dc 3c 76 2e 6c bd 02 95 89 bd e3 82 8a 3d
       0.02694675 -0.057661496 -0.06717874 0.06763246
000120 e9 e7 1b bd 01 ff 57 bc 37 83 2f 3d 4d 1a 2c bd
       -0.038062964 -0.013183356 0.042849746 -0.04201727
000130 07 8d 56 bd 59 be 4f bd 81 95 aa bc 06 3e 85 3d
       -0.052380588 -0.05071864 -0.020823242 0.06505971
000140 07 cc 74 bc 93 38 ae bd 0c 9c a5 3d c3 b9 85 3d
       -0.014941222 -0.085068844 0.08086404 0.06529572
000150 71 99 3b 3d 63 b2 4d 3d ca 24 84 3d 16 78 3a 3d
       0.04580063 0.05021895 0.064523295 0.04552468
000160 da fb 73 bd 92 58 ec bc c2 c8 51 37 5d 0d ad 3b
       -0.059566356 -0.028850827 1.2504113e-05 0.005281134
000170 b4 79 4d bd 49 35 8c bc 32 b1 77 3d d9 da 55 3d
       -0.050164893 -0.017115252 0.06047172 0.052210663
000180 79 4a a6 bc 05 25 f5 bc 65 88 85 3d 10 f1 b4 3d
       -0.020299183 -0.029924879 0.06520156 0.088350415
000190 24 43 b6 bc da 27 2c bd c9 63 26 bc 20 ee 0b 3d
       -0.022248812 -0.042030193 -0.010155627 0.03416264
0001a0 1c 36 38 3d 17 21 46 bd 4b bd ab 3d 1b cd 73 bd
       0.044973478 -0.0483714 0.08385714 -0.059521776
0001b0 0f dd 02 bc 46 cb 76 3b e6 c8 50 bd e0 ca a7 3d
       -0.007987275 0.0037657782 -0.05097284 0.08192992
0001c0 38 d2 5a 3d 7e f1 ea bc 6c bd 91 3c 80 f5 8d 3d
       0.053423136 -0.028679606 0.017790519 0.06931591
0001d0 e0 9b 31 3d fc 32 4e bc 9a 05 15 3c 64 24 82 bd
       0.043361545 -0.012585398 0.009095574 -0.06354597
0001e0 ad 06 d6 bc 8b 7d 93 3d 97 39 a5 3d 57 9b 91 bc
       -0.02612623 0.0720168 0.08067625 -0.017774267
0001f0 a2 9c 80 bd 91 e1 92 3d 18 d7 af bd 7c 24 34 3d
       -0.06279875 0.0717193 -0.08585948 0.043980107
000200 e7 e8 98 3d c8 34 68 bc ef 7b 94 3c 2e fc 41 3d
       0.074662976 -0.01417274 0.018125502 0.047359638
000210 01 7f a5 bd 6f 6a a5 bc 69 d1 a2 bc f8 a5 82 3d
       -0.08080865 -0.020192353 -0.019875245 0.06379312
000220 c9 4e a4 3c b9 83 7c 3d 71 b5 16 3d af f8 7b bd
       0.020057099 0.061649058 0.03679413 -0.06151646
000230 80 d6 1e bc 32 61 15 bd 4c 5b 2d 3d 12 7b 55 bd
       -0.0096946955 -0.036469646 0.042323396 -0.052119322
000240 93 c7 a5 bd d0 1b 46 3c 0f cc 9d bc 9d 2c b5 bc
       -0.080947064 0.012091592 -0.019262342 -0.022116
000250 6d 21 8f 3c 52 c1 c3 3b 82 72 fa bc a2 47 a2 3d
       0.017471993 0.0059739733 -0.03057218 0.07923819
000260 3e ac 08 bd 06 e1 10 bd df b4 ee 3b fa bb be bc
       -0.033367388 -0.03537085 0.007284745 -0.023282994
000270 6d 33 91 bd aa 60 f7 3c f9 7a f5 bc 14 13 c3 3b
       -0.07089887 0.03019746 -0.029965864 0.005953202
000280 cb ff 90 3d c9 87 62 3d b4 f7 78 bd 97 2d a3 bc
       0.07080039 0.055305276 -0.060783103 -0.0199192
000290 90 9d 25 bc b2 ca 5b bd ad 79 64 bc e4 37 8c 3b
       -0.010108367 -0.053660102 -0.013945025 0.0042791236
0002a0 a2 5b 57 3c 4d 77 b1 bd 4a 89 73 3d ac 2c 40 3d
       0.013144406 -0.08665333 0.0594571 0.046917602
0002b0 c6 dc 15 3d 9e 03 1c 3d 08 95 8f 3d 48 29 12 3d
       0.0365875 0.038089387 0.07010847 0.0356839
0002c0 91 76 f3 ba 69 5d 1a 3d aa 30 85 3b 97 52 de 3c
       -0.0018574764 0.03768674 0.004064639 0.027138991
0002d0 bf ec 30 bc 29 94 61 bd 8a ba dc 3c d2 4a 0a 3d
       -0.010798632 -0.055072937 0.026944418 0.03376276
0002e0 1c e0 c4 bc cc e4 27 bc b9 7d a9 3d 1b b8 9c bc
       -0.024032645 -0.0102474205 0.08275933 -0.019130757
0002f0 ca b3 56 3d 8c 92 3c bd 75 7f 07 3d 20 a0 74 bd
       0.052417554 -0.046038195 0.033080537 -0.05972302
000300 99 ab 1f bd 9b 70 82 3d 29 b2 b8 bd 53 5f 8b 3c
       -0.038982008 0.06369134 -0.09018356 0.017013228
000310 6d 3d 7c 3c 7c fc 8a bd d1 47 bd 39 b8 6d 90 bd
       0.015395504 -0.06786439 0.00036102397 -0.07052177
000320 09 b3 02 3d 36 57 3f 3d 06 a2 4b 3d 64 16 1f 3d
       0.031909022 0.04671403 0.049715064 0.038839713
000330 67 dc d8 3c 67 18 0a 3d 44 bc 58 bd 1c 22 87 bd
       0.026472284 0.03371468 -0.05291392 -0.06598303
000340 5e a3 94 3d 55 a7 79 3d c5 bb 56 bc 41 9a 7b 3d
       0.07257722 0.060950596 -0.013106291 0.061426405
000350 74 f3 83 3d ff 08 d3 bc 50 fb 94 3d be 9a f7 3c
       0.064429194 -0.025761126 0.072744966 0.030225154
000360 8e 7a b7 3d a2 3b 41 3c 42 0f 39 3d 4a a4 8e bd
       0.08958922 0.011794003 0.045180567 -0.069649294
000370 de 95 e9 bc a0 a3 9b 3d 36 2d a4 3c b8 c8 ad bc
       -0.028513845 0.07599568 0.02004109 -0.021213874
000380 07 a5 07 bc 2d 1d 9a bd d5 34 b6 bc 67 dc 50 bd
       -0.008279092 -0.07525096 -0.02224199 -0.050991442
000390 94 40 69 bd 5f a4 01 ba 2b a3 a3 3d a8 e6 82 bd
       -0.056946352 -0.00049454527 0.07990106 -0.063916504
0003a0 74 e0 6b 3d bc 79 b7 bd 44 a4 2c bd cf 1d 04 bd
       0.057587102 -0.08958766 -0.042148843 -0.03225499
0003b0 57 22 c3 bc e1 f7 d4 39 de bc b4 bd 92 41 0f bd
       -0.023820085 0.00040620475 -0.08825086 -0.034974642
0003c0 c9 49 f5 b9 eb d1 0f 3d 10 0d 9e bd 3e 07 98 bd
       -0.00046785016 0.035112303 -0.07717335 -0.07423256
0003d0 ab 79 93 bc 4f 5e 68 bd f9 8a 59 3d 0f 2d b7 bc
       -0.018002352 -0.056730565 0.05311105 -0.022360353
0003e0 b4 5a de bc 35 6b 7f ba 36 b7 16 3d 1b 64 6b bb
       -0.02714286 -0.0009743453 0.036795817 -0.0035917822
0003f0 3c cf d3 3c 12 63 18 3d fc fb 0c 3d 0e 69 5d 3d
       0.025855653 0.037203856 0.03442 0.054055266

fc1.bias f4 [64]
000000 42 52 92 bd cb 20 0e bd 89 a8 90 bd cf 34 12 bd
       -0.07144596 -0.034699243 -0.070633955 -0.035694893
000010 80 32 d1 3a c0 1e 64 3d 48 11 95 3d a5 34 88 3b
       0.0015960485 0.055693388 0.07278687 0.0041566663
000020 55 a9 c5 3c 9b 1b 98 3d f0 c5 7e 3d ad 17 cf 3c
       0.024128595 0.0742714 0.062200487 0.025279844
000030 03 95 05 3d 02 79 6e 3d be 0f 2c 3d 54 5c d1 bc
       0.03261281 0.05822087 0.0420072 -0.02555672
000040 75 fc 5b 3c 68 39 3c bd 33 44 d4 3c 18 4b 88 bd
       0.01342689 -0.045953184 0.025911426 -0.06654948
000050 b5 2e 64 3d 95 69 67 3c 1d fe 96 bc bb 14 bc 3c
       0.055708606 0.014124294 -0.018431718 0.022959104
000060 de 9a aa 3d 79 e7 90 3d fc 05 5f 3d eb ac 80 bd
       0.0833032 0.070754 0.054449067 -0.062829815
000070 30 56 3e bc 5f c5 ab 3d fc ff e1 bc 81 ce 2d bd
       -0.011617228 0.08387255 -0.027587883 -0.042433266
000080 85 e0 8b bd 66 24 18 3d c4 24 bc ba 1c fa f6 bc
       -0.06829933 0.037144087 -0.0014354219 -0.030148558
000090 bc d5 86 bd 31 3b 47 3d e4 1c b6 bc a2 97 53 3d
       -0.06583735 0.048640434 -0.022230573 0.05165828
0000a0 0e 56 9d 3d 9c 2e c5 3c b6 0d 06 3d 1c f4 c5 ba
       0.07682429 0.024070077 0.03272792 -0.0015102657
0000b0 a6 40 ba bd bf 08 ce bb ed 9e 0d 3c 1d d1 62 3d
       -0.09094362 -0.0062876637 0.008643848 0.055375207
0000c0 38 64 a3 3c 1f 38 62 3d 7d 65 ac 3d 80 ae 63 bc
       0.019945249 0.055229302 0.08417795 -0.0138965845
0000d0 59 a9 31 bc 80 2e 66 3c ca 45 45 3d 62 aa 62 3d
       -0.010843598 0.014049172 0.04816226 0.05533827
0000e0 e0 cd 21 bc f1 93 22 3d 4c 41 ab bd ac d1 a1 bd
       -0.009875745 0.03969187 -0.08362064 -0.0790132
0000f0 ee 37 a6 bc 91 33 9b bd bc b7 51 bd 0a e2 3f bd
       -0.020290341 -0.07578195 -0.051200613 -0.046846427

fc2.weight f4 [1, 64]
000000 51 aa bc bd e4 1e 95 bd a0 ca b1 39 42 d4 a8 3d
       -0.09212173 -0.072812825 0.00033911038 0.0824361
000010 08 ce 66 3d 7e bb ac bc fc cc 2e 3c 8c df df 3c
       0.05634883 -0.021085497 0.010668989 0.027328275
000020 be c0 c3 3d 75 ac 36 bd f6 1b 52 3d 5b cd 89 3d
       0.09558247 -0.04459806 0.051296197 0.067286216
000030 fd 48 d1 3d 44 92 d1 3d e0 08 b5 3b e6 16 d6 3d
       0.102189995 0.10232976 0.0055247396 0.10453586
000040 05 44 ea bd d1 6e b1 bd 28 1d e4 3d 00 22 2e ba
       -0.11438755 -0.08663715 0.111383736 -0.00066426396
000050 3d 42 30 3d 36 e6 51 3d 13 50 bb 3b 53 ca c2 3d
       0.04303192 0.051244937 0.0057163327 0.095112465
000060 79 14 8b bd 48 d9 b8 3d 93 41 cf 3d b0 88 7a 3c
       -0.06791014 0.09025818 0.10119929 0.015291378
000070 dc 8d 28 bd 46 bd 80 3d 30 e3 95 3d 1f 80 bf bd
       -0.041150913 0.06286101 0.07318723 -0.09350609
000080 1b de 90 3d 18 04 66 bd 71 d2 bc bd f0 71 f4 bc
       0.07073613 -0.056156248 -0.09219826 -0.029839486
000090 02 19 38 3d 16 d1 cf 3d e4 47 c7 bd c7 b8 91 bd
       0.044945724 0.10147302 -0.09730509 -0.071153216
0000a0 6f 72 40 bd 65 f3 65 bb fc 63 32 3d 1d c8 68 bd
       -0.046984132 -0.0035087701 0.043552384 -0.056831468
0000b0 11 e9 e9 3c 14 8d eb bd 67 0c be 3d c6 24 cc 3b
       0.028553518 -0.11501518 0.09279709 0.0062299697
0000c0 82 90 8d bd b7 55 9c bd 00 41 56 3b 84 13 b8 bd
       -0.06912328 -0.07633536 0.0032692552 -0.08988097
0000d0 a4 35 bb 3d 8d 87 e5 3d f8 ca 47 bd 08 58 a7 3d
       0.091410905 0.11207495 -0.04877755 0.081710875
0000e0 c0 ea 0b 3d e2 2f c3 bd 51 7e 17 3d 33 d1 63 3b
       0.034159422 -0.09530617 0.0369857 0.0034762144
0000f0 24 0e f8 3c 22 fa 7d 3d 3c ce f7 3d c8 b6 b3 bd
       0.03028018 0.062006123 0.12099883 -0.08775097
