assets/model/phrase013_speech_model.pth (torch, 145844 bytes, 7 tensors)

conv1.weight f4 [64, 13, 3]
0	0x3e03e995	0.12882073
1	0x3e1c82ee	0.1528432
2	0x3da5ea55	0.08101336
3	0x3e02ef37	0.12786566
4	0xbb59738b	-0.0033180441
5	0x3d0e292e	0.03470724
6	0x3d92297c	0.07136819
7	0xbd99e575	-0.075144686
8	0xbe0d3427	-0.13789426
9	0x3d632ca1	0.055462483
10	0xbb7d6593	-0.003866528
11	0xbcd320eb	-0.025772532
12	0x3c520305	0.012818103
13	0x3dd425e8	0.103587925
14	0x3e201c1b	0.15635721
15	0x3d3dd077	0.046341386
16	0x3c502867	0.012704945
17	0xbe036e77	-0.12835108
18	0xbdfee62a	-0.12446244
19	0xbd49c876	-0.04926344
20	0xbdb89279	-0.090123124
21	0xbd34a799	-0.044105146
22	0xbd332ed5	-0.043745834
23	0x3cdad94f	0.026714949
24	0xbd94f3f8	-0.07273096
25	0x3e16ec35	0.14738543
26	0x3d02785a	0.031853057
27	0xbc809b15	-0.015698949
28	0x3e1a9fb1	0.1509998
29	0x3dc9ecb9	0.098596044
30	0xbe05de43	-0.13073067
31	0x3e27c73d	0.16384597
32	0xbe0aca0b	-0.13553636
33	0xbd9c7ad1	-0.07640613
34	0xbdba1ff6	-0.09088127
35	0x3dff5603	0.12467577
36	0x3e0da1ac	0.13831204
37	0xbdb7ebea	-0.08980544
38	0x3daabf37	0.083372526
39	0x3ae773eb	0.0017658448
40	0x3b83fb05	0.0040277266
41	0x3da5c6bc	0.08094546
42	0x3db8c304	0.09021571
43	0x3dd0e7df	0.10200476
44	0xbde8b0d4	-0.11361852
45	0x3dccd511	0.10001577
46	0xbdceb82d	-0.100937225
47	0xbd82a262	-0.06378628
48	0xbe04e6b0	-0.12978625
49	0xbdc9238b	-0.098212324
50	0xbc19ef68	-0.009395458
51	0x3dc6a1de	0.096988425
52	0x3d82d189	0.06387622
53	0xbcd323c4	-0.02577389
54	0x3de8234c	0.11334857
55	0x3c8fc052	0.01754776
56	0xbd97a808	-0.07405096
57	0x3df86d0c	0.12130174
58	0xbdc3202e	-0.09527622
59	0x3ce90710	0.02844575
60	0x3dd148a3	0.102189325
61	0x3e2e953b	0.17049114
62	0x3e2ae47a	0.1668872
63	0x3e00969e	0.12557456
64	0x3de43d93	0.11144557
65	0x3de04e47	0.1095243
66	0xbc584be5	-0.013201688
67	0xbdac9117	-0.08426111
68	0xbda23801	-0.07920838
69	0xbe1b1051	-0.15142943
70	0xbc397a0a	-0.0113206
71	0x3d6b7cf3	0.057492208
72	0xbd9f0d3c	-0.07766196
73	0xbcb22eb1	-0.02175078
74	0x3e155900	0.14584732
75	0xbb806101	-0.0039178138
76	0xbd7455f4	-0.059652284
77	0x3d1004b9	0.035160754
78	0x3d251c7f	0.04031038
79	0x3e160fbf	0.14654444
80	0x3d6a4123	0.057191025
81	0xbdcb223d	-0.0991864
82	0x3df79e4c	0.120907396
83	0x3ca282df	0.019837795
84	0xbe1472d0	-0.14496922
85	0xbdc6055a	-0.096689895
86	0x3d96f7ae	0.0737146
87	0xbe19e904	-0.15030295
88	0x3d8d1d8d	0.06890402
89	0xbdfa6544	-0.12226346
90	0xbdd67dc4	-0.10473207
91	0x3ccea58e	0.025225427
92	0x3db6e583	0.08930495
93	0x3dd364dd	0.103219725
94	0x3d9dd6ad	0.07706962
95	0x3c5c64b9	0.0134517485
96	0x3e060686	0.13088426
97	0x3e173445	0.14766033
98	0xbdd7b009	-0.10531623
99	0x3d8167a6	0.063185975
100	0xbdbe17a2	-0.09281851
101	0xbe17174e	-0.14754984
102	0xbc811b7f	-0.015760181
103	0xbe10186e	-0.14071819
104	0x3cbdf158	0.02318637
105	0xbe0b3ba9	-0.13596977
106	0xbd6385f7	-0.05554768
107	0xbc1807cd	-0.009279204
108	0xbd7872ce	-0.06065636
109	0xbd9d3bad	-0.07677398
110	0xbd3370cf	-0.043808755
111	0x3e1361ee	0.14392826
112	0x3c574b2d	0.013140482
113	0xbdc06c96	-0.09395711
114	0xbd777985	-0.060418624
115	0xbd72963c	-0.059225306
116	0xbdef09e9	-0.11671812
117	0xbdcdc191	-0.100466855
118	0x3c93511a	0.017983008
119	0xbd824106	-0.063600585
120	0x3db028a9	0.08601505
121	0x3dae44d7	0.08509224
122	0xbdcd8ad0	-0.10036242
123	0xbe24306a	-0.16034093
124	0x3dda8fb2	0.10671939
125	0x3de3437c	0.11096856
126	0xbdc878b6	-0.09788649
127	0xbd4120c1	-0.047150377
128	0xbc45b4d4	-0.012067039
129	0x3d35b823	0.04436506
130	0x3d7743d9	0.06036744
131	0xbe0e1b91	-0.13877703
132	0x3e1d5f86	0.1536847
133	0xb8d55386	-0.00010172189
134	0xbd75861d	-0.059942354
135	0x3d9f6b6a	0.077841595
136	0xbe256158	-0.16150415
137	0x3d3ed6f3	0.04659171
138	0x3e1b2df6	0.15154251
139	0x3dd016e3	0.10160615
140	0x3d5ae3dc	0.05343996
141	0xbbe4dd38	-0.006984379
142	0xbe1c58a0	-0.15268183
143	0xbe1f7ede	-0.1557574
144	0xbdd14949	-0.10219056
145	0xbd730555	-0.059331257
146	0x3dd48735	0.10377351
147	0xbd333aae	-0.043757133
148	0xbc34e699	-0.011041307
149	0xbc598c2d	-0.013278049
150	0xbd99c25c	-0.07507774
151	0xbdc7ab37	-0.097494535
152	0xbcba0f46	-0.022712361
153	0x3d4bc118	0.049744695
154	0x3e17799a	0.14792481
155	0x3cb46c71	0.022024365
156	0x3de69f5b	0.112608634
157	0xbe11d0c6	-0.14239797
158	0x3c73e18f	0.01488532
159	0xbc4b1009	-0.01239396
160	0x3e091986	0.13388643
161	0xbda21c16	-0.07915513
162	0xbb603f94	-0.0034217583
163	0x3ddc7ec0	0.10766363
164	0xbd979ee1	-0.074033506
165	0x3e1aa3ea	0.15101591
166	0x3e17a426	0.14808711
167	0xbd60d488	-0.054890186
168	0xbdcd12cb	-0.1001335
169	0xbd5f29ff	-0.05448341
170	0x3ca9c4d7	0.020723743
171	0x3ce2e6d6	0.027697962
172	0x3d91bf9f	0.07116627
173	0xbddf06e5	-0.10889987
174	0x3dc1f49c	0.09470484
175	0x3d9bb715	0.076032795
176	0x3dc289a1	0.09498907
177	0xbd913279	-0.07089705
178	0x3d8480c6	0.06469874
179	0xbe06457f	-0.13112448
180	0xbb60e37e	-0.0034315283
181	0x3d0e059b	0.034673315
182	0xbd0c91b5	-0.034318645
183	0xbde2fce5	-0.11083392
184	0x3dbd783e	0.0925145
185	0x3c03493e	0.008013068
186	0x3db2d9a2	0.087329164
187	0xbc7a4462	-0.015275093
188	0xbdc61e02	-0.09673692
189	0xbdedd77a	-0.116133645
190	0xbb89e0f6	-0.0042077256
191	0x3ce58265	0.028016279
192	0xbe0abcbb	-0.13548557
193	0xbd4c359c	-0.049855813
194	0x3dd372c1	0.10324622
195	0x3d6da10b	0.05801491
196	0x3dd7c993	0.10536494
197	0xbcb1e8d3	-0.021717465
198	0xbd59fe3a	-0.053220965
199	0xbdd33b3d	-0.10314033
200	0xbcd15848	-0.025554791
201	0x3de327d0	0.11091578
202	0x3d765742	0.06014181
203	0x3d722247	0.05911472
204	0xbd94ee6e	-0.07272039
205	0xbbb2f299	-0.005461049
206	0x3dc38c58	0.09548253
207	0x3cf21183	0.029549366
208	0x3e072ab6	0.13199887
209	0xbd50d8e7	-0.050988104
210	0xbdd59666	-0.10429077
211	0x3d547327	0.05186763
212	0xbc8dd032	-0.01731119
213	0xbc590990	-0.013246909
214	0x3d9f5988	0.077807486
215	0xbdd565e0	-0.10419822
216	0x3d243004	0.040084854
217	0xbe0ef097	-0.13958965
218	0x3d58a37f	0.052890297
219	0xbddaacbe	-0.10677479
220	0x3e21f379	0.15815534
221	0xbe0c9846	-0.13729963
222	0x3e0be2ca	0.13660732
223	0xbe0208b6	-0.12698635
224	0xbcde48c9	-0.027134316
225	0x3e066203	0.13123326
226	0x3bff4869	0.0077906144
227	0xbca2340f	-0.019800214
228	0xbe10dc9e	-0.14146659
229	0xbe0d50ac	-0.13800305
230	0xbb8846c6	-0.0041588275
231	0x3e1c18e3	0.15243869
232	0xbb240cbf	-0.0025032011
233	0xbd3f6722	-0.046729214
234	0x3e19f3d7	0.15034424
235	0xbe18114a	-0.14850345
236	0x3e0cb2ef	0.13740133
237	0x3e04cae7	0.12968026
238	0x3cccb051	0.024986418
239	0x3c3e6ae0	0.011622161
240	0x3e2082f7	0.15674959
241	0x3dd849ca	0.10560949
242	0x3c47eeb4	0.012202907
243	0x3c2fac66	0.010722255
244	0xbda9f9a3	-0.082995676
245	0xbded9ba0	-0.11601949
246	0x3be136c3	0.006872983
247	0x3e07384c	0.1320507
248	0x38dd5a3c	0.00010554909
249	0x3dfff1f5	0.124973215
250	0xbd3ca7cb	-0.046058457
251	0xbd88bb58	-0.06676358
252	0x3d9d46af	0.076794975
253	0xbe13d1ea	-0.14435545
254	0x3dbf20af	0.09332406
255	0x3e2a94ec	0.16658372

conv1.bias f4 [64]
0	0xbe1187d3	-0.14211969
1	0x3cdd1cbb	0.026991239
2	0xbe1fdb67	-0.15611039
3	0xbdc7d593	-0.09757533
4	0xbdd34331	-0.1031555
5	0xbe25f5cd	-0.16207047
6	0xbe11c1d4	-0.14234096
7	0xbccb6d28	-0.024832323
8	0x3d894673	0.0670289
9	0xbc9a42dd	-0.018830711
10	0x3b76dd7a	0.0037668631
11	0xbdc76c1f	-0.09737419
12	0xbe298457	-0.1655439
13	0xbe1d6386	-0.15369996
14	0xbdbf0018	-0.0932619
15	0xbdb37a18	-0.08763522
16	0x3adc6d35	0.0016817214
17	0x3bcf5f16	0.006328474
18	0x3dda44b6	0.10657637
19	0xbdd4d873	-0.10392847
20	0x3c41b80b	0.011823664
21	0xbc9fabb7	-0.01949106
22	0xbbf20691	-0.0073860367
23	0x3e0383b2	0.12843207
24	0xbb843a2b	-0.0040352545
25	0x3d8361df	0.06415152
26	0x3d5710f5	0.052506406
27	0xbc5c2e84	-0.013438825
28	0x38851570	6.345927e-05
29	0x3cf11a8c	0.029431604
30	0xbba977f3	-0.0051717698
31	0x3b1f540a	0.0024311566
32	0xbddb4918	-0.10707301
33	0xbd89ff49	-0.06738145
34	0x3ca3ec79	0.02001022
35	0x3def3fce	0.11682092
36	0xbddab9bf	-0.106799595
37	0x3d6c2821	0.057655457
38	0x3cc4bf3a	0.024016965
39	0x3ca4389d	0.020046527
40	0x3e0f3800	0.13986206
41	0xbd88fcad	-0.06688819
42	0x3c03e8fc	0.008051153
43	0x3d8a7d2b	0.06762155
44	0x3d56564c	0.052328393
45	0xbdeedaf5	-0.116628565
46	0x3e056e8f	0.13030456
47	0xbdcf12b3	-0.101109885
48	0x3d7b0583	0.061284553
49	0x3d953d1b	0.072870456
50	0xbd21e996	-0.039529406
51	0xbdfb8a98	-0.12282294
52	0xbe1af37d	-0.15131946
53	0x3dc90539	0.09815449
54	0xbde32f05	-0.11092953
55	0x3dc6aa40	0.09700441
56	0x3e13ab55	0.14420827
57	0x3c4fc7c7	0.012681908
58	0xbd875b46	-0.06609206
59	0x3e007483	0.12544446
60	0xbd37ff9e	-0.04492151
61	0x3d32b59b	0.043630224
62	0xbe114fdc	-0.1419062
63	0xbcd8bde5	-0.026457736

conv2.weight f4 [128, 64, 3]
0	0xbd33aab7	-0.04386398
1	0xbd89443c	-0.06702468
2	0xbc2746b0	-0.010209724
3	0xbd8994c7	-0.0671783
4	0xbd8f701b	-0.07003804
5	0xbd6a81ec	-0.05725281
6	0x3c73bb95	0.014876266
7	0x3d83dad8	0.064382255
8	0xbd5f1a8d	-0.05446868
9	0x3d4ba673	0.049719285
10	0xbce1e825	-0.027576515
11	0x3d2d69ee	0.04233735
12	0xbd812eef	-0.0630778
13	0x3d586de2	0.052839167
14	0xbd84607f	-0.06463718
15	0xbd09fd11	-0.03368861
16	0x3b70afc9	0.003672587
17	0xbd22eedc	-0.039778575
18	0x3d8404b0	0.064462066
19	0xbcbdeb05	-0.023183355
20	0x3c406211	0.011742131
21	0x3ce45ef9	0.027877318
22	0xbd1ade04	-0.037809387
23	0x3d4d664f	0.050146397
24	0x3d23561b	0.03987704
25	0x3d6ba3db	0.05752931
26	0xbd1ea8ae	-0.038735084
27	0xbc8e4952	-0.017368946
28	0xbbc50c65	-0.0060134404
29	0x3d462387	0.048373725
30	0xbcf94168	-0.030426696
31	0xbd75294c	-0.059853837
32	0x3d8972b1	0.06711329
33	0xbceb6297	-0.028733535
34	0x3cfb4ec4	0.030677207
35	0x3cc10df4	0.023566224
36	0x3cbcaf45	0.023032794
37	0xbcc39430	-0.023874372
38	0x3c843f3a	0.01614343
39	0xbd2d348c	-0.04228644
40	0x3c78a6a7	0.015176452
41	0x3c503d7f	0.012709974
42	0x3d0ffc19	0.03515253
43	0x3d7f9363	0.06239642
44	0xbd596eb9	-0.05308411
45	0x3d7428a3	0.059609067
46	0x3bf1f972	0.0073844725
47	0x3bef2d03	0.007299067
48	0x3c9ca7bc	0.01912295
49	0x3d6bb3ed	0.057544637
50	0x3d31c4ac	0.04340045
51	0xbd791451	-0.06081039
52	0xbd6572c7	-0.056017663
53	0x3c1eaf96	0.009685418
54	0x3d6444af	0.055729564
55	0xbc3c654d	-0.011498761
56	0x3b9b196f	0.0047332565
57	0x3c64dad8	0.013968192
58	0x3d443e3a	0.047910906
59	0xbc4749e5	-0.012163614
60	0x3d404f6f	0.046950754
61	0x3d12be9e	0.035826318
62	0xbbf46ac2	-0.0074590156
63	0xbd071554	-0.032979324
64	0x3c17194f	0.009222343
65	0xbd0e6922	-0.03476823
66	0x3c674590	0.014115706
67	0x3bcc23b8	0.006229844
68	0x3d2ae26b	0.041719835
69	0xbd2f6ebf	-0.042830225
70	0x3d33de5b	0.043913227
71	0xbc2cb794	-0.010541815
72	0x3d894167	0.06701928
73	0xbc94778d	-0.018123413
74	0xbd0527f1	-0.032508794
75	0x3d009355	0.031390507
76	0x3d75ea7a	0.060038067
77	0x3c6c3ee9	0.014419296
78	0x3d205152	0.039140053
79	0xbc6b0e5c	-0.014346685
80	0xbd76f1fb	-0.060289364
81	0x3d12fd9d	0.035886396
82	0xbc0ed3df	-0.008717506
83	0xbb8f8366	-0.0043796776
84	0xbd05bd6f	-0.03265136
85	0x3d8b9022	0.068146005
86	0x3d3c4dc7	0.04597261
87	0xbb924ed6	-0.0044649644
88	0x3d1a22cd	0.037630845
89	0x3d852ab3	0.06502285
90	0xbcbbf8d4	-0.022945799
91	0x3d8e2e41	0.06942416
92	0xbd620fbf	-0.055190798
93	0xbd14f6e8	-0.03636828
94	0xbd8abe1b	-0.06774541
95	0x3d67967a	0.05653999
96	0xbac92b74	-0.0015348033
97	0x3cf59648	0.029978886
98	0xbc7b9c38	-0.01535707
99	0x3ca7ff2d	0.02050742
100	0x3c637b33	0.013884353
101	0xbd293e19	-0.041318987
102	0x3d7e6c69	0.062115107
103	0x3cdf3f05	0.02725173
104	0xbbb788cb	-0.005601024
105	0xbd01f26d	-0.031725336
106	0xbd3d2982	-0.046182163
107	0xbd2e4b37	-0.0425522
108	0xbcd45e2c	-0.02592381
109	0xbb4d54ce	-0.0031331065
110	0xbaf4cfd6	-0.0018677663
111	0xbd181ed5	-0.03713878
112	0xbd8e3352	-0.06943382
113	0xbd5976ca	-0.0530918
114	0x3d1cd5d2	0.038289852
115	0xbc1b0036	-0.0094604995
116	0xbc0f7c82	-0.008757712
117	0xbd0b7a45	-0.034052152
118	0xbcf980f0	-0.03045699
119	0xbd22894e	-0.039681725
120	0xbd2dbfc6	-0.042419218
121	0x3c582c28	0.013194121
122	0x3d64e450	0.0558818
123	0xbc0bd801	-0.008535386
124	0x3d94a131	0.07257307
125	0x3bdf943f	0.0068230922
126	0x3c39d6bd	0.0113427015
127	0x3cec7e1e	0.028868731
128	0x3d6aae0d	0.057294894
129	0xbd152a45	-0.036417264
130	0xbb77bb52	-0.003780086
131	0x3cc2836e	0.023744311
132	0x3d91c38c	0.07117376
133	0xbd720fa1	-0.059096936
134	0x3d532b83	0.051555168
135	0x3c82553f	0.01590979
136	0xbd92f77d	-0.07176111
137	0x3d6798ee	0.05654233
138	0xbd59b7f8	-0.053153962
139	0xbd71d31c	-0.05903922
140	0x3d5e202f	0.05422991
141	0x3d4b715e	0.049668662
142	0xbd37c1d5	-0.044862587
143	0xbcdc6c4f	-0.026907114
144	0xbaf6f595	-0.00188415
145	0xbce27b68	-0.027646735
146	0xba31032c	-0.0006752487
147	0x3b8ae098	0.0042381994
148	0xbd541922	-0.05178178
149	0xbd5ab4f7	-0.053395238
150	0xbc7275e2	-0.014798613
151	0xbcfd43cd	-0.030916119
152	0x3d82e76c	0.063917965
153	0x3ca74692	0.020419393
154	0xbd5220ef	-0.05130094
155	0xbc8b6fd0	-0.01702109
156	0x3d9b09eb	0.07570251
157	0x3cb75a6a	0.02238198
158	0x3d94429f	0.072392695
159	0x3ce13c53	0.027494585
160	0x3c474e5f	0.012164681
161	0xbb0aa7a5	-0.0021157053
162	0xbd2d094f	-0.042245205
163	0xbd5d9168	-0.05409375
164	0x3d1b4855	0.037910778
165	0xbc89ef27	-0.01683767
166	0x3bf4faae	0.0074761724
167	0x3c1f62cd	0.009728146
168	0xbb9f246e	-0.0048566377
169	0xbcfda3fa	-0.03096198
170	0xbc8c8d44	-0.017157204
171	0x3c2fab6b	0.010722022
172	0xbc558b54	-0.013033707
173	0xbca9abf1	-0.02071187
174	0x3d1b6c7a	0.03794525
175	0x3d8eb1cb	0.06967505
176	0xbcf84b9e	-0.030309495
177	0xbce7acf3	-0.02828071
178	0x3d5e33c3	0.054248583
179	0x3c90dfb7	0.0176848
180	0xbd8df41b	-0.06931325
181	0x3c4c6044	0.012474123
182	0x3d7c4df0	0.061597764
183	0xbd61ba63	-0.055109393
184	0x3d2b9761	0.041892413
185	0x3ca3b5fa	0.019984234
186	0x3d0f0d80	0.034924984
187	0x3d31f3bc	0.043445334
188	0x3d02c721	0.031928185
189	0x3d65e343	0.056124937
190	0xbd860a36	-0.06544916
191	0x3d66b5d4	0.05632575
192	0xbd38844b	-0.04504804
193	0x3bec4ae1	0.0072110747
194	0x3d844d01	0.0646
195	0x3d862b9e	0.06551288
196	0x3d2f9b8e	0.042872958
197	0x3d203cb5	0.039120395
198	0xbbd8a032	-0.0066108936
199	0x3c86e9a4	0.01646883
200	0x3ca4014e	0.020020153
201	0xbd4d9c0c	-0.050197646
202	0xbd8f469a	-0.06995888
203	0xbd58ab75	-0.05289789
204	0x3d02e5d0	0.031957448
205	0x3d396154	0.045258835
206	0xbc6f7991	-0.014616386
207	0x3d298923	0.04139055
208	0x3aeef422	0.0018230716
209	0xbca40342	-0.020021085
210	0xbd91c18f	-0.071169965
211	0x3d400d2c	0.04688756
212	0x3d045136	0.03230401
213	0xbd52208a	-0.051300563
214	0x3d5866dc	0.05283247
215	0xbd73d96c	-0.05953352
216	0xbc015980	-0.007894874
217	0xbd8b71e8	-0.06808835
218	0xbc5d0df9	-0.013492101
219	0xbd393409	-0.04521564
220	0x3d655769	0.055991564
221	0x3b2bb740	0.0026201755
222	0xbd08f5ed	-0.033437658
223	0x3c0da517	0.0086453175
224	0xbcaabd4f	-0.020842222
225	0x3d8c7278	0.06857771
226	0x3d7c32eb	0.061571997
227	0xbb11dd93	-0.0022257313
228	0xbd93649b	-0.07196923
229	0x3d588220	0.052858472
230	0x3c7624c5	0.015023415
231	0xbcafbd7c	-0.021452658
232	0x3ce00bbd	0.027349347
233	0x3ca616f9	0.020274626
234	0x3d1f3cee	0.038876466
235	0xbd96cbfd	-0.073631264
236	0xbd681714	-0.056662634
237	0x3c185121	0.009296686
238	0xbc8eda27	-0.017438008
239	0xbcd1013f	-0.02551329
240	0x3ccc2585	0.024920234
241	0x3d3b61bb	0.0457475
242	0xbcf6d822	-0.030132357
243	0x3d036d03	0.032086384
244	0xbcb68617	-0.022280736
245	0x3d5a4a74	0.05329366
246	0xbd8a3c7c	-0.06749818
247	0x3b097c04	0.002097846
248	0x3cd27561	0.025690736
249	0x3d64f21a	0.05589495
250	0x3d476eaa	0.04868952
251	0xbd8013a3	-0.062537454
252	0xbd94b07a	-0.07260223
253	0x3d1976be	0.037466757
254	0x3ce94dad	0.028479422
255	0x3c854b7d	0.016271347

conv2.bias f4 [128]
0	0x3ca5bd13	0.02023176
1	0x3b1de12f	0.0024090519
2	0x3d8f3f2f	0.06994473
3	0x3bee0adc	0.007264478
4	0xbd0fa760	-0.03507173
5	0x3cb89a13	0.022534406
6	0xbd924125	-0.071413316
7	0x3d18535a	0.037188865
8	0xbd92045f	-0.0712974
9	0x3d070cbc	0.03297113
10	0x3c53768f	0.012906685
11	0x3ceaf6f1	0.028682204
12	0x3ccf4106	0.02529956
13	0xbcdb44c1	-0.026766183
14	0xbd58cb46	-0.05292823
15	0xbd7924b1	-0.060826007
16	0x3bbadcbe	0.005702584
17	0x3c53a40c	0.01291753
18	0x3cc2067b	0.02368473
19	0xbd6c3c28	-0.057674557
20	0xbd896556	-0.067087814
21	0x3d77296e	0.060342245
22	0x3cbeb23e	0.023278352
23	0x3c34597a	0.011007661
24	0x3d7b1481	0.06129885
25	0x3d29fd18	0.041501135
26	0x3cf55dc8	0.029951945
27	0x3d430748	0.047614366
28	0xbb9d0470	-0.0047917888
29	0xbcbc015d	-0.022949869
30	0xbc22d676	-0.009938827
31	0x3d92572f	0.07145535
32	0x3d1b5722	0.037924893
33	0x3ba3ac41	0.0049948995
34	0xbd5e9dab	-0.054349583
35	0xbd40c330	-0.047061145
36	0x3d678ade	0.05652892
37	0xbceac536	-0.02865849
38	0x3d69c073	0.0570683
39	0x3b759679	0.0037473722
40	0x3bf456ae	0.007456622
41	0xbc07108d	-0.008243692
42	0xbd76a322	-0.06021417
43	0xbd11ef5c	-0.03562866
44	0xbd6a2284	-0.057161823
45	0xbd26ad86	-0.04069283
46	0x3c4f49ae	0.012651844
47	0x3c947189	0.018120544
48	0x3d638709	0.0555487
49	0x3bfa75c4	0.0076434333
50	0xbd092232	-0.033479877
51	0x3d5e3eb3	0.054259013
52	0xbd87dab3	-0.066335104
53	0x3d05ed6a	0.03269712
54	0xbc11ad1c	-0.00889137
55	0xbd2a1f4f	-0.041533764
56	0x3bf7aa8e	0.0075581735
57	0x3d6d4926	0.057931088
58	0xbcc70e53	-0.024298823
59	0x3cf26414	0.029588737
60	0x3d8adeb8	0.067807615
61	0xbd001600	-0.03127098
62	0xbc859cb2	-0.01631007
63	0x3b6b20b8	0.0035877656
64	0x3d142e07	0.036176708
65	0x3d2af91d	0.04174148
66	0xbbe153c6	-0.0068764417
67	0xbcf5a0fc	-0.02998399
68	0x3d660e74	0.056166127
69	0xbd4e831a	-0.050417997
70	0xbd2d03d4	-0.04223998
71	0x3cbb6b8f	0.022878436
72	0xbd0ee730	-0.034888446
73	0x3d0e3444	0.034717813
74	0xbcfa93fc	-0.030588143
75	0x3c43c377	0.011948458
76	0x3acdc2b3	0.0015698284
77	0xbd20c0b4	-0.039246276
78	0xbad1ca46	-0.0016005717
79	0xbd1aab2c	-0.0377609
80	0xbd82ef7f	-0.063933365
81	0x3c985986	0.018597376
82	0x3c6311fe	0.01385927
83	0xbca6d99b	-0.020367434
84	0x3c858047	0.016296519
85	0xbd447f76	-0.04797312
86	0xbd72c0e9	-0.059266005
87	0xbd90b77c	-0.07066247
88	0xbb895856	-0.0041914387
89	0xbb019ee8	-0.0019778553
90	0xbb1c733f	-0.0023872403
91	0x3d84e41c	0.06488821
92	0x3d43a114	0.047761038
93	0xbd3e553c	-0.046468005
94	0xbd8def12	-0.06930365
95	0x3ce936c9	0.028468506
96	0xbd0d3337	-0.03447267
97	0x3ca469d5	0.020069996
98	0x3d923d63	0.07140615
99	0x3cd39253	0.025826609
100	0xbc3e1269	-0.011601069
101	0xbcd5ff1d	-0.026122624
102	0xbc3986bb	-0.011323626
103	0x3cd63fa7	0.026153399
104	0xbd0b7b1e	-0.03405296
105	0xbcddde5e	-0.027083572
106	0xbc542808	-0.012948997
107	0x3d684747	0.0567086
108	0x3c5b1754	0.013372261
109	0xbd9b98c1	-0.07597495
110	0x3ad8898a	0.0016520482
111	0xbcf895be	-0.03034484
112	0xbd488500	-0.048954964
113	0x3d27ab4e	0.040934853
114	0x3ce19a61	0.027539434
115	0x3adc7132	0.0016818403
116	0x3d285fef	0.041107114
117	0xbcafb8af	-0.021450369
118	0x3acf1b44	0.0015800972
119	0x3d06459f	0.03278124
120	0x3d09cd47	0.033643033
121	0xbd8d4d87	-0.06899553
122	0x3d3ef7c2	0.046623
123	0x3d7cf809	0.061759982
124	0x3c1676d7	0.009183607
125	0xbb44c0cc	-0.0030022142
126	0xbca42322	-0.020036284
127	0xbbe09607	-0.006853822

fc1.weight f4 [64, 128]
0	0x3c6c4b58	0.01442226
1	0xbd161906	-0.036644958
2	0xbccc3b5c	-0.024930649
3	0x3d8dc673	0.06922617
4	0x3d25b2de	0.040453784
5	0x3d2f5d6a	0.042813696
6	0xbda6adc4	-0.08138612
7	0xbd3233ae	-0.043506317
8	0xbd4691e5	-0.04847898
9	0x3d2c3d16	0.042050444
10	0xbd76c5a3	-0.060247075
11	0xbd83928d	-0.06424437
12	0xbd3b5c23	-0.045742165
13	0xbd9e4ce6	-0.07729511
14	0xbcac3190	-0.021019727
15	0xbd822b73	-0.063559435
16	0xbd1d7006	-0.038436912
17	0xbd744eee	-0.059645586
18	0xbcb4d9f4	-0.022076584
19	0x3ce30800	0.027713776
20	0x3d2f9956	0.042870842
21	0xbca28a08	-0.019841209
22	0xbc49e8e0	-0.012323588
23	0xbd96a32c	-0.07355341
24	0xbd96176e	-0.073286876
25	0x3d91b247	0.07114082
26	0x3d593e2e	0.053037815
27	0xbd3ff9dd	-0.046869148
28	0xbd505990	-0.050866663
29	0xbb4ff500	-0.0031731725
30	0xbcb42f58	-0.021995232
31	0x3cbfe618	0.023425147
32	0x3c08c6c8	0.008348174
33	0x3ca313c8	0.019906893
34	0x3c012820	0.007883102
35	0xbc829918	-0.015942141
36	0x3d481e0e	0.048856787
37	0xbcf1ac00	-0.029500961
38	0xbd61bad8	-0.05510983
39	0xbd25afc4	-0.040450826
40	0xbd99cb6c	-0.07509503
41	0x3d7da11a	0.061921217
42	0xbd948905	-0.07252697
43	0xbcd42858	-0.025898144
44	0xbc7c73a0	-0.0154084265
45	0x3acce400	0.0015631914
46	0x3c7728d0	0.015085414
47	0xbd538b4f	-0.051646527
48	0x3b1401c0	0.002258405
49	0xbc436b68	-0.011927463
50	0xbd50f2ea	-0.05101291
51	0xbdaf06ea	-0.08546241
52	0x3da09e4b	0.07842692
53	0x3c23c090	0.009994641
54	0xbc6269e8	-0.013819195
55	0xbd789e46	-0.060697816
56	0x3dae7ed3	0.085202836
57	0xbd3c0dee	-0.045911722
58	0xbced88f8	-0.028995976
59	0xbdaaddd3	-0.08343091
60	0x3bd585a0	0.0065161735
61	0x3c70a098	0.014686726
62	0xbb543dc0	-0.0032385439
63	0x3cb24dd8	0.021765634
64	0x3d060ef0	0.03272909
65	0xbd274537	-0.040837493
66	0x3da7f80d	0.08201609
67	0x3d20e72a	0.039282955
68	0x3d851197	0.064974956
69	0xbcdc51dc	-0.026894502
70	0x3d8aa1f9	0.06769175
71	0xbda476bc	-0.08030459
72	0x3d053ca2	0.032528527
73	0xbb576120	-0.0032864287
74	0x3d940ab7	0.07228606
75	0xbcc02de8	-0.02345939
76	0xbac09f80	-0.0014695972
77	0xbb93b730	-0.0045079216
78	0xbd5b5b1b	-0.05355368
79	0x3d81d547	0.063395076
80	0xbd23b7e6	-0.0399703
81	0xbd2be5f9	-0.041967366
82	0x3d295c72	0.04134793
83	0x3d84824d	0.064701654
84	0x3cae4de4	0.021277376
85	0xbd29c032	-0.041443057
86	0x3d17e45e	0.037083022
87	0xbd8df4e2	-0.06931473
88	0xbd82dd7e	-0.063899025
89	0xbc89812c	-0.016785227
90	0xbda549e6	-0.08070736
91	0xbd1db399	-0.038501356
92	0x3c5a6038	0.013328604
93	0xbc9a82a4	-0.018861122
94	0x3c593810	0.013257995
95	0xbc853340	-0.01625979
96	0x3c514060	0.012771696
97	0x3cccf5d8	0.025019571
98	0xbd32ab94	-0.04362066
99	0xbcb84dc4	-0.022498019
100	0x3d8c0ab9	0.06837983
101	0x3bd38580	0.0064551234
102	0xbcccea9c	-0.025014214
103	0x3da2690f	0.079301946
104	0xbc3f8b70	-0.011690959
105	0xbc7cc990	-0.015428916
106	0x3c618b08	0.013766058
107	0x3d644af6	0.05573555
108	0x3dade267	0.084904484
109	0xbda4bdf8	-0.08044046
110	0x3d83ba5b	0.06432029
111	0x3d54fc0a	0.051998176
112	0xbca61f2c	-0.020278536
113	0x3d90a153	0.0706202
114	0xbc55af10	-0.013042226
115	0x3d4bafa2	0.049728043
116	0xbcba9850	-0.022777706
117	0x3c074620	0.008256465
118	0xbdaea5e8	-0.08527738
119	0x3d85c463	0.065315984
120	0xbd9c3493	-0.07627215
121	0xbd444e2b	-0.04792611
122	0x3d692eb6	0.056929313
123	0xbd9d2ad3	-0.07674184
124	0xbd40823a	-0.046999194
125	0xbd362bcd	-0.044475365
126	0x3caccff0	0.021095246
127	0xbb6ad7a0	-0.003583409
128	0x3c41677e	0.01180446
129	0xbc887ccf	-0.016661076
130	0x3cc184b3	0.023622846
131	0x3da8b2c3	0.08237221
132	0x3c8a4ce3	0.016882366
133	0x3d2e7ffc	0.042602524
134	0xbd0d793f	-0.034539457
135	0x3d104ba0	0.03522837
136	0xbcc4f3bd	-0.024042005
137	0xbd85d6de	-0.06535123
138	0xbcc2bd25	-0.023771832
139	0x3c01b761	0.007917256
140	0x3d8579aa	0.06517346
141	0xbdbabad6	-0.091176674
142	0x3d5ba37a	0.0536227
143	0x3bec9498	0.007219862
144	0xbcdf4d25	-0.027258465
145	0x39e606b7	0.00043874022
146	0xbdb09f7b	-0.086241685
147	0x3c85312b	0.016258797
148	0xbdab17f4	-0.08354178
149	0x3d9388e4	0.07203844
150	0x3d51deb0	0.051237762
151	0x3beb0ee8	0.007173408
152	0x3b2f1756	0.002671679
153	0x3d8312a8	0.06400043
154	0x3a737bd9	0.0009288169
155	0xbaaa834e	-0.0013009103
156	0xbd506451	-0.05087692
157	0xbcb9964d	-0.022654677
158	0xbd4dfb63	-0.05028857
159	0xbd65d459	-0.056110714
160	0xbc2730cb	-0.010204504
161	0xbdbbb0f7	-0.09164613
162	0xbd9b54b2	-0.07584514
163	0xbd52f50a	-0.05150322
164	0xbd605f32	-0.054778285
165	0xbcd4fea6	-0.026000332
166	0xbd25d6d1	-0.040488068
167	0x3d9db537	0.077005796
168	0x3daa4b94	0.08315197
169	0xbd966e8f	-0.07345306
170	0xbd84ca0f	-0.06483852
171	0xbd8cd936	-0.06877367
172	0xbce7a1cb	-0.028275391
173	0x3d813dda	0.063106254
174	0x3da6e75a	0.081495956
175	0xb90932a0	-0.00013084197
176	0xbdb1fc9f	-0.08690762
177	0x3cf0359a	0.029322434
178	0xbbfb3ec9	-0.0076673967
179	0xbc4ce4eb	-0.01250575
180	0xbdbb40dc	-0.0914323
181	0xbc238c93	-0.009982246
182	0xbd21f483	-0.039539825
183	0xbd98a6b4	-0.07453671
184	0x3cfc5390	0.030801564
185	0xbccd2979	-0.02504419
186	0xbd096ad1	-0.033549134
187	0xbd77adbf	-0.06046843
188	0xbd519d93	-0.051175665
189	0xbdbbe898	-0.09175223
190	0xbc7310d4	-0.014835555
191	0xbcbb7925	-0.022884915
192	0x3d77a2ae	0.060457878
193	0xbd6e6f22	-0.058211453
194	0x3c81144b	0.015756747
195	0xbc3eb6a3	-0.011640224
196	0xbd5e3ce8	-0.054257303
197	0xbd7782b9	-0.0604274
198	0x3cc56e1f	0.024100361
199	0x3bbdef61	0.0057963585
200	0xbca46d05	-0.020071516
201	0x3d9619d7	0.07329147
202	0xba3de07d	-0.0007243229
203	0xbc08f204	-0.008358482
204	0x3cd74431	0.026277633
205	0x3ca7ae53	0.020468866
206	0x3d732d9b	0.059369665
207	0x3d50d838	0.050987452
208	0x3cc61ebb	0.024184575
209	0x3d97542a	0.073891
210	0xbd887dd4	-0.06664625
211	0x3da7882a	0.08180268
212	0xbd45f475	-0.048328836
213	0x3d671f99	0.05642662
214	0x3cf0c270	0.02938959
215	0x3d661b74	0.056178525
216	0x3d88a3cc	0.06671867
217	0xbcc768e5	-0.02434201
218	0xbd15b590	-0.036550105
219	0xbc922581	-0.017840149
220	0xbc980092	-0.01855496
221	0x3d5f81f0	0.054567277
222	0x3d27f17c	0.04100178
223	0xbd9441e3	-0.072391294
224	0x3abf945d	0.0014616359
225	0xbdb6cb5e	-0.08925508
226	0xbd237b5b	-0.039912563
227	0xba87c8bf	-0.001035951
228	0x3d8a7dcc	0.06762275
229	0x3c194050	0.009353712
230	0xbd189266	-0.03724899
231	0x3d91c75c	0.07118103
232	0xbd4ee94c	-0.050515458
233	0xbdaae197	-0.08343809
234	0x3cf2e284	0.029649027
235	0xbbdc810d	-0.0067292512
236	0x3d60f304	0.054919258
237	0x3d0ebc95	0.034847815
238	0xbd2e5734	-0.042563632
239	0x3d6e988e	0.058250956
240	0xbd8ce7d1	-0.06880153
241	0xbd44d765	-0.04805698
242	0xbdbba57a	-0.091624215
243	0x3da92a3c	0.08260009
244	0xbc50f2ea	-0.012753228
245	0x39ebf351	0.00045003978
246	0x3d591006	0.052993797
247	0xbd80146b	-0.062538944
248	0x3d8da405	0.0691605
249	0xbd615087	-0.055008437
250	0x3ca3b2d4	0.019982733
251	0x3d3fcc20	0.04682553
252	0xbd769468	-0.060200125
253	0xbcedf654	-0.029048122
254	0xbc17ff6c	-0.009277206
255	0xbcfefb84	-0.031125791

fc1.bias f4 [64]
0	0x3d2527da	0.04032121
1	0xbcbbb219	-0.022912072
2	0xbcf85863	-0.030315584
3	0xbdb2f141	-0.08737422
4	0xbd538684	-0.051641956
5	0xbc0a8479	-0.0084544355
6	0xbda55a9d	-0.08073924
7	0xbdc3e187	-0.095645
8	0xbacf3380	-0.0015808195
9	0xbb8f7600	-0.0043780804
10	0x3d16401e	0.03668224
11	0xbda000fd	-0.078126885
12	0x3d4ede82	0.05050517
13	0x3da3da71	0.08000649
14	0xbd90b584	-0.07065871
15	0x3ccaa590	0.02473715
16	0x3b8a2b40	0.0042165816
17	0xbd95950c	-0.07303819
18	0x3d897940	0.0671258
19	0x3d3642b2	0.0444972
20	0x3d00c6d2	0.03143961
21	0x3cb919f9	0.022595393
22	0x3d28070b	0.04102234
23	0x3d8d6476	0.06903927
24	0xbd5f5085	-0.05452015
25	0xbd09fb94	-0.03368719
26	0x3c9f7802	0.019466404
27	0x3d1041c8	0.035218984
28	0xbd900356	-0.07031886
29	0xbd483d02	-0.048886307
30	0x3d925d9c	0.07146761
31	0xbd6f51e0	-0.05842769
32	0x3d2f9424	0.042865887
33	0x3d0bb5b2	0.034108825
34	0xbda76d77	-0.08175176
35	0xbc9b2203	-0.018937116
36	0xbb4c2a00	-0.0031152964
37	0xbd1d8f8e	-0.038466983
38	0xbdb1e207	-0.086856894
39	0x3d4d3ae6	0.050104998
40	0xbca32db4	-0.019919254
41	0xbda35e39	-0.07976956
42	0x3a111c00	0.00055354834
43	0x3a98bee5	0.0011653571
44	0xbd940d25	-0.072290696
45	0xbd4ba831	-0.049720947
46	0xbd672b26	-0.056437634
47	0xbc9e8bd6	-0.019353788
48	0xbdae4df2	-0.08510961
49	0xbd6ef6a3	-0.05834068
50	0x3d32cf76	0.04365488
51	0x3d46a28e	0.048494868
52	0x3c5e8938	0.01358252
53	0xbd2ccce0	-0.04218757
54	0xbdb617fb	-0.08891293
55	0x3dac582b	0.08415254
56	0x3ceeb1c1	0.029137494
57	0xbd5baf43	-0.05363394
58	0xbbf66740	-0.0075196326
59	0x3d78ff02	0.06079007
60	0x3c0d77b4	0.0086344965
61	0xbd758d37	-0.059949126
62	0x3c12cd5c	0.008960094
63	0x3d914243	0.070927165

fc2.weight f4 [1, 64]
0	0x3d0fdf34	0.035124972
1	0x3d823df3	0.06359472
2	0xbdbc5191	-0.09195245
3	0x3dcd15ce	0.100139245
4	0xbc6c0ae9	-0.014406898
5	0x3d83fb6d	0.0644444
6	0xbde2124d	-0.11038647
7	0x3d854dcc	0.06508979
8	0xbb7844c0	-0.0037882775
9	0x3df0abdc	0.117515296
10	0xbcf3f9f0	-0.029782265
11	0x3de694d4	0.112588555
12	0x3de5716e	0.112032756
13	0x3d784d50	0.060620606
14	0xbd8f60bf	-0.07000875
15	0xbabcd8fc	-0.0014407928
16	0x3dce657e	0.10077952
17	0xbd041d39	-0.03225443
18	0xbcfb6221	-0.03068644
19	0x3d5ba552	0.05362446
20	0xbc604e27	-0.013690508
21	0xbb40798d	-0.0029369325
22	0xbd90710d	-0.07052813
23	0xbd27ab8b	-0.04093508
24	0x3dcb352e	0.099222526
25	0x3de96e95	0.11398045
26	0x3dc644de	0.09681104
27	0xbd14288e	-0.03617149
28	0xbd8d32dd	-0.06894467
29	0x3cb691d5	0.022286335
30	0xbdf24a09	-0.11830527
31	0xbdd7628c	-0.10516843
32	0x3dde121c	0.10843298
33	0xbdc63c52	-0.09679474
34	0xbdec9ffb	-0.11553951
35	0x3dbdb75e	0.0926349
36	0xbdad03cc	-0.0844799
37	0xbdbf4916	-0.09340112
38	0x3bbc7916	0.0057517393
39	0xbdb02612	-0.08601011
40	0x3d6f6eec	0.058455393
41	0x3d60a331	0.05484313
42	0x3d1652c0	0.03670001
43	0xbd43c188	-0.047791988
44	0xbdab4b44	-0.08363965
45	0x3d705238	0.05867216
46	0x3d14708c	0.036240146
47	0xbb5f55ac	-0.0034078164
48	0x3dcb2682	0.09919454
49	0x3c051d28	0.008124627
50	0x3decb166	0.115572736
51	0x3d8b25be	0.06794308
52	0xbcf16700	-0.02946806
53	0x3db98518	0.09058589
54	0xbdd737f9	-0.10508723
55	0xbd3a50b0	-0.045487106
56	0xbbc2e368	-0.005947519
57	0xbd729bdc	-0.05923067
58	0x3db095b6	0.08622305
59	0xbd6cc908	-0.057808906
60	0xbd8ac1e6	-0.067752644
61	0xbdda905c	-0.106720656
62	0x3d7156c5	0.05892064
63	0xbdaf306a	-0.08554156
