assets/model/phrase004_speech_model.pth (torch, 145844 bytes, 7 tensors)

conv1.weight f4 [64, 13, 3]
0.076918654 0.09138313 0.10936376 -0.036874242 -0.13806821 -0.048566874 0.0055022226 0.03900806
-0.04238104 0.13464123 0.104483254 0.1551241 -0.02869351 -0.107207924 0.067105375 -0.08882783
-0.073916696 0.11446579 0.050544 -0.14264764 -0.06797839 -0.040599074 0.019373965 -0.073871545
0.12891689 -0.0074098073 0.13318436 0.15239032 0.14865018 -4.585672e-05 -0.058767706 0.008652244
-0.11184104 -0.11698755 -0.124022014 -0.057972554 -0.10840925 -0.12926137 -0.073327 -0.11240589
0.019952191 0.08799784 0.10391921 0.14805655 -0.14912114 0.048272837 0.058206365 0.09942674
-0.04864137 0.112706594 -0.13471764 -0.08389625 0.020046012 0.08277598 -0.007993941 -0.06693464
-0.023820687 0.12684985 0.0032414573 0.07672055 0.072653115 0.055340476 -0.14478187 -0.15520658
0.04857782 0.021500174 0.1538268 -0.13859446 0.049265575 -0.15929826 0.07017935 -0.14396869
-0.0012471704 -0.14908572 -0.006675823 -0.040868454 -0.052992396 -0.11061681 -0.020326877 -0.13848326
0.07262616 -0.14279343 0.007796247 -0.030330814 0.08919746 -0.14106385 0.15895018 -0.14053006
0.05355024 -0.1511102 -0.004646547 -0.08676943 0.0030439328 0.1434837 -0.13250405 0.07201966
0.017881393 -0.078945324 -0.11974083 0.018051885 0.13704458 0.081427746 0.021591548 0.056026086
-0.019990366 0.06650961 0.14295673 -0.0017906761 -0.083309025 -0.1416374 -0.09041877 -0.059020806
0.14124358 -0.11641994 -0.08232547 0.104345985 -0.088356316 -0.062870085 -0.08591001 0.057361983
-0.004826653 -0.037596624 -0.012951249 0.026621047 0.1568388 -0.10404323 -0.052797418 0.015870888
-0.11591027 0.10107785 -0.09860622 0.009569399 0.060364656 -0.038617186 -0.06831157 0.15296651
0.08944669 -0.030249875 -0.036788903 -0.06661388 -0.051887706 0.11220666 -0.1586335 0.10832754
0.1258183 -0.09014886 0.075736634 0.08079561 -0.001104477 0.080511674 -0.07913846 0.070873246
0.05363683 -0.006552546 -0.056638747 -0.11285588 -0.07914005 -0.08953664 -0.10200297 0.09220263
0.030508077 0.12690505 0.072607115 -0.11095267 -0.08857149 0.14962234 0.06508113 0.059642058
0.0366601 0.03989803 0.041533582 0.15172546 0.17127769 -0.099804536 0.03189526 -0.039476234
0.16910765 0.081230775 0.07445312 -0.04971894 -0.010189035 -0.056798108 0.12811959 -0.009694701
-0.04488522 -0.13117588 -0.004044299 -0.085303895 -0.08306676 0.0861419 -0.053034853 0.07763775
0.023712853 0.17086989 0.07485397 0.09428792 -0.043847904 -0.14721239 0.047172617 0.08031347
-0.14025699 -0.1477378 0.1187634 -0.0028033461 -0.098922886 -0.11567644 -0.14048862 -0.10562049
0.10504588 0.15889718 -0.040946048 -0.14750756 -0.00909353 -0.14909925 -0.04059505 0.08334729
0.14335658 0.065195836 -0.011996496 0.0493014 0.07371047 -0.069415204 0.06861137 0.07684622
-0.06585702 -0.044400997 0.12105631 -0.14779608 -0.006384439 -0.12375269 -0.0148211215 0.15931363
0.16117877 0.15924302 0.14823532 -0.038940717 -0.03603539 -0.0728434 -0.0714493 -0.08952515
0.0799805 0.056884278 -0.15807159 -0.014636412 0.017648296 -0.082576714 -0.122245416 0.0131339785
-0.008081273 -0.10717476 0.15409912 -0.1516029 0.08617734 -0.076204024 -0.062698714 0.04856712
00000000: 8787 9d3d 1427 bb3d 1bfa df3d 7209 17bd
00000010: c161 0dbe 0fee 46bd fd4b b43b eac6 1f3d
00000020: be97 2dbd 64df 093e 51fb d53d dad8 1e3e
00000030: a70e ebbc d48f dbbd 8b6e 893d 5eeb b5bd
00000040: a361 97bd 0a6d ea3d 3a07 4f3d 3912 12be
00000050: 4138 8bbd 374b 26bd 26b6 9e3c f749 97bd
00000060: ca02 043e f8cd f2bb 7b61 083e 350c 1c3e
00000070: c137 183e 4756 40b8 68b6 70bd 24c2 0d3c
00000080: ea0c e5bd 2b97 efbd 41ff fdbd a174 6dbd
00000090: ab05 debd 185d 04be 772c 96bd 0f35 e6bd
000000a0: c772 a33c 3638 b43d 98d3 d43d 239c 173e
000000b0: 36b3 18be bdb9 453d cc69 6e3d 3fa0 cb3d
000000c0: 2c3c 47bd b7d2 e63d 6cf3 09be ccd1 abbd
000000d0: 8937 a43c 7486 a93d 05f9 02bc 0715 89bd
000000e0: 9a23 c3bc ede4 013e a16e 543b aa1f 9d3d
000000f0: 28cb 943d b2ac 623d b341 14be 79ee 1ebe
00000100: 89f9 463d 2221 b03c c684 1d3e b5eb 0dbe
00000110: b3ca 493d 151f 23be 31ba 8f3d 876c 13be
00000120: 1878 a3ba eda9 18be ddc0 dabb ae65 27bd
00000130: 8e0e 59bd 118b e2bd 8d84 a6bc 8ece 0dbe
00000140: 06bd 943d 7138 12be a977 ff3b 5478 f8bc
00000150: 28ad b63d 0b73 10be d6c3 223e 1de7 0fbe
00000160: 7f57 5b3d a2bc 1abe 1042 98bb 2cb4 b1bd
00000170: b87c 473b 64ed 123e 24af 07be 0b7f 933d
00000180: 007c 923c 16ae a1bd ae3a f5bd 8ce1 933c
00000190: 6a55 0c3e 97c3 a63d c2e0 b03c 9c7b 653d
000001a0: d6c2 a3bc 3136 883d 4063 123e 1fb5 eaba
000001b0: ec9d aabd 6509 11be 7a2d b9bd cdbf 71bd
000001c0: 28a2 103e 946d eebd 429a a8bd 59b3 d53d
000001d0: 28f4 b4bd 08c2 80bd 96f1 afbd 66f4 6a3d
000001e0: e628 9ebb ebfe 19bd 7a31 54bc 6214 da3c
000001f0: 5a9a 203e 9e14 d5bd 1b42 58bd aa03 823c
00000200: 5d62 edbd e701 cf3d 0ff2 c9bd f8c8 1c3c
00000210: ee40 773d 0e2d 1ebd f0e6 8bbd 41a3 1c3e
00000220: d42f b73d 96ce f7bc f6af 16bd dc6c 88bd
00000230: 3488 54bd 9bcc e53d d270 22be d4da dd3d
00000240: 83d6 003e f79f b8bd cf1b 9b3d 2b78 a53d
00000250: 19c4 90ba 4ee3 a43d 5813 a2bd fe25 913d
00000260: 4bb2 5b3d bdb6 d6bb 08fe 67bd fc20 e7bd
00000270: 2e14 a2bd fc5e b7bd efe6 d0bd bcd4 bc3d
00000280: 13ec f93c 66f3 013e 0ab3 943d 273b e3bd
00000290: f864 b5bd 9936 193e 4149 853d 3b4b 743d
000002a0: e728 163d 1e6c 233d 1e1f 2a3d eb5d 1b3e
000002b0: 6b63 2f3e 5266 ccbd 9ba4 023d d5b1 21bd
000002c0: 8e2a 2d3e 525c a63d e17a 983d 16a6 4bbd
000002d0: e9ef 26bc 22a5 68bd c831 033e 86d6 1ebc
000002e0: 90d9 37bd f852 06be 0a86 84bb cfb3 aebd
000002f0: e81e aabd 2a6b b03d 133b 59bd 8a00 9f3d
00000300: 7541 c23c 84f8 2e3e 0a4d 993d 061a c13d
00000310: dc99 33bd d8be 16be 1338 413d 637b a43d
00000320: 879f 0fbe 9448 17be 3a3a f33d 58b8 37bb
00000330: 1598 cabd c5e7 ecbd 40dc 0fbe 8e4f d8bd
00000340: 4b22 d73d f1b5 223e 0bb7 27bd 390c 17be
00000350: 07fd 14bc 79ad 18be ff46 26bd fcb1 aa3d
00000360: 11cc 123e 6585 853d f38c 44bc 44f0 493d
00000370: 84f5 963d 8f29 8ebd 1e84 8c3d 8d61 9d3d
00000380: 0ce0 86bd d2dd 35bd 5fec f73d db57 17be
00000390: 8e34 d1bb 0d72 fdbd 4ad4 72bc 1d23 233e
000003a0: 0c0c 253e 9a10 233e 00cb 173e 4d80 1fbd
000003b0: d899 13bd ec2e 95bd 0354 92bd f658 b7bd
000003c0: d1cc a33d 7dff 683d 85dd 21be 90cd 6fbc
000003d0: 2993 903c fb1d a9bd ce5b fabd e62f 573c
000003e0: 5167 04bc 717e dbbd 29cc 1d3e ca3d 1bbe
000003f0: bf7d b03d db10 9cbd 2f68 80bd 51ee 463d

conv1.bias f4 [64]
0.06967788 -0.038870122 -0.14623599 0.14140804 -0.1687153 -0.16157074 0.093620226 0.10619924
-0.1014638 -0.11711016 -0.094349675 -0.13009591 -0.110235475 -0.06613268 -0.09269979 -0.025262477
-0.11236461 -0.11853042 -0.10621539 -0.05051838 -0.074073344 -0.14040819 0.017736018 -0.10058332
-0.052288257 0.08146461 -0.06789593 0.14372565 0.117784165 -0.1478738 -0.046282843 0.14264406
0.07588158 -0.13866232 0.13264152 -0.10665758 0.0026426844 0.11673844 -0.09188026 -0.020720605
0.09302552 0.094629556 0.01404882 0.08717532 0.029958133 -0.07010836 -0.1403163 -0.023250096
0.13637996 0.15447894 -0.01562646 0.101025835 0.111903496 -0.12228404 -0.13739763 0.1062652
-0.067227066 0.08401696 0.06926627 0.15236197 0.11686951 0.025875462 -0.07607867 -0.12410703
00000000: 47b3 8e3d 4736 1fbd e3be 15be 45cd 103e
00000010: b4c3 2cbe cd72 25be f6bb bf3d fd7e d93d
00000020: 41cc cfbd 74d7 efbd 673a c1bd dd37 05be
00000030: 23c3 e1bd 9270 87bd 63d9 bdbd 41f3 cebc
00000040: 6b1f e6bd 14c0 f2bd 7487 d9bd 5cec 4ebd
00000050: c4b3 97bd 2ac7 0fbe 204b 913c a1fe cdbd
00000060: 362c 56bd ebd6 a63d 050d 8bbd d12c 133e
00000070: d338 f13d 3b6c 17be 1493 3dbd 4911 123e
00000080: cd67 9b3d 7ffd 0dbe 2ed3 073e 4a6f dabd
00000090: e330 2d3b 9014 ef3d b82b bcbd 42be a9bc
000000a0: 2a84 be3d 24cd c13d 062d 663c f988 b23d
000000b0: c26a f53c f994 8fbd 13af 0fbe fc76 bebc
000000c0: 30a7 0b3e ba2f 1e3e 1003 80bc a2e6 ce3d
000000d0: a92d e53d 0e70 fabd f7b1 0cbe 92a1 d93d
000000e0: 58ae 89bd 1511 ac3d 79db 8d3d c704 1c3e
000000f0: 4859 ef3d c7f8 d33c 22cf 9bbd d42b febd

conv2.weight f4 [128, 64, 3]
-0.03153993 -0.04608834 0.011221859 -0.025713228 0.042643946 0.05525313 0.0026640494 0.014741153
-0.0647127 0.06991014 0.044109352 -0.033867747 -0.0030955833 0.050161082 0.05467557 0.015483846
0.063018456 0.060486782 -0.02732455 -0.051062383 0.0607323 -0.04927301 -0.00034948593 -0.06821032
0.039450552 0.0600075 0.013764514 -0.05885165 -0.0053426656 -0.048121292 0.057882946 0.028989963
-0.061768603 -0.006904025 -0.05430304 -0.06606333 0.02815375 0.05767717 -0.056316245 -0.051734302
0.04591764 0.03348613 0.03266463 0.011341172 0.058446493 -0.008902988 -0.06573253 -0.035660047
0.036914762 -0.057050858 -0.06728334 -0.058872048 0.0001425902 -0.04402593 -0.06768337 0.016123908
0.0165773 0.011898764 0.039262872 0.011432034 0.0036143127 0.037101083 0.04925151 0.067556754
0.06149695 0.055095106 0.009280645 -0.043149736 -0.028849054 -0.055138435 -0.029639835 0.0005374729
0.06996697 -0.062193792 -0.0056428863 -0.058002234 0.0051959595 0.050852094 -0.050259378 -0.06496771
-0.031043338 -0.051969122 0.033288777 -0.03708107 0.0033705183 0.052414857 -0.04850265 -0.011691251
0.030912152 -0.015592281 0.0022923157 -0.059307273 0.030583646 -0.020887889 -0.01998443 0.06460808
0.042948823 0.048565187 -0.018542547 0.033138353 0.001081341 0.00068244763 0.05242099 0.06421174
0.072139725 0.0666177 -0.034066472 0.02550638 0.05835479 0.05064853 -0.050465323 0.008649344
0.041608047 0.04029841 -0.00078229624 -0.0428094 -0.005546754 0.06477546 -0.014338775 -0.036437623
0.06687083 0.014264935 -0.06590615 -0.023941826 -0.059368875 0.03010425 -0.05187464 0.010278239
-0.024929386 -0.002679096 -0.03275871 0.06763808 0.030288646 -0.06148787 -0.04082052 -0.059484866
0.025646953 0.049041357 0.07220616 -0.026826741 0.0039876685 0.0048977407 0.002150465 0.06299602
-0.044721823 0.037014063 -0.026735228 -0.06560872 0.060676124 -0.013041167 0.056923866 -0.015999984
0.010013806 -0.007982826 -0.0040567503 -0.03946319 -0.035915602 0.006985025 -0.043639444 -0.06574497
0.056818623 0.011668294 -0.031903595 0.038539164 -0.037847973 0.020755416 -0.042020738 -0.047257125
-0.03245237 0.009979108 -0.06119441 -0.04593644 0.0072633345 -0.06299358 -0.009553087 0.041661363
-0.06260523 0.02883099 -0.04158118 0.045371518 0.06517235 0.054653767 -0.02576315 0.06625229
0.040334135 0.06111635 -0.041947108 0.068998925 -0.027123546 0.005584482 -0.036567368 0.06721534
0.011633224 0.049399726 -0.043770954 0.017982256 -0.015368298 0.034936246 0.010309608 -0.04727217
-0.039266568 0.02641266 0.017038116 -0.011175871 0.0104861 -0.04366067 -0.06990352 -0.05996911
0.028658785 0.009225264 -0.006738017 0.061649144 0.004670661 -0.058181074 0.0614 -0.06600501
-0.013295597 -0.0207142 -0.044684663 0.11452062 0.11177655 0.11714116 -0.0053615808 -0.016844453
-0.021236723 -0.027494542 0.020551018 -0.029188279 0.05439562 -0.034253363 0.0492773 0.03144891
-0.05217004 0.025552636 -0.004680723 -0.07145886 -0.060616698 0.018175906 -0.007990384 0.024843156
-0.016918262 0.017785368 -0.027110348 -0.06252377 0.031982012 0.055376515 -0.0030851467 -0.04006921
0.018667538 -0.039464757 -0.063869216 0.06941913 -0.052596543 0.06150243 0.05540983 0.0066430634
00000000: 0330 01bd 21c7 3cbd e3db 373c 8ca4 d2bc
00000010: 6bab 2e3d 1b51 623d 5597 2e3b e184 713c
00000020: 1888 84bd 0c2d 8f3d 02ac 343d e8b8 0abd
00000030: 45df 4abb b575 4d3d 7ef3 5f3d f5af 7d3c
00000040: d20f 813d fdc0 773d bcd7 dfbc ca26 51bd
00000050: 6fc2 783d 7fd2 49bd 353b b7b9 dab1 8bbd
00000060: e796 213d 6dca 753d 8e84 613c 6e0e 71bd
00000070: 8711 afbb d51a 45bd ab16 6d3d 5c7c ed3c
00000080: 1301 7dbd 293b e2bb dd6c 5ebd 364c 87bd
00000090: b1a2 e63c e53e 6c3d ddab 66bd 59e7 53bd
000000a0: 2314 3c3d c128 093d 59cb 053d 53d0 393c
000000b0: 9765 6f3d d7dd 11bc c79e 86bd 4510 12bd
000000c0: ef33 173d 29ae 69bd d9cb 89bd d123 71bd
000000d0: 4484 1539 8954 34bd 949d 8abd 4916 843c
000000e0: 1ecd 873c 09f3 423c 1bd2 203d 6d4d 3b3c
000000f0: 1bde 6c3b 4ef7 173d f4bb 493d 325b 8a3d
00000100: 3ae4 7b3d 68ab 613d d90d 183c c7bd 30bd
00000110: da54 ecbc d7d8 61bd 3dcf f2bc 32e5 0c3a
00000120: d84a 8f3d ebbe 7ebd f6e7 b8bb c093 6dbd
00000130: de42 aa3b 494a 503d c7dc 4dbd ca0d 85bd
00000140: 994e febc 93dd 54bd d059 083d 52e2 17bd
00000150: eae3 5c3b f6b0 563d b7aa 46bd a98c 3fbc
00000160: 7b3b fd3c c476 7fbc ad3a 163b 2fec 72bd
00000170: 8e8a fa3c 141d abbc 63b6 a3bc 3e51 843d
00000180: 1beb 2f3d 4aec 463d 8ae6 97bc 15bc 073d
00000190: c8bb 8d3a 49e6 323a 64b7 563d 7281 833d
000001a0: febd 933d dc6e 883d 4989 0bbd c1f2 d03c
000001b0: 6f05 6f3d d574 4f3d bab4 4ebd fab5 0d3c
000001c0: 336d 2a3d f20f 253d 0313 4dba e958 2fbd
000001d0: 8cc1 b5bb ffa8 843d 2eed 6abc 9e3f 15bd
000001e0: 93f3 883d 79b7 693c cef9 86bd a621 c4bc
000001f0: c72c 73bd 309d f63c 817a 54bd 0f66 283c
00000200: b638 ccbc c693 2fbb ff2d 06bd d585 8a3d
00000210: e51f f83c b4da 7bbd 6b33 27bd 67a6 73bd
00000220: 8f19 d23c 97df 483d d3e0 933d c1c3 dbbc
00000230: fdaa 823b 3a7d a03b d1ee 0c3b 0f04 813d
00000240: 3b2e 37bd 0f9c 173d d603 dbbc dd5d 86bd
00000250: 8787 783d 9eaa 55bc 0029 693d 6612 83bc
00000260: f210 243c 66ca 02bc 7dee 84bb 27a4 21bd
00000270: 3d1c 13bd a3e2 e43b 46bf 32bd 4da5 86bd
00000280: a5ba 683d 5f2c 3f3c 58ad 02bd 3edb 1d3d
00000290: 7a06 1bbd 4307 aa3c f01d 2cbd b090 41bd
000002a0: c7ec 04bd 6a7f 233c fda6 7abd d927 3cbd
000002b0: 4401 ee3b c702 81bd 8d84 1cbc 1ba5 2a3d
000002c0: 2c37 80bd f82e ec3c 0751 2abd 7cd7 393d
000002d0: 1579 853d a1dc 5f3d 3e0d d3bc 48af 873d
000002e0: 6835 253d 2355 7a3d bbd0 2bbd 4f4f 8d3d
000002f0: 3332 debc 08fe b63b aac7 15bd 32a8 893d
00000300: 4799 3e3c 5e57 4a3d 2c49 33bd 864f 933c
00000310: 50cb 7bbc 4f19 0f3d a1e9 283c 77a0 41bd
00000320: fbd5 20bd 5d5f d83c 8593 8b3c 001b 37bc
00000330: e4cd 2b3c 88d5 32bd 9429 8fbd 2ba2 75bd
00000340: d4c5 ea3c 9025 173c 95ca dcbb d083 7c3d
00000350: 580c 993b 474f 6ebd 917e 7b3d a22d 87bd
00000360: c7d5 59bc d3b0 a9bc 4407 37bd c989 ea3d
00000370: 1beb e43d b4e7 ef3d 33b0 afbb 61fd 89bc
00000380: a3f8 adbc 3c3c e1bc 9c5a a83c 421c efbc
00000390: f1cd 5e3d 414d 0cbd fed6 493d 92d0 003d
000003a0: 40b0 55bd c353 d13c c060 99bb 0659 92bd
000003b0: 3749 78bd a3e5 943c 19ea 02bc e083 cb3c
000003c0: 2b98 8abc 9fb2 913c 8516 debc 760c 80bd
000003d0: 92ff 023d 7cd2 623d 2c30 4abb 9d1f 24bd
000003e0: aaec 983c cca5 21bd ddcd 82bd 9e2b 8e3d
000003f0: 796f 57bd f9e9 7b3d 6bf5 623d 0eae d93b

conv2.bias f4 [128]
0.05329946 0.010850842 0.03951243 -0.030647347 -0.014248219 -0.051935475 -0.031287808 -0.022152344
0.0209227 0.046873063 0.02693098 -0.044873904 -0.0061200643 -0.0036737728 0.04729111 0.06393351
-0.042453296 -0.024619848 -0.0015877262 0.05829742 -0.042403717 -0.052688263 0.061572734 -0.023035256
-0.04797987 -0.056366608 0.010807209 -0.07673138 0.044699244 -0.010903569 -0.027235085 0.025407782
0.063184984 0.06651827 -0.049257368 -0.022130098 -0.025004225 0.015799243 -0.076659985 0.007091149
0.043805867 -0.02994822 -0.025840648 0.039590158 -0.0605495 -0.044054415 0.060049545 -0.067421354
0.061108556 -0.05725657 0.045629967 -0.0627008 -0.011215882 0.03933115 0.0075975913 -0.06357039
-0.057826497 0.022708932 -0.06162907 -0.034024335 0.01755264 -0.07038446 0.06525423 -0.05303732
0.011914299 0.04536769 -0.0034813576 0.056224164 0.020888187 -0.03689365 -0.07042855 -0.015838567
0.010848322 0.06720143 0.007867857 0.06511012 0.022349454 -0.06538079 0.037870463 0.0020283551
0.017469363 0.044610746 0.017940503 0.008945669 0.03563643 -0.008710057 0.043310452 -0.04791771
-0.047408383 0.015640834 -0.03832772 -0.007002987 0.012695186 -0.0072389822 -0.009351507 -0.008510857
-0.027025625 -0.017194338 -0.040107347 0.05844004 0.030289363 -0.073315546 0.057862412 0.043893665
-0.021542715 -0.02163533 0.048178196 -0.069276705 0.06772099 -0.01479396 0.028623642 -0.06961821
0.01069868 -0.027270352 -0.05650599 0.048478317 0.05790559 0.019071976 0.029267538 -0.023210809
-0.05290863 -0.006009627 0.03992261 0.021134058 -0.046601012 -0.06947922 -0.07325297 0.05733058
00000000: 8950 5a3d bbc7 313c c9d7 213d 2510 fbbc
00000010: 5d71 69bc 4bba 54bd a527 00bd d578 b5bc
00000020: 1566 ab3c f8fd 3f3d 5c9e dc3c b3cd 37bd
00000030: d28a c8bb aec3 70bb 53b4 413d 92ef 823d
00000040: 82e3 2dbd 90af c9bc 401b d0ba 47c9 6e3d
00000050: 85af 2dbd a6cf 57bd b133 7c3d 6fb4 bcbc
00000060: 8a86 44bd ace0 66bd b810 313c 5725 9dbd
00000070: 8e16 373d e2a4 32bc 1d1c dfbc fb23 d03c
00000080: 2167 813d bb3a 883d 18c2 49bd 2e4a b5bc
00000090: a9d5 ccbc 6a6d 813c e9ff 9cbd df5c e83b
000000a0: c86d 333d f855 f5bc c4af d3bc 4a29 223d
000000b0: c102 78bd 6772 34bd 83f6 753d 3514 8abd
000000c0: f74c 7a3d dd85 6abd 7de6 3a3d 4769 80bd
000000d0: d2c2 37bc b319 213d 37f5 f83b 3131 82bd
000000e0: 7adb 6cbd 1508 ba3c c46e 7cbd 1a5d 0bbd
000000f0: 8eca 8f3c ba25 90bd 02a4 853d a93d 59bd
00000100: 3134 433c 79d3 393d 7d27 64bb 4f4b 663d
00000110: b41d ab3c cc1d 17bd d83c 90bd e2bf 81bc
00000120: 29bd 313c e7a0 893d 2fe8 003c 7458 853d
00000130: 3416 b73c 5de6 85bd 0f1e 1b3d 27ee 043b
00000140: e91b 8f3c c2b9 363d f6f7 923c db90 123c
00000150: 81f7 113d a0b4 0ebc 4d66 313d 5c45 44bd
00000160: 4b2f 42bd 3521 803c 87fd 1cbd 5079 e5bb
00000170: 78ff 4f3c fc34 edbb 1037 19bc 1f71 0bbc
00000180: d864 ddbc 24db 8cbc 9a47 24bd d35e 6f3d
00000190: 6621 f83c 7626 96bd 2301 6d3d d8c9 333d
000001a0: 597a b0bc 933c b1bc 8056 453d f2e0 8dbd
000001b0: 4db1 8a3d 5e62 72bc 217c ea3c fe93 8ebd
000001c0: 8449 2f3c 1366 dfbc d372 67bd 3391 463d
000001d0: 692e 6d3d d53c 9c3c 7ac2 ef3c 9824 bebc
000001e0: b8b6 58bd 68ec c4bb e485 233d 5521 ad3c
000001f0: b4e0 3ebd 1f4b 8ebd a705 96bd 78d3 6a3d

fc1.weight f4 [64, 128]
-0.009387448 -0.083493926 0.056126393 0.08249334 -0.003813818 0.054222338 -0.08637545 0.07208911
-0.07415123 -0.079536736 0.022132203 0.00093725324 0.007353954 0.05984325 0.05079835 -0.07063006
0.05939836 -0.022353575 -0.03231659 -0.07225478 -0.03202958 -0.03814276 -0.0048471317 -0.03984129
-0.082760185 0.05925373 0.056984134 0.034539014 -0.036951594 0.06972719 -0.0020360947 0.056190617
0.03584484 0.024453275 0.06696398 0.00327947 0.040111013 -0.06632361 0.01648102 -0.010595076
0.0072630495 0.038647525 -0.052909687 0.0065419003 0.04529301 -0.08605068 -0.015540838 -0.040081915
0.066912 0.040353008 0.050205193 0.08019052 0.03710123 -0.023867771 0.0041332394 0.008960567
-0.04476186 -0.002523534 0.05563768 -0.039855197 -0.040377524 -0.033669263 -0.07433613 -0.0010930598
-0.055492193 0.022574328 0.07275035 -0.062181585 0.0045715347 0.050896384 0.086013384 0.017417386
-0.023976296 -0.00941845 0.044226788 -0.07455675 -0.085024394 -0.018108912 -0.06671004 0.036226213
0.033787087 -0.057974033 0.019759715 -0.082320035 -0.015746042 -0.048559703 -0.012926288 0.0628738
-0.015457042 -0.033821095 0.044861488 0.012245901 -0.013029404 0.05312509 -0.06751384 0.019182451
-0.07802341 0.0773034 -0.05156258 0.016656741 -0.066989124 0.006924495 0.019518785 -0.06524044
0.06839294 -0.08210458 -0.031123351 -0.06390327 -0.074102506 -0.057682082 -0.0023683459 -0.023607872
0.0046782047 -0.032498308 -0.08314137 0.03170065 0.018589571 0.03573878 0.032093495 0.027435564
0.033403084 -0.07934534 -0.02753717 0.04600335 -0.06490986 -0.07101858 -0.00050751865 -0.075754926
0.049325578 -0.067571685 -0.08111588 -0.030693684 -0.087875776 -0.050834116 -0.014472753 -0.037819516
-0.04594333 -0.060675193 0.03375455 -0.0622208 0.047003634 -0.042904586 -0.05859435 0.067636244
0.08204361 -0.070256986 0.07359708 0.050721757 -0.008554727 -0.066751376 0.07145553 0.0050798357
0.03992828 -0.038058456 -0.04359871 -0.028578438 0.0855063 -0.08443569 -0.029999577 0.060558833
-0.073977515 -0.0019227266 -0.06654233 -0.081791945 0.0214414 -0.061726872 0.06218525 0.023001581
-0.06631354 0.00407888 -0.081695646 -0.038164 0.043986402 -0.016242608 0.06379668 -0.029530253
-0.03250313 -0.06784667 -0.07452407 0.06195981 -0.086885296 -0.03577712 -0.052994803 -0.02783499
-0.066915736 0.08627533 0.019336753 0.036695592 -0.0778985 -0.083426125 -0.025013462 -0.017670669
0.058760233 0.065904655 0.03603717 0.011495478 -0.061815728 -0.012128338 -0.0069709197 -0.04441773
-0.037246138 -0.04184553 -0.008987956 0.026283279 -0.009921819 0.07512932 -0.061874554 0.038712926
-0.072188124 -0.08142002 -0.011350803 0.03144663 0.028232805 0.029744402 -0.05556025 0.06858938
0.05931478 0.047940128 -0.03319882 -0.081472695 0.060604624 -0.07230306 -0.039056756 0.063478716
-0.0005457774 0.009241141 0.04294821 -0.04246689 0.03181021 -0.059135407 -0.052193604 -0.008327283
-0.029939119 0.06881488 0.041439272 -0.0644132 -0.023218267 0.005733028 -0.033395655 0.043106653
-0.022169814 0.08608303 -0.036596972 -0.0015704855 0.049040325 0.01799389 0.046844907 -0.06469567
0.049139924 -0.037932523 0.055455275 -0.014655426 0.051287703 0.012078963 -0.029084697 0.009942338
00000000: d0cd 19bc ddfe aabd cae4 653d 45f2 a83d
00000010: 40f1 79bb 3e18 5e3d 9de5 b0bd 75a3 933d
00000020: 9adc 97bd 28e4 a2bd 984e b53c 00b2 753a
00000030: 70f9 f03b 321e 753d ee11 503d 7ea6 90bd
00000040: b24b 733d d81e b7bc 675e 04bd 50fa 93bd
00000050: 7331 03bd 953b 1cbd b0d4 9ebb 9f30 23bd
00000060: 2c7e a9bd 0ab4 723d 3268 693d c878 0d3d
00000070: 8e5a 17bd 21cd 8e3d 0070 05bb 2228 663d
00000080: 0ad2 123d 3c52 c83c 6924 893d 60ec 563b
00000090: 724b 243d acd4 87bd 3403 873c f896 2dbc
000000a0: e0fe ed3b de4c 1e3d d4b7 58bd 705d d63b
000000b0: 2a85 393d 573b b0bd 009f 7ebc ef2c 24bd
000000c0: 2909 893d 3249 253d f6a3 4d3d ed3a a43d
000000d0: 76f7 173d 5886 c3bc 2070 873b 58cf 123c
000000e0: 3658 37bd e061 25bb 56e4 633d 343f 23bd
000000f0: e762 25bd c8e8 09bd 8a3d 98bd 0045 8fba
00000100: c84b 63bd cced b83c 23fe 943d 1eb2 7ebd
00000110: d0cc 953b ba78 503d c927 b03d e8ae 8e3c
00000120: f069 c4bc d84f 1abc 2627 353d 36b1 98bd
00000130: 4521 aebd 2459 94bc 469f 88bd f061 143d
00000140: 5464 0a3d 2e76 6dbd 20df a13c 6897 a8bd
00000150: d8fd 80bc 8ae6 46bd c8c8 53bc fbc3 803d
00000160: 883f 7dbc fd87 0abd aec0 373d 08a3 483c
00000170: 4879 55bc b299 593d b244 8abd 8424 9d3c
00000180: bdca 9fbd 3f51 9e3d 4933 53bd b873 883c
00000190: 9831 89bd e0e6 e23b dce5 9f3c c89c 85bd
000001a0: 9911 8c3d 7226 a8bd 66f6 febc b8df 82bd
000001b0: 0ec3 97bd 0c44 6cbd 4036 1bbb 4c65 c1bc
000001c0: a04b 993b f21c 05bd 0646 aabd 8ad8 013d
000001d0: 2849 983c d462 123d 7874 033d 8cc0 e03c
000001e0: acd1 083d cf7f a2bd a295 e1bc 026e 3c3d
000001f0: 76ef 84bd 3072 91bd 000b 05ba 6625 9bbd
00000200: 9e09 4a3d 0663 8abd 1520 a6bd 5271 fbbc
00000210: 37f8 b3bd 6f37 50bd 201f 6dbc a3e8 1abd
00000220: 132f 3cbd 8d86 78bd 3642 0a3d 3ddb 7ebd
00000230: e286 403d b8bc 2fbd a100 70bd df84 8a3d
00000240: 7b06 a83d e5e2 8fbd 11ba 963d 9ec1 4f3d
00000250: 2029 0cbc f2b4 88bd 4757 923d c074 a63b
00000260: d68b 233d 2fe3 1bbd 9094 32bd 541d eabc
00000270: ed1d af3d 9eec acbd acc1 f5bc 8a0c 783d
00000280: 8681 97bd 0004 fcba 5847 88bd 8982 a7bd
00000290: e0a5 af3c 51d5 7cbd f6b5 7e3d d06d bc3c
000002a0: 65cf 87bd 20a8 853b 0c50 a7bd db51 1cbd
000002b0: 162b 343d 380f 85bc d5a7 823d 6ee9 f1bc
000002c0: 0122 05bd 32f3 8abd 13a0 98bd 92c9 7d3d
000002d0: ebf0 b1bd 088b 12bd 1411 59bd 3406 e4bc
000002e0: 1e0b 89bd 1fb1 b03d 1c68 9e3c 1e4e 163d
000002f0: 4089 9fbd 51db aabd 08e9 ccbc 14c2 90bc
00000300: 92ae 703d 05f9 863d b69b 133d 8857 3c3c
00000310: 7d32 7dbd f0b5 46bc 506c e4bb 5eef 35bd
00000320: 688f 18bd 3866 2bbd 3842 13bc 0850 d73c
00000330: 208f 22bc 67dd 993d 2c70 7dbd 7291 1e3d
00000340: 5ed7 93bd 8abf a6bd b8f8 39bc 2ece 003d
00000350: 7c48 e73c 88aa f33c 2593 63bd 9778 8c3d
00000360: 0ef4 723d de5c 443d 7cfb 07bd 28db a6bd
00000370: 8e3c 783d a013 94bd faf9 1fbd 2101 823d
00000380: 8012 0fba 2868 173c 76ea 2f3d c3f1 2dbd
00000390: 6c4b 023d f837 72bd f6c8 55bd 286f 08bc
000003a0: e242 f5bc d1ee 8c3d 3abc 293d 11eb 83bd
000003b0: 3c34 bebc 20dc bb3b e2c9 08bd 9a90 303d
000003c0: 789d b5bc 4d4c b03d b5e6 15bd c0d8 cdba
000003d0: 82de 483d ec67 933c 72e0 3f3d 2a7f 84bd
000003e0: f246 493d 225f 1bbd 1225 633d 501d 70bc
000003f0: 0e13 523d d8e6 453c 0843 eebc 30e5 223c

fc1.bias f4 [64]
-0.01915586 0.02682352 -0.07699145 0.0656312 0.06530375 -0.056349184 -0.057820164 -0.020417372
0.08032768 -0.04352709 0.061563883 0.07849957 0.036666162 0.058848307 -0.00031340122 -0.057384863
0.027963392 0.06464644 -0.022898749 0.028733639 0.04661645 0.06338249 -0.021186672 0.04684841
0.032269225 0.021171087 0.05531819 -0.047544558 0.06855528 0.041339062 -0.029508483 -0.011369738
-0.022357889 0.011861816 -0.013438044 -0.07171383 -0.03671927 -0.07484921 0.064643525 0.07010018
-0.013508916 0.064189576 -0.01331176 0.061496966 0.0016810008 0.067536995 0.06554403 0.030421367
0.06389804 0.08552013 0.026122227 0.012177963 -0.06511287 0.08436215 -0.0018584741 0.07970869
-0.002027815 -0.023375792 -0.021433339 -0.060998935 -0.04271225 -0.06698008 -0.06590898 0.085379526
00000000: c0ec 9cbc 00bd db3c b1ad 9dbd a769 863d
00000010: f9bd 853d 67ce 66bd d6d4 6cbd 5542 a7bc
00000020: d782 a43d 7649 32bd 692a 7c3d 62c4 a03d
00000030: 422f 163d ec0a 713d 0050 a4b9 640c 6bbd
00000040: 7c13 e53c 5a65 843d 2896 bbbc cf62 eb3c
00000050: e4f0 3e3d aece 813d ac8f adbc 1ee4 3f3d
00000060: bc2c 043d fd6e ad3c 5495 623d 15be 42bd
00000070: b666 8c3d 2653 293d c6bb f1bc 2348 3abc
00000080: e427 b7bc 1058 423c 3e2b 5cbc b3de 92bd
00000090: f266 16bd 8b4a 99bd d363 843d af90 8f3d
000000a0: 8054 5dbc d375 833d 9119 5abc 3ee4 7b3d
000000b0: 0755 dc3a d650 8a3d f33b 863d 3b36 f93c
000000c0: fadc 823d 2e25 af3d 48fe d53c 1486 473c
000000d0: e559 85bd 10c6 ac3d 0b98 f3ba 4f3e a33d
000000e0: 17e5 04bb 977e bfbc f894 afbc 05da 79bd
000000f0: 0af3 2ebd da2c 89bd 4afb 86bd 76db ae3d

fc2.weight f4 [1, 64]
0.11630751 0.028797626 0.0149535835 -0.08942151 0.049301177 -0.07846457 0.015476793 -0.02022777
-0.04428643 0.06521691 -0.103096254 -0.09722977 -0.046410263 0.017554715 -0.124550074 -0.09503725
-0.08793968 -0.06986788 -0.07826911 -0.020630244 -0.03246035 0.044997558 -0.1038399 -0.09648095
0.020301402 -0.031589795 0.013906276 -0.10696434 0.10674736 -0.07756233 -0.046649717 0.018537557
-0.05064796 -0.04126939 -0.09427822 -0.051979177 0.048649058 0.058517434 -0.12040821 0.013070568
0.06527865 -0.046132535 0.11644976 -0.102877505 -0.027403405 -0.052739188 0.012078171 0.08201863
0.082503475 -0.10151781 -0.051140796 -0.023500795 -0.089134924 -0.08036844 -0.08552033 0.032776654
0.086855896 0.11058806 0.076050475 -0.10689123 -0.049629882 0.04078995 -0.06505252 -0.031903543
00000000: a232 ee3d 00e9 eb3c e0ff 743c a022 b7bd
00000010: 08f0 493d 08b2 a0bd 6092 7d3c b5b4 a5bc
00000020: b065 35bd 7190 853d 2124 d3bd 6720 c7bd
00000030: b018 3ebd e8ce 8f3c 1c14 ffbd e4a2 c2bd
00000040: b819 b4bd e416 8fbd 8e4b a0bd c200 a9bc
00000050: 25f5 04bd 5c4f 383d 03aa d4bd ce97 c5bd
00000060: 204f a63c 4d64 01bd 26d7 633c 1f10 dbbd
00000070: 5c9e da3d 00d9 9ebd c613 3fbd 13dc 973c
00000080: 3c74 4fbd 180a 29bd f014 c1bd 1ee8 54bd
00000090: 3c44 473d faaf 6f3d 9498 f6bd f025 563c
000000a0: d0b0 853d 78f5 3cbd 367d ee3d 71b1 d2bd
000000b0: 1b7d e0bc 0c05 58bd 85e3 453c 62f9 a73d
000000c0: 95f7 a83d 92e8 cfbd 0379 51bd bd84 c0bc
000000d0: 5f8c b6bd 3598 a4bd 4825 afbd d040 063d
000000e0: 81e1 b13d fe7b e23d 5ac0 9b3d cae9 dabd
000000f0: b448 4bbd 5d13 273d 413a 85bd 4aad 02bd
