assets/model/phrase022_speech_model.pth (torch, 145844 bytes, 7 tensors)

conv1.weight f4 [64, 13, 3]
000000 1e 28 29 bd c7 e2 80 bd 74 bc 96 3d f2 47 82 bd
       -0.041298024 -0.06293254 0.07360163 -0.06361379
000010 91 df ba 3c 35 08 16 3e ee 18 0f be bb 3b 06 be
       0.022811683 0.14651568 -0.13974354 -0.13108723
000020 d1 fd ee 3d 3b 81 ea 3d 5b f9 45 bd 7d d4 a5 3d
       0.116695054 0.1145043 -0.048333507 0.080971695
000030 26 64 f5 3c 30 d2 ae 3d 2a 65 1f be f1 ce d7 3c
       0.029954981 0.08536184 -0.15565935 0.026343795
000040 d7 27 12 3b fa f6 b3 bd 89 f8 75 3c 74 54 91 bd
       0.0022301578 -0.087873414 0.015012869 -0.07096186
000050 74 8b fc bd 0d 85 f5 bd 9d 5b a1 bd 0f 1b d4 3b
       -0.12331286 -0.11988268 -0.07878802 0.006472952
000060 38 d7 c7 3d 33 fc c5 3d d3 70 01 3e 87 8a 59 bb
       0.097578466 0.09667244 0.12640695 -0.003319414
000070 50 02 af 3c 3e d8 81 bd 67 70 07 be 40 91 3c bc
       0.021363407 -0.06340073 -0.13226472 -0.01150924
000080 8c ab 26 be 66 97 e0 bd 97 f5 a1 3d 3b 4f 06 3e
       -0.16276377 -0.10966377 0.07908171 0.13116162
000090 26 ce 1e be fd 2f b4 3d fb 8c 14 3e 42 a6 2e bd
       -0.15508327 0.087982155 0.14506905 -0.042639025
0000a0 1f df 93 bb 51 92 cd bd 80 24 e6 3d c5 d2 30 bc
       -0.004512682 -0.10037673 0.112374306 -0.010792439
0000b0 6a ab 6e 3d e6 3b d0 bd a2 74 13 bd 43 b2 91 3d
       0.058268942 -0.10167675 -0.0359999 0.07114079
0000c0 a9 87 0d 3e 87 11 79 3d 42 7f d8 bc 32 52 99 ba
       0.13821281 0.06080773 -0.026427869 -0.001169747
0000d0 bc 71 02 be 59 74 b1 3d 64 bc 0d 3e 50 68 89 bd
       -0.12738699 0.0866477 0.13841397 -0.06709349
0000e0 a9 aa 55 3d 79 00 a7 bd 86 ff 14 3e d0 67 ee bb
       0.052164707 -0.08154387 0.145506 -0.007275559
0000f0 47 3c 0a be 2e c8 f0 3d f8 48 c0 3d 8c 23 8c 3d
       -0.13499556 0.11756931 0.09388918 0.068427175
000100 09 47 bb bd 41 8c a5 bd 7a 46 0a be ec a7 18 3e
       -0.09144408 -0.08083392 -0.13503447 0.14907807
000110 8a 7b 61 bb e7 0c 16 3e f4 ef f6 3d 97 ef 91 3d
       -0.003440591 0.1465336 0.12057486 0.07125776
000120 3b 59 8f 3d b6 13 98 3d 2a 56 a4 bd 28 3f 80 bd
       0.06999441 0.074256346 -0.08024247 -0.06262046
000130 53 39 3f bd d9 54 9a 3d c4 e9 26 be 8d 67 d6 3c
       -0.046685528 0.07535715 -0.16300112 0.026172424
000140 af c6 52 3d c3 bf bf 3d 41 38 a8 3d 56 1e 10 be
       0.05145901 0.093627475 0.082138546 -0.14074072
000150 84 be 37 bd 40 f0 c1 bd a7 63 09 3e 2e 73 87 3c
       -0.044859424 -0.09469652 0.1341692 0.016534414
000160 15 5b 38 bd 31 c6 17 3e ca f9 cd 3d ba e8 79 3c
       -0.045008738 0.14821698 0.10057409 0.01525324
000170 0b 3e a2 bd 5c de 41 3d 22 c6 a6 3d 13 9e c1 3d
       -0.0792199 0.0473312 0.081432596 0.094539784
000180 93 72 a6 bc 0a 07 40 bd 9a 93 f3 bd f9 98 0a be
       -0.020318305 -0.046881713 -0.11893387 -0.13534917
000190 f7 93 c9 3d 36 ef 19 bd 3e ae d1 bd 90 96 99 3d
       0.09842675 -0.037581645 -0.10238312 0.07499421
0001a0 2b 19 f5 3d 4e df 15 3d da c2 e1 bc d0 08 ac bc
       0.11967691 0.036589913 -0.027558733 -0.021000296
0001b0 57 b0 bc bd 5c 9c 0a 3e da 7b 02 bd dd de fe 3d
       -0.09213322 0.13536209 -0.031856395 0.124448515
0001c0 fb 05 07 be cf 56 a0 bd dc 35 30 bd 11 f8 09 3e
       -0.13185875 -0.078290574 -0.043020114 0.13473536
0001d0 b1 92 b7 bd 96 2f 1b be 83 a3 15 3e 5f 80 c3 bd
       -0.08963526 -0.15154871 0.14613156 -0.09545969
0001e0 1b 14 ac bd 0c 26 71 bd f8 5b de bc 63 c5 00 be
       -0.08402272 -0.058874175 -0.027143463 -0.12575297
0001f0 03 56 4e 3d c2 8c f1 bc 35 38 a9 3c 1f 1e 26 be
       0.050374996 -0.029486064 0.020656684 -0.16222428
000200 6e 14 08 be a0 73 c4 bd d7 20 56 3b 6f fe e3 bd
       -0.13289043 -0.09592366 0.0032673383 -0.11132514
000210 ee f0 d0 3d ce d5 cb bd 88 e4 b8 3c 15 66 8f 3c
       0.10202204 -0.099528894 0.02256991 0.017504731
000220 d5 a8 e6 3d 3f bf 00 be d5 00 c1 3d 0e da 2c bd
       0.11262671 -0.12572955 0.09423987 -0.04220014
000230 3d 6d 84 bd 03 f5 7c 3d f4 90 d4 bc 46 4f 02 be
       -0.06466148 0.0617571 -0.025948025 -0.12725553
000240 79 43 a9 bd a6 59 fe bd 6c be f7 bc 56 e2 49 bd
       -0.082648225 -0.12419443 -0.030242167 -0.049288116
000250 f8 da 52 bd 7b b7 f6 3d 42 d0 33 3d 39 99 02 bd
       -0.051478356 0.12046715 0.043899782 -0.031884406
000260 f5 6b 94 b8 78 e3 cb 3d 93 9a 8d bd 72 cb fb ba
       -7.0772985e-05 0.099554956 -0.06914248 -0.0019210412
000270 e4 8e 11 be cb e4 ef bd ea 27 44 bd 73 3a 40 3d
       -0.14214665 -0.11713561 -0.047889628 0.04693074
000280 88 2a 05 be 6d 5e 03 be fb b1 04 be 96 61 c8 bd
       -0.13004506 -0.1282899 -0.12958519 -0.09784238
000290 ef d8 4b 3c b7 f6 a4 3c 94 07 1d be 3f 8b c6 3d
       0.012441858 0.020137174 -0.15334922 0.09694528
0002a0 4a 5d 23 3e 88 6e a0 3d bc a1 1f be 99 56 88 bd
       0.15953556 0.07833582 -0.1558904 -0.06657142
0002b0 e4 d2 39 3d 84 4b 0e 3e b4 e7 eb bc ef fd 17 3e
       0.045367137 0.13895994 -0.028797008 0.14842962
0002c0 7f 1d 02 3e 84 4a 22 3e 88 a0 ae bd 6d 8b 1d be
       0.12706564 0.15848738 -0.08526713 -0.15385218
0002d0 25 44 a9 bc be 62 4d 3d c3 ea db 3d d1 96 14 be
       -0.020662377 0.050142996 0.107381366 -0.14510657
0002e0 12 b6 0e be f1 9a 68 bd ee 50 97 3d 16 5f 07 3b
       -0.13936642 -0.05678839 0.07388483 0.002065604
0002f0 54 88 03 be 0a a6 f7 bd 0c 36 d8 bd e4 4c ae bd
       -0.12844974 -0.12092216 -0.105571836 -0.085107595
000300 d5 24 c3 3d c1 a8 1b be 13 80 f0 3d b4 80 19 3e
       0.095285095 -0.15201093 0.11743178 0.14990503
000310 fb d2 e2 bd 50 0e 08 3d c3 bf 86 bd d8 33 ee 3d
       -0.110753976 0.033216774 -0.065795444 0.11630982
000320 68 10 02 be 1f 22 ee bd 7d 3e 2a bd 6c 2f 2a 3d
       -0.12701571 -0.11627602 -0.0415635 0.04154913
000330 1b d3 99 3c 4b 25 21 be d1 99 d2 3c 66 bb 7f bd
       0.01877742 -0.15736882 0.025708111 -0.062434576
000340 0c d7 1d be 54 90 a5 3d d6 79 2e 3d a4 a5 ce bd
       -0.15414065 0.08084169 0.04259666 -0.10090187
000350 98 ab 03 3e 56 db a4 3c 7c d9 d1 ba 4d a7 ff bd
       0.12858427 0.020124119 -0.001601025 -0.12483082
000360 63 ef 9b 3a 53 c6 bb 3c 26 7b fe bc 09 64 30 3d
       0.0011896904 0.022921717 -0.031064581 0.04306415
000370 83 7b 04 3e 1c 50 68 3d e8 33 96 bd d4 d2 42 bd
       0.12937741 0.056717023 -0.07334119 -0.047564343
000380 f7 ea 78 bd d9 ca 00 be e7 99 91 3d 8f ba c8 3d
       -0.060770955 -0.1257738 0.07109433 0.09801208
000390 a9 d7 be bd 89 22 bb 3d 1e ce 17 3e 3d da d4 3d
       -0.09318478 0.091374464 0.14824721 0.10393188
0003a0 38 44 e5 3d c1 35 95 3d ff 7c 15 be 50 f2 ca 3c
       0.11194652 0.07285643 -0.14598463 0.024773747
0003b0 6a e7 17 3e 5e 59 f3 3d 64 ff 24 bd e3 30 5f 3d
       0.14834371 0.1188228 -0.040282622 0.05448998
0003c0 38 82 c8 bd 7c 1b be bd 4b 1d 8f 3d 10 a3 0a be
       -0.09790462 -0.09282586 0.06988009 -0.13538766
0003d0 a9 2a f2 3d 73 2d a5 3d 81 05 76 3d 7c eb f1 bd
       0.11824543 0.080653094 0.060063843 -0.11812493
0003e0 01 1f a8 bc d5 12 cc 3d 09 e2 19 3d 87 64 31 3d
       -0.020522596 0.099645294 0.03756908 0.04330876
0003f0 8f 8f cc bd 1f 56 0b 3e 08 d7 0a be 89 16 91 bc
       -0.09988319 0.13607071 -0.1355859 -0.01771094

conv1.bias f4 [64]
000000 40 6c 00 bd 44 49 2c 3c 91 6d 1b 3e 83 f2 eb 3d
       -0.031353235 0.010515515 0.15178515 0.11520865
000010 c9 0f f4 bd 58 d3 db 3d e0 bc 85 bc 48 91 e3 3b
       -0.11917073 0.1073367 -0.016325414 0.006944809
000020 0e 89 ce 3c 69 bf a5 bd 3c c4 8d bd 14 ad f1 3d
       0.025211837 -0.08093149 -0.06922194 0.1180059
000030 49 6e 2d bd 21 7a 11 be 49 c8 b4 3d ef f9 f6 3d
       -0.042341504 -0.14206745 0.08827264 0.1205939
000040 ee 23 b6 bd 19 93 a9 3d e4 ef 21 3c bb e4 fd 3d
       -0.08893572 0.0828001 0.009883855 0.123971425
000050 44 42 af bb f0 d9 0e 3e 43 1c 01 3d 20 79 33 3b
       -0.0053484756 0.13950324 0.031521093 0.0027385429
000060 87 22 e9 bd 88 0d 89 3c 7e e9 3a bd 90 90 9a 3d
       -0.11383539 0.016730085 -0.04563283 0.07547104
000070 cd ce 1d be 93 3e ef bd 2c d8 e5 bd f8 74 ad bd
       -0.1541092 -0.11681857 -0.11222872 -0.08469576
000080 99 b7 bf 3d f0 fe bc 3b 60 66 c9 3d a0 c5 06 be
       0.0936119 0.0057676956 0.098339796 -0.13161325
000090 56 e1 82 3d 7a 3e de bd a4 af 71 bc 06 13 d1 3d
       0.06390636 -0.1085176 -0.014751349 0.102087066
0000a0 27 26 20 be 0d 0e 01 be 2c 45 f1 3d ec 7c 6b bd
       -0.15639554 -0.12603016 0.117807716 -0.05749218
0000b0 1f 7a 4d 3c 57 39 7b 3d d1 3a 0f be 4e ca d3 3d
       0.012541323 0.06133398 -0.1398728 0.10341321
0000c0 ea 5d 9f bd 8c 19 e2 bd 03 82 15 bd ca dc 1d bd
       -0.077815846 -0.11040029 -0.036500942 -0.03854064
0000d0 36 a5 3d bd bc 16 fd bd 57 7a e7 bd 39 71 2e 3d
       -0.046300136 -0.12357852 -0.11302631 0.042588446
0000e0 de a7 12 3e be 52 40 3d 88 07 23 be c4 f1 09 3e
       0.14321849 0.04695391 -0.15920842 0.13471133
0000f0 c4 48 c5 3c 02 21 80 3c bb 49 96 bd 60 fa da bd
       0.024082549 0.01564074 -0.07338282 -0.106922865

conv2.weight f4 [128, 64, 3]
000000 b4 65 77 bd a1 b1 c6 3c 67 8f 39 3c 1c 3a 41 bd
       -0.060399726 0.024254622 0.011325694 -0.047174558
000010 fd 32 48 bd 8e 91 80 bd d8 82 8d bd 9a 07 0c 3d
       -0.04887675 -0.06277762 -0.06909722 0.034186937
000020 11 3a 2c 3d ca df 49 bd 54 a7 6b bd eb d2 2e bb
       0.042047564 -0.049285688 -0.057532623 -0.002667601
000030 55 27 5d 3d a2 29 88 bd d6 f2 05 bc 28 03 46 3d
       0.053992588 -0.06648566 -0.008175572 0.048342854
000040 78 cc 8d 3d f8 d5 5d 3d 88 16 a1 bc 0b d6 a0 bb
       0.06923765 0.054159135 -0.019664064 -0.0049083284
000050 5e b5 c3 bc 1e c6 d9 bc 59 63 eb 3a 39 cf 34 bd
       -0.023890194 -0.026583727 0.0017958685 -0.044142935
000060 2e 16 d2 bc 95 35 76 3d e5 7f 50 bd 20 55 6b bc
       -0.025645342 0.060109694 -0.05090322 -0.014363557
000070 7e 13 86 bd bb 0b 4d 3d d5 c4 61 bc 4e a0 15 3d
       -0.065466866 0.050060015 -0.013779839 0.03652983
000080 ca 79 56 3d 30 11 8a bc 78 65 58 3d be 7e 69 3c
       0.05236224 -0.016853899 0.052831143 0.014251409
000090 ee 82 d8 ba 1e c7 29 bd 25 e7 78 bd d7 74 12 3c
       -0.0016518512 -0.04144966 -0.06076731 0.00893899
0000a0 ea e4 5e bd 8a dd 1f bd 4c c8 77 bc f3 d0 80 bd
       -0.05441753 -0.039029635 -0.015123438 -0.06289854
0000b0 bc 3f df bc f4 ab 84 3c 7b 7e 05 3d d3 ab 80 3d
       -0.02725207 0.016195275 0.032591324 0.06282773
0000c0 09 f0 07 3d 39 b9 11 3d a7 e3 23 3d 36 a4 6c bd
       0.0331879 0.035577033 0.040012028 -0.05777379
0000d0 68 85 5a bd 7e 3c e8 bb 86 1e 54 bd ce b9 4a bc
       -0.053349882 -0.0070872894 -0.051786922 -0.012373401
0000e0 0f 25 e9 3c 3f 67 2b 3d 2d 3d 0f 3d a6 51 59 3d
       0.028460054 0.04184651 0.03497045 0.05305638
0000f0 80 62 57 bd 06 d1 85 bd 18 44 66 bd ad 07 9f 3c
       -0.05258417 -0.06534009 -0.056217283 0.01941284
000100 93 fe d9 bc 5f 87 18 ba bf 40 a8 3c 9a 0e 28 3b
       -0.026610648 -0.00058185117 0.020538686 0.0025643469
000110 fd 9f df 3c 34 07 a5 3c b8 11 95 bd be 1f 1b 3c
       0.027297968 0.020145036 -0.0727877 0.009468017
000120 07 f7 08 bd f8 65 83 bd 82 f2 7f 3d 1b e3 92 ba
       -0.03343871 -0.06415933 0.062487133 -0.0011206599
000130 5f 20 be bc 9c b8 63 bd 58 a7 ed 3c 70 85 23 bc
       -0.023208795 -0.05559598 0.02901046 -0.009980544
000140 31 69 80 bd 66 7e 53 bc 97 01 96 bd 52 a6 45 bd
       -0.06270064 -0.012908554 -0.07324522 -0.04825432
000150 50 06 6d 3b 11 4f c4 3b cb b4 22 3d 1e ac 4c 3c
       0.0036167093 0.0059908708 0.0397232 0.012492208
000160 6e 7d 24 3d 21 bf 48 3c dc bb 65 bc 49 c7 22 bd
       0.04015868 0.0122526 -0.01402184 -0.039740834
000170 00 5d 45 3c 9b f4 34 3c ff da 49 bd 1b f5 0d 3d
       0.012046099 0.011044647 -0.049281117 0.03465758
000180 c3 97 b8 3b 61 5e 0e 3d 73 9c 7f 3d d1 79 fa 3c
       0.005633326 0.034757975 0.06240506 0.030575665
000190 59 4d 0b bd d6 73 0a bd 09 c3 05 bd dc a6 15 bd
       -0.03400931 -0.033801876 -0.032656703 -0.036536083
0001a0 31 81 45 bd c5 f8 dd bc 1f d6 45 bd a0 01 37 3b
       -0.04821891 -0.027096162 -0.048299905 0.0027924553
0001b0 eb 05 96 bc 10 c8 8b bd fc 81 2a bd 39 34 95 bc
       -0.018313369 -0.06825268 -0.04162787 -0.018213378
0001c0 50 81 89 bd 65 80 35 3c 64 de a0 bb fd 71 03 3c
       -0.067141175 0.011077975 -0.0049093235 0.008022782
0001d0 0f 79 2e 3d fa 76 45 3d 0a 93 95 bd bc fc 14 3d
       0.04259592 0.048209168 -0.07303436 0.03637384
0001e0 bc 48 8f bd 56 f7 04 3d 16 06 7a 3d cf 3f 9e bd
       -0.06996295 0.03246244 0.06104096 -0.07727014
0001f0 03 54 c8 bc 9a 7c 88 3d be aa 74 bc 0d ea 27 bc
       -0.024454122 0.06664391 -0.014933286 -0.010248673
000200 f3 fd af 3c 30 ec 04 bd 64 1b 7c bd 41 41 08 bd
       0.021483397 -0.03245181 -0.06154956 -0.033265356
000210 01 e8 63 3d a2 7a 52 bd 83 9a fd bc 9b c3 14 39
       0.055641178 -0.051386483 -0.030957466 0.00014187249
000220 d9 67 09 bd 48 5d 04 3d e6 28 b1 bc fa 62 5b 3d
       -0.033546302 0.032315522 -0.021625947 0.05356119
000230 30 6f 16 bd ee 4a 1c bc 23 3e ca 3c 54 d4 11 bd
       -0.03672713 -0.009539349 0.024687832 -0.035602883
000240 81 f3 05 3d 52 4a 38 3d 13 e0 86 bd ef 0c 49 bd
       0.032702927 0.044992752 -0.065857075 -0.0490846
000250 78 1a b9 3c cd 5c c2 bc a6 f7 f4 bb b1 26 c0 bc
       0.02259563 -0.023725891 -0.007475811 -0.02345595
000260 08 5b f2 3b 89 70 75 3d 22 b6 56 3c 91 0d 1d 3d
       0.0073961057 0.059921775 0.013104947 0.038343016
000270 5c 9a 84 3d 80 43 65 bc 5a f5 2f 3d dc 30 0c 3c
       0.06474754 -0.013993144 0.042958595 0.008556571
000280 93 a0 62 bd 9a 33 eb 3b 14 bc 6e 3d e1 1a f5 bc
       -0.055328917 0.0071777822 0.058284834 -0.029920043
000290 00 f8 69 3d 49 64 7b bd 44 0d 54 bd 36 f7 92 3d
       0.057121277 -0.061374936 -0.051770464 0.07176058
0002a0 a2 ea 82 bd e6 b1 13 bd 1e f1 64 bd 8c 90 52 bc
       -0.06392409 -0.03605833 -0.05589401 -0.0128518455
0002b0 18 50 e0 bc 6e b4 8d bd 2b 92 21 3c 88 67 4a 3c
       -0.027381942 -0.0691918 0.009861509 0.012353785
0002c0 c2 74 23 3d 1a 05 5c 3d 3c 64 46 3d e6 6c 01 bd
       0.03990627 0.053715803 0.048435435 -0.031597994
0002d0 4e d3 84 3c 54 7d 74 bd 50 df 12 bd 29 0f b3 3c
       0.01621404 -0.059689835 -0.0358575 0.021857815
0002e0 41 5c 9d 3d d4 65 8d bd 57 b5 9a bd b4 6d 88 3d
       0.07683612 -0.06904188 -0.07554119 0.06661549
0002f0 5c c0 0f bd bc 66 84 bd c0 95 99 bd be 07 81 3d
       -0.035095558 -0.064649075 -0.07499266 0.06300305
000300 88 17 60 3d ea 11 6e bd 34 42 dc 3c c0 54 d8 bb
       0.05470994 -0.058122553 0.026887037 -0.0066019
000310 40 d5 1f 3b 24 1f 83 bd d7 95 91 bd fc 65 7c 3d
       0.0024388582 -0.06402424 -0.07108658 0.061620697
000320 da a1 c6 bc d0 31 0c 3c 08 a4 95 3c 2f dd 8f bd
       -0.024247099 0.008556798 0.018266693 -0.07024609
000330 f4 f6 85 bd 48 6a 34 bd 66 40 02 3d 94 5d 26 bd
       -0.06541243 -0.04404667 0.031799696 -0.040616587
000340 80 06 cf 3c 28 28 34 3d bc c8 85 bd cc 66 f3 bc
       0.025271654 0.04398361 -0.06532428 -0.029712103
000350 ec 26 5c 3d e1 24 0b bd b0 fb e3 bc 94 f7 22 bc
       0.053748056 -0.033970717 -0.027829975 -0.009946723
000360 45 52 21 bd ea 5d 9f bc 30 36 fc bb 98 58 5e 3d
       -0.0393851 -0.019453961 -0.0076968893 0.05428371
000370 78 a3 9b 3c 50 94 de bb b6 20 09 3d 0c fb 22 bc
       0.018998846 -0.0067925826 0.03347846 -0.00994755
000380 c0 b7 b7 3b 30 41 e3 3b 30 60 d8 3b 9b c8 77 bd
       0.0056066215 0.006935261 0.0066032633 -0.060494047
000390 94 41 51 bd c2 54 01 3d 1e 3b 63 bd 48 64 15 bc
       -0.05108793 0.031574972 -0.0554763 -0.009118147
0003a0 a2 f1 4c 3d 98 ba 66 bd 80 f1 60 3c 30 a0 f8 3b
       0.050035127 -0.056330293 0.013729453 0.007587455
0003b0 45 82 8b bd 02 30 08 bd b8 3c 33 3c ce 40 90 bd
       -0.06811956 -0.03324891 0.010939769 -0.070436105
0003c0 40 d3 da 3c ac 02 7a bc c8 82 b7 3c 78 61 7f 3c
       0.02671206 -0.015259426 0.022401229 0.015587203
0003d0 d0 e7 65 3d de 95 f2 bc 74 8a 7e bc 45 c4 3b bd
       0.056129277 -0.029612478 -0.0155359395 -0.045841474
0003e0 b4 5d 28 3d 80 13 82 bb 70 80 4d bd b4 9a 77 3d
       0.041104987 -0.0039696097 -0.050171316 0.06045027
0003f0 58 83 98 bc 62 5c d8 bc 24 e5 28 bd 8d 20 76 bd
       -0.018617317 -0.026411239 -0.04123415 -0.060089637

conv2.bias f4 [128]
000000 4e 3a 53 3d c8 e9 c0 3c ab a3 22 3d 9b d7 9d bd
       0.051569276 0.023548976 0.039706867 -0.07707139
000010 2c 8c 9a bd 6b 1c 96 bd 6f 15 8b bb 7b d7 7e bd
       -0.07546267 -0.07329639 -0.0042444984 -0.062217217
000020 4f 50 9a bd 08 7f 55 3d 3f 2e 5e bd 6e e9 8c bc
       -0.07534849 0.0521231 -0.054243322 -0.017201152
000030 a3 3f 2f bd 90 1d 3d bd d0 02 47 bd 8b 8b 73 3d
       -0.042785298 -0.04617077 -0.048586667 0.05945925
000040 8b 7d 75 3c 56 a0 f5 bc fb 10 7e 3d cf cd 86 3d
       0.014983545 -0.02998368 0.062027913 0.065822236
000050 ef 0d 39 bd c2 77 52 3d da 57 30 3d b2 ca c7 3c
       -0.045179304 0.05138374 0.04305253 0.024388645
000060 1c ff 83 3d 4f ab 98 3c 32 34 6f 3c c6 6c 05 bd
       0.064451426 0.018636374 0.014599847 -0.032574438
000070 e3 0f 7a 3d 05 67 75 3d 83 55 0f bd 65 99 1d 3d
       0.061050307 0.0599127 -0.03499366 0.038476367
000080 38 ed 23 3d cb 3a 4e bd 0c f5 e8 bc c8 13 8b bd
       0.04002115 -0.050349038 -0.02843716 -0.06790882
000090 53 90 4c bd 8c b9 42 3d 04 0b fe 3c eb d8 47 3d
       -0.049942326 0.047540233 0.031011112 0.048790853
0000a0 d7 71 72 bd 9e 24 8e bd a7 14 3d bd 6e f2 aa b9
       -0.059190597 -0.06940578 -0.046162274 -0.0003260555
0000b0 0b d6 3b bc aa 28 c9 bc aa 65 92 bd 03 83 c7 bc
       -0.011464606 -0.024555523 -0.07148297 -0.024354463
0000c0 0e e0 3c 3d 15 37 de bb 74 42 7d bd af 95 88 3d
       0.046112113 -0.0067814686 -0.061830953 0.06669175
0000d0 14 1e f3 bc 05 aa 22 bd 41 cb 4d bd 6a 6b 80 3d
       -0.029677428 -0.039712925 -0.050242666 0.062704876
0000e0 8a 5b 48 3d d3 58 49 3d 18 02 0b 3c 2d 9b 1e 3d
       0.048915423 0.049156975 0.008484386 0.038722206
0000f0 32 88 66 bd 19 a1 01 3a 31 96 51 3d 9d d3 63 bb
       -0.05628223 0.0004944965 0.051168624 -0.0034763583
000100 ab b8 39 bc 86 7b 79 bd c1 1a 38 3d b9 ad 89 3d
       -0.011335532 -0.060908817 0.04494739 0.06722588
000110 a8 53 f9 3c b5 c2 df bc 42 3f bc 3c f8 9f 39 bd
       0.030435398 -0.027314523 0.022979382 -0.045318574
000120 31 8f 8d 3c b0 03 f7 bb 42 c5 b3 ba 2a b2 96 bd
       0.017280193 -0.0075382814 -0.0013715404 -0.07358201
000130 db 9d 45 3c 38 62 88 3d 01 37 d6 3c 47 d5 2e 3d
       0.012061561 0.06659359 0.026149275 0.042683866
000140 a4 70 83 3d 52 94 92 bd 9c 9f 19 3d 53 0e 87 bb
       0.06417969 -0.07157196 0.03750573 -0.0041215806
000150 88 88 04 bd b5 a9 20 3d 5c 71 7d bd a0 33 5d bd
       -0.03235677 0.039224345 -0.061875686 -0.05400431
000160 37 6a 40 3d 70 04 48 3d 26 9e 2e 3d 71 51 4b bc
       0.046976294 0.048832357 0.04263129 -0.012409554
000170 04 c9 7e bd 3f 69 de bc 98 e9 83 bd 5a a3 0b 3d
       -0.062203422 -0.027149795 -0.06441039 0.03409133
000180 db cb 63 3d fd 71 9f bc a3 5f 5a bb 63 bc a2 3c
       0.055614334 -0.019463534 -0.0033321164 0.01986522
000190 8a 47 18 3c 3a 33 dd 3c e5 a9 93 bc 3a 0d 2e 3d
       0.0092944 0.027001966 -0.018025348 0.042493083
0001a0 0b 2e 23 3d 35 6e 04 3c 45 ae 25 bd 05 57 54 bd
       0.039838832 0.008082916 -0.0404494 -0.0518408
0001b0 59 34 0a 3d 8b 3c 8a bd bf a8 80 3d b6 e0 cc bb
       0.03374133 -0.06749829 0.06282186 -0.0062523736
0001c0 17 86 47 3d 6c 7c de 3b 3c 29 9d bd 19 bf 20 3d
       0.048711862 0.0067897346 -0.076738805 0.039244745
0001d0 3d 30 51 3c e3 d9 20 3b 82 38 66 bd 5a 8c 83 bd
       0.012767849 0.0024543933 -0.056206234 -0.06423254
0001e0 53 75 12 bd cd 1e c4 3c 17 b3 73 3d 32 cc 22 3c
       -0.03575642 0.023940468 0.059496965 0.009936379
0001f0 bf d7 df bc a6 9c 8c bd a5 da b9 3b 2c 4e 03 3b
       -0.027324555 -0.06865816 0.0056718164 0.0020035608

fc1.weight f4 [64, 128]
000000 c9 1c 10 bb 42 b1 64 3d 2d 2d 96 bd 83 9d 1b bd
       -0.0021989814 0.05583311 -0.07332835 -0.03799201
000010 b0 ab 4a 3d 6c d2 01 bb 74 0e 65 bd d2 7a 3a 3b
       0.04948014 -0.001980926 -0.055921987 0.0028454554
000020 55 e3 89 3d ac 31 12 3d 5c ad 8f bd b8 d8 27 3d
       0.06732813 0.035691902 -0.070154876 0.040978163
000030 c4 21 25 3d 3c e7 00 bd c7 65 94 3d a0 f6 3c 3d
       0.040315405 -0.031470522 0.07245975 0.046133637
000040 87 85 c9 3b 38 15 f2 3c 75 fd 8c 3d b9 97 88 3c
       0.006149951 0.029551134 0.068842806 0.01667391
000050 9a 2d 85 bd e8 f3 2e 3d a0 10 87 bd be 94 8b 3d
       -0.065028384 0.042713076 -0.06594968 0.0681548
000060 1d 37 4e bd 36 4b c3 3c c2 a7 86 bc a1 6e 89 ba
       -0.05034553 0.023839574 -0.016437415 -0.001048524
000070 2a 2d ee 3c 0d 9b 8f 3d af 24 b3 3c 2d c1 d3 3c
       0.02907427 0.070119955 0.021868078 0.02584895
000080 d6 2c 5d bd b8 d0 5a bc 46 eb 49 3d 54 52 3d 3d
       -0.053997837 -0.0133554265 0.04929664 0.046221092
000090 42 78 c0 bd 42 49 7d 3d b6 dd a9 bd 95 96 ff bc
       -0.09397937 0.061837442 -0.08294241 -0.031199733
0000a0 9f a3 5d 3c 94 b1 99 bd 4c 24 5b 3d 90 89 3f 3d
       0.01352778 -0.075045735 0.053501412 0.04676205
0000b0 9c 62 4c 3d a2 f1 6f 3d e6 47 8c bd 2c c6 24 3d
       0.04989873 0.05858005 -0.06849651 0.040228054
0000c0 8e 01 87 3d f8 e2 04 3d 56 53 a7 3d 62 57 0c bc
       0.065920934 0.032443017 0.08170192 -0.008565756
0000d0 e0 bb 0b 3d 0f 77 af bc f0 6c 9a 3d 4d 10 78 bd
       0.03411472 -0.021419076 0.075403094 -0.06056242
0000e0 80 3d 3c 3c dc 44 8a 3c fa ea b9 bd 4d 16 23 bd
       0.011489272 0.016878538 -0.09078021 -0.03981619
0000f0 59 e4 f2 bb 6b 95 67 3d 70 e6 4d 3d e4 02 5e bd
       -0.007412475 0.05653898 0.05026859 -0.054201975
000100 c7 91 46 bc fa 42 88 3d ac 37 41 ba 83 5f b5 bd
       -0.012119717 0.066534 -0.00073706615 -0.08856108
000110 ab 0e e9 bb 97 98 42 bc 8a 0e ab bd 1f f7 3e bd
       -0.0071123443 -0.011877201 -0.083523825 -0.04662239
000120 e0 2c 10 3d bd 42 9a bd ff 2b ab bd 31 c3 b7 bc
       0.035199046 -0.075322606 -0.08358001 -0.022431942
000130 4f 14 e6 bc fa 68 8b 3d 08 f6 45 3d ec 96 24 3d
       -0.028085856 0.06807132 0.048330337 0.040182993
000140 d4 07 92 bc 9f 96 16 bd 38 8e 26 3d 2a d3 a3 bd
       -0.017825998 -0.036764737 0.040662974 -0.07999261
000150 8e 5d a6 3d 6b ec 46 bd ea cf 2e 3c e1 a6 a3 bc
       0.08123313 -0.04856531 0.010669688 -0.019977035
000160 90 0b 90 bd ec 43 85 bd 23 7b 8c bd 94 68 67 3d
       -0.07033455 -0.06507096 -0.06859424 0.056496218
000170 48 eb 8c bd 3c 6f 10 3d 57 12 8a bc d3 f2 b9 3c
       -0.06880814 0.03526233 -0.016854448 0.022698795
000180 34 ac 63 3d 5f 17 99 bc 55 ea f5 bc ef 92 89 bd
       0.055584148 -0.018687902 -0.030018965 -0.067174785
000190 f8 e0 39 3c b0 df 28 3d f0 58 1f 3d ed c1 28 bd
       0.011345141 0.04122895 0.038903177 -0.041200567
0001a0 55 03 ac bd 2c 79 1b 3d f4 ae 87 bd cd 78 b0 bd
       -0.08399073 0.037957355 -0.066251665 -0.08616791
0001b0 31 46 f7 bc 06 f0 49 3d a4 68 0e bd 59 c0 b1 3c
       -0.030184837 0.04930117 -0.03476776 0.021698164
0001c0 06 a4 18 bd 2a 67 c7 bc 44 09 43 3d 86 c1 6f 3d
       -0.0372658 -0.024341185 0.04761626 0.058534168
0001d0 79 84 0e bd 3e d0 76 bd 10 fa b8 bb 7e 6e 9e bd
       -0.034794305 -0.06025719 -0.005645044 -0.077359185
0001e0 07 8c 4a bc d0 a7 17 3d a4 6e 36 3d c4 26 fa 3c
       -0.012362487 0.037025273 0.04453911 0.030536063
0001f0 21 e7 89 bd de be 55 3c 23 fb ff 3a 30 04 67 bc
       -0.067335375 0.013045995 0.0019529801 -0.0141001195
000200 00 46 a4 bc c3 ce 91 3d 93 2b 83 3d d8 5b 4f bc
       -0.02005291 0.07119515 0.064047955 -0.012656175
000210 3a 90 6e 3d db c4 9b bd ca 81 97 bd 84 b9 aa bc
       0.058243014 -0.076059066 -0.07397802 -0.020840414
000220 a0 8a 7b 3b cc 18 e1 3c f2 a3 77 bd 92 ee 91 bd
       0.0038382187 0.027477644 -0.060459085 -0.07125582
000230 cf e2 80 3d 23 f0 a4 3d 8d 7b b3 3d 5c 2a a9 bc
       0.0629326 0.08053615 0.087638 -0.020650081
000240 2a 22 44 3d 79 11 95 3d 06 98 52 3d 44 e9 99 3c
       0.047884144 0.07278723 0.051414512 0.018787988
000250 d4 80 96 3c 00 e7 95 39 f8 3e 43 bd 50 a7 2f 3c
       0.018371977 0.00028591603 -0.047667474 0.010721043
000260 d3 1b 6f bd b5 06 02 bd 88 46 5a bc 1e d0 0b 3d
       -0.058376145 -0.031744678 -0.01332248 0.034134023
000270 dd 51 a2 bd 20 62 34 3c 08 77 27 bc 4d 4c 20 bd
       -0.079257704 0.011009723 -0.01022125 -0.039135266
000280 96 9f 68 3d 6e 1d a5 bd d5 42 9b 3d 00 f1 21 bb
       0.056792818 -0.08062254 0.075811066 -0.0024710298
000290 ab 78 55 bd 84 4e 83 bc 56 fc 5e 3d 0f ee 29 bd
       -0.05211703 -0.01602865 0.054439865 -0.041486796
0002a0 3f 9d ab bd c0 86 aa bb 90 3e ca bc 56 53 29 3d
       -0.08379602 -0.0052040517 -0.024688035 0.04133924
0002b0 21 d8 9e bd 40 1f 9f bd 2a e6 3e 3d 70 7b 06 3c
       -0.07756067 -0.07769632 0.04660622 0.008208141
0002c0 f0 9e 83 bd fd 6d 13 bd e0 ff 17 bc 84 46 58 bd
       -0.06426799 -0.035993565 -0.009277314 -0.052801624
0002d0 ae d9 82 bd 40 87 62 bb ac da 70 bd 96 d9 2c 3d
       -0.06389175 -0.0034565479 -0.05880229 0.042199694
0002e0 9c 04 2a bd 8e 41 1f bd 1f d5 a5 bd 48 0e 85 3c
       -0.041508302 -0.038880877 -0.0809729 0.016242161
0002f0 bc fd d5 3c fc 71 8a 3c 07 b5 af 3d cf 4a 20 bd
       0.026121967 0.016900055 0.0857945 -0.039133843
000300 c6 0c 6a 3d 19 8a 93 bd 2a 30 4d 3d c5 80 b4 3d
       0.057141088 -0.072040744 0.05009476 0.08813623
000310 ac 0e c5 bc 48 2b fe bc 63 36 a0 3d cb 72 84 3d
       -0.024054848 -0.031026497 0.078228734 0.064672075
000320 98 f1 44 bc 60 f9 ed 3b d7 d9 85 3d c0 19 71 3b
       -0.012020491 0.007262394 0.0653569 0.003678903
000330 04 1a 84 3c d5 00 ae 3d 0c bd 96 bd 24 60 ae bd
       0.016125686 0.084962524 -0.073602766 -0.08514431
000340 9e 1e 39 bd 80 fb ab bb 86 f7 9c bd 56 be 2f 3d
       -0.045195214 -0.005248487 -0.07664399 0.042906128
000350 0e b5 41 bd f8 7b 89 bc aa 92 21 3d 23 c3 aa 3d
       -0.047291808 -0.016782746 0.03944651 0.083380006
000360 25 ae 81 bd 3e 51 6b bd 20 44 6d bc f1 20 93 bd
       -0.063320436 -0.057450525 -0.014481574 -0.071840174
000370 88 9a cd 3c 4e 8f a5 bd bc 84 a9 bc 02 a8 77 bd
       0.0250981 -0.08083974 -0.020693175 -0.06046296
000380 45 17 61 bd ed a8 12 bd c0 a1 ff 3b e2 10 e3 bc
       -0.054953832 -0.03580563 0.0078012645 -0.027718011
000390 46 c9 39 3d cf e9 26 bd 53 be 96 bd c4 7d e0 3c
       0.045357965 -0.04075032 -0.0736052 0.02740372
0003a0 9d 61 74 bd 5e fb 5f 3d 19 1b 51 bd 6e f9 b3 bd
       -0.059663404 0.05468308 -0.051051233 -0.08787809
0003b0 a6 3a fc bc 3f 6c 8d 3d fb 3a 06 bd e1 16 57 bd
       -0.030789685 0.06905412 -0.032771092 -0.052512053
0003c0 d7 f3 99 3d 2a d7 70 3d 19 1c a1 3d 80 83 6e 3c
       0.07517212 0.058798946 0.07866687 0.014557719
0003d0 80 f8 cc 3c b7 ae af 3d 50 1d 9d bb b8 0a 8b bc
       0.025020838 0.08578246 -0.004794754 -0.016972885
0003e0 6a 44 3d 3d 91 06 30 bd 16 f8 1e 3d 6a 2a 49 3d
       0.046207823 -0.042975012 0.038810812 0.049112715
0003f0 a0 45 2f bc ea a7 13 3d 7e 74 10 3d ec d1 e2 3c
       -0.010697752 0.036048807 0.035267346 0.02768799

fc1.bias f4 [64]
000000 6b 3c 6d bd d8 4f 51 3c f3 f8 85 bd 25 26 08 bd
       -0.057918947 0.012775384 -0.06541624 -0.033239502
000010 ab 06 31 ba 7c 9e 8f bd d1 6b a3 bd 20 59 8b 3b
       -0.0006753008 -0.0701265 -0.07979549 0.004252568
000020 3a 5b 83 bd 7b 27 8d 3c 6c ca b8 bd 6d 50 d7 3b
       -0.064138845 0.01723074 -0.09022984 0.006570867
000030 92 2b 84 bd d7 8a b2 bd c3 80 72 bd 15 63 85 bc
       -0.06453623 -0.08717888 -0.059204828 -0.016282598
000040 46 75 ab bd 20 fb 0b 3d db e5 2b 3d 7b c2 f7 bc
       -0.083719775 0.03417504 0.041967254 -0.030244103
000050 ce a9 7f bb a3 0d 82 3d 9c b4 d1 3c 20 fe 55 bc
       -0.0039011124 0.06350257 0.025598817 -0.013061076
000060 90 65 65 bc aa 33 20 3d 7c 9a b5 3c f7 ae 09 bd
       -0.014001265 0.03911177 0.02216839 -0.033614125
000070 fe 67 5d 3d 6a ad 05 bd 6c 22 8a bc dc 59 fc 3c
       0.054054253 -0.032636084 -0.016862117 0.030804567
000080 78 b7 a2 3d c0 27 d6 3a c4 33 3a 3d a8 56 2d 3d
       0.0794515 0.0016338751 0.045459524 0.04231897
000090 da c6 4c 3d 8d 2a aa 3d e8 64 33 3c 9d ec 81 bd
       0.049994327 0.08308897 0.010949351 -0.063439585
0000a0 5a 68 37 3d 7e e1 94 bc 19 c8 e1 3c 4c a5 ac bc
       0.04477725 -0.01817393 0.027561234 -0.021074913
0000b0 d4 d3 95 bd a8 3e 78 3c 8d 90 9c 3c 34 33 1d 3d
       -0.07315794 0.015151657 0.019111896 0.03837891
0000c0 59 24 4c 3d dc 9a da 3c 21 19 99 3b 66 fc a1 bd
       0.04983935 0.02668517 0.004672185 -0.07909469
0000d0 48 3e 20 bd ee 4c 66 bd 9f 15 fc bb 62 e5 9b 3d
       -0.039121896 -0.05622571 -0.007693007 0.07612111
0000e0 2a 1a 4d 3d 4b 15 8b 3c 82 4c 99 3d 40 a4 2c bd
       0.05007378 0.016977927 0.07485296 -0.04214883
0000f0 35 3b 5f bd 14 bb e7 bc 66 a1 a5 3d 7d 8b 90 3d
       -0.054499824 -0.028287448 0.08087425 0.07057855

fc2.weight f4 [1, 64]
000000 fd 59 c7 bd fc 32 d6 bd a4 61 ef 3d 4a f7 7e 3d
       -0.09733961 -0.10458943 0.11688545 0.062247552
000010 da d2 91 3d f0 c6 bd bd 4f 75 71 bd b0 53 c0 3d
       0.07120295 -0.0926646 -0.058949765 0.09390962
000020 ed 15 ac bd b3 48 d2 bd f5 4f eb bc 46 94 15 3d
       -0.084026195 -0.102677725 -0.02872465 0.036518358
000030 f8 fb e4 3d e8 85 e2 bc ed b6 d7 3c 8e 43 26 bd
       0.11180872 -0.027651742 0.026332343 -0.04059177
000040 64 3f e2 3d 5d e4 34 bd 93 ef bf bd 94 75 a0 3c
       0.11047247 -0.044163097 -0.09371867 0.019587316
000050 12 41 84 b7 e1 bc eb bd 0a 87 e1 bd 68 d2 80 3d
       -1.5765927e-05 -0.11510635 -0.11012085 0.06290132
000060 82 22 ed 3d fb d3 94 3c c8 8a 85 bc 50 b8 c5 3c
       0.115788475 0.018167486 -0.016301528 0.024135739
000070 76 aa 95 3d b4 fc d2 3d 18 00 d1 3c 6f e4 52 3b
       0.073079035 0.103021055 0.02551274 0.0032179614
000080 da a7 3f bd e0 53 a1 bd b4 86 8d bd 5b 72 47 3b
       -0.046790935 -0.07877326 -0.06910458 0.0030433151
000090 18 41 b6 bd e7 8e ad bc 45 a1 e0 bd 1c ec 6b 3d
       -0.088991344 -0.021186305 -0.1096826 0.05759822
0000a0 b3 59 d2 3c 49 2b 48 3d 7e 4c df 3d 96 36 47 3d
       0.025677538 0.048869405 0.109032616 0.04863604
0000b0 a4 f3 b8 bd 80 6c c5 bc f4 b6 89 bd 01 db 6f 3c
       -0.09030846 -0.024099588 -0.06724349 0.014639617
0000c0 f1 06 f1 bd de 42 47 3c 11 c1 d0 3b 24 26 84 bd
       -0.11768902 0.0121619385 0.0063706716 -0.06452587
0000d0 b2 e1 cc bd 5f a8 93 bc 58 d9 f7 3d 1b 0c 07 3d
       -0.100039855 -0.018024622 0.12102002 0.03297053
0000e0 78 92 25 3d 6a 8b 88 3b d1 6e e8 bd 58 e6 06 bc
       0.040422887 0.00416701 -0.113492616 -0.008233629
0000f0 60 26 f8 bd a0 df 90 3b 2c 33 1c bd bb a7 83 bd
       -0.121166945 0.0044211894 -0.03813474 -0.064284764
