assets/model/phrase002_speech_model.pth (torch, 145844 bytes, 7 tensors)

conv1.weight f4 [64, 13, 3]
000000 90 86 0e be 1a cc ea bd 10 a9 0b be a1 ab 89 bd
       -0.13918519 -0.114647105 -0.13638711 -0.06722189
000010 58 39 ab 3c ca e3 ef bd c5 7e d1 bd e2 5d 54 3c
       0.020901367 -0.11713369 -0.102292575 0.0129618365
000020 45 d8 e2 bd 45 6d 0f be 95 df 9b 3d 99 72 f0 b9
       -0.110764064 -0.14006527 0.07611004 -0.0004586175
000030 78 dd 15 be e0 7a 44 3b ec 48 f1 3a 69 bb 02 bd
       -0.14635265 0.0029980466 0.0018408573 -0.03191701
000040 45 21 fc bd 05 90 d1 3d 06 6d 87 bd 34 fa fa bc
       -0.12311033 0.10232548 -0.066125914 -0.030636884
000050 dc 38 3c bd ac f7 ae bd 92 60 1e 3d 11 9b 51 bb
       -0.045952663 -0.085433334 0.038666315 -0.0031983296
000060 8e 02 a8 3c 87 56 15 be b8 19 b8 bb d1 fd e0 bd
       0.02050903 -0.14583789 -0.0056183003 -0.10985912
000070 73 27 d4 3c 7c 44 e4 bc 37 4a df 3d 08 6a d9 bd
       0.025897717 -0.027864687 0.10902827 -0.10615927
000080 08 c5 26 be e6 b6 e7 3c e3 50 00 3e 1b 9d 1b bd
       -0.16286099 0.028285455 0.12530856 -0.037991624
000090 d2 13 0e be 68 ca ba bd 53 95 01 3e b5 63 a5 3a
       -0.13874748 -0.09120637 0.12654619 0.0012618216
0000a0 91 90 fc bd 4b d5 0b be df ba de bd e7 ed 20 be
       -0.12332261 -0.13655584 -0.108754866 -0.15715753
0000b0 63 13 9d 3d b7 8c de 3c 58 1f d6 bd 17 77 a0 3c
       0.07669713 0.027166707 -0.10455197 0.019588036
0000c0 1c 8c 07 3d 1c af cb bd aa a6 d7 3d be 7f 03 3e
       0.033092603 -0.09945509 0.105298355 0.12841699
0000d0 b7 54 95 bc 09 e1 e5 3d 9a b2 dd 3d 24 06 d5 3d
       -0.018228872 0.11224563 0.10825081 0.10401562
0000e0 37 6a d1 3c e5 31 58 bd 7f 26 b3 3c 6b d8 52 bd
       0.025563342 -0.052781958 0.021868942 -0.051475924
0000f0 c0 9b 75 3d ea c4 a1 3d 8d 73 0e be 8c 32 88 3d
       0.059962988 0.078988865 -0.13911267 0.06650266
000100 d4 8f 0f 3d 71 dc eb 3d 62 5a ff bd e2 19 03 be
       0.035049275 0.11516655 -0.12468411 -0.12802842
000110 45 38 03 3e 0a 0c c5 3d 5e e6 0c be 92 68 be bd
       0.12814434 0.09621437 -0.13759753 -0.09297289
000120 e8 46 c4 3d da a5 0e 3e b4 8c ce 3d 9b 2c a2 3d
       0.09583837 0.13930455 0.10085431 0.07918664
000130 b8 9a 19 be e1 7a d7 bd af a3 0b be d6 ec f6 bb
       -0.15000427 -0.10521484 -0.13636659 -0.0075355573
000140 c4 4a 38 bd 54 63 ad 3c 6b 06 09 be ab fe 19 be
       -0.044993177 0.021165527 -0.13381355 -0.15038554
000150 94 09 05 3c 14 11 51 bc 30 77 0d bd b7 4b d9 bd
       0.008119959 -0.012760419 -0.034537494 -0.106101446
000160 5b 84 7a 3d 53 13 99 3d 9a 44 29 3e 76 47 f4 bd
       0.06116138 0.07474389 0.16530076 -0.119276926
000170 ff 60 f3 3c 9b cd 1c bc 61 d9 f4 3d 19 60 b1 3d
       0.029709337 -0.009570505 0.11955524 0.08660907
000180 5e cd 42 bd d0 73 15 be 66 59 67 bc 91 25 46 3d
       -0.047559135 -0.1459496 -0.014120435 0.04837567
000190 37 d5 9c 3d 92 80 d9 bd 83 a7 77 bd 9f 3e e6 bd
       0.07657855 -0.10620226 -0.060462486 -0.11242413
0001a0 39 82 08 3d 1e d6 65 3d 3e aa de 3d 9c 84 8c bc
       0.033327315 0.0561124 0.10872315 -0.017153077
0001b0 3e 42 2b bd 3a 6e 15 be e9 d7 81 3d ba 76 1e be
       -0.04181122 -0.1459283 0.0634001 -0.15474978
0001c0 57 5c 93 3d 6d c3 5e bd 6c 65 9a 3d ec a6 f6 3d
       0.07195347 -0.05438559 0.07538876 0.120435566
0001d0 4f 3c 9e 3d 7c 0b c9 bd ee 06 f3 3d 88 58 b6 bd
       0.07726347 -0.098166436 0.11866556 -0.08903605
0001e0 e1 f5 1d be 10 d3 e0 3d d6 4f 12 bb 67 0d 4a 3c
       -0.15425827 0.10977757 -0.0022325418 0.012332297
0001f0 b5 d6 8b 3a 1b 49 aa bd 40 59 94 3d 14 78 08 3d
       0.0010668846 -0.08314725 0.072435856 0.03331764
000200 2d f4 0b 3e 7c 0c d9 bd 55 d4 cc bd f7 3b 1d bd
       0.13667364 -0.10598084 -0.100014366 -0.038387265
000210 26 45 6d 3d 2e 52 38 bd d5 a0 22 3e 12 12 07 bd
       0.057927273 -0.045000248 0.15881665 -0.032976218
000220 0e 0a fe 3d 0b a8 cc bd d6 75 67 3d f5 d7 95 3d
       0.124042615 -0.09992989 0.05650886 0.07316581
000230 21 11 ce bd ca 3c b0 3d 47 2d ff bd c7 38 84 bd
       -0.10061861 0.086053446 -0.12459808 -0.06456142
000240 81 06 0b 3d 30 6d 20 be 32 91 05 3e ed a3 13 3e
       0.03394175 -0.15666652 0.13043669 0.14418001
000250 de a8 a6 3c 23 1c 10 3e 3a 79 36 bd ba f0 30 bb
       0.020344194 0.14073233 -0.044549204 -0.0026998953
000260 e2 96 ee bd 43 b1 f0 bb 06 c8 1a be ca 5d 13 be
       -0.11649872 -0.00734535 -0.15115365 -0.14391246
000270 c4 95 05 3e e5 bd 90 3d de 93 97 3d b9 ee e9 3d
       0.13045412 0.070674695 0.0740125 0.11422486
000280 b0 d0 05 bd 93 58 8b 3d e1 cf 4d bd 6d 21 fb 3d
       -0.032669723 0.068040036 -0.050247077 0.12262235
000290 ea c2 17 3e 1b b1 db 3d 0f c2 47 3c f2 37 8b 3d
       0.14820448 0.107271396 0.012192263 0.0679778
0002a0 24 c9 d6 bd 4c 39 24 bd 50 19 20 be 38 d5 0e be
       -0.10487583 -0.040093705 -0.15634656 -0.13948524
0002b0 51 04 09 bd e2 b7 da bd 8f 8a cb bd 6d a7 f8 bc
       -0.033451382 -0.10679604 -0.09938537 -0.030353272
0002c0 04 77 29 be 2a d1 8c bc 7d 62 de 3d f5 94 08 3e
       -0.16549307 -0.017189581 0.10858629 0.13338073
0002d0 92 53 12 be a0 7a b9 bd 92 d6 b0 bd 2e 21 34 3d
       -0.14289692 -0.09056592 -0.08634676 0.043976955
0002e0 9c f8 90 bd 1f 37 9e bc 03 7f 50 3d e1 3e 1a 3e
       -0.070786685 -0.019313393 0.050902378 0.15063049
0002f0 4c 26 10 bd fe 4f e2 3d 96 3e bf 3c 5e 78 8b 3d
       -0.035192773 0.110504135 0.023345273 0.068100676
000300 31 60 99 bd 82 df ed 3d 1d 39 d6 3d 23 28 18 3e
       -0.0748905 0.11614896 0.10460112 0.14859061
000310 02 29 db bd 3a cc 76 bd d7 8a 0d be 5b e8 5d bd
       -0.10701181 -0.06025336 -0.13822494 -0.05417667
000320 cf 20 b6 bd 4b d0 ee 3d b1 d2 9d 3d 3c 55 91 bd
       -0.088929765 0.116608225 0.07706202 -0.07096335
000330 99 bd d6 3c 33 83 f8 3d 5d 45 99 bd d3 12 c4 bd
       0.026213454 0.12134399 -0.07483933 -0.09573903
000340 f2 34 d8 3d cd 5b 14 be d3 be 24 be cb b0 c5 3d
       0.105569735 -0.14488144 -0.16088419 0.09652861
000350 e5 44 5c bd 73 fb 07 bd c1 b6 81 3b 7c d4 af 3c
       -0.05377664 -0.033198785 0.0039585535 0.021463625
000360 5c ec 7a bd 9e 18 33 bd cf 4c ed 3d 8b 59 21 bd
       -0.061260566 -0.04372465 0.11586916 -0.039392035
000370 6f 18 ac 3d 40 a8 56 bd 3c 38 84 3d 74 85 07 be
       0.08403098 -0.05240655 0.06456038 -0.13234502
000380 e5 4d 8f 3d 1a 33 a2 3d f6 da da 3d 25 ae 87 bd
       0.06997279 0.07919903 0.10686295 -0.06625012
000390 13 c9 b0 bc 8d d0 b9 3d 68 ea 27 3d 7e e1 88 3d
       -0.021580255 0.09072981 0.04099503 0.06683634
0003a0 e9 1d 9b 3d 4c 6f 82 3d ea 55 e5 bd 33 ca c9 bd
       0.07574064 0.063688844 -0.111980274 -0.098530196
0003b0 64 df c3 bd b6 55 2d be 91 da ba bd fd 57 d1 3d
       -0.09564093 -0.16927227 -0.091237195 0.102218606
0003c0 7e dd 0c 3e 49 49 ca bd a7 0e 13 3e ff 09 00 3e
       0.13756368 -0.09877259 0.14361058 0.12503813
0003d0 48 8c c2 bd e1 54 bc 3d c0 99 56 bd 9e e3 c2 3d
       -0.09499413 0.09195877 -0.05239272 0.09516071
0003e0 cd 39 1c 3d 09 f7 2b 3e eb f8 d8 3c 53 75 52 bc
       0.03814106 0.16793455 0.02648588 -0.012845355
0003f0 7e 3d 1d 3e e0 63 0b be 8c b5 ed bd 3e e6 f4 bd
       0.15355489 -0.13612318 -0.11606893 -0.11957978

conv1.bias f4 [64]
000000 52 0d e2 3c 97 8a 71 3c 59 3b 2c bd 62 95 cc 3d
       0.027594242 0.014742515 -0.042048786 0.0998943
000010 d0 2c 53 3d c5 ed 1b 3d 18 e2 2e be bf 75 17 be
       0.05155641 0.03806855 -0.17078435 -0.1479101
000020 be 50 0c be b4 3b 9b bd 7c 1f d7 bd be 48 0e be
       -0.13702676 -0.07579747 -0.10504052 -0.13894936
000030 dd 7f 0c be eb d4 cf bd 96 92 c7 3c 8a 06 d7 3c
       -0.13720651 -0.10148033 0.02436189 0.026248235
000040 2c 02 0e 3d 44 f1 6c bd b8 db 66 3d 04 ea c4 3d
       0.03467004 -0.057847276 0.056361884 0.096149474
000050 09 02 92 3d ad e6 d6 3d b7 b8 1c be 30 ae 28 bd
       0.071292944 0.10493217 -0.15304838 -0.041181743
000060 a9 b4 14 be d8 df 60 3c 79 1d a4 bd 2b 57 11 bd
       -0.14522041 0.0137252435 -0.08013434 -0.03548352
000070 69 15 04 be 73 33 22 3c 4c b3 94 bd 4c 66 03 be
       -0.12898792 0.009899962 -0.07260761 -0.12831992
000080 97 78 07 be 29 29 22 3e 45 1f ae bd ee 3e 21 be
       -0.13229595 0.15836014 -0.08502058 -0.15746662
000090 40 89 25 be df ca 1c be ae 0c a8 3d 5e 2e 06 bd
       -0.16165638 -0.15311764 0.082055435 -0.032759063
0000a0 9a e6 d1 bd 00 24 b9 3d 06 63 09 be ff 77 6d bd
       -0.10249062 0.090400696 -0.1341668 -0.057975765
0000b0 7e 14 a3 bd 31 b8 68 bd 01 c3 80 bc 9e ac d6 3d
       -0.07962893 -0.056816284 -0.015717985 0.10482143
0000c0 39 0c 95 bd f0 f0 b3 3d ed a0 22 bc 23 1b ee 3c
       -0.07277722 0.087861896 -0.009926063 0.029065674
0000d0 97 37 8a bd c3 fa 78 3d d6 3a 1c be de a6 d5 bc
       -0.06748884 0.06078602 -0.15256819 -0.026080545
0000e0 1e ba 15 3e 4b fa 99 bd 33 7f f2 3b 94 66 07 3e
       0.1462178 -0.07518443 0.0074004172 0.13222724
0000f0 5e 0c e0 3d 5f 72 fe 3c 3d 81 9d bd bd 5d 5c 3d
       0.10939859 0.031060396 -0.07690666 0.053800333

conv2.weight f4 [128, 64, 3]
000000 2a 1e 10 bb 4c d7 a9 3c 31 fb 6b bc ca a7 f1 bb
       -0.0021990635 0.020732544 -0.01440315 -0.0073747383
000010 c2 01 08 3d 8c be 54 3d 0f 13 63 bd fb c9 cc bc
       0.0332048 0.051939532 -0.055438098 -0.024998656
000020 a6 50 0f 3c af 8f 55 bd 8b 2a 2b bd aa 29 91 3c
       0.008747255 -0.05213898 -0.04178862 0.017720062
000030 80 3f 40 3d a7 32 23 3d 4e 94 2c bd da cf a2 bc
       0.04693556 0.039843228 -0.042133622 -0.019874502
000040 e4 96 f0 3c 64 d9 ee 3c c2 9d 96 bd 04 94 d2 3c
       0.029368825 0.029156394 -0.07354309 0.025705345
000050 f2 6d 93 bd a9 dd 31 bd c0 95 a0 bc e1 49 a6 bb
       -0.07198705 -0.043424282 -0.019602656 -0.005074725
000060 5b b3 1e bd f5 af 5e bd 29 81 5e bd 2b 79 52 3d
       -0.038745265 -0.054367024 -0.054322395 0.051385086
000070 b9 ab e2 3c 22 43 29 3d d5 9f da 3b fb a1 30 3d
       0.027669774 0.04132379 0.0066718855 0.043123227
000080 d9 3f f8 bc 52 f6 fc bb 7d 18 8d bd a9 c3 9e bc
       -0.030303882 -0.0077197934 -0.068894364 -0.019380407
000090 7b 26 53 3d 3a cc 14 3d db 52 e9 3c 92 50 d1 bc
       0.05155037 0.036327578 0.028481891 -0.025551114
0000a0 95 97 05 3d db 42 13 3a 17 83 43 bd 96 e4 50 3d
       0.032615263 0.0005617567 -0.04773244 0.050999247
0000b0 c6 3f 8e bc 19 1d 6f 3d 13 f4 15 bd 2f b4 87 bd
       -0.017364394 0.05837736 -0.03660972 -0.06626164
0000c0 e0 a3 8d 3b be af 1a bd 48 2e 26 3c 9a dd 39 3d
       0.004322514 -0.037765257 0.01014287 0.04537735
0000d0 7c 3a 28 3d ff 38 a5 bc dd 20 63 bd 8e 69 cb bc
       0.0410714 -0.02016878 -0.055451263 -0.024830606
0000e0 8e 3c 85 bd 26 05 79 bd a4 21 05 3d 10 bc 1a 3d
       -0.065056905 -0.060795926 0.032502785 0.037777007
0000f0 8b e3 7d 3d 4a b3 70 bd 02 6c f8 bc e7 bf f6 bc
       0.06198458 -0.058764733 -0.03032494 -0.030120803
000100 9f a5 30 bd f2 e7 b0 bc 68 22 da bc 7e a9 70 3d
       -0.0431267 -0.021594975 -0.026627734 0.05875539
000110 ec e9 78 3c b5 c9 91 bc af 09 46 bd 59 d2 e5 3b
       0.01519249 -0.017796377 -0.04834908 0.007013601
000120 00 13 ac bb 06 4a 3c bc 30 ec df 3b 50 a5 b5 3c
       -0.0052512884 -0.011492258 0.0068335757 0.022173554
000130 d8 10 83 3d 78 c7 8c bd 57 9f 07 3c f0 92 7e 3d
       0.06399697 -0.06873983 0.008277736 0.06215185
000140 dd 41 6f 3d 83 38 46 3d 6f 43 36 3b d4 b3 a2 3c
       0.05841242 0.048393738 0.002781119 0.01986114
000150 6a ea eb 3b 49 69 9f bc 96 27 86 3d 21 85 14 bd
       0.007199575 -0.019459384 0.06550519 -0.036259774
000160 a4 16 2e bc a4 e5 a0 3c 20 19 a5 3b d4 9e e4 bc
       -0.010625515 0.019640751 0.0050383955 -0.027907766
000170 9e 0f 2a 3d 6a 79 43 bd 56 57 f4 bc 00 6b 8c bd
       0.0415188 -0.04772321 -0.029826801 -0.06856346
000180 c8 5e 7b bd 8b 01 22 3d 67 e4 5e 3c b3 aa e6 bc
       -0.061369687 0.039552253 0.01360426 -0.028157568
000190 c2 e3 22 bd b3 d1 64 3d 73 22 13 3d 3b 75 d3 3c
       -0.039767988 0.055864047 0.035921525 0.025812736
0001a0 8d 98 79 bd c5 d2 8b bc 27 34 66 3d b5 bf e2 bb
       -0.0609365 -0.017068276 0.05620208 -0.006919826
0001b0 06 4f 47 3d ea c9 6a bd fc 06 d3 bc 73 60 47 3d
       0.048659347 -0.057321467 -0.025760166 0.048675966
0001c0 7c 2d 79 bd 15 8c f0 bc 13 32 8a bd 5c 58 3c bd
       -0.060834393 -0.029363671 -0.06747832 -0.045982704
0001d0 66 07 37 3d cb 85 c5 bb f5 e2 c0 3c d4 d7 45 bd
       0.04468479 -0.0060279123 0.023545722 -0.048301533
0001e0 33 d9 9b bd e2 86 41 bd a4 a0 d1 bb e4 94 45 bd
       -0.07609787 -0.047247775 -0.0063973237 -0.048237696
0001f0 a7 e3 58 bd dc ca 9f bd af 8c 18 bd e4 6e 43 3d
       -0.05295148 -0.07802364 -0.03724354 0.047713175
000200 e2 2c 3b bd 14 58 57 3d 08 0c 00 bc 62 55 f1 3c
       -0.0456971 0.052574232 -0.0078153685 0.029459659
000210 0c b3 60 bd a5 fe 80 bd 4c b2 4e bd 61 34 7f 3d
       -0.054858252 -0.062985696 -0.050463006 0.06230581
000220 df b6 83 3d bb a3 74 bd b0 61 92 3c c0 65 ef bb
       0.06431364 -0.059726458 0.017868847 -0.0073058307
000230 0e 34 44 bd b6 ae 89 bd d9 e7 49 3d bc 4d 8e bd
       -0.047901206 -0.067227766 0.049293373 -0.069484204
000240 54 35 55 bd 8c 30 2a bd 23 07 10 bc 2d 11 9f bc
       -0.05205281 -0.041550204 -0.008790764 -0.01941737
000250 5d e1 b2 bc 5b 3e 42 3d 6b 3f 7b bb 13 95 f6 bc
       -0.021835977 0.047422748 -0.003833736 -0.030100381
000260 08 9f cb 3c c1 59 9f bb bf 50 5f bd c0 4e dd bc
       0.024856105 -0.0048629944 -0.054520365 -0.02701509
000270 59 35 6d bd b3 3e 13 3c 5e 68 24 3a 65 a9 9d bd
       -0.057912204 0.008987117 0.00062716554 -0.07698325
000280 1c b9 7c 3d ec bd 96 bd e6 87 84 bd 0f 56 83 bd
       0.06169997 -0.073604435 -0.06471233 -0.06412899
000290 7f a8 8c bd 8f a5 23 3d 97 66 d6 bc 1a 8f 81 3c
       -0.068680756 0.03995281 -0.026171966 0.015815306
0002a0 fc fc 6e 3d a4 d1 68 3d 28 f8 b2 bb b0 9c 94 3c
       0.058346733 0.056840554 -0.0054617114 0.01814112
0002b0 62 9b 07 3d 80 5a 57 bb 96 7c 58 3d 77 43 9c ba
       0.03310717 -0.0032860339 0.05285319 -0.0011921962
0002c0 02 94 84 bd 02 ba 7d bd af d5 d5 3c 04 8f 3b 3d
       -0.06473543 -0.06194497 0.026102869 0.045790687
0002d0 88 cf 69 3c 90 25 3f 3d c0 91 d5 3a 8b 38 8c bd
       0.014270671 0.04666668 0.0016294047 -0.06846722
0002e0 c3 d4 24 3d d9 33 af 3c 08 89 f0 bc a6 91 fe 3c
       0.040241968 0.021387028 -0.029362217 0.03107531
0002f0 80 43 5a bd 55 69 b8 3c 2d 09 4f bd 01 8b 96 3d
       -0.05328703 0.022511164 -0.05054586 0.07350732
000300 00 7b 1d bd ef 78 94 bd 9a 22 52 bd 87 92 22 bd
       -0.03844738 -0.07249629 -0.05130253 -0.03969052
000310 5f b5 6b 3c 1e 2e 34 bc bf db 79 3d 78 2d b4 3c
       0.014386504 -0.010997323 0.06100058 0.021994337
000320 2d bc 45 bd 2e 7f 7c bd bd e0 80 bd a2 55 ff bc
       -0.04827516 -0.061644726 -0.062928654 -0.031168763
000330 76 d0 3e bd 7d bc 74 bc 59 37 a6 38 43 c4 c4 bc
       -0.046585523 -0.014937517 7.925806e-05 -0.024019366
000340 a2 e7 b2 39 6e eb e6 bc c4 8f 9d bd ef ff 7a bc
       0.00034123386 -0.028188433 -0.07693437 -0.015319808
000350 90 02 a0 3c 9c 99 87 bd c8 09 37 3d 81 07 8a bd
       0.019532472 -0.066210955 0.044687063 -0.067397125
000360 ff 44 52 3d 65 b5 be 3c 6e 2c 32 bd ee 70 af 3b
       0.05133533 0.023279855 -0.043499403 0.0053540384
000370 9c 8b 90 3c 03 2e 9d 3c e1 37 00 bd 8e f0 44 3d
       0.017644696 0.01918698 -0.03130329 0.048080973
000380 38 f6 f7 3c fd 6e 66 bd ae 00 9e 3b 8f a0 61 bc
       0.030268773 -0.05625819 0.0048218584 -0.01377119
000390 93 9b ec bc 53 bd de 3c 6b db 4e 3d 5b 3b 77 bd
       -0.028882777 0.027189886 0.050502222 -0.06035934
0003a0 81 29 1a 3d 33 63 8b bd 44 ca 15 bd b0 66 31 3d
       0.037637237 -0.0680603 -0.03656985 0.04331082
0003b0 d9 84 27 bd ca 10 85 3c c8 70 a1 bd 00 b8 74 bd
       -0.040898178 0.016243357 -0.078828394 -0.05974579
0003c0 7f e6 50 bd 4b 36 58 3d 07 73 72 3c e6 9a 81 3d
       -0.05100107 0.052786153 0.0147979325 0.06328373
0003d0 ef 9c 75 bd ad c4 46 bd a8 46 d9 3c fa f2 91 bc
       -0.059964117 -0.04852741 0.02652295 -0.017816056
0003e0 54 03 28 3c 0a de de bc cd 91 65 3d 72 29 aa bc
       0.0102547 -0.027205486 0.05604725 -0.020771716
0003f0 af 8a 28 3d 0a 22 81 bc 5c 14 c4 3c 71 4f 92 bd
       0.041147884 -0.015763301 0.02393549 -0.071440585

conv2.bias f4 [128]
000000 47 40 9d bd de dc 80 3d 35 39 8e bd ba 06 33 3c
       -0.076782756 0.06292127 -0.06944505 0.010926897
000010 0d 7c 7e bc 30 0e 87 bb e7 0a 31 bd f0 96 5b bd
       -0.015532506 -0.0041215643 -0.043223288 -0.053610742
000020 96 d3 08 bb ea 7e 3e bd c9 0d e7 3c 11 1c 49 bd
       -0.0020878068 -0.046507753 0.028204815 -0.04909903
000030 6a 97 81 bc 6b 95 b2 3c 51 7b be bc 78 bb 58 3c
       -0.01581927 0.021799764 -0.023252161 0.01322829
000040 d3 13 d3 bc d7 54 68 bd bf 7f 3c 3d 12 d5 6b bc
       -0.025766289 -0.056721535 0.046020266 -0.014394062
000050 20 db aa 3c ab 95 4c 3d 50 ce 84 bb bb 86 dc bc
       0.02085644 0.049947422 -0.0040529147 -0.026919713
000060 99 46 bc bc 5f be 7a bd 88 0d 85 3d 1f f6 1a bd
       -0.022982882 -0.06121671 0.064967215 -0.037832376
000070 28 28 64 3b 85 28 3f 3d 7e f8 da bb f0 f2 36 3d
       0.0034813974 0.0466695 -0.0066824546 0.044665277
000080 18 a4 e1 bc 73 9a 15 3c 21 61 15 bc 77 f9 81 bd
       -0.027544066 0.009131062 -0.009117396 -0.0634641
000090 f4 f4 4a 3d 15 9c dd bb 16 9c aa 3c 76 79 08 3b
       0.04955001 -0.006762991 0.02082638 0.002082435
0000a0 21 61 d3 3c 10 23 72 b9 ec 9e 6c 3d 87 14 05 3d
       0.02580315 -0.0002309198 0.057768747 0.03249028
0000b0 2b 5d b8 3c b1 e8 29 ba 0b d5 d6 bc d3 04 47 bd
       0.022505363 -0.0006481512 -0.026224634 -0.048588585
0000c0 9c c8 de 3c e8 cb 95 bd b0 5d 7a bd 79 3d f2 bc
       0.027195267 -0.07314283 -0.061124504 -0.029570328
0000d0 50 ad 12 3c 13 e8 12 3d 66 ed 02 3d 1f 19 39 bd
       0.008952454 0.035865854 0.031964682 -0.045189973
0000e0 44 8b 2a 3d 91 ae 04 bd 02 5f 4f bc a0 a5 3a 3c
       0.04163672 -0.032393042 -0.012656929 0.011392027
0000f0 ae 6c 5b bd dc 02 2c bd b8 aa 74 bd a1 14 57 bd
       -0.053570442 -0.041994914 -0.059733123 -0.052509908
000100 84 74 23 3c 57 eb 4c bd 8b f2 e7 bb 30 79 85 3d
       0.00997651 -0.050029125 -0.007078474 0.06517255
000110 7d 01 63 bc f4 3b 5f 3c 9f fa 12 bd 56 b5 49 3d
       -0.013855335 0.013625134 -0.035883542 0.0492452
000120 e7 62 b3 bc 46 4f ae bc f3 6d 4a bd c0 3e 6a 3b
       -0.021897746 -0.021278035 -0.049421262 0.0035742968
000130 72 24 2f bc 78 99 44 3d 3a 31 f4 bc 51 87 0c bc
       -0.010689842 0.04799792 -0.02980863 -0.008577184
000140 9c 83 48 bd 82 ba 73 3d 83 21 86 3c bc ca c3 bb
       -0.048953637 0.05950404 0.016373402 -0.0059750956
000150 02 4c 5e 3d 29 5c a9 3c 27 82 7c 3d 62 55 23 bd
       0.054271705 0.020673828 0.06164756 -0.03987635
000160 33 4d 99 bb cb 85 93 3c b2 ea fd bc c7 31 09 bd
       -0.0046783923 0.018008133 -0.0309957 -0.033494737
000170 07 d7 25 bd 88 77 7f bd ea f6 1c 3d a4 4d dc bc
       -0.04048827 -0.062369853 0.038321413 -0.02689249
000180 7d 2b 4c bd c2 bd 7b ba 88 6c 0b bd 6f a3 3f bc
       -0.04984616 -0.0009603166 -0.03403905 -0.01169668
000190 1a de b4 3c a4 b5 be bc 86 9f b3 3c f2 0c bf 3c
       0.022078563 -0.023279972 0.021926653 0.023321602
0001a0 0e 87 dc 3c 86 d3 71 3d 6e 94 33 bd f5 48 73 3d
       0.026919868 0.059039615 -0.043842725 0.05939575
0001b0 06 16 2b 3d f4 be 73 bd 12 29 1f 3d 1a 56 86 bc
       0.04176905 -0.05950828 0.038857527 -0.016398478
0001c0 22 e6 38 3d 70 2f 53 3c 70 ba 42 3d 04 07 35 bb
       0.045141347 0.012889728 0.047541082 -0.002762259
0001d0 0f 0c ea 3c 01 dc 67 bd 10 b9 bf 3c 8e 35 1a bd
       0.028570203 -0.056606296 0.023403674 -0.03764873
0001e0 42 7e 4b 3c de a0 a2 3c 4a 18 99 bd 15 4f 75 3d
       0.012420239 0.019852098 -0.07475336 0.05988987
0001f0 ea 70 29 3a c6 2b 80 bd 81 fb 6f 3d 43 4a 82 bd
       0.0006463664 -0.06258349 0.058589462 -0.063618205

fc1.weight f4 [64, 128]
000000 ca d4 88 bc c8 e9 e5 bc d4 0a 1a 3d 88 5a 84 bd
       -0.016703028 -0.028065577 0.037607983 -0.0646258
000010 e0 50 5d bd 5e 32 4f bd ce 19 c8 bc 0c 22 98 bd
       -0.054032207 -0.050585143 -0.024426367 -0.07428369
000020 cd 77 5d bd 9b 18 58 bd 5f a5 9e bd fa 55 3d 3c
       -0.05406933 -0.05275784 -0.07746386 0.011556143
000030 62 e5 ad bd b4 c9 ae bd 85 32 0a 3d 5a db 13 3d
       -0.08491017 -0.085345656 0.033739585 0.03609786
000040 ec 99 42 3d f9 bc 98 3d d5 1a 38 3d ae 98 a5 bc
       0.047510073 0.07457919 0.044947464 -0.020214405
000050 75 1f 10 bb 92 49 60 bb 7e f9 34 3c 47 c0 41 bd
       -0.0021991406 -0.0034223539 0.011045812 -0.04730251
000060 61 00 6c bd 04 fa 29 3d d6 81 6d bd 31 dc 48 bc
       -0.05761755 0.0414982 -0.05798515 -0.012259529
000070 3e 12 8e bd 64 7c a1 3d 96 39 26 3d 4a 45 8e bc
       -0.06937073 0.07885054 0.040582262 -0.017367024
000080 fd d2 84 3d 53 4b 61 3d a6 11 fd 3c 1a 26 70 3d
       0.06485555 0.055003475 0.030892204 0.058630086
000090 83 48 25 bc 0b d9 9e 3d ac fa 13 bb 2c d5 4a 3d
       -0.010088089 0.077562414 -0.0022579832 0.049519703
0000a0 e5 cf 0b bc be c9 84 3c bc 35 1f bb c7 07 97 bd
       -0.008533453 0.01620948 -0.0024293503 -0.0737453
0000b0 81 26 49 bc 86 c8 cd bc c4 0e 4a 3d fb 5f da 3b
       -0.012277246 -0.025120031 0.049330488 0.006664274
0000c0 2e 93 72 3c 4c e6 90 bc b6 74 47 bc 46 58 e8 3c
       0.014805598 -0.01768794 -0.012173822 0.028362405
0000d0 ea ac 86 3d 2c d7 33 bd a4 da 69 3d eb b6 a1 3d
       0.065759495 -0.043906376 0.057093278 0.07896217
0000e0 38 eb 0b 3b 16 1e 92 bd 22 b7 e2 bc 6c 7a b4 bd
       0.0021349918 -0.07134645 -0.027675215 -0.088124126
0000f0 9e 7a 9e 3d 3c c3 9a 3d e3 2e 8b bd dd bc 1f 3d
       0.07738231 0.07556769 -0.06796052 0.038998473
000100 4f f5 5e 3d bf ca 31 bd 17 b4 c3 bc e8 fc 56 3d
       0.054433163 -0.043406244 -0.023889584 0.052487284
000110 97 43 3d bd cf cf 95 3d 8c 7e c9 bc 12 0f 33 3d
       -0.046207037 0.07315027 -0.024596475 0.043715544
000120 12 81 6d bd be d1 1c 3c 46 6e 6d bb f8 0d ae 3d
       -0.05798442 0.009571491 -0.0036229058 0.08498758
000130 8b d1 31 3d 8f c1 c8 3c 4a 79 6a bd 50 96 1a bc
       0.043412726 0.024506358 -0.057244577 -0.009435251
000140 53 d2 ae 3d e2 a2 37 3d da 02 3c 3d 06 51 9c 3d
       0.0853621 0.04483307 0.045901157 0.076326415
000150 93 43 6d bd 00 8c 6d bd 49 92 92 3d 69 3c 96 bb
       -0.057925772 -0.057994843 0.07156808 -0.004584838
000160 ac f0 ba bd e8 cd 34 3b 9c f5 dc 3c 18 39 1c 3c
       -0.09127936 0.002758855 0.026972584 0.009535097
000170 d4 3b 1f 3d 50 0b db bb 97 f9 6a 3c e0 61 3e bd
       0.038875416 -0.006684698 0.014341733 -0.04648006
000180 e3 94 ad 3d 24 24 2f 3d 48 5a ff 3c da 70 66 3d
       0.084756635 0.042759076 0.03117098 0.056259967
000190 2c 5a b1 3b fc 11 e4 bb 7d 65 a8 3d b9 21 ad bd
       0.0054123607 -0.0069601517 0.08222482 -0.08453698
0001a0 26 54 0b 3d df f2 a3 3d 82 4d 34 bd eb f7 f5 bb
       0.034015797 0.08005308 -0.04401923 -0.0075063608
0001b0 8c 14 47 bd c6 04 1d 3c e7 39 e2 3c 81 0b 9c 3d
       -0.04860358 0.009583658 0.0276155 0.07619382
0001c0 28 83 8e 3d 3a 45 59 3c 03 da a3 3d 57 1f 98 bb
       0.0695861 0.013261134 0.08000567 -0.004642408
0001d0 f1 6b d9 3c fe dd 7d bc ef 63 3b bd a1 0c 95 3d
       0.026540728 -0.015494822 -0.0457496 0.072777994
0001e0 50 40 62 3d 94 aa 23 bc 8e 07 9b 3d 2b 93 be bd
       0.055237114 -0.009989399 0.075698 -0.09305414
0001f0 0d b3 8e 3d d6 7e 84 3d b7 54 b0 3d 8a c4 75 bc
       0.06967745 0.064695045 0.08609908 -0.015000472
000200 03 9e af bc b2 49 25 3d a8 b8 83 bd b5 04 80 bd
       -0.02143765 0.040353484 -0.06431705 -0.06250898
000210 5a 11 6f bc 4d 03 2a bd a0 e6 d1 bc 11 dd b0 bd
       -0.014591539 -0.041507054 -0.025622666 -0.08635915
000220 83 66 12 3d b5 7b 24 3d 36 73 d1 bc c3 cc 55 3d
       0.035742294 0.04015704 -0.025567632 0.05219723
000230 44 2e 33 3d 5f bc e8 bc bb 3d 79 bd ce 20 7f 3d
       0.043745294 -0.028410135 -0.060849886 0.062287144
000240 63 4b 93 bd ce 8d 88 3d 72 9d b7 3d ee cb 9d bd
       -0.07192113 0.06667672 0.08965577 -0.07704912
000250 eb 52 8f bd fb 6f 12 3d 2d 73 a5 3d 06 51 ad 3d
       -0.06998237 0.035751324 0.08078609 0.084627196
000260 58 8b ae 3d 6e 70 5d bc 0b 55 5e bc 91 e1 1e 3d
       0.085226715 -0.013515575 -0.0135700805 0.038789336
000270 30 48 40 bd a0 b5 4a 3d e4 35 82 bd 06 63 ac 3d
       -0.046943843 0.049489617 -0.06357935 0.08417325
000280 26 bc 6e 3d a0 b4 4f bd 38 5b ac 3d 88 7d 7c 3d
       0.0582849 -0.050709367 0.08415836 0.061643153
000290 63 94 42 bd d0 0c 56 3d 76 a2 f6 3c e4 a5 9b 3d
       -0.047504794 0.052258313 0.030106764 0.076000005
0002a0 9e 9e 77 bd 84 d3 26 bd a0 0b 42 3b 42 a6 65 bc
       -0.060454004 -0.04072906 0.002960898 -0.01401669
0002b0 85 ab 80 bc 24 0e 8e 3d 44 ba 19 bd a5 69 1a 3d
       -0.015706787 0.06936291 -0.037531152 0.037698407
0002c0 d5 6b bd bc 87 2f f5 3c b2 61 aa bd 5e 1c 11 bc
       -0.023122707 0.02992989 -0.08319415 -0.008856861
0002d0 f1 0a 25 3d d9 db 32 3d 8e bc 8d bd 3f 41 7c 3d
       0.040293638 0.043666694 -0.069207296 0.06158566
0002e0 18 c6 1c 3d 1e eb 1b 3b ff 9d dc bc ee 23 90 bc
       0.038274854 0.0023791264 -0.026930807 -0.017595258
0002f0 35 2e 11 bd 95 9b 5f bd e1 69 21 3d 46 41 d9 3c
       -0.035444457 -0.054591734 0.039407615 0.026520383
000300 01 33 2a 3c 38 4f 50 3c 3d 20 7c bd bd d3 1c bd
       0.010388137 0.0127142 -0.061554182 -0.038287867
000310 18 4e 1f bd 35 5b 87 bd 88 e2 71 3c 6b 04 8c bc
       -0.038892835 -0.06609193 0.014763482 -0.01709195
000320 db 41 4a bd 9a 9b c4 3a 3e ef 9a bc cb 92 38 3c
       -0.04937921 0.0014999986 -0.018912908 0.011265467
000330 36 fb a4 3d 5c ac b9 bc 5f 90 b2 bd 82 c5 9e bb
       0.08055727 -0.022665195 -0.08718943 -0.004845322
000340 71 dc ab 3c fa 37 69 3d c6 49 70 bd 3c 33 17 3d
       0.020979138 0.05693815 -0.058664106 0.036914095
000350 fb e0 2a 3d 41 74 63 3d 92 b6 63 bd 71 94 4f bd
       0.041718464 0.05553079 -0.055594034 -0.050678674
000360 bf a7 71 3d ba 85 a0 bd 04 6a a1 3d ab 0e a7 3d
       0.058997866 -0.07838006 0.07881549 0.081570946
000370 61 90 2f 3d 13 69 d5 3c 10 9b ba bc d7 c3 f2 3c
       0.0428623 0.02605108 -0.022779018 0.0296344
000380 13 d7 e4 3b 32 25 76 bd 18 aa 3d bd b3 5f 73 3d
       0.0069836467 -0.060094066 -0.046304792 0.059417438
000390 68 d4 be 3c 63 b0 8e bd 72 3f e5 bb 56 b6 2e 3d
       0.023294643 -0.06967237 -0.0069960887 0.042654358
0003a0 d6 85 87 bd 70 35 9f bd 14 5f 55 3d 0a a1 ba 3d
       -0.06617324 -0.07773864 0.052092627 0.09112747
0003b0 8e ba b4 3d 76 06 7a 3d 75 51 55 3d 3b 82 f5 bc
       0.08824645 0.061041318 0.052079637 -0.029969325
0003c0 46 14 04 bd e8 ae ce ba 91 74 d4 bb 99 e0 95 3d
       -0.032245897 -0.0015768679 -0.0064836224 0.07318229
0003d0 f8 f6 8e bd 9b bd b3 bd 1f dd 9d bd 04 6b e6 bc
       -0.06980699 -0.08776399 -0.07708191 -0.0281272
0003e0 97 62 e6 3c 50 40 57 3d c0 f7 ef 3c fd 2e fa bc
       0.028123183 0.052551568 0.029292941 -0.030539984
0003f0 50 aa c9 3c 6f 27 b9 3c 19 2a a9 3d 40 8b a1 bd
       0.024617344 0.022601811 0.082599826 -0.07887888

fc1.bias f4 [64]
000000 94 97 6f 3d b1 db 3e 3c 67 d1 b2 bb c0 91 9e 3b
       0.058494166 0.011649058 -0.0054570916 0.004839152
000010 78 54 21 3c 7b 31 7b 3d 8e 2f 6a 3d 5c ef c0 3c
       0.009846799 0.061326485 0.057174258 0.023551635
000020 02 8e 22 3d 8d f1 b0 bc 34 af a1 3d 84 fc 0d bd
       0.03968621 -0.021599555 0.078947455 -0.034664646
000030 2b 9e 28 3d 41 5d 1e bd 51 dd 93 3d 60 9b 64 bd
       0.041166466 -0.038663153 0.07219947 -0.05581224
000040 de 5e 7b 3d 64 ab 8f 3c cd a1 82 3d e1 69 80 3c
       0.06136977 0.01753778 0.06378517 0.015675487
000050 53 1d 8a 3d 89 c3 15 bc 26 77 4a bd a4 7d 55 bd
       0.067438744 -0.0091408575 -0.049430035 -0.052121773
000060 ae c7 7e bd 03 a5 84 3d 6d cd cd bc 29 9a a0 3d
       -0.06220215 0.06476786 -0.025122369 0.07841904
000070 ce ef ef bc 40 62 92 bd 51 c4 08 bd 9f 59 89 3d
       -0.029289152 -0.07147646 -0.033390347 0.06706547
000080 32 5e 9f 3d d2 1e 81 bd de e7 c5 3c c7 38 7b bd
       0.07781638 -0.06304707 0.024158414 -0.061333444
000090 fb dc de bc d8 f6 18 3d 2e b7 40 3d 20 bd 1a bc
       -0.027204981 0.037344784 0.047049694 -0.009444505
0000a0 c1 ab a5 3d 84 f0 5b bd 8e aa 62 3d 2d ef 45 3d
       0.080894 -0.05369617 0.055338435 0.0483238
0000b0 88 27 cd bc 28 07 95 3c e0 7b e8 bb 14 06 38 bc
       -0.025043264 0.018191889 -0.007094845 -0.011231918
0000c0 91 2f 3b 3c ec 4a 18 bb 8a be b4 bd ca 4b db 3c
       0.011424915 -0.0023238016 -0.08825405 0.026769537
0000d0 51 93 b2 3d c5 e0 13 bd ec 99 9a bc 41 36 8f bd
       0.087195046 -0.03610303 -0.018872224 -0.0699277
0000e0 7f 4c 53 bd d0 eb 98 bd 97 f7 7f bd 5a f7 54 bd
       -0.051586624 -0.07466853 -0.06249198 -0.051993705
0000f0 a0 43 7f bd 80 99 62 bc 3c 82 5a bd be c8 fe bc
       -0.06232035 -0.013830543 -0.053346857 -0.03110158

fc2.weight f4 [1, 64]
000000 3b e1 9f bd 56 e0 b6 bc 8a 7a 4c bd 08 fb c0 3c
       -0.07806631 -0.022323769 -0.04992155 0.023557201
000010 48 bb 84 bd fe a1 3b bd 52 66 ae 3d 18 83 2d 3d
       -0.064810336 -0.045808785 0.0851561 0.04236135
000020 df b8 ab 3d fc db e6 bc b2 30 87 3d 30 c0 90 bc
       0.08384871 -0.028181069 0.06601085 -0.017669767
000030 e6 94 ca bd 9a 9f 2a 3d ac c9 54 3d 99 25 d2 bd
       -0.098916814 0.041656114 0.05195014 -0.102610774
000040 40 c0 18 bd 83 40 9d 3d ae c2 b0 bd 25 24 d8 ba
       -0.03729272 0.0767832 -0.08630882 -0.0016490264
000050 06 90 c2 bd f6 0d 96 3d a5 da cc 3d b7 3e 58 bd
       -0.095001265 0.073268816 0.10002641 -0.052794185
000060 fe 11 54 bd 40 72 34 bb 13 ca b8 bd 60 d8 ed 3b
       -0.05177497 -0.0027533919 -0.090229176 0.00725846
000070 f6 e4 c0 bd 2d 76 97 3d c7 c1 b5 3c 61 cc ad bd
       -0.09418671 0.07395587 0.022187127 -0.08486248
000080 aa ae 71 bd 84 66 5b 3d 8b 6e d2 bc 44 ef f3 3d
       -0.059004463 0.053564563 -0.025687477 0.11910871
000090 23 95 b0 bd ab 9e f0 bc 94 f9 2e bd 9d ea b2 bd
       -0.086221956 -0.029372534 -0.042718485 -0.08736155
0000a0 50 dc ee bd 56 db d9 3d d5 d0 02 bc 47 65 8f ba
       -0.11663115 0.10637538 -0.00798436 -0.0010940217
0000b0 ae 5c b4 3d 22 3c c5 bd e8 39 de 3d 35 1a f7 3c
       0.0880674 -0.0963061 0.108508885 0.030163864
0000c0 01 e5 d2 3d cc be d1 bd 26 3e 43 bd ca f8 af bd
       0.10297585 -0.1024147 -0.04766669 -0.085923746
0000d0 20 81 bb bb e6 b1 34 ba 7c ff 00 bd c6 0e d7 bc
       -0.00572218 -0.0006892964 -0.03149365 -0.026252162
0000e0 e8 89 94 ba ea 7e b7 bd ef 36 58 3d 56 f4 38 bc
       -0.0011332603 -0.08959754 0.052786764 -0.011288723
0000f0 40 9a de bc 73 87 e3 bd ba 50 39 bd 41 11 56 3c
       -0.027173162 -0.11109819 -0.045243002 0.013065637
