assets/model/phrase023_speech_model.pth (torch, 145844 bytes, 7 tensors)

conv1.weight f4 [64, 13, 3]
0	0xbd455db8	-0.04818508
1	0xbdddefea	-0.108367756
2	0x3d80d610	0.06290829
3	0x3d16c4bd	0.036808718
4	0x3dcedd64	0.10100821
5	0xbd3d15c7	-0.046163347
6	0xbdf97ecd	-0.121823885
7	0x3d3b509e	0.04573118
8	0xbde70dee	-0.11281954
9	0x3e03c33c	0.12867445
10	0x3e1754ab	0.14778392
11	0xbe10b4a1	-0.14131404
12	0xbd5f1de8	-0.05447188
13	0x3dbd07b6	0.09229986
14	0xbdd49ecb	-0.1038185
15	0xbcb5be8e	-0.02218559
16	0xbd13a2b3	-0.036043834
17	0x3e0489ac	0.12943143
18	0x3dae4090	0.08508408
19	0xbe19a15a	-0.15002957
20	0x3d2e1b36	0.04250642
21	0x3d4d900a	0.050186194
22	0xbda35817	-0.07975786
23	0xbe1d56d1	-0.15365149
24	0xbd046264	-0.032320395
25	0xbdca69e5	-0.09883479
26	0xbe08e09e	-0.13366935
27	0x3d0099bc	0.031396613
28	0x3e144e24	0.14482933
29	0xbdc58ab9	-0.096456
30	0xbdb7b032	-0.089691535
31	0x3c7019bf	0.014654576
32	0x3e1adfba	0.15124407
33	0x3dd94eff	0.106107704
34	0xbd98a377	-0.074530534
35	0xbcb015a7	-0.0214947
36	0xbd0d04aa	-0.034428276
37	0xbdc0fbbc	-0.094230145
38	0x3e1c49df	0.15262555
39	0xbd5e9e35	-0.054350097
40	0xbd248e2e	-0.040174656
41	0xbcb8d48a	-0.022562284
42	0x3e020ea0	0.12700891
43	0xbe16d457	-0.14729439
44	0x3db50f30	0.088407874
45	0x3d9b2e6a	0.07577212
46	0xbe07a2c7	-0.13245688
47	0x3e22f72a	0.15914598
48	0xbe0ec4b8	-0.1394223
49	0xbccae2ac	-0.024766289
50	0xbe0f0c40	-0.13969517
51	0x3d0fd2bd	0.035113085
52	0xbda8b6e3	-0.08238008
53	0x3dcdfea9	0.10058338
54	0xbd74fde7	-0.059812453
55	0x3d30ac01	0.043132786
56	0x3d813a02	0.06309892
57	0xbcb0a0ad	-0.021560991
58	0xbcd68120	-0.026184618
59	0xbdc7fb72	-0.09764756
60	0xbd100d9e	-0.035169236
61	0x3d0c29a3	0.034219395
62	0xbd9d4a76	-0.07680218
63	0xbd74d417	-0.059772577
64	0x3ddb39d6	0.10704391
65	0x3e255014	0.16143829
66	0xbc335df7	-0.010947696
67	0x3d92afc0	0.07162428
68	0x3e072748	0.13198578
69	0x3d0584ab	0.032597225
70	0x3ddd9bc7	0.10820728
71	0x3e061ab4	0.13096124
72	0xbc06f237	-0.008236459
73	0x3df6e0c0	0.120545864
74	0x3d1bcc1f	0.038036462
75	0xbd4c7450	-0.04991561
76	0x3e0c03e8	0.13673365
77	0xbd51e259	-0.051241253
78	0x3c2c3aea	0.010512093
79	0xbd80f7d3	-0.06297269
80	0xbdef1341	-0.11673594
81	0xbcb5c09b	-0.022186568
82	0xbd228b81	-0.039683823
83	0xbd0ab2b4	-0.03386183
84	0xbd88bc2d	-0.06676517
85	0x3c211f00	0.009834051
86	0x3d8ed9cb	0.069751345
87	0xbe015cad	-0.12633009
88	0x3d26fb7c	0.040767178
89	0x3df566ae	0.11982475
90	0xbcce3800	-0.025173187
91	0xbd1cb334	-0.03825684
92	0xbd62393b	-0.05523036
93	0x3e1e62b9	0.15467347
94	0x3de894b3	0.11356487
95	0xbe076c5c	-0.1322493
96	0x3cfcf4ae	0.030878391
97	0xbd6c4b9d	-0.057689298
98	0x3dd5a978	0.10432714
99	0x3e05b941	0.1305895
100	0x3d94afca	0.072600916
101	0xbe03a3d2	-0.12855461
102	0x3bcfe9bd	0.0063450024
103	0x3dc6d1f1	0.09708012
104	0x3dfe1a14	0.12407318
105	0xbdd030ea	-0.101655796
106	0x3dec908d	0.115510084
107	0xbe07b567	-0.13252793
108	0x3cbed8fb	0.023296824
109	0xbd5b5ce8	-0.0535554
110	0x3d03b0b2	0.03215093
111	0xbddf6081	-0.109070785
112	0xb9559f27	-0.00020372552
113	0xbd243f1a	-0.04009924
114	0xbda7096c	-0.08156094
115	0xbda20c85	-0.07912544
116	0x3df46aa4	0.119344026
117	0x3d791141	0.06080747
118	0xbc981437	-0.018564327
119	0x3cd1fe26	0.025633883
120	0xbb63d29e	-0.0034762989
121	0xbe063f0f	-0.13109992
122	0x3e070353	0.13184862
123	0xbdd31f40	-0.10308695
124	0xbd9b6f8b	-0.075896345
125	0x39c93146	0.0003837442
126	0xbe14cba4	-0.14530808
127	0xbdd4268a	-0.10358913
128	0x3d459f18	0.048247427
129	0x3c9a0541	0.018801333
130	0xbe197f69	-0.1499001
131	0x3de93cae	0.11388527
132	0xbd2d84d1	-0.04236299
133	0xbde3feeb	-0.11132606
134	0x3db1e37d	0.08685968
135	0x3e2482db	0.16065542
136	0x3da706e2	0.0815561
137	0x3e1e9d2f	0.15489648
138	0xbe0373f9	-0.12837209
139	0x3e2a884a	0.16653553
140	0x3d806333	0.06268921
141	0xbd731ed6	-0.05935558
142	0xbd860a43	-0.06544926
143	0xbdcc1dfe	-0.09966658
144	0xbe06f1d7	-0.13178192
145	0x3e2317a0	0.15926981
146	0x3ca591f2	0.020211194
147	0xbddc4cba	-0.10756822
148	0xbd1b21d0	-0.037874043
149	0xbc90bc2c	-0.017667852
150	0xbd7fdff0	-0.062469423
151	0xbcad10d5	-0.02112619
152	0x3dd1fc89	0.102532454
153	0xbe042412	-0.12904385
154	0x3df2a211	0.11847318
155	0x3da240d4	0.07922521
156	0x3e2498b1	0.16073872
157	0x3e037d66	0.12840804
158	0xbe0590c4	-0.13043505
159	0x3e03b2c1	0.12861158
160	0xbe1be6b4	-0.15224725
161	0x3da56958	0.08076733
162	0xbdc52066	-0.0962532
163	0x3d0ac69c	0.033880815
164	0x3e015fad	0.12634154
165	0x3cde0e70	0.027106494
166	0x3c23eeb2	0.01000564
167	0x3d5ac8c0	0.053414106
168	0x3d57154e	0.052510552
169	0x3daaa264	0.08331755
170	0x3e07a3c5	0.13246067
171	0x3df4fe46	0.11962561
172	0xbcb0cb48	-0.021581307
173	0xbe1f3672	-0.15548113
174	0x3e1b0daa	0.15141931
175	0x3dc28152	0.09497322
176	0xbda02083	-0.07818701
177	0x3e0d9369	0.13825764
178	0xbde48a6a	-0.11159213
179	0x3d041a2c	0.032251522
180	0xbd3982b4	-0.045290664
181	0x3d773559	0.06035361
182	0x3b4411e8	0.00299179
183	0xbd044121	-0.032288674
184	0xbdadcf55	-0.08486811
185	0xbe00e4c7	-0.12587272
186	0xbc7fdddc	-0.01561686
187	0x3dddd9af	0.108325355
188	0x3ce47296	0.02788667
189	0xbe1e560b	-0.1546251
190	0xbdd64ca6	-0.10463838
191	0x3b6d5563	0.0036214225
192	0xbcb24c3b	-0.021764865
193	0x3dca9f59	0.098936744
194	0xbd720939	-0.059090827
195	0xbd8c6c01	-0.068565376
196	0xbe152da4	-0.14568192
197	0xbd7b7bfd	-0.06139754
198	0x3bb5a5e2	0.0055434564
199	0x3cf9442f	0.03042802
200	0x3dba898e	0.09108268
201	0xbce4bda7	-0.027922465
202	0x3ddbbd67	0.10729485
203	0xbddaed4b	-0.10689791
204	0x3dc5f3f9	0.09665675
205	0x3e18c91b	0.14920466
206	0xbcb423b6	-0.021989685
207	0x3d18a8bf	0.037270304
208	0xbc9ab0e9	-0.018883185
209	0x3d3fe8dc	0.04685293
210	0xbd17def5	-0.037077863
211	0xbc9e18ba	-0.0192989
212	0xbe1d7613	-0.15377073
213	0x3cce5d37	0.025190933
214	0x3d1302bb	0.035891276
215	0x3e1c632b	0.15272205
216	0xbc99fcf0	-0.018797368
217	0xbe196775	-0.14980872
218	0xbd16018d	-0.036622573
219	0x3d0eedae	0.034894638
220	0x3e20c181	0.15698816
221	0x3d1a5981	0.037683014
222	0xbdff21b7	-0.124576025
223	0xbd613489	-0.054981742
224	0x3e28ac74	0.16472036
225	0x3db298cd	0.08720551
226	0x3dc42a18	0.09578341
227	0x3d98ee58	0.074673355
228	0x3d289720	0.04115975
229	0xbe088087	-0.1333028
230	0xbd80888b	-0.062760435
231	0xbe01844a	-0.1264812
232	0xbdd167e2	-0.10224892
233	0x3c92f31c	0.01793819
234	0xbdc82b4c	-0.09773883
235	0x3b0021e6	0.0019551455
236	0x3e217e00	0.15770721
237	0x3cc762ea	0.024339158
238	0x3d4a460c	0.04938321
239	0xbcaa5e64	-0.020796962
240	0xbd17b765	-0.037040133
241	0x3d855e0a	0.06512077
242	0xbdb326ed	-0.08747659
243	0xbe258631	-0.16164471
244	0x3da0890d	0.0783864
245	0xbd68a57e	-0.05679845
246	0xbe064483	-0.13112073
247	0xbd4c4937	-0.04987451
248	0x3cbd1dbf	0.023085473
249	0xbdce3b0b	-0.10069855
250	0xbda13848	-0.07872063
251	0x3e1a0ccf	0.15043949
252	0xbe05c9f7	-0.13065325
253	0x3ddb6159	0.10711927
254	0x3e0b8fc2	0.13629058
255	0x3c843014	0.016136207

conv1.bias f4 [64]
0	0x3d6c4fc3	0.057693254
1	0xbd029173	-0.031876992
2	0x3db915e8	0.090373814
3	0x3dff7c83	0.124749206
4	0x3d254c7c	0.040356144
5	0xbde17cfe	-0.110101685
6	0x3e0e713b	0.13910381
7	0x3d2b880f	0.041877802
8	0x3cbfec16	0.023428004
9	0xbd4d27be	-0.05008673
10	0x3d7bfae0	0.06151855
11	0x3d992cef	0.074792735
12	0xbe1aa393	-0.15101461
13	0xbd09292a	-0.033486523
14	0x3e23a1f1	0.15979744
15	0x3d969976	0.07353489
16	0x3e17c53e	0.14821336
17	0x3d017f98	0.031615824
18	0xbd8800e7	-0.06640797
19	0x3d85a3db	0.065253936
20	0xbdc5abec	-0.09651932
21	0xbe1f8586	-0.15578279
22	0x3ddc4709	0.107557364
23	0x3df68bc9	0.12038381
24	0x3cadcd04	0.021215923
25	0x3a7fbc29	0.0009755516
26	0x3c9e8c37	0.019353969
27	0x3c86bbdc	0.016447
28	0x3b52d60d	0.0032171041
29	0xbdc98504	-0.09839824
30	0xbd9fabe6	-0.07796459
31	0x3c9b7455	0.01897637
32	0xbdc1039b	-0.09424516
33	0xbd361456	-0.044452988
34	0x3dd80ee8	0.10549718
35	0xbdd9ff97	-0.10644453
36	0xbc951dc6	-0.018202674
37	0xbae7674b	-0.0017654685
38	0x3dde67cb	0.10859641
39	0xbd8dcc1e	-0.06923698
40	0xbe1d7ed2	-0.1538041
41	0x3dbd0134	0.09228745
42	0x3cd65dfb	0.02616786
43	0x3d9db280	0.07700062
44	0x3c81e03d	0.015853995
45	0x3e14fa9e	0.14548728
46	0xbe05d3f2	-0.13069132
47	0x3dc98b3a	0.098410085
48	0x3c43a67d	0.011941549
49	0xbd058fc3	-0.032607805
50	0xbe0aeff1	-0.13568093
51	0xbdce3899	-0.10069389
52	0x3da4c675	0.08045665
53	0x3e1f4d2c	0.15556782
54	0x3df53eb9	0.11974854
55	0xbdcae74c	-0.09907398
56	0xbda08bfe	-0.078392014
57	0xbd178870	-0.03699535
58	0x3df84425	0.121223725
59	0x3e0188c9	0.12649836
60	0xbe0723ce	-0.13197252
61	0xbd27a421	-0.04092801
62	0xbdde1ff8	-0.10845941
63	0x3d867ce9	0.065667935

conv2.weight f4 [128, 64, 3]
0	0xbc2b20d6	-0.01044484
1	0x3b37d4b2	0.002805036
2	0x3c53f89d	0.012937692
3	0xbd491b7c	-0.049098477
4	0xbd9b1aa3	-0.0757344
5	0x3d077011	0.03306586
6	0xbd9bfef3	-0.07616987
7	0xbd4dfbdc	-0.05028902
8	0x3d663978	0.05620715
9	0x3bd4b6c9	0.0064915163
10	0x3d8018e0	0.062547445
11	0x3cacf067	0.021110727
12	0x3c9ff609	0.019526498
13	0xbcde88c3	-0.027164822
14	0xbd238a0e	-0.03992658
15	0xbd1c691a	-0.03818617
16	0x3d5ea946	0.05436065
17	0xbd83cb32	-0.06435241
18	0xbd62f517	-0.055409517
19	0xbc7c1b0f	-0.015387311
20	0xbc32f187	-0.010921842
21	0x3ccb29c3	0.024800187
22	0xbcb5b46f	-0.022180764
23	0x3c600a86	0.013674384
24	0x3cbe02d9	0.023194717
25	0xbd9d4a19	-0.07680149
26	0xbd7f3bec	-0.062313005
27	0xbd6c642b	-0.057712715
28	0xbc8a6f28	-0.016898707
29	0xbd62fdfe	-0.055418007
30	0xbce260bb	-0.027634015
31	0x3d1dc312	0.03851611
32	0x3cb3a24b	0.021927973
33	0xbd68e39a	-0.056857683
34	0xbcb38d47	-0.021917952
35	0xbd9422ad	-0.072331764
36	0xbd7b42f2	-0.06134314
37	0xbc50492c	-0.012712758
38	0x3cb636ab	0.022242865
39	0xbd3a62e6	-0.045504473
40	0xbd82ddea	-0.06389983
41	0x3ca6570b	0.020305177
42	0x3cd85d4f	0.02641168
43	0x3bac3979	0.0052558747
44	0x3cd603e5	0.026124904
45	0xbc39fcfe	-0.011351822
46	0x3d515e9d	0.05111562
47	0x3c4e8a91	0.012606279
48	0x3c065341	0.00819856
49	0xbcdc1b4f	-0.02686849
50	0xbd7129ef	-0.05887788
51	0xbd90efb9	-0.070769735
52	0xbd596182	-0.053071506
53	0xbc9774ea	-0.018488366
54	0x3d289f9f	0.04116785
55	0x3d570e58	0.052503914
56	0x3d55851c	0.052128896
57	0x3ce65a61	0.028119268
58	0xbd9e55f0	-0.07731235
59	0xbd701ff6	-0.05862423
60	0xbd2ad059	-0.041702602
61	0xbd588d5d	-0.05286919
62	0xbd23a816	-0.03995522
63	0xbc8655e4	-0.016398378
64	0x3d59e5c9	0.053197656
65	0x3d2678f3	0.04064269
66	0x3d44f413	0.04808433
67	0x3d012c0c	0.031536147
68	0x3d4900fb	0.0490732
69	0xbc22a2f2	-0.0099265445
70	0x3c6fc275	0.0146337645
71	0xbc949e40	-0.018141866
72	0x3beb2306	0.007175806
73	0xbd74c0b3	-0.059754085
74	0x3d8936b8	0.0669989
75	0xbbe44864	-0.0069666374
76	0xbbbc495f	-0.005746051
77	0xb81eefa6	-3.7893325e-05
78	0xbd3fe4e7	-0.046849158
79	0xbd79c4bc	-0.060978636
80	0xbd0000dc	-0.03125082
81	0x3d1b6f85	0.03794815
82	0x3c9fd759	0.019511865
83	0xb9922ef8	-0.00027882284
84	0xbd91cb5b	-0.07118865
85	0xbc13aaee	-0.009012921
86	0xb8f66866	-0.0001174964
87	0xbcfe128a	-0.0310147
88	0x3d5858b1	0.052818958
89	0x3d3bb015	0.04582222
90	0xbd8620af	-0.06549203
91	0x3c6a70b2	0.014309095
92	0x3d5b9b61	0.053614978
93	0xbd25b357	-0.040454235
94	0xbc976aa3	-0.018483466
95	0xbccd7cf5	-0.025083998
96	0x3b68a22a	0.0035497048
97	0x3d007f2c	0.03137128
98	0x3d6a6abe	0.057230704
99	0xbc075f4a	-0.008262465
100	0x3d07d3e5	0.033161063
101	0xbd688378	-0.056766003
102	0x3c6f6a8e	0.014612807
103	0xbca1f771	-0.01977131
104	0xbd91a2ec	-0.07111153
105	0xbca3f727	-0.020015312
106	0x3d9c024d	0.07617626
107	0x3d3e3839	0.046440337
108	0xbbfc04ba	-0.007690993
109	0x3d2b8aa9	0.041880284
110	0x3d7cd1fa	0.061723687
111	0xbcd55e34	-0.026045896
112	0x3d7e9546	0.062154077
113	0xbcb93394	-0.022607602
114	0xbccee265	-0.025254438
115	0x3d3c4d3a	0.045972086
116	0x3c53bca1	0.012923391
117	0xbc99bdb8	-0.018767223
118	0x3d872f34	0.066008
119	0x3d4f392e	0.05059164
120	0xbc374a8d	-0.011187208
121	0x3d688375	0.056765992
122	0x3d4c292b	0.04984395
123	0xbd95598d	-0.07292471
124	0xbd988908	-0.07448012
125	0x3b302f7f	0.0026883779
126	0xbd1e0f14	-0.0385886
127	0x3d4cff7c	0.050048336
128	0xb9324bad	-0.00017003594
129	0x3c343be0	0.011000603
130	0x3d27745c	0.040882453
131	0xbd51b782	-0.051200397
132	0xbd9b0e11	-0.07571042
133	0x3d78ce2a	0.06074349
134	0xbd638b70	-0.0555529
135	0xbd5326e0	-0.051550746
136	0xbd65c1c7	-0.056093004
137	0x3c4bf97b	0.0124496175
138	0xbcd0e7dc	-0.025501184
139	0x3ac6db8a	0.0015171629
140	0xbb542083	-0.0032368011
141	0x39205ec4	0.00015294092
142	0xbc50978a	-0.012731442
143	0x3cbf712b	0.023369392
144	0x3a0e6d85	0.000543319
145	0xba833fe3	-0.0010013547
146	0x3d832dde	0.06405233
147	0x3d5b5d10	0.05355555
148	0xbb131538	-0.0022443067
149	0xbd46de2c	-0.048551723
150	0x3d86651c	0.06562254
151	0x3bc8c8ac	0.0061274376
152	0xbc448646	-0.011994904
153	0xbc8d3a60	-0.01723975
154	0x3d5be988	0.05368951
155	0xbd3f2f00	-0.046675682
156	0xbd1cb0e9	-0.038254652
157	0xbcd848af	-0.026401846
158	0xbcb943a2	-0.022615258
159	0xbc786b6d	-0.015162331
160	0x3d8409d0	0.06447184
161	0x3d6d561d	0.057943452
162	0x3d831e68	0.06402284
163	0xbd91bb5f	-0.07115816
164	0xbbe45814	-0.0069685075
165	0x3ce4361d	0.027857834
166	0xbd821421	-0.063514955
167	0xbd94ba37	-0.0726208
168	0xbd3c94e3	-0.046040427
169	0xbca7ee9c	-0.02049952
170	0x3d80bc26	0.062858865
171	0x3ba679c8	0.0050804354
172	0xbc9d97fe	-0.019237515
173	0x3ce4db28	0.027936533
174	0xbd896691	-0.06709016
175	0x3bf8e9c5	0.007596227
176	0x3d63fc53	0.055660557
177	0xbaa9c02d	-0.001295095
178	0x3d38eddb	0.04514871
179	0xbd77f2ca	-0.060534276
180	0x3cdee2e8	0.027207807
181	0xbcffe254	-0.031235851
182	0xbc3424f1	-0.010995136
183	0x3ca0a5e1	0.019610347
184	0x3ca644fe	0.02029657
185	0xbcc4da12	-0.024029765
186	0x3d3dfb1a	0.046382047
187	0x3c2b0c00	0.010439873
188	0xbd9c68e1	-0.076371916
189	0x3d8c3b53	0.06847253
190	0x3d2fcb3a	0.04291842
191	0x3c8e451d	0.01736694
192	0xbcbf38c6	-0.023342501
193	0xbd87e27f	-0.066349976
194	0x3b283d66	0.0025671362
195	0xbcf65c7d	-0.030073399
196	0x3d7b80c7	0.06140211
197	0xbc4540d9	-0.012039387
198	0xbc2d36b2	-0.010572122
199	0x3d022568	0.031773955
200	0xb814acfc	-3.5447054e-05
201	0x3d604a21	0.054758195
202	0xbd602a16	-0.054727636
203	0x3cc2c606	0.023776066
204	0xbcbdf149	-0.023186343
205	0xbcb07f2f	-0.02154502
206	0xbd385814	-0.045005873
207	0xbd5d0e79	-0.05396888
208	0xbd80d745	-0.062910594
209	0xbd85c574	-0.06531802
210	0xbbec1bc8	-0.00720546
211	0xbc9171a9	-0.017754393
212	0x3cbc26ad	0.02296766
213	0x3c894f9a	0.01676159
214	0xbd02cd76	-0.031934224
215	0xba5dff50	-0.00084685255
216	0xbd4a74d6	-0.04942783
217	0xbd8d3f6f	-0.068968646
218	0xbd233cd2	-0.039852925
219	0x3c1efb68	0.009703495
220	0xbd8041ad	-0.06262527
221	0x3d896cac	0.06710181
222	0xbcf4a9d8	-0.029866144
223	0x3d1929c4	0.037393346
224	0x3d89cfd1	0.06729091
225	0xbc0235f6	-0.007947436
226	0x3ca4129f	0.02002841
227	0xbd8811a8	-0.06643993
228	0xbd6fde72	-0.05856175
229	0x3bee4fa8	0.0072726794
230	0xbd87a486	-0.06623177
231	0xbd1aad7e	-0.03776311
232	0xbbc6909d	-0.0060597197
233	0x3d34fa43	0.04418398
234	0xbd4c3c4c	-0.04986219
235	0x3c9ff207	0.019524587
236	0x3cf43337	0.029809577
237	0xbd91d258	-0.07120198
238	0xbd29a153	-0.041413616
239	0x3d2ede51	0.042692486
240	0xbcb57772	-0.022151683
241	0xbbc1a647	-0.0059097144
242	0x3d5bb481	0.05363894
243	0x3c9e52ea	0.019326646
244	0x3d4e6068	0.05038491
245	0xbca6a7e7	-0.020343734
246	0x39c4b98e	0.00037522282
247	0xbc807888	-0.015682474
248	0xbc0b7eeb	-0.008514146
249	0xbd48b49e	-0.049000375
250	0xbc5d1fea	-0.013496378
251	0xbd0fe3e4	-0.035129443
252	0x3b0fb301	0.0021926763
253	0x3cb974aa	0.022638638
254	0x3cab0e26	0.02088077
255	0xbd3967dd	-0.045265067

conv2.bias f4 [128]
0	0x3d05e692	0.032690592
1	0xbb85eb54	-0.004086891
2	0xbc703d1a	-0.014663005
3	0x3bbdff97	0.005798291
4	0xbd4ef159	-0.050523136
5	0xbce47165	-0.027886102
6	0x3cc33f08	0.023833767
7	0xbc7f222c	-0.015572112
8	0x3d4ba70b	0.04971985
9	0xbd929f93	-0.071593426
10	0x3c1b2938	0.009470277
11	0x3d78bf87	0.06072953
12	0x3cea8013	0.028625524
13	0x3d797568	0.060902983
14	0x3d11a9ab	0.0355622
15	0x3cd721f3	0.026261305
16	0xbd6312b4	-0.05543776
17	0xbd0ce25c	-0.03439556
18	0xbd7fbe97	-0.06243762
19	0xbc8c243c	-0.017107122
20	0x3d48fab8	0.04906723
21	0x3c7cc928	0.015428819
22	0xbd4d15a8	-0.05006948
23	0x3d293511	0.041310374
24	0x3d7bc4d3	0.061467003
25	0x3d5af53a	0.053456523
26	0xbd24b489	-0.040211234
27	0x3c73117e	0.014835713
28	0x3cf24033	0.029571628
29	0x3c0077ce	0.007841064
30	0x3c252209	0.010078915
31	0xbc089f1e	-0.008338718
32	0x3b99c9ac	0.0046932306
33	0xbd361a7c	-0.04445885
34	0x3bdd87a5	0.006760555
35	0xbd763eb6	-0.0601184
36	0x3d90cf14	0.07070747
37	0xbc858e3e	-0.016303178
38	0xbd740546	-0.05957534
39	0xbd23ff41	-0.04003835
40	0xbc7e62c9	-0.015526482
41	0xbc11f0e0	-0.008907527
42	0xbd70cd28	-0.058789402
43	0xbd2e0bd9	-0.042491768
44	0xbbf665c9	-0.007519458
45	0xbd974025	-0.073852815
46	0xbd0182b5	-0.031618793
47	0xbc2cffd1	-0.010559038
48	0x3d4fc482	0.050724514
49	0x3ab660d3	0.0013914354
50	0xbd99c2be	-0.07507847
51	0xbd637412	-0.055530615
52	0x3c54f76b	0.012998442
53	0xbc022d07	-0.007945306
54	0xbcc85e3e	-0.024459
55	0x3cb48ed1	0.022040756
56	0xbb2326e5	-0.002489501
57	0x3be29f1a	0.006915939
58	0xbd9177a0	-0.07102895
59	0x3c74796d	0.014921528
60	0x3d37162f	0.04469889
61	0x3d18516f	0.037187036
62	0xbcab2e1a	-0.020896006
63	0xbd4cb2ec	-0.04997532
64	0xbd88a471	-0.0667199
65	0xbcf88171	-0.03033516
66	0x3d03acf6	0.03214737
67	0x3d0db3a1	0.034595136
68	0xba5ae225	-0.0008349738
69	0xbcdc956d	-0.02692672
70	0x3d847e4a	0.064694
71	0xbd069d10	-0.03286463
72	0x3d38efc5	0.045150537
73	0x3d581ceb	0.052761953
74	0x3d36c92d	0.04462545
75	0xbc2d9457	-0.010594449
76	0x3d5a5271	0.05330128
77	0x3d0de287	0.03463986
78	0xbd789895	-0.06069239
79	0x3d3c8420	0.04602444
80	0x3d82bc32	0.06383552
81	0x3c21b192	0.009868996
82	0xbd3c53b9	-0.04597828
83	0xbd7e4f77	-0.062087502
84	0x3ca5f736	0.02025948
85	0xbcf9c4c9	-0.030489342
86	0xbd5e19d0	-0.054223835
87	0xbd3d2be1	-0.046184424
88	0xbcba30c5	-0.022728333
89	0x3d780e3f	0.06056046
90	0xbce892e0	-0.028390348
91	0xb9e7935e	-0.0004416955
92	0xbd75a9ae	-0.059976272
93	0x3d75aad5	0.05997737
94	0xbd2d2064	-0.04226722
95	0x3d3ad7b5	0.04561587
96	0xbd39bdd6	-0.045347057
97	0x3d0335b1	0.032033626
98	0x3d10f377	0.035388436
99	0x3c210845	0.009828632
100	0x3d61f615	0.055166323
101	0xbc9341f2	-0.017975781
102	0x3d3e1c12	0.04641349
103	0xbd9ab9f2	-0.075549975
104	0x3ce91720	0.02845341
105	0xbd0a65aa	-0.03378836
106	0xbd08f77f	-0.033439156
107	0xbc2d0a8a	-0.010561595
108	0xbda54e96	-0.0807163
109	0xbbf748db	-0.007546527
110	0xbd8d4a7a	-0.06898971
111	0x3c9a1e48	0.018813267
112	0x3d073996	0.033013903
113	0x3ca5cc5e	0.020239051
114	0xbbfce43c	-0.0077176373
115	0xbcb65ea7	-0.02226193
116	0xbcba25d6	-0.02272312
117	0xbce0d7a7	-0.027446581
118	0xbd96276e	-0.07331739
119	0xbb4cc669	-0.0031246191
120	0xbc8f54ee	-0.017496552
121	0xbd66739a	-0.05626259
122	0xbc567369	-0.013089039
123	0x3d5ba992	0.05362851
124	0xbc613aa7	-0.013746894
125	0xbd4222e8	-0.04739657
126	0xbd4a63d2	-0.049411602
127	0xbc2b1740	-0.010442555

fc1.weight f4 [64, 128]
0	0xbda4ea3d	-0.0805249
1	0xbd52ca0c	-0.05146222
2	0xbd8923fa	-0.06696315
3	0xbcc3fab6	-0.02392326
4	0x3b38d0f4	0.0028200718
5	0x3cc9d315	0.024636785
6	0xbd94e752	-0.07270683
7	0x3d2404bb	0.040043574
8	0xbd788c66	-0.06068077
9	0xbd4b4b20	-0.04963219
10	0x3d4c4ea1	0.049879674
11	0xbca40a4a	-0.020024437
12	0x3c3b9b7a	0.011450643
13	0xbc19e20f	-0.0093922755
14	0x3c5f612a	0.013634006
15	0xbd6d3c1d	-0.057918657
16	0xbcb7100c	-0.022346519
17	0xbca59028	-0.02021034
18	0x3cb631b7	0.022240503
19	0x3d7743d7	0.06036743
20	0xbd93f270	-0.07223976
21	0x3da99a0f	0.082813375
22	0x3d2a7d8b	0.041623633
23	0xbd01dcea	-0.03170482
24	0x3d335d9e	0.043790452
25	0xbc3278eb	-0.010893087
26	0xbd98fffc	-0.074707
27	0x3c4b016c	0.012390476
28	0xbd4cb80a	-0.0499802
29	0x3da386a9	0.07984669
30	0xbbf604d7	-0.007507901
31	0x3daae711	0.08344854
32	0x3d7bcc4a	0.061474122
33	0x3d9d9b39	0.07695622
34	0xbceaa01a	-0.028640795
35	0xbd32e0be	-0.043671362
36	0xbd81c333	-0.063360594
37	0xbba47a7b	-0.0050194836
38	0x3d972deb	0.07381805
39	0xbd948f42	-0.07253887
40	0xbbacdc06	-0.0052752523
41	0x3d724b5b	0.059153896
42	0x3d540fff	0.051773068
43	0x3d8cf46a	0.06882556
44	0x3d1bf92f	0.038079437
45	0x3d79f08c	0.06102042
46	0x3d59ef45	0.0532067
47	0x3db5ebc3	0.088828586
48	0x3d7af03e	0.06126427
49	0xbd290ede	-0.041273944
50	0x3bfb4b6b	0.0076689026
51	0x3d985023	0.0743716
52	0xbd486cdd	-0.048931945
53	0xbd9a155c	-0.07523605
54	0x3d86a648	0.065746844
55	0xbd9471dd	-0.0724828
56	0x3bc3d670	0.0059764907
57	0xbda5b22f	-0.080906264
58	0x3da44af7	0.08022111
59	0xbdbb7a42	-0.09154178
60	0x3d86e0f3	0.065858744
61	0xbdaafbf7	-0.0834884
62	0xbbc0a6c4	-0.005879255
63	0x3d96dd07	0.07366376
64	0xbc2bc121	-0.010483057
65	0x3da154bd	0.07877491
66	0xbd47eb9f	-0.04880869
67	0xbcaa2f10	-0.020774394
68	0xbd285412	-0.0410958
69	0xbd48ae0b	-0.048994105
70	0xbd91d760	-0.07121158
71	0xbdac5387	-0.08414369
72	0xbb855b3c	-0.004069714
73	0xba879b89	-0.0010346036
74	0x3d5b7237	0.05357572
75	0xbd8507b5	-0.064956106
76	0x3cf0cc63	0.029394334
77	0x3d66c9ad	0.056344677
78	0xbd1f4112	-0.038880415
79	0xbd78c3c0	-0.060733557
80	0x3d1b61dc	0.037935123
81	0x3ca80876	0.020511847
82	0x3ce35de8	0.027754739
83	0x3d13514c	0.035966203
84	0x3cb66eb9	0.022269594
85	0x3d788f9f	0.060683843
86	0xbd692bb0	-0.05692643
87	0xbd6f69ca	-0.058450498
88	0x3d1f4c44	0.038891092
89	0xbca0349c	-0.019556336
90	0xbd279c30	-0.040920436
91	0xbd9fa3ac	-0.0779489
92	0x3da2c3c6	0.07947497
93	0x3befac7a	0.007314262
94	0xbc00a7a3	-0.007852468
95	0x3d344851	0.04401428
96	0x3d0b9210	0.034074843
97	0x3d8178ba	0.06321855
98	0xbcf2c763	-0.02963609
99	0xbd303dcf	-0.043027695
100	0x3d85d9e7	0.06535702
101	0xbc84ffda	-0.01623528
102	0xbce1c586	-0.027560007
103	0x3d0b54cd	0.03401642
104	0x3d128873	0.03577466
105	0xbd5f19b5	-0.054467876
106	0xbdad2a95	-0.084553875
107	0x3d252810	0.04032141
108	0xbdb3d4c0	-0.08780813
109	0xbce040d4	-0.027374662
110	0x3b89d2bb	0.004206029
111	0x3d2f9200	0.042863846
112	0xbae89f0e	-0.0017747597
113	0xbc882d10	-0.01662305
114	0xbc5fdcdc	-0.013663497
115	0x3d1a7347	0.037707593
116	0x3d989ee9	0.07452185
117	0x3ce49ea3	0.027907675
118	0x3c8d0725	0.01721532
119	0x3d720f97	0.0590969
120	0xbdb785fe	-0.08961104
121	0x3da44879	0.080216356
122	0x3d65511e	0.055985563
123	0x3d95550c	0.07291612
124	0xbd9bb8d6	-0.07603614
125	0xbd353729	-0.044242058
126	0xbd95f8c5	-0.0732284
127	0x3d0cfcb4	0.034420684
128	0xbd9ebb87	-0.07750612
129	0xbd8602d1	-0.06543506
130	0x3c8c67c4	0.017139323
131	0xbd4e50d8	-0.050370067
132	0xbda448d6	-0.08021705
133	0xbd08b84b	-0.03337888
134	0x3b1b2b00	0.0023676753
135	0x3d95e8a3	0.073197626
136	0x3ca1239c	0.0196703
137	0x3d945245	0.07242254
138	0xbd47add8	-0.048749775
139	0x3da7f5bf	0.08201169
140	0x3cce3e58	0.025176212
141	0xbce74536	-0.028231245
142	0x3d1e284a	0.03861264
143	0xbd66719c	-0.05626069
144	0xbc25d850	-0.010122374
145	0xbd8d6759	-0.069044776
146	0x3b8760d0	0.004131414
147	0x3d3f0062	0.046631224
148	0xbd994ee6	-0.07485752
149	0xbd434799	-0.047675703
150	0x3cf20b30	0.02954635
151	0xbb9d9ae0	-0.0048097223
152	0xbd6afa04	-0.05736734
153	0x3d859081	0.065217026
154	0x3d9fc86b	0.078018986
155	0xbdaaafc6	-0.083343074
156	0xbd0b2e1e	-0.033979528
157	0x3bb526b0	0.0055282936
158	0xbd864d48	-0.06557709
159	0xbd46eb82	-0.04856444
160	0x3dafeb1d	0.08589766
161	0x3da0e80b	0.07856759
162	0x3d15d4fc	0.03658007
163	0x3c52b858	0.012861334
164	0x3cc83520	0.024439394
165	0xbcd8a466	-0.026445579
166	0x3d1fcdd2	0.039014645
167	0x3d18dcd2	0.037319966
168	0xbc91a9e4	-0.017781205
169	0xbd1d7e88	-0.038450748
170	0xbd48ed03	-0.049054157
171	0x3d8a1247	0.067417674
172	0xbdafda98	-0.08586615
173	0x3bfa1fe0	0.0076331943
174	0x3d01ad08	0.031659156
175	0xbd9ca621	-0.07648874
176	0xbd761f56	-0.060088478
177	0x3b36ca80	0.0027891695
178	0x3da72463	0.08161237
179	0x3ba4bb60	0.0050272197
180	0x3ae339c0	0.0017335936
181	0x3d78347e	0.060596935
182	0xbaa96500	-0.0012923777
183	0xbd2ff856	-0.04296144
184	0xbc729688	-0.014806397
185	0xbd4e4ad8	-0.050364345
186	0xbce2fc00	-0.027708054
187	0x3d25428e	0.040346675
188	0x3d60a6c2	0.054846533
189	0xbcef33ea	-0.02919956
190	0x3ced5800	0.028972626
191	0x3bfe90a0	0.0077687055
192	0x3ca0daa0	0.019635499
193	0xbd75c1c6	-0.05999925
194	0xbd80af60	-0.0628345
195	0x3c1ffc80	0.009764791
196	0x3cf1f1a4	0.029534169
197	0xbd195d3e	-0.03744244
198	0x3cee0414	0.029054679
199	0xbc518920	-0.012789041
200	0x3da923bb	0.08258768
201	0x3db498ef	0.08818232
202	0x3ceafa68	0.028683856
203	0x3d30e646	0.043188356
204	0xbd42725c	-0.047472343
205	0xbda8630a	-0.08222015
206	0x3da64a03	0.08119585
207	0x3cd36e58	0.025809452
208	0xbd93c1f2	-0.072147265
209	0x3c02a4b0	0.007973835
210	0x3d9c2849	0.07624871
211	0x3d98f4ed	0.07468591
212	0xbd8a1be7	-0.06743603
213	0xbc8154bc	-0.015787475
214	0x3d32e422	0.043674596
215	0xbd18a146	-0.037263177
216	0xbc79da50	-0.015249804
217	0x3c5514a8	0.013005413
218	0xbd6b71d3	-0.057481598
219	0xbc71ece8	-0.0147659555
220	0x3bc4f6a0	0.0060108453
221	0xbd9f73c4	-0.077857524
222	0xbd0a4c62	-0.03376425
223	0xbcb2dd74	-0.021834113
224	0x3c058768	0.008149959
225	0xbdad547e	-0.08463381
226	0x3b60d760	0.003430806
227	0xbd0c2093	-0.034210753
228	0x3d9bdbed	0.07610307
229	0xbcd56a6e	-0.026051726
230	0xbd77734a	-0.060412683
231	0xbd087f5c	-0.033324584
232	0xbd8b0971	-0.0678891
233	0x3da4e1dd	0.080508925
234	0xbd4ec891	-0.050484244
235	0xbce713ce	-0.028207686
236	0x3c6eb750	0.014570072
237	0xbbb5df00	-0.0055502653
238	0x3c669720	0.014074117
239	0xbcf49248	-0.029854909
240	0x3d7caefe	0.061690323
241	0x3c77f2f0	0.015133604
242	0x3dac36db	0.084089
243	0x3d2b49ba	0.041818358
244	0x3d8a1545	0.06742338
245	0xbd807a25	-0.06273297
246	0x3cc4b0e4	0.02401013
247	0xbca90f60	-0.020637214
248	0xbc031300	-0.008000135
249	0xbd6f75ed	-0.058462072
250	0xbb201de0	-0.002443187
251	0x3d479542	0.048726328
252	0xbc994c9c	-0.018713288
253	0x3d26a136	0.040681086
254	0x3d52ff12	0.051512785
255	0x3bbeb000	0.0058193207

fc1.bias f4 [64]
0	0x3d9b6da3	0.07589271
1	0x3d936159	0.07196302
2	0x3c0a4274	0.008438695
3	0xbd94cea7	-0.07265978
4	0x3d9a1f0e	0.075254545
5	0xbce40cec	-0.027838193
6	0xbd0c7120	-0.034287572
7	0xbcda1a3c	-0.026623838
8	0x3da85321	0.082189806
9	0x3d745d40	0.059659243
10	0xb91dfe4c	-0.0001506742
11	0xbcbec28a	-0.023286123
12	0x3d4b6106	0.049653076
13	0xbd92359c	-0.071391314
14	0x3d77d430	0.060505092
15	0x3d762255	0.060091335
16	0xbd766bad	-0.06016128
17	0xbcd7a26a	-0.026322562
18	0x3d416a71	0.04722065
19	0x3d9596b3	0.07304134
20	0xbd643343	-0.05571295
21	0xbd2496fa	-0.040183045
22	0xbc0ea487	-0.008706219
23	0x3d9bca1f	0.07606911
24	0xbd2a66c3	-0.041601907
25	0x3d8d1a21	0.06889749
26	0xbd940e50	-0.072292924
27	0xbc9f943c	-0.019479863
28	0x3d9d6415	0.07685105
29	0xbdab1a03	-0.08354571
30	0x3c0a2c5f	0.00843343
31	0x3d86ef7f	0.06588649
32	0x3cdf48ae	0.027256336
33	0x3d214172	0.039369054
34	0x3d33caa2	0.043894418
35	0x3d961982	0.07329084
36	0xbc9fc110	-0.019501239
37	0x3d55b044	0.052170053
38	0x3d03bdaa	0.0321633
39	0xbcc128ed	-0.023579085
40	0x3d348dd9	0.04408059
41	0xbd11a292	-0.03555543
42	0xbd32280d	-0.043495227
43	0xbd6247fa	-0.055244423
44	0xbd737422	-0.059436925
45	0xbbd238fe	-0.0064154854
46	0x3db1af45	0.08676008
47	0x3d6374a6	0.055531166
48	0x3cfdf207	0.030999197
49	0x3d2ff713	0.042960238
50	0xbda67bf7	-0.08129113
51	0x3da3b906	0.07994275
52	0x3d90509e	0.070466265
53	0x3d81e8ff	0.063432686
54	0x3d63922a	0.055559315
55	0x3c3bb92f	0.011457725
56	0xbdb3aa22	-0.08772685
57	0x3d570948	0.052499086
58	0x3d6cb170	0.057786405
59	0xbb850244	-0.004059108
60	0xbc442159	-0.011970841
61	0xbd846bdc	-0.06465885
62	0xbd767948	-0.060174257
63	0x3c0d5fb3	0.0086287735

fc2.weight f4 [1, 64]
0	0xbbd4f082	-0.0064983973
1	0x3d0670cc	0.032822415
2	0xbdcb1c55	-0.09917513
3	0x3d6c5b24	0.057704106
4	0xbdce87f1	-0.100845225
5	0xbdb31606	-0.08744435
6	0xbd89b77a	-0.067244485
7	0xbd37bd7c	-0.04485844
8	0x3de21938	0.11039966
9	0xbda8e8d8	-0.082475364
10	0x3dd4e766	0.10395698
11	0x3c278d10	0.010226503
12	0xbda84232	-0.08215751
13	0xbdb1a812	-0.08674635
14	0x3d970a65	0.073750295
15	0x3d20e185	0.039277572
16	0xbd148224	-0.036256924
17	0xbdd9d5f8	-0.106365144
18	0xbdd88c66	-0.10573654
19	0xbcdf7a65	-0.027280042
20	0xbd882a40	-0.066486835
21	0xbdd2e5a0	-0.10297704
22	0xbd2d8824	-0.042366162
23	0x3de0b5bc	0.10972163
24	0x3d345763	0.04402865
25	0xbdab1bde	-0.083549246
26	0xbd86818e	-0.06567679
27	0xbdd8dc56	-0.10588901
28	0x3a5031f7	0.00079420157
29	0x3da26ea0	0.07931256
30	0x3d2cce12	0.04218871
31	0x3c799a50	0.015234545
32	0x3c6793b6	0.014134338
33	0xbdccdce8	-0.10003072
34	0xbd70589e	-0.058678262
35	0xbdba49a1	-0.09096075
36	0x3d606d4a	0.054791726
37	0x3d8817c9	0.06645162
38	0xbd43086c	-0.047615454
39	0xbdabe210	-0.083927274
40	0x3dbc003a	0.09179731
41	0x3d80823b	0.062748395
42	0xbd8017b8	-0.06254524
43	0xbd56aac0	-0.052408934
44	0xbd4220a2	-0.047394402
45	0xbd0978f3	-0.03356261
46	0x3cdab2c6	0.026696574
47	0xbde86b3b	-0.113485776
48	0x3d895916	0.06706445
49	0xbd836ab3	-0.06416836
50	0xbc495528	-0.012288369
51	0x3d7f1fac	0.062286064
52	0xbd35e662	-0.044409163
53	0xbd403a68	-0.0469307
54	0xbdb0352a	-0.0860389
55	0x3dcc15fe	0.09965132
56	0xbb32efed	-0.0027303651
57	0xbdcbaab2	-0.09944667
58	0x3ddd6279	0.10809798
59	0xbd6be7de	-0.057594173
60	0xbdc94f7d	-0.09829614
61	0x3df2098a	0.11818226
62	0xbd4d1174	-0.050065473
63	0xbdb768e8	-0.08955556
