assets/model/phrase020_speech_model.pth (torch, 145844 bytes, 7 tensors)

conv1.weight f4 [64, 13, 3]
00000000: 15f7 76bd 7321 12bd 0f0d f1bb c898 c53d
00000010: 029b 1d3e 538c 1c3e e0f0 f0bc 9eaf 6bbc
00000020: 60f9 913d 5372 20be 6deb a7bd 64e7 e0bd
00000030: 7b0b e13c 7d37 223e 3387 7ebd 1e32 d23d
00000040: 110f 49bd b31e dd3d 841f 243d 6fb0 1abe
00000050: 3616 25bc e0b9 4d3c 8591 c83d 5b9e d03d
00000060: c65b 183e efde d5bd 426a 9dbd bfaa f73d
00000070: dd08 553d cb19 203d ce65 0b3e 5ba8 f73d
00000080: 2cb1 03bd dae6 be3d 40e2 09be ef86 1abe
00000090: 39a8 fb3d 3d5d 12bd 5c9c 63bb a924 60bd
000000a0: 878f 46bc 6eba 923d 155f 05be 101a 173e
000000b0: bf67 f43c 7122 883d 58ef c23d 1cf8 46bd
000000c0: 888d 2dbe 6987 453c e66c 25be d68a e4bd
000000d0: 050c a5bd bc35 bbbc 18bb 153d 437a fe3d
000000e0: 3785 a83c fe3b e03d ae17 5b3d 5292 07bd
000000f0: 23bf 76bd d280 c8bd 4305 cb3d c317 32bc
00000100: a733 f73d 17af 09be 3c75 02be cf69 123c
00000110: 28e0 f7bc 0e02 bfbd 9164 b1bd 24ac 9d3d
00000120: c822 273e 7504 2abd 588c b93d dc35 d3bd
00000130: 7b3e 793c a025 f43d ea17 243e b342 05be
00000140: ca7f 8c3c 432b febc ba5a 963d fc07 0abe
00000150: 7de5 1abe 124d a53c c974 9bbd f097 813d
00000160: 0248 c03d 7f39 e03c 299e bf3c b4f7 193e
00000170: 8498 04bd 51f9 213e 1e29 933d d83c fe3c
00000180: d3c8 08be 06b0 04be cd11 99bb 0fa6 e53c
00000190: 6fd2 8abd ed32 fc3c 6ce2 583d 803c 113d
000001a0: 0e77 0fbe 07b5 cfbd 4beb a23d ed6a dbbc
000001b0: 90e8 b7bd 81f1 d63d 5ad6 5fbd 3102 173e
000001c0: b029 783d 8e66 76bd ae11 1bbd 397b f0bd
000001d0: 3a64 b3bd 8530 80bd 0593 a5bd d390 e4bd
000001e0: b60d 65bd 724c c73c 2ebe 973d aa7e 573d
000001f0: f330 7abc 135b fd3d de41 a73c a308 03be
00000200: 1540 123d edb0 46bc 05e6 14be 476b 053e
00000210: 8923 d7bd 4d20 853d 7810 043e 14f1 db3d
00000220: 48f9 05be 23b4 72bd b3b0 70bd 05fc 1ebe
00000230: e298 8a3d 4d4e e43d cead ed3d 0e97 103e
00000240: 4e47 cebd 2f19 a1bd e14c 0ebe f726 96ba
00000250: 0406 d33d 8277 0b3e ac99 213d 2750 95bd
00000260: 6211 0abd e03d 6f3d 96b5 1c3e 899c cb3d
00000270: f637 b0bd aa04 253d 9ba4 1c3e c7ce d4bd
00000280: 6e35 4d3d fc6e 00bd 7977 d33d 70cb b1bc
00000290: 0989 b9bd 18a9 373d 05da c73c 0d8a 193e
000002a0: 484a 0fbe a9da 1ebe 2078 70bc f1aa fcbd
000002b0: 2fba ef3d f6ba 3dbc c4b4 bb3d ee88 8b3d
000002c0: 7397 163e d943 c53d 101c a13d b6aa b03c
000002d0: 4de2 913d 3b33 f33c f799 bebc febd 763d
000002e0: 9f6a 0fbe bbf3 07bd 246d 95bd b258 2bbe
000002f0: 4c6f 113c 0edd b63b bd70 13bd 0b54 bcbd
00000300: 3579 24be 3726 123d 8efc 013e 0e11 613c
00000310: bdb6 0e3a 427b 9e3b 20e6 263d e55e d9bd
00000320: f898 febd 8cfd aa3d d197 dfbd 3f71 febd
00000330: 7981 00be 7971 6e3c 7bef d63d fc5c d3bb
00000340: 638e ddbd 9749 87bd 0423 85bd fc31 b03b
00000350: 1d6d 223e 5ab3 2cbd b840 fbbd de25 87bd
00000360: 091c 6a3c 8b3e 133d 9b92 08be 4100 89bd
00000370: 8271 6fbd 7ff8 153e d107 12be b7c9 cdbd
00000380: 3141 b93c 8849 f5bd 4d1f 973c 4148 d2bd
00000390: eee9 e73d 7881 b33b 4230 82bd baf9 753d
000003a0: ae7f debc db6e ddbb afce 943d 4e6a 9e3d
000003b0: ffc9 e33c d38e a13d 5cfd 91bd f44f 2e3c
000003c0: ef3a 903c 9a4a d5bd 11f7 c83d 6bb9 9b3c
000003d0: ed73 94bd 8c83 0b3d 5157 503c 548e de3d
000003e0: faf8 cabd 9924 0e3e 0cc4 a6bd 339b 04be
000003f0: d0af c0bd cfb2 7f3d 08c2 d63d e51a ea3c
-0.06029423 -0.03567643 -0.007356293 0.09648281 0.15391162 0.15287904 -0.029411733 -0.014385132
0.07127643 -0.15668611 -0.08199201 -0.10981634 0.027471295 0.1584148 -0.062140655 0.10263465
-0.049086634 0.10796871 0.04006912 -0.15106367 -0.010076096 0.012556523 0.09793381 0.10186454
0.14878759 -0.10442912 -0.07686283 0.12093114 0.052010406 0.039087098 0.13613054 0.12092658
-0.032151386 0.09321375 -0.13465214 -0.15090536 0.12287945 -0.03573345 -0.0034730649 -0.05472246
-0.0121191805 0.07164465 -0.13024552 0.14756036 0.029834626 0.06647194 0.095183074 -0.04857646
-0.16948521 0.01205621 -0.16154823 -0.11159293 -0.08058933 -0.022852771 0.03655538 0.12425663
0.020571334 0.109489426 0.05348938 -0.033098526 -0.060240876 -0.097901955 0.09913113 -0.010869923
0.12070399 -0.13445698 -0.12740034 0.00893636 -0.030258253 -0.09326564 -0.0866176 0.07698849
0.16321862 -0.041508157 0.090599716 -0.10313007 0.01521265 0.11921239 0.16024747 -0.13013725
0.017150778 -0.031026488 0.073415235 -0.13479608 -0.15126605 0.020178352 -0.075906344 0.06327808
0.093887344 0.027371166 0.023390846 0.15035897 -0.032372013 0.15817763 0.07185577 0.031034872
-0.13357858 -0.12957773 -0.0046713115 0.028033284 -0.06778418 0.030786002 0.052950308 0.035458088
-0.1401026 -0.1014195 0.07955035 -0.026784385 -0.08979905 0.10495282 -0.05464778 0.1474693
0.06058663 -0.060156398 -0.037858658 -0.11742253 -0.08759351 -0.06259254 -0.080846824 -0.111604355
-0.05592128 0.024328444 0.07409321 0.05261103 -0.0152704595 0.12370887 0.02041715 -0.12796263
0.035705645 -0.012127143 -0.1454087 0.13029204 -0.10504825 0.065003015 0.12896907 0.107393414
-0.13083375 -0.059253823 -0.058762264 -0.15525825 0.06767441 0.11147747 0.11605416 0.14120123
-0.10072194 -0.078661315 -0.13896514 -0.0011455704 0.10303882 0.13619807 0.039453194 -0.072906785
-0.033707984 0.058408618 0.15303645 0.09941966 -0.08604424 0.04028765 0.15297167 -0.10391002
0.050099783 -0.031355843 0.10325522 -0.021703452 -0.090593405 0.044838995 0.024395952 0.14994068
-0.1399318 -0.155131 -0.0146770775 -0.12337292 0.117054336 -0.0115802195 0.09165338 0.06813227
0.14706211 0.096320815 0.078666806 0.021565776 0.071232416 0.029687515 -0.023266776 0.060239784
-0.14005516 -0.033191424 -0.072962075 -0.16733053 0.008876633 0.005580551 -0.035996187 -0.091957174
-0.16061862 0.035680976 0.12693998 0.013736976 0.00054441 0.004836471 0.040746808 -0.10613803
-0.1243152 0.083491415 -0.109176286 -0.12423944 -0.1254939 0.014553421 0.10494896 -0.0064502936
-0.10818174 -0.06605833 -0.06500819 0.0053770524 0.15861936 -0.04216323 -0.122682035 -0.065990195
0.014288911 0.035948317 -0.13337176 -0.066895016 -0.05845786 0.14645575 -0.14260794 -0.1004824
0.022614093 -0.119769156 0.018447543 -0.102676876 0.113239154 0.0054780804 -0.06356861 0.06005261
-0.027160492 -0.0067576 0.07265984 0.0773512 0.02780628 0.0788857 -0.071284026 0.0106391795
0.017606227 -0.1041462 0.09812749 0.019009313 -0.072486736 0.034061 0.01271613 0.10866991
-0.0991077 0.13881148 -0.08142862 -0.12949829 -0.094085336 0.062426385 0.10486227 0.028577277

conv1.bias f4 [64]
00000000: 4c63 973d 3237 17be 07da c43d 0c0c 823d
00000010: cef0 93bd 2732 98bd 44e4 1a3c 572e 1c3e
00000020: 8c47 1a3e 7078 15be 6265 9ebd f558 23be
00000030: 5dc2 19bd 73af f5bd b0d6 25bd 9fe1 cabd
00000040: 985e 5cbd 2421 bcbc 7580 0c3e 0591 e1bc
00000050: a42f e3bd 19e2 223d 7f56 de3d e6fe a1bd
00000060: 2b43 463d f23b 093d e1fc bf3d 5da8 893c
00000070: c8f8 89bd 782a edbc 3275 853c b85e 65bd
00000080: 5531 8bbd c866 e1bc fe4f df3d 2515 22be
00000090: 4fa9 fcbd 9007 25be 0874 b0bc a7f2 04be
000000a0: 391b 0bbe 3508 12be 3531 fa3d 3f7d 2c3c
000000b0: 84a2 9dbc fbd0 0cbe a6fc 033b d1db 92bd
000000c0: 3979 d43d fbd2 003e e183 c23d 56dc f83d
000000d0: f622 21bd 4435 25bd a2b1 f8bc 71fd 133d
000000e0: aaff 093d fcdd 8b3d 8022 7abd 0fd5 643d
000000f0: bd28 92bc db07 0ebe 174d f13d f7c3 a83d
0.07391986 -0.14767149 0.09611898 0.06349954 -0.07223664 -0.07431441 0.009453837 0.15252052
0.15066355 -0.14596725 -0.07734181 -0.15951903 -0.037538875 -0.11996355 -0.040487945 -0.09906315
-0.05380115 -0.022965021 0.13720877 -0.027534971 -0.11093071 0.039766405 0.108563416 -0.07909946
0.0484039 0.033504434 0.09374405 0.016803915 -0.067369044 -0.028950915 0.016291235 -0.055998534
-0.06796519 -0.02751483 0.10903929 -0.15828378 -0.123369806 -0.16116166 -0.021539703 -0.1298319
-0.13584603 -0.14260943 0.12216417 0.010527908 -0.019242533 -0.13751595 0.0020139604 -0.07170833
0.10374684 0.12580483 0.0949781 0.12151401 -0.039339982 -0.040334 -0.03035814 0.036130372
0.033691086 0.068294495 -0.061068058 0.05586725 -0.017841691 -0.13870184 0.11782282 0.08240502

conv2.weight f4 [128, 64, 3]
00000000: e345 b23c e8fe 8abc 726a 9dbd 6254 3d3c
00000010: 935b 0dbd 9424 823d 400c 85bd bbb5 98bc
00000020: 6283 db3c 31a2 61bd 408d 93bc 4e54 8bbd
00000030: bd4c c53c 79b5 6c3d 3fbe 6f3b 8ffe bfbc
00000040: de8a 81ba d6c9 67bd 483e bcba 4f47 31bd
00000050: 3f55 b93b ecde 2c3d 7422 8c3c 1dd3 d3bc
00000060: af10 a03c fda8 2a3d bf6b febb 5af0 293d
00000070: 4141 ed3c 2d09 91bd b871 9fbc 1bea 753d
00000080: a9c8 97bc 60a2 1d3d 7dd2 f9bc 6329 593d
00000090: 31fa 2b3d 196b e2bc 38f3 1e3d 7f17 3d3d
000000a0: f23e 133d 603a 58bd 42b7 cf3c 03a6 7e3d
000000b0: 0e4e 3cbd 4081 39bd 712d 20ba e753 2cbd
000000c0: 7fb0 633c a68e acbc 5b11 c23c f311 483d
000000d0: 6c42 f43c 02fa 99bc 70a6 88bd fbbb 9abd
000000e0: f726 153d f9d0 48bd 7c47 fe3c ed80 eabc
000000f0: 0bed 7d3b 7fb0 293d 1336 7c3d b0f3 283d
00000100: 8d7d 353a bf14 0e3a be8f 6cbb 615f 663d
00000110: 8f85 d8bc 6ddc 2abd 8800 3c3d be20 003d
00000120: d379 33bc d83e 443d ef76 163d b09b 943c
00000130: 5584 793c 88d8 7d3c be19 01bd 6190 593c
00000140: f887 c33c ad5a 53bc 6876 8dbd 60d8 de3b
00000150: d29e ee3c 128e 0bbd 592c 8cbd ba2d 783b
00000160: 7cbf f53c 49c3 eebc 16b5 0dbd 1687 eeba
00000170: 4688 5bbd 63e1 82bc aea7 81bd 19bf 22bc
00000180: 6b97 5e3d 3cef 553c 1fda b63c 0832 cd3c
00000190: f04d e2bb 5a5d 66bd 6f4a 463c 12a5 17bd
000001a0: bc41 3fbc 3c4c b0bc b3cd 94bd edc0 dbbb
000001b0: ee03 62bd 404b 523c e489 5cbc 7b21 963b
000001c0: 634d 15bd 086d 0a3d 8036 803d 3aa9 23bd
000001d0: 0d00 893b 7a04 51bd 9c6b 653d c3cf 9abd
000001e0: 5d4c f93c 30c0 dcbb 3e9b 65bd cad4 a1bb
000001f0: 3c7a da3c 50ec 303d e2f9 943b 45a0 ac3c
00000200: 230b 4ebd 98a7 54bc c56a c6bc 11fd 62bc
00000210: 9f1f 213d fea3 04bc 58cd c5bc 545d 6b3d
00000220: ef60 a4bc 51ed 33bd 3c05 463c 33f1 cf3c
00000230: c681 0a3d 9c0a 243d d419 293d a220 73bd
00000240: 5be3 6f3d 268f 5ebc 7fef f93c 950e 6b3b
00000250: af2f 32bc 8302 29bc 90f1 60bb edd8 68bd
00000260: da4b 3dbd 5cab 373c 7db7 bc3c 9814 97bd
00000270: ceda 5d3d bed6 72bc 2010 52bc 7fb3 6abd
00000280: 59c4 3cbd 3dee 733c fa2c 413d 8631 ebbc
00000290: acbf 69bd b8d8 ad3c 0071 823d acb6 dd3c
000002a0: e9c9 d73c fe97 e1bc 3c67 24bd cef2 ddbb
000002b0: dcf8 703d ab96 543d 0f35 723d 9b1d 743d
000002c0: a38c ef3b 451b 9c3c b100 9d3b 387f 503d
000002d0: 17c8 a0bd 30bb fdbc e8cc 30bc fb68 693d
000002e0: e9d9 343d b76e c53c bce1 4dbd d1e4 0e3d
000002f0: d4e3 fa3c 9c29 5ebd a885 a1bd 6a93 113d
00000300: 4c77 03bc 808f 8abd d281 783d 6d2b 043d
00000310: ab08 993b 0393 e83c eb4a 1ebd 2ab8 363d
00000320: e29c 7a3d 6266 5b3d f72f 49bd c6c5 973c
00000330: 9eeb 06bd 4745 233d f620 99bc 7aad d93c
00000340: dea2 f0bc c546 853c b212 10bd 3baa 67bd
00000350: a2af 48bd 1add d73b e3ef ea3c 271d 6abd
00000360: c94c 8d3d 3651 523d bead 03bd 29e3 193d
00000370: 66b6 873d a70f e4bc fdaa c53c 1f6c 0f3d
00000380: ec25 7a3d 47a4 353d 5b6a 083c 9311 5c3d
00000390: d365 fc3c 8b19 e53c 3bee 1abc a4b5 72bd
000003a0: 164f 57bc 1742 813c e472 91bc af37 02bd
000003b0: 5a13 033d 85a5 71bd 1409 0e3d e0cb 0bbd
000003c0: 5459 863b 3a9d 5d3b 0e64 163d 2b7b 613c
000003d0: 9bcb 80bc bab7 c6bc d322 32bd 2306 e9bc
000003e0: a828 5dbd fab1 0c3c 295e e53c 892c 75bc
000003f0: 9583 81bd 0b26 023d 8972 81bc c6e7 23bd
0.02176184 -0.016967252 -0.076863185 0.011555763 -0.03451116 0.06354633 -0.06496477 -0.018641343
0.026796047 -0.05508632 -0.01801169 -0.06803189 0.024084443 0.057790253 0.0036581901 -0.023436813
-0.0009883305 -0.05658897 -0.0014361823 -0.043280896 0.005655914 0.042204782 0.017106272 -0.025857503
0.019539205 0.041665066 -0.007764309 0.041488983 0.02896178 -0.07081828 -0.019463405 0.060037713
-0.0185283 0.03848493 -0.030495876 0.053017985 0.041986648 -0.027638959 0.03880617 0.046164986
0.0359487 -0.052790046 0.025355939 0.06217004 -0.045972876 -0.045289278 -0.0006110287 -0.042072203
0.01389706 -0.021064114 0.023689916 0.048845243 0.029816829 -0.01879597 -0.066723704 -0.07555386
0.036414113 -0.049027417 0.031039946 -0.02862593 0.0038746025 0.041428085 0.061575007 0.041248024
0.00069233106 0.00054199615 -0.003609642 0.056243304 -0.026430873 -0.04171412 0.045898944 0.031281225
-0.010954338 0.047911495 0.036734518 0.018140644 0.015229304 0.01549352 -0.03151869 0.0132790515
0.023868546 -0.012900037 -0.0690735 0.0068006963 0.029128466 -0.034071036 -0.06844396 0.0037869052
0.029998533 -0.029145854 -0.034596525 -0.0018198218 -0.053596757 -0.015976613 -0.063308105 -0.009933257
0.054343622 0.013057526 0.022320805 0.02504827 -0.0069062635 -0.05624137 0.012102707 -0.037022658
-0.011673387 -0.021520726 -0.072657965 -0.006706348 -0.05517953 0.012835324 -0.01346061 0.004581628
-0.036450755 0.033795387 0.06260395 -0.03995631 0.0041809143 -0.05102966 0.056010827 -0.07559159
0.03043192 -0.0067367777 -0.056056254 -0.0049386965 0.026669614 0.043194115 0.00454639 0.021072516
-0.05030359 -0.012979411 -0.024220834 -0.013854281 0.039336797 -0.008095739 -0.024145767 0.05746205
-0.020065753 -0.043927494 0.012086209 0.025383567 0.033815168 0.04004918 0.041284397 -0.059357293
0.058566432 -0.013583934 0.030509708 0.0035866846 -0.0108756265 -0.01031554 -0.003432367 -0.0568475
-0.046214916 0.011210289 0.023036713 -0.07376975 0.054163747 -0.014821706 -0.012821227 -0.057300087
-0.04608569 0.014888343 0.047162034 -0.028710138 -0.05706756 0.021221504 0.06369209 0.027064644
0.026341395 -0.027538296 -0.040137514 -0.0067733293 0.05883108 0.0519015 0.059132632 0.059598546
0.0073104664 0.019055972 0.004791342 0.050902575 -0.07850664 -0.030973047 -0.010791041 0.056984883
0.044153128 0.024100645 -0.050264105 0.034886185 0.030626215 -0.0542389 -0.07886821 0.035540976
-0.008024048 -0.06765652 0.06067068 0.032267977 0.0046702228 0.028390413 -0.038645666 0.044609226
0.06118477 0.053564437 -0.04911801 0.018526923 -0.032939546 0.03986099 -0.018692475 0.026571978
-0.029374536 0.016269097 -0.03517408 -0.05655883 -0.04899562 0.0065876367 0.02867884 -0.057156708
0.06899411 0.05134698 -0.032148115 0.037570152 0.066265866 -0.027839495 0.024129385 0.03501522
0.06107132 0.04434612 0.008326138 0.053727698 0.030810272 0.027966281 -0.009456213 -0.059255257
-0.013141414 0.015778584 -0.01775498 -0.031791385 0.032000877 -0.058995742 0.034676626 -0.034129977
0.004100004 0.0033815638 0.036716513 0.013762276 -0.015722087 -0.02425753 -0.043490242 -0.028445309
-0.05399385 0.008587355 0.027999 -0.014964231 -0.063239254 0.03177456 -0.015801685 -0.04001596

conv2.bias f4 [128]
00000000: 7222 083d 2f5c 33bd a882 813d cdf0 30bd
00000010: 3020 ddbc b7b3 95bc 0650 1f3d 4ff6 a23c
00000020: bb89 14bc 9af6 223d 159b 9dbd 3316 103c
00000030: 248c 893d f7db d23c a7a1 a03d 28fd e93c
00000040: a59c b33b fd76 04bd 9569 f4bc 7304 e53c
00000050: e4ed 873d 3f53 c13c 6720 30bc caf4 8ebc
00000060: 2d99 19bd a4a1 42bd 3573 06bd abc8 473d
00000070: 6f2d 32bd ffee 5bbc 93dd c63c 6cbb 063d
00000080: 04fd 9bbd f21c 97bd 56ce c4bc ef66 f8bc
00000090: bde7 15bc 6b56 4d3d 0726 633d 899e 043d
000000a0: 83c3 323d 18cc adbc e11b 213d de32 a0bc
000000b0: 1e91 35bd c5af 24bd 9d26 743b 38f8 343c
000000c0: 6ac5 7abd 3612 833d c8e8 2ebd 9c85 0dbd
000000d0: b88e 5abd 7f82 88bd 94f4 86bc 5104 763d
000000e0: e6b6 9abd c5c6 29bc f7dc 5bbd 1d36 d33c
000000f0: 3212 08bd c72c d5bc 7072 22bd 3a3f 6a3d
00000100: e995 c3bb a1d3 19bd 3762 febc 1a22 d43c
00000110: 355b f73c 0bd9 b5bc 423f 073d b34c 46bb
00000120: 33da 363c 7760 ebbc 585d 103d 4ae1 b03c
00000130: 2aa1 a23b 0739 78bb f88b bfbc 412a 593c
00000140: e6e5 9cbd bbd1 5e3d a94c f5bc 43a9 4e3a
00000150: 11d2 96bc d56e 0e3d 3bf8 31bd 3de4 893d
00000160: d959 8d3c f9da 8f3d 7446 3a3d 7fdd cbbc
00000170: 1e8c fdbc fc93 d7bc 9cbe 6a3d 3b97 34bd
00000180: 8267 6b3d 730e b23c 61a4 73bd c214 5a3c
00000190: 389d 293d 10e5 673d 474b 723c 1560 46bc
000001a0: 6301 57bd 082b 63bd c64e 433d 7d33 fb3b
000001b0: 8f9a 103d ea05 573d 192b 1b3d 520c aeba
000001c0: e97e 95bd 3793 833d 636e 053d acb9 cd3c
000001d0: d565 3cbc 8977 57bd 0b67 c33c fb46 e5bc
000001e0: 1c71 7c3b 153d 38bc f1a5 0cbd 1c1e c5bc
000001f0: 9c4f b03c da84 28bd 1e3e 95bc 5e72 5f3d
0.033235975 -0.043789085 0.06323749 -0.043198396 -0.026992887 -0.018274171 0.038894676 0.01989284
-0.009066041 0.03978596 -0.07695595 0.008794355 0.06716183 0.025739653 0.07843333 0.028563097
0.00548132 -0.03234004 -0.029835502 0.027956223 0.06637171 0.023599265 -0.010749913 -0.017450709
-0.037499595 -0.047517434 -0.032824714 0.048775356 -0.04350036 -0.01342368 0.024275577 0.032893583
-0.07616618 -0.07378568 -0.02402417 -0.03032252 -0.009149489 0.050131243 0.055456188 0.032377753
0.043643486 -0.021215484 0.039333228 -0.019555505 -0.044327848 -0.04020669 0.003725446 0.011045508
-0.061223425 0.06399958 -0.042702466 -0.034551248 -0.053358763 -0.06665515 -0.016474046 0.06006271
-0.07554416 -0.010362332 -0.053677525 0.02578264 -0.033220477 -0.026022328 -0.039659917 0.057189204
-0.0059687984 -0.03755534 -0.031052692 0.025895167 0.030194858 -0.02219822 0.03301931 -0.0030258119
0.011160421 -0.028732521 0.03524527 0.021591801 0.00496306 -0.0037875788 -0.023382172 0.013254703
-0.07661037 0.054399233 -0.029943781 0.00078834983 -0.018410714 0.034773666 -0.04344962 0.06732986
0.017254757 0.070241876 0.045477346 -0.024885891 -0.030950602 -0.026315682 0.057310686 -0.044089537
0.05747176 0.021735406 -0.059482936 0.013310613 0.0414097 0.056614935 0.014788455 -0.012107869
-0.052491557 -0.05546096 0.047682546 0.00766605 0.03530365 0.052495874 0.037882898 -0.0013278818
-0.07299597 0.064245634 0.032575976 0.02511295 -0.011498888 -0.052604232 0.023852846 -0.027987948
0.0038519567 -0.011245032 -0.03433794 -0.024062209 0.021522336 -0.041142322 -0.018218096 0.05455243

fc1.weight f4 [64, 128]
00000000: 3f4c c6bb 656b b73c 1131 b3bc 99c8 523d
00000010: d729 033d 523c af3d 91d7 153c 394f 4c3d
00000020: 1505 0a3c 3018 44bd 8cc1 a6bb 2acf 103d
00000030: a878 b43b 1f37 473b 630d 943d 61dd df3c
00000040: c16b 5b3c 77ac 28bc 91ed 923d be2f 8c3d
00000050: 59e5 5fbd 2475 a93c b1f5 4a3d fe64 3fbd
00000060: cfab 96bd 3f1a fd3c c9f4 88bd 0e65 093d
00000070: a9bf 973d ae6f 1ebd 20a6 933d 041a 393c
00000080: 575e f2bc 4da5 bf3c a29e ab3c 5db7 1a3d
00000090: 3e71 6cbd 9e42 aabb b767 c03b ca08 e93c
000000a0: bcbb 92bd ad8a 633d 0d24 7ebc 3f89 983c
000000b0: 6956 12bd 5063 8dbd be74 9b3d 0fc7 8c3d
000000c0: 82fd 30bd 5d95 693d fc6d 8f3d a7a5 54bd
000000d0: 5156 233d ebf0 bb3d 2482 68bd 41c9 1f3d
000000e0: dc17 bfbc 52b5 5e3d e971 7b3d f47e a33d
000000f0: 6475 ad3d 31c6 953d bbd9 1bbd 66c1 413d
00000100: 652d 853d 8c99 283d 6f33 dd3c 3690 aa3d
00000110: 1e8a e33c ab4a e6bc 3d0d 22bd 1dab 71bd
00000120: 03b3 423c dbb8 71bd 3b49 143d 59e9 4e3d
00000130: 1390 4dbd 66d9 2bbc 5fd6 893d 1dd7 803c
00000140: 1f93 6bbc da3d 453d e3ef 9d3d 5abe 70bd
00000150: f3e6 833d 368c 483d f588 a2bd 4bce 4d3d
00000160: 5059 9a3c bdcb 9cbd 6461 b5bb 7fcf 123d
00000170: b5e7 7dbd 62a4 80bc 8ddf a9bd 7623 943c
00000180: b570 733a 5555 733d 035a 9bbd d0a8 94bd
00000190: e135 1b3d 44f6 8c3d d339 fe3c 8549 b83c
000001a0: f48e 173d 5267 9b3d 6396 a3bd f00f 7e3d
000001b0: e4fe 003c 563f 3d3d 3581 92ba ef97 853d
000001c0: 39bc e1bb a114 a2bd 1ff4 103c 8cd5 d23b
000001d0: f476 ca3c 009e 93bd fbb1 a03c e680 debc
000001e0: ca9c 06bd 8511 1bbd 48b8 5e3b 95f7 283d
000001f0: 0b4b d5b9 7436 a9bd 933d 3b3d 623e e0bc
00000200: a92b 5fbc b60d 07bc 875b 423d e0ca 9c3d
00000210: a63b 44bd d78c 023c 167e fcbb 20a3 393d
00000220: 9618 95bd ca05 e63c 6f4c 2b3d f302 813d
00000230: 6900 ba3c a4a1 a7bd 2f18 94bd cc0e 39bd
00000240: e01d 30b8 101e f63c e430 db3b 35b7 a93d
00000250: 266c 3b3d 751c 9f3d 2010 4c3d d551 f4bc
00000260: be88 4bbd 1223 09bd 8901 42bd bc86 d13c
00000270: bf3f 10bd eaad 06bd 8e15 04bd 58ed 9a3d
00000280: 4921 15bc 4e78 bfbc 516b a7bc 6c2d af3d
00000290: 1245 7abd 59a6 823d f5ed a2bc 0560 d33c
000002a0: 8c73 90bd 7747 4b3d a92a cebc 4300 153d
000002b0: 798c 84bd 4326 1c3d 2700 7e3c d40c 7dbd
000002c0: 3a7e 4a3d 484e 9ebd 4d71 813d 8e4b 993c
000002d0: c7f5 f4bc 3881 913c 85f2 6c3d 5a92 7f3d
000002e0: 5da6 643b 8307 cbbc 9693 a8bd 2b9a 1b3b
000002f0: 02f0 983c ccc0 aabd cd9d 493b 16cb 8ebd
00000300: 6566 92bd 363d 723d 79ab c2bc 9f78 80bd
00000310: e984 0c3d 557a 0a3d 86f7 26bc e40d 163d
00000320: ec05 92bc 6fc0 883d 59d8 793c 8b18 1fbd
00000330: a820 d03c d9d9 d63a e580 a83d 0337 c5bb
00000340: 36f7 143d 9a06 513c 6b36 0a3d 9a39 883d
00000350: 9684 58bc 1c06 aa3d 130e 94bd a2af a2bd
00000360: b4ac 4bbd 9922 113d dcad a33d ad1f a7bd
00000370: f8de 93bd d0f0 93bd 8a00 883d 379f 1d3c
00000380: d98f eabb ab55 343d 7a8f 39bc 3890 953d
00000390: 7af2 d0bc 90d7 a93d 8d3e f93c 2a1a 543c
000003a0: aab0 2e3c 4315 81bd c5f7 69bd 4210 9d3c
000003b0: 6dd8 a23d 5cb8 57bc 8e66 05bc ffa9 92bd
000003c0: 0091 1b3d aa94 64bd ad7f fc3b e21b c9bc
000003d0: 0eea 02bb 7b80 633c 03af 1e3c 1b30 20bd
000003e0: 6870 c0bb f30a 38bd a2e8 35bd a91c b23d
000003f0: 71fb 3fbd c46a 683d e293 673d 060d 653d
-0.0060515697 0.022390077 -0.021873983 0.051460836 0.032022323 0.08556427 0.009145633 0.04988024
0.008424063 -0.04787463 -0.0050889906 0.035353817 0.0055075474 0.0030397845 0.07229116 0.027327241
0.01339239 -0.010295025 0.071742184 0.068450436 -0.054662082 0.02068574 0.049550716 -0.046727173
-0.07356989 0.030896304 -0.06687314 0.03354364 0.07409603 -0.038680725 0.0720942 0.0112977065
-0.029586 0.023394251 0.020949665 0.037772525 -0.057725184 -0.0051959297 0.005871739 0.028446574
-0.07164714 0.055552173 -0.015511525 0.018620132 -0.03572694 -0.06903708 0.07590626 0.06873905
-0.043210514 0.05702721 0.070034 -0.05191579 0.03987724 0.09176811 -0.056764737 0.03901029
-0.023326807 0.05437214 0.06138793 0.07983199 0.08469656 0.07313193 -0.03804944 0.04730358
0.06502799 0.04116206 0.027002065 0.08328287 0.02777582 -0.028111776 -0.039563406 -0.059001077
0.0118835 -0.059014183 0.03620265 0.050515506 -0.050186228 -0.010488844 0.06730341 0.015727574
-0.014378338 0.04815469 0.077117704 -0.058775283 0.064405344 0.04896184 -0.07936279 0.050245564
0.018841416 -0.076560475 -0.0055352915 0.035842415 -0.06198855 -0.015703384 -0.08294592 0.018083315
0.0009286509 0.05940755 -0.07585528 -0.07258761 0.03789318 0.06882909 0.031033432 0.022495994
0.037001565 0.07588066 -0.07987668 0.062026918 0.007873271 0.04620298 -0.0011177423 0.0652312
-0.006888893 -0.07914091 0.0088472655 0.006434148 0.024714924 -0.072078705 0.019616118 -0.027161073
-0.03286437 -0.037858505 0.0033984352 0.041251738 -0.00040682437 -0.08262339 0.04571302 -0.027373496
-0.013621249 -0.008243015 0.04745057 0.07655883 -0.047908448 0.007968149 -0.0077054603 0.045321584
-0.0728008 0.028078932 0.04182094 0.06299391 0.022705274 -0.081851274 -0.07231175 -0.045180127
-4.1989493e-05 0.030043632 0.006689178 0.08286897 0.045757435 0.077690996 0.049820065 -0.029824177
-0.049690954 -0.03348071 -0.047364745 0.025576942 -0.035217043 -0.0328807 -0.03224712 0.07564801
-0.009102174 -0.023372795 -0.020436915 0.085535854 -0.061101027 0.063793845 -0.019888857 0.025802622
-0.07053289 0.0496287 -0.025166826 0.036377203 -0.064721055 0.038122427 0.015502966 -0.061779812
0.049436785 -0.07729775 0.063204385 0.018712785 -0.029902352 0.017761812 0.057848472 0.06239543
0.00348892 -0.024783855 -0.08231275 0.0023743014 0.018669132 -0.08337554 0.0030764223 -0.06972329
-0.071484365 0.059140407 -0.023763405 -0.06273007 0.03430644 0.03380807 -0.01019085 0.03663434
-0.01782509 0.06677329 0.015249335 -0.038841765 0.025406197 0.0016391828 0.0822771 -0.006018521
0.03636857 0.012757922 0.033743303 0.066516116 -0.013215205 0.083019465 -0.07229247 -0.079436556
-0.04972525 0.035433386 0.079921454 -0.081603386 -0.07220262 -0.07223666 0.06640728 0.009620479
-0.0071582613 0.04402701 -0.011325711 0.07302898 -0.025506247 0.082930684 0.030425334 0.012945691
0.010662237 -0.063028835 -0.057121057 0.019172791 0.07951436 -0.013166513 -0.008142127 -0.071613304
0.03798008 -0.05580584 0.00770565 -0.024549428 -0.0019975933 0.013885613 0.009685281 -0.039108377
-0.005872775 -0.044932317 -0.04441131 0.08696873 -0.046870653 0.056742445 0.056537516 0.055920623

fc1.bias f4 [64]
00000000: 131a 79bd 91f8 263c 3e99 c0bc 2171 b03d
00000010: 8adc 343d 7ebd 5f3d b3be e6bb 401d fa3b
00000020: e561 a83c 442d b2bd d2bf 843d 2fef 923d
00000030: 743e 623d cab6 9bbd c540 44bd a0de 0b3d
00000040: 2fd8 013d 2722 a3bd 7010 2cbc 0045 7f3c
00000050: d0b4 fc3c 0c8a 48bd 49fd 1d3d c63e 293c
00000060: 7fb3 19bd 6064 a03d 52f3 71bd 2712 7d3d
00000070: 66e6 04bb b034 33bc 2922 0b3b 079c 3abc
00000080: 7a53 a2bd 796e 18bd 3db3 913d 1e28 253d
00000090: 5d44 22bd 4909 a9bd 7fdc 913d 75b1 4dba
000000a0: 8ef9 653d 41ad a53c 3bfb a43d 5cfa e23c
000000b0: c30e 64bd 92cd 90bc 92aa 723d 32d1 e0bb
000000c0: 2861 503c f8ab f03b 0f3a a6bd 08c3 f6bc
000000d0: 7853 44bd 65fa 29bd 753a 95bd 2115 a4bc
000000e0: d882 533d 5e27 adbd 7eb8 8cbd 70e7 53bd
000000f0: 552f 953d 43d0 f43b 042b cb3c 69ba 633d
-0.060815882 0.010191099 -0.023510572 0.086153276 0.044155635 0.054624073 -0.007041776 0.0076328814
0.020554492 -0.0870004 0.06481899 0.07174527 0.05523534 -0.076032236 -0.04791333 0.03414786
0.03170031 -0.079654984 -0.010501966 0.015580416 0.030847937 -0.048959777 0.03857163 0.010329908
-0.037524696 0.07831645 -0.05906994 0.06178489 -0.002027893 -0.010937855 0.0021230078 -0.011389739
-0.07926078 -0.03721473 0.07114265 0.04032146 -0.039615978 -0.08253724 0.071221344 -0.00078465726
0.056146197 0.020224215 0.08055731 0.027707271 -0.05567814 -0.017676149 0.0592447 -0.0068608755
0.012718476 0.007344719 -0.081165425 -0.030122295 -0.047931165 -0.04149856 -0.072865404 -0.020029606
0.051638454 -0.08454774 -0.068711266 -0.051734388 0.072844185 0.007471116 0.024800785 0.055597696

fc2.weight f4 [1, 64]
00000000: 435a 9d3d 1c20 9fbd 959f a03d 67cd a9bd
00000010: aef1 963d 151a e7bd aacb 203c 6898 873c
00000020: 6c5d 973d c56d 88bd 09e8 a6bb 5467 6c3d
00000030: 1d0f f2bd 7657 d83d a272 883c 8676 04bd
00000040: 9c71 33bc 2123 b03c bfef bf3d de98 d2bd
00000050: 4f09 703d 1781 b2bd 56d8 6bbc 785f 803d
00000060: 94ea 1bbd 3a65 09bd 15ab 9d3d 43d9 a63c
00000070: 87a0 913d 04a8 993d 41bc 063d 5517 9b3d
00000080: c06b a73b d6bb 273d 20fe 6ebd 9c7e 9ebd
00000090: 5990 37bd 2d20 92bd 97b5 a7bd f51d ce3d
000000a0: bbe7 e1bd cc85 8f3c 2c97 9e3d ce1e d33d
000000b0: 1b40 c63d 1559 7c3d 8cd9 15bd 39d5 d4bc
000000c0: 0357 babc 03d5 70bd 2220 31bd 8318 d03d
000000d0: 0207 99bd 9f57 e5ba 4681 a6bc 8c79 953d
000000e0: 6d0b e63d 30bf 67bc 606a 593d 3170 07bd
000000f0: 0bfc a73d d8e6 c9bd f0d3 47bd 8de1 973d
0.07683232 -0.07769796 0.07842938 -0.082911305 0.073703155 -0.11284272 0.009814182 0.016552165
0.07390866 -0.06661562 -0.0050935787 0.05771573 -0.11819289 0.10563557 0.016656224 -0.032339595
-0.01095238 0.021501126 0.093719 -0.10283063 0.058602627 -0.08716028 -0.01439484 0.06268209
-0.038065508 -0.033543803 0.07698647 0.02036727 0.07110696 0.075027496 0.032894377 0.075728096
0.0051092803 0.04095062 -0.05834782 -0.077389926 -0.044815395 -0.07135043 -0.081889324 0.100643076
-0.11030527 0.017519854 0.077436775 0.1030861 0.09680196 0.061608393 -0.036584422 -0.025980579
-0.022746569 -0.058796894 -0.043243535 0.10160925 -0.0747204 -0.0017497427 -0.020325314 0.07298574
0.11232648 -0.014144704 0.053079963 -0.03306598 0.0820237 -0.09858483 -0.048786104 0.07416067
