assets/model/phrase009_speech_model.pth (torch, 145844 bytes, 7 tensors)

conv1.weight f4 [64, 13, 3]
0	0x3dc50597	0.09620207
1	0xbdbcca0f	-0.09218227
2	0x3d5795f9	0.05263326
3	0x3b1c1952	0.0023818803
4	0x3e1b3d22	0.15160039
5	0x3d1b6272	0.03793568
6	0xbc44728f	-0.0119902035
7	0x3d9dd176	0.07705967
8	0x3de8e10b	0.113710485
9	0x3e0dcb9a	0.13847199
10	0x3da273d8	0.07932252
11	0xbd0996ec	-0.033591196
12	0x3de3c90e	0.111223325
13	0x3da9ae0e	0.082851514
14	0xbd2bddbf	-0.04195952
15	0xbe1987df	-0.14993237
16	0x3d9b631f	0.07587265
17	0xbc2f02c3	-0.010681811
18	0xbd49e5bc	-0.049291357
19	0x3dbb9e06	0.09161
20	0x3d222da2	0.0395943
21	0xbe1b9736	-0.15194401
22	0xbd97fc8b	-0.074212156
23	0x3d59971e	0.053122632
24	0x3c29f3cc	0.010373067
25	0x3e146f25	0.14495523
26	0x3da71e9e	0.08160137
27	0x3dbd7a4c	0.09251842
28	0x3e1ad60f	0.1512072
29	0x3e1e6b29	0.15470566
30	0xbe0212d9	-0.12702502
31	0xbcc5d001	-0.024147036
32	0xbe0a3598	-0.13497007
33	0x3d07e213	0.033174586
34	0x3d47249d	0.0486189
35	0xbdcd0aa3	-0.100117944
36	0xbdedd967	-0.11613732
37	0x3d928ac6	0.07155375
38	0x3dab2605	0.08356861
39	0xbd2ef691	-0.042715613
40	0xbd99c48c	-0.075081915
41	0x3de20f69	0.110380955
42	0x3e226545	0.15858944
43	0xbdf7cc7b	-0.120995484
44	0x3d98ea19	0.074665256
45	0xba8da2a2	-0.0010805915
46	0x3dedb987	0.11607652
47	0xbc5fe4f0	-0.013665423
48	0xbd945dd8	-0.07244462
49	0x3e0b05e9	0.13576473
50	0xbdf377b3	-0.11888065
51	0xbde7417c	-0.11291787
52	0x3d54029b	0.051760297
53	0x3c4d32f5	0.012524356
54	0x3db61ee9	0.088926144
55	0xbda9fcad	-0.08300147
56	0xbe02d7d1	-0.1277764
57	0xbc61a1ae	-0.013771458
58	0x3d245dab	0.04012839
59	0xbe1dece0	-0.15422392
60	0xbe01bef2	-0.12670496
61	0x3e1657c2	0.14681914
62	0xbdad8e88	-0.08474451
63	0xbd95c658	-0.07313222
64	0xbe1aa618	-0.15102422
65	0xbde3d602	-0.11124803
66	0xbd6f8e67	-0.058485415
67	0x3da1b9b1	0.07896746
68	0x3dde87ce	0.108657464
69	0xbdbdecd4	-0.09273687
70	0x3dd55972	0.10417451
71	0x3dedc55d	0.1160991
72	0xbe02fdb6	-0.12792096
73	0x3cf06b80	0.029348135
74	0x3de7d610	0.11320126
75	0x3ddff713	0.109357975
76	0xbd23fa21	-0.040033463
77	0x3e1dea70	0.15421462
78	0x3da464e9	0.080270596
79	0xbd8bcebd	-0.068265416
80	0x3dd0a3b5	0.10187475
81	0xbdf56200	-0.11981583
82	0xbbde3ad0	-0.0067819133
83	0xbd92ce4b	-0.071682535
84	0xbdd4e1bf	-0.1039462
85	0xbbd85bfa	-0.0066027613
86	0xbd2e1143	-0.04249693
87	0xbd3ac537	-0.045598235
88	0xbdcdb38a	-0.1004401
89	0x3d8dc55e	0.069224104
90	0xbdcb8a50	-0.099384904
91	0xbe143e30	-0.14476848
92	0xbe16b49a	-0.14717332
93	0x3d29a2ee	0.041415147
94	0x3d85c548	0.06531769
95	0x3e103435	0.14082415
96	0xbdada639	-0.0847897
97	0x3d93443b	0.07190748
98	0xbdc73df9	-0.09728617
99	0xbd91cb9e	-0.07118915
100	0x3d955252	0.07291092
101	0x3e163015	0.1466678
102	0xbd647ee9	-0.055785093
103	0x3d29183c	0.041282877
104	0x3de74981	0.11293317
105	0xbe1f6b58	-0.15568292
106	0x3dc6f863	0.09715345
107	0x3db79249	0.089634486
108	0x3b78aef3	0.0037946075
109	0x3d24ab37	0.040202346
110	0x3d7eb106	0.06218054
111	0x3d0b4643	0.034002554
112	0xbd9b7763	-0.075911306
113	0x3daba090	0.08380234
114	0x3e0002ec	0.12501115
115	0x3cdfa296	0.027299207
116	0xbd2cc384	-0.042178646
117	0xbe1934de	-0.14961573
118	0x3ccb6eb0	0.024833053
119	0x3ddb7bba	0.10716958
120	0x3ded08ba	0.1157393
121	0x3d9e55fd	0.07731245
122	0x3ca681bf	0.02032554
123	0x3df3f7c6	0.119124934
124	0x3e17e16c	0.14832085
125	0xbe1cd1c6	-0.15314397
126	0xbd5564f8	-0.052098244
127	0x3e01fe37	0.12694632
128	0x3d958232	0.073002234
129	0x3ddceb86	0.1078711
130	0x3e056107	0.13025294
131	0x3ae4de40	0.0017461255
132	0x3d180a15	0.03711899
133	0x3dbbe206	0.0917397
134	0x3c5f00be	0.013611017
135	0x3c7720a3	0.015083465
136	0x3dd519b8	0.10405296
137	0x3d7adab6	0.061243735
138	0xbcc2c791	-0.023776801
139	0x3db6c40e	0.08924113
140	0xbd83ef59	-0.06442136
141	0xbe16c98e	-0.14725325
142	0x3cb33652	0.021876488
143	0xbe0e4dcf	-0.13896869
144	0x3e1c0ea2	0.15239957
145	0x3de6870e	0.112562284
146	0xbdbafba0	-0.09130025
147	0x3db9776c	0.09055981
148	0x3e225a33	0.15854721
149	0xbde12b51	-0.1099459
150	0xbe1ff851	-0.15622069
151	0x3def71d4	0.11691633
152	0x3c3e14bd	0.011601624
153	0x3cb6b5b1	0.022303434
154	0xbd416e2f	-0.04722422
155	0xbaa7cce3	-0.001280215
156	0x3d8d4536	0.068979666
157	0xbd783a6a	-0.060602583
158	0xbdca02a0	-0.09863782
159	0x3dbd0fff	0.09231567
160	0x3d06ca07	0.032907512
161	0xbc080c40	-0.008303702
162	0xbdcc2335	-0.09967653
163	0x3dc92a9f	0.098225825
164	0xbca8e9a0	-0.020619214
165	0x3ddc0b2f	0.107443206
166	0xbe15e4c2	-0.14638045
167	0xbdff0ee3	-0.12454011
168	0x3d927d2e	0.071527824
169	0xbd1c3559	-0.038136814
170	0xbb4203a2	-0.0029604216
171	0xbd443f62	-0.04791201
172	0xbbbc73c2	-0.005751104
173	0xbd5bab55	-0.05363019
174	0x3d2ab7e2	0.04167927
175	0x3d478442	0.048710115
176	0xbdedbc4b	-0.1160818
177	0x3d932030	0.07183874
178	0xbe001409	-0.12507643
179	0x3b0d89ac	0.0021596951
180	0x3e0c7f2e	0.1372039
181	0xbe0cbcf2	-0.13743952
182	0xbd7d8c45	-0.06190135
183	0x3e1b3c1d	0.1515965
184	0xbddbef7a	-0.10739036
185	0xbe1b1355	-0.15144093
186	0xbdfae34c	-0.12250385
187	0x3d553431	0.052051727
188	0xbcce0fc7	-0.025154008
189	0xbced537e	-0.028970476
190	0x3dca0bac	0.098655075
191	0xbdaf4b80	-0.08559322
192	0x3d3e34bb	0.046437006
193	0x3c98608a	0.01860072
194	0x3dd705f3	0.104991816
195	0x3d4d7056	0.05015596
196	0xbca599fb	-0.020215025
197	0xbd6947d7	-0.056953277
198	0xbda9f9f5	-0.08299629
199	0xbded0454	-0.11573091
200	0x3df2ef21	0.118620165
201	0x3d8d7224	0.06906536
202	0x3e0fe4e1	0.14052154
203	0x3d20a4d3	0.03921969
204	0xbded2789	-0.11579806
205	0xbd3af454	-0.045643166
206	0x3becda3d	0.0072281645
207	0xbde219f0	-0.110401034
208	0xbe0a03cc	-0.13478011
209	0xbe12d6f5	-0.14339812
210	0xbe05eedb	-0.13079397
211	0x3db6fc1c	0.08934805
212	0xbd7eae2b	-0.06217782
213	0x3c8df474	0.017328478
214	0x3e21cf4a	0.15801731
215	0xbd22a26f	-0.03970569
216	0x3e16c838	0.14724815
217	0x3d4cc132	0.049988933
218	0xbde9540c	-0.11392984
219	0xbe0567ee	-0.13027927
220	0xbde82611	-0.113353856
221	0xbdec5eb0	-0.11541498
222	0xbde68679	-0.112561174
223	0x3cddd490	0.027078897
224	0x3d96accc	0.07357177
225	0x3d066b4d	0.032817174
226	0xbba875ea	-0.0051410096
227	0x3dc2396d	0.09483609
228	0xbd2118d4	-0.03933032
229	0x3d5d1bb7	0.05398151
230	0xbdade636	-0.08491175
231	0xbe01abaa	-0.12663141
232	0x3d3dd1b2	0.04634256
233	0xbd914663	-0.07093503
234	0x3ce072d1	0.027398499
235	0x3dfa4c8b	0.12221631
236	0xbe10902c	-0.14117497
237	0xbe127140	-0.14301014
238	0x3d944406	0.07239537
239	0xbda52a35	-0.08064691
240	0xbe0cfb61	-0.13767768
241	0x3d478bfc	0.048717484
242	0xbdacb3ba	-0.084327176
243	0xbde1431f	-0.109991305
244	0x3d2f8e88	0.042860538
245	0x3d7fbd9b	0.06243668
246	0xbdd98f23	-0.10623004
247	0x3dc8a4be	0.09797047
248	0x3d9662ac	0.07343039
249	0x3df2a884	0.11848548
250	0x3d4b8c5c	0.049694404
251	0x3de93a01	0.113880165
252	0xbda6d3e0	-0.08145881
253	0x3baf7084	0.005353989
254	0xbe13d51a	-0.1443676
255	0xbd9ad987	-0.07561021

conv1.bias f4 [64]
0	0x3d2c944a	0.042133607
1	0xbe0c59aa	-0.13706079
2	0x3d808cb6	0.062768385
3	0xbe1bc74e	-0.15212747
4	0xbe1d1a62	-0.15342095
5	0x3d02c0a8	0.031922013
6	0xbe0986ba	-0.134303
7	0xbdeabb01	-0.114614494
8	0xbd2bb714	-0.041922644
9	0x3dbd8c69	0.09255297
10	0x3d08c786	0.033393405
11	0xbd3c44b8	-0.045963973
12	0x3d5a3c97	0.05328044
13	0x3de5de5a	0.11224051
14	0x3d448198	0.047975153
15	0xbdd00e91	-0.10159028
16	0xbd51d2e6	-0.05122652
17	0x3d4db932	0.050225444
18	0x3d5366df	0.051611777
19	0xbd86b199	-0.06576843
20	0x3e1c014b	0.15234868
21	0x3e030deb	0.12798278
22	0x3bad0244	0.005279811
23	0x3dd0ce29	0.10195572
24	0x3c16e30e	0.0092094075
25	0x3dd8e4d2	0.10590519
26	0x3dd4f69d	0.103986
27	0xbe08a1d0	-0.13342977
28	0xbd28b199	-0.041184995
29	0xbda71b60	-0.08159518
30	0x3d65ab2c	0.056071445
31	0x3dff11b1	0.12454546
32	0x3dc75684	0.097332984
33	0xbd959296	-0.0730335
34	0x3d60afcc	0.054855153
35	0xbd95fe9d	-0.07323954
36	0xbe188224	-0.14893395
37	0xbc4144f5	-0.011796226
38	0x3db9b9bf	0.090686314
39	0x3d366d5f	0.0445379
40	0x3da86c58	0.0822379
41	0x3da99c50	0.08281767
42	0xbe04eff9	-0.12982167
43	0x3ddab29c	0.10678598
44	0xbe0119d6	-0.12607512
45	0xbd9efe17	-0.077633075
46	0x3d199edc	0.037505016
47	0x3db8e44d	0.0902792
48	0x3e0b7945	0.1362048
49	0x3b0e1e08	0.002168538
50	0xbd591a5f	-0.053003665
51	0xbd4adcd5	-0.049527008
52	0x3dffb1b4	0.12485066
53	0xbe085698	-0.13314283
54	0xbd74f6e8	-0.05980578
55	0xbd2ca4d0	-0.042149365
56	0xbe118acc	-0.14213103
57	0x3e0e91b9	0.13922776
58	0xbd9ac583	-0.075572036
59	0x3d9cfd0f	0.076654546
60	0x3dbd916d	0.092562534
61	0xbd589a68	-0.05288163
62	0xbdcd5250	-0.100254655
63	0x3db85f69	0.09002573

conv2.weight f4 [128, 64, 3]
0	0x3ccd981b	0.025096944
1	0x3b21b936	0.0024677045
2	0x3bc8c68b	0.006127184
3	0x3cabfc19	0.020994233
4	0x3ce409ed	0.027836764
5	0x3d491a87	0.049097564
6	0x3d883c8b	0.06652173
7	0xbd37069d	-0.04468404
8	0xbc6b6f12	-0.014369743
9	0x3cce689c	0.025196366
10	0x3d5a7241	0.053331617
11	0xbafce6c4	-0.0019294848
12	0x3d41edde	0.04734599
13	0xbbc2ac53	-0.005940953
14	0x3d907d7d	0.07055185
15	0x3d28face	0.04125481
16	0xbd095652	-0.033529587
17	0x3c164938	0.00917273
18	0xbcce60b2	-0.025192592
19	0x3d486874	0.04892774
20	0x3d0e6cc3	0.034771692
21	0x3cadcceb	0.021215877
22	0x3b84f736	0.00405779
23	0x3cb3267e	0.02186894
24	0xbce18b96	-0.02753238
25	0x3d98c901	0.074602135
26	0xbc73a11d	-0.014869955
27	0xbd079df0	-0.033109605
28	0xbd7f39a0	-0.062310815
29	0xbcb958f5	-0.022625426
30	0xbd916dc9	-0.07101018
31	0x3c9861cd	0.018601323
32	0x3d7231d8	0.059129566
33	0x3d86edd6	0.06588332
34	0x3d174cd6	0.03693851
35	0x3c4dd625	0.012563263
36	0x3d07b5f6	0.033132516
37	0xbd833c57	-0.06407993
38	0xbc37e5cc	-0.011224221
39	0x3d2382d0	0.039919674
40	0x3c013d52	0.007888155
41	0x3c266ad8	0.0101573095
42	0xbd13a82a	-0.036049046
43	0x3d2129de	0.03934657
44	0xbca0846f	-0.0195944
45	0x3ccec113	0.02523855
46	0x3d0db2ea	0.034594454
47	0x3c00cd9e	0.007861523
48	0x3c3c9743	0.011510673
49	0xbd7f5324	-0.06233515
50	0xbce01de5	-0.027358005
51	0xbd65340f	-0.05595785
52	0x3d810dd3	0.06301465
53	0xbcc0a61c	-0.023516707
54	0xbc938253	-0.01800648
55	0x3ac89549	0.001530328
56	0xbd454f2f	-0.04817122
57	0x3d6fa610	0.05850798
58	0x3ccefa99	0.025265979
59	0x3d33b69f	0.043875333
60	0x3d234ec5	0.039870042
61	0x3cad0cb2	0.021124218
62	0xbd5a4924	-0.05329241
63	0xbc0d66cd	-0.008630467
64	0xbd12b014	-0.035812452
65	0x3d11be31	0.03558177
66	0xbd132926	-0.035927914
67	0x3d05b5eb	0.032644194
68	0x3d238979	0.039926026
69	0xbca26f16	-0.01982836
70	0xbd039774	-0.03212686
71	0xbd6e3223	-0.058153283
72	0x3c2d323d	0.01057106
73	0x3d2047f9	0.03913114
74	0x3bdac01f	0.0066757347
75	0xbba5f9c8	-0.0050651766
76	0x3d895f78	0.06707662
77	0x3d5001ec	0.050783083
78	0xbd5321d5	-0.051545937
79	0xbd5eed54	-0.054425552
80	0x3d513324	0.051074162
81	0xbc9fc080	-0.01950097
82	0x3b9b6c34	0.0047431234
83	0x3d0d812a	0.03454701
84	0xbc7a78a5	-0.015287553
85	0xbd032b71	-0.03202385
86	0x38235be0	3.8947794e-05
87	0x3d3a4654	0.045477226
88	0x3c6a3782	0.014295461
89	0xbca6324c	-0.020287655
90	0xbd692243	-0.05691744
91	0x3d7f5fb4	0.06234713
92	0x3d65d818	0.056114286
93	0xbd296988	-0.041360408
94	0xbd7c5bcd	-0.061610986
95	0xbd12688b	-0.03574423
96	0x3d1bacd8	0.038006634
97	0x3c2a7263	0.0104032485
98	0xbce54d5b	-0.027990988
99	0xbc838f7b	-0.016059628
100	0xbc79bca3	-0.015242728
101	0xbc733d5f	-0.014846175
102	0x3d071dcd	0.032987405
103	0xbba0559b	-0.0048930175
104	0x3bc76652	0.0060851956
105	0xbc262164	-0.010139797
106	0xbd64be45	-0.055845518
107	0xbd7acb33	-0.061228942
108	0x3baa1c63	0.0051913722
109	0x3d81d32b	0.06339105
110	0x3d3e62d4	0.04648097
111	0x3d8d2706	0.06892209
112	0xbd189141	-0.0372479
113	0x3d4af7b5	0.049552638
114	0x3d5e6e87	0.054304626
115	0xbbcd24e1	-0.0062605
116	0xbd609103	-0.054825794
117	0xba96c429	-0.0011502552
118	0xbd54a6cc	-0.051916882
119	0x3d69ca42	0.057077654
120	0x3bea2952	0.007146039
121	0xbd616506	-0.055027984
122	0x3cbf3a80	0.023343325
123	0xbcd846db	-0.026400974
124	0xbcfd0c13	-0.030889546
125	0x3da04e2a	0.078274086
126	0xbc469b5a	-0.012122
127	0x3d436939	0.04770777
128	0x3d870264	0.06592253
129	0xbcd551f4	-0.026040055
130	0xbc61470c	-0.013749849
131	0xbd3e5210	-0.04646498
132	0xbc2e6979	-0.010645264
133	0xbce6f6ee	-0.028193917
134	0xbd282d40	-0.04105878
135	0x3c6ae409	0.014336594
136	0xbd596ddd	-0.05308329
137	0x3d88e803	0.06684878
138	0x3cdf3548	0.027247086
139	0x3cd13659	0.02553861
140	0x3d4244f0	0.047429025
141	0x3d85868a	0.06519802
142	0xbd6ac804	-0.057319656
143	0x3d89e7fa	0.06733699
144	0xbd5e7b15	-0.0543166
145	0x3c7c2be2	0.015391322
146	0xbd4711b0	-0.048600852
147	0x3d8dba5c	0.06920311
148	0xbb724944	-0.003696994
149	0xbb4c1ea3	-0.003114619
150	0xbd4b68a6	-0.049660347
151	0x3d7013e4	0.05861272
152	0x3d41a76a	0.0472788
153	0x3d661b31	0.056178275
154	0xbd254d40	-0.040356874
155	0x3d851870	0.06498802
156	0x3d65a9c8	0.05607012
157	0xbcd685a5	-0.026186774
158	0x3d826fdb	0.06368991
159	0x3d595091	0.05305535
160	0xbcc6c20d	-0.024262452
161	0xbc10f9c0	-0.008848608
162	0xbd609c65	-0.05483665
163	0x3d82f169	0.063937016
164	0x3d2d89ee	0.042367868
165	0xbccf12c5	-0.025277505
166	0xbd3d2ae6	-0.04618349
167	0x3a1ee587	0.0006061424
168	0xbcbf3bc2	-0.023343924
169	0xbd7b440e	-0.0613442
170	0x3d54858e	0.05188518
171	0x3d175df5	0.03695484
172	0xbc0b4354	-0.008499939
173	0x3d8498f7	0.06474488
174	0x3caa248c	0.02076938
175	0xbcb28307	-0.021790994
176	0x3d2d37a0	0.042289376
177	0xbd432e6d	-0.047651697
178	0xbd8f1802	-0.06987001
179	0x3d84573c	0.06461951
180	0x3d748cb6	0.059704505
181	0x3c3ebc98	0.011641644
182	0x3cdfbe27	0.027312351
183	0x3cefcda3	0.02927286
184	0xbc60947d	-0.013707277
185	0xbb161818	-0.0022902545
186	0x3d8b5563	0.068033956
187	0xbd50f48a	-0.05101446
188	0x3d852ac4	0.065022975
189	0x3d1125cb	0.035436433
190	0x3d641f31	0.05569381
191	0xbd09575b	-0.033530574
192	0xbc9397c8	-0.01801671
193	0x3d340dda	0.043958522
194	0x3a84805d	0.0010109056
195	0x3c64a020	0.013954192
196	0xbcff76bc	-0.031184547
197	0xbd8c2e94	-0.068448216
198	0xbd8020e9	-0.06256277
199	0xbd501401	-0.050800327
200	0x3d054700	0.032538414
201	0x3d2a8e38	0.041639537
202	0x3ca3e381	0.020005943
203	0x3c8feef4	0.017569996
204	0xbcd362cd	-0.025803948
205	0x3d2beb74	0.041972592
206	0xb9b5cde6	-0.00034676417
207	0x3d71ed3a	0.059064128
208	0x3d64fa1f	0.055902597
209	0xbcda2e13	-0.026633298
210	0x3d734b8c	0.05939822
211	0xbd992414	-0.074775845
212	0x3d27453e	0.04083752
213	0xbd4be3bc	-0.04977773
214	0x3cf72b3b	0.030171981
215	0xbd724b05	-0.059153575
216	0x3cf20b21	0.029546322
217	0xbd8e010b	-0.06933793
218	0xbca6404f	-0.020294337
219	0xbca104f3	-0.01965568
220	0x3ce7540b	0.028238317
221	0xbc2012fc	-0.009770151
222	0x3d2fe17d	0.04293965
223	0xbd25cf7e	-0.040481083
224	0x3d0bdb5c	0.034144744
225	0x3cbc6b19	0.023000287
226	0x3cd15cc2	0.025556926
227	0xbd2a3d0a	-0.041562118
228	0x3d473368	0.04863301
229	0x3d282c92	0.04105813
230	0xbd3eca3e	-0.046579592
231	0xbcf392fc	-0.029733174
232	0x3d3e6a4b	0.046488088
233	0x3d9bc52c	0.07605967
234	0x3d660b05	0.056162853
235	0xbd7c79a1	-0.061639432
236	0x3cbcc6b8	0.023043975
237	0x3c5542bf	0.013016402
238	0x3cc9032b	0.024537643
239	0x3c1a3d10	0.0094139725
240	0xbd26788a	-0.0406423
241	0xbd75be6b	-0.05999605
242	0xbcc8468c	-0.024447702
243	0xbd78f95c	-0.060784683
244	0xbd32ef94	-0.04368551
245	0x3d836674	0.06416026
246	0x3cf451e9	0.029824214
247	0xbd587385	-0.052844543
248	0x3b536482	0.0032255952
249	0xbd420a74	-0.04737325
250	0xbb0f85a4	-0.0021899724
251	0x3c8fb9b0	0.017544597
252	0x3c583ca4	0.013198052
253	0xbd0b4b33	-0.034007262
254	0xbd8de19c	-0.06927797
255	0xbcea5a80	-0.028607607

conv2.bias f4 [128]
0	0x3d91ab75	0.07112781
1	0xbd5cfe97	-0.053953733
2	0x3d2d30c9	0.042282853
3	0x3d25d813	0.040489268
4	0xbca8247d	-0.020525211
5	0xbd8fb6ec	-0.070173115
6	0xbd780809	-0.060554538
7	0x3d72e052	0.05929596
8	0x3cb1012e	0.021607008
9	0xbca7459b	-0.020418933
10	0xbd355d02	-0.044278152
11	0x3c73cca2	0.014880331
12	0x3d084517	0.033269014
13	0xbccf5532	-0.025309179
14	0xbc454b3f	-0.012041866
15	0x3d4a3312	0.04936511
16	0xbc7296af	-0.014806434
17	0xbcf7504d	-0.030189658
18	0x3b711220	0.0036784485
19	0xbd612db8	-0.05497524
20	0xbd98f269	-0.07468111
21	0x3a876d27	0.0010332213
22	0x3d4e61c8	0.05038622
23	0xbd883b82	-0.06651975
24	0x3d813e63	0.063107274
25	0x3d549dda	0.05190835
26	0xbd84e46e	-0.06488882
27	0x3cdc0288	0.026856676
28	0xbd69b499	-0.057056997
29	0x3d81949f	0.06327175
30	0x3c6369a6	0.013880169
31	0x3d368051	0.044555966
32	0xba01eec1	-0.00049565366
33	0x3ba7324a	0.0051024305
34	0x3d0b450a	0.034001388
35	0x39a3fb30	0.00031276932
36	0x3c817fb5	0.015807966
37	0xbbc3de85	-0.005977454
38	0xbd7f2b73	-0.062297296
39	0xbcada2f2	-0.021195862
40	0x3cb0abe5	0.02156634
41	0x3d2f22b4	0.042757705
42	0xbd0c0fce	-0.03419476
43	0x3cbeeb93	0.02330569
44	0x3cea60ec	0.02861067
45	0x3b1378c1	0.0022502395
46	0x3d6615a8	0.056172997
47	0x3ba9b6b5	0.005179251
48	0x3d8a74b9	0.06760544
49	0xba69a695	-0.0008913067
50	0xbd1c452d	-0.03815191
51	0xbd10f446	-0.035389207
52	0x3cbe8c40	0.023260236
53	0xbc960942	-0.018314961
54	0xbd1febe5	-0.039043326
55	0x3d8f612e	0.070009574
56	0x3bccb277	0.0062468606
57	0x3c13f97a	0.009031648
58	0x3ae955d5	0.0017802069
59	0x3d74a59a	0.059728242
60	0x3c34ea4c	0.011042189
61	0xbc580044	-0.013183657
62	0xbc9868ca	-0.018604655
63	0x3d2921fc	0.041292176
64	0x3d3553bf	0.04426932
65	0x3b5473da	0.0032417686
66	0x3bcbef49	0.0062235934
67	0xbc9f2f1c	-0.019431643
68	0xbd537530	-0.05162543
69	0x3d12e42f	0.035862144
70	0xbcda1ac1	-0.026624085
71	0xbd522ff8	-0.051315278
72	0xbd9a2835	-0.075272
73	0x3b3dc79d	0.002895809
74	0xbd5f2b58	-0.054484695
75	0xbd2c5ec5	-0.042082567
76	0xbccec37b	-0.025239697
77	0xbd585b22	-0.052821286
78	0xbd65004a	-0.05590848
79	0xbd31cc87	-0.043407943
80	0x3c866c18	0.016408965
81	0xbd71b17f	-0.059007164
82	0xbd77e74e	-0.060523324
83	0x3b4ff2d7	0.0031730437
84	0x3c7a0a6d	0.015261275
85	0x3a9abdca	0.0011805829
86	0x3d0ea1cc	0.03482227
87	0xbd76e1b6	-0.06027385
88	0xbd8d7d62	-0.069086805
89	0xbd051a4d	-0.032495786
90	0x3d1abea3	0.03777946
91	0xbd9b3df2	-0.075801745
92	0xbd85bf32	-0.06530608
93	0x3d8f444c	0.069954485
94	0x3cd14c6e	0.02554914
95	0xbd60b905	-0.05486395
96	0x3d39dae4	0.045374766
97	0xbc2206ed	-0.009889347
98	0x3d8b8011	0.06811536
99	0xbcb617b3	-0.022228098
100	0x3d06c171	0.032899324
101	0xbd8519a7	-0.064990334
102	0xbd03a9ad	-0.032144237
103	0x3d917f5e	0.071043715
104	0x3d51be1d	0.051206697
105	0x3d2126d5	0.039343674
106	0x3d511c43	0.051052343
107	0xbd344930	-0.04401511
108	0xbc807a9e	-0.015683468
109	0xbc9ac6d0	-0.01889363
110	0xbd134e86	-0.035963558
111	0xbc6ccfa5	-0.014453803
112	0xbcd8be1f	-0.026457844
113	0xbd91a1df	-0.071109526
114	0xbd7f98d8	-0.062401623
115	0xbd3c6b29	-0.046000633
116	0xbd38c875	-0.045113046
117	0x3d7960f8	0.060883492
118	0x3d568534	0.052373126
119	0xbd4665f3	-0.04843707
120	0xbcd97c03	-0.026548391
121	0xbc9a7fde	-0.0188598
122	0x3d92f8a6	0.07176332
123	0x3cd66a7c	0.026173823
124	0xbc299f0b	-0.01035286
125	0xbb7abf5a	-0.0038261027
126	0x3d6476f2	0.055777498
127	0xbb1722e6	-0.0023061573

fc1.weight f4 [64, 128]
0	0x3d669bf5	0.056301076
1	0x3dd25352	0.10269798
2	0x3d9eef34	0.07760468
3	0x3d730a76	0.05933615
4	0x3db14dfb	0.08657452
5	0xbcc6f20e	-0.024285343
6	0x3d1cd1f0	0.03828615
7	0x3cadcb8e	0.021215227
8	0xbd75eb3f	-0.0600388
9	0x3db25608	0.087078154
10	0x3d0415b8	0.032247275
11	0xbc30483f	-0.010759412
12	0x3cc9881c	0.024601035
13	0xbafdb976	-0.001935764
14	0x3d1e21e9	0.038606558
15	0xbdec4a96	-0.11537664
16	0x3d696e9e	0.05699026
17	0xbcb5c919	-0.022190617
18	0xbda39666	-0.079876706
19	0xbde72be3	-0.112876676
20	0xbd19263e	-0.037389986
21	0x3a4cb71c	0.0007809268
22	0xbd65b3e0	-0.056079745
23	0x3d8c08bc	0.068376034
24	0x3a981f12	0.0011605939
25	0x3c1ca789	0.009561428
26	0x3c7b1a08	0.015326031
27	0x3d50defd	0.05099391
28	0xbd01da48	-0.03170231
29	0x3d890b09	0.06691558
30	0x3d917592	0.07102503
31	0xbcc1835a	-0.023622204
32	0xbd5a665c	-0.053320274
33	0x3cb2c7e2	0.021823827
34	0xbd83a969	-0.06428797
35	0xbd41b717	-0.04729375
36	0xbd865c36	-0.065605566
37	0xbd8780c8	-0.0661636
38	0xbd086432	-0.03329868
39	0xbcd090b6	-0.025459629
40	0xbd4f86da	-0.050665714
41	0x3d75abce	0.0599783
42	0xbcb32b12	-0.021871123
43	0x3d9760b3	0.07391491
44	0xbd431378	-0.04762599
45	0xbc10b98a	-0.008833298
46	0xbcbc8d42	-0.023016576
47	0x3b8fcb7c	0.004388271
48	0xbd4fdff8	-0.050750703
49	0x3dd2e4d3	0.10297551
50	0xbd75a223	-0.05996908
51	0x3d3b60b1	0.04574651
52	0x3bc8fa2a	0.0061333375
53	0x3d5eded4	0.054411724
54	0xbcb18354	-0.021669067
55	0x3d30b4a8	0.043141037
56	0x3d145b45	0.036219854
57	0xbd8a1f13	-0.06744208
58	0x3d0d9604	0.034566894
59	0x3d944de1	0.07241417
60	0x3d91480a	0.070938185
61	0x3cb91791	0.022594245
62	0x3d2070a9	0.03916994
63	0x3cba2e43	0.022727137
64	0xbd83c513	-0.06434073
65	0x3d79dea7	0.061003353
66	0xbd9ca204	-0.076480895
67	0x3d998c01	0.07497407
68	0x3c402dad	0.01172964
69	0x3db6ae4e	0.08919965
70	0x3d343756	0.043998085
71	0xbd4e610d	-0.050385524
72	0xbd8d0f99	-0.06887741
73	0xba91ce83	-0.0011124167
74	0x3d65fdbf	0.056150194
75	0xbd076113	-0.03305156
76	0x3d117b6f	0.035518106
77	0xbd36d9a1	-0.04464114
78	0x3ab7f3cf	0.0014034453
79	0xbdb271b5	-0.08713094
80	0x3cbfe15c	0.02342289
81	0x3bc84e5d	0.0061128573
82	0x3d98112c	0.0742515
83	0xbdb01064	-0.08596876
84	0xbc2340ef	-0.009964212
85	0x3d93237a	0.07184501
86	0x3d94884a	0.072525576
87	0xbd2d1d34	-0.04226418
88	0xbc6f1079	-0.01459133
89	0x3d9eb1d2	0.0774876
90	0xbc5e6fea	-0.013576487
91	0x3d02b0ab	0.031906765
92	0xbdc8e60e	-0.098095044
93	0xbb9dc4fb	-0.0048147417
94	0xbd4a3576	-0.04936739
95	0xbdcbd89b	-0.099534236
96	0xbdf50589	-0.11963946
97	0xbd6a2ff0	-0.057174623
98	0xbd5ea41d	-0.05435573
99	0x3be0bf90	0.0068587735
100	0xbda5cc18	-0.080955684
101	0xbc66fd41	-0.014098466
102	0x3a5b82ed	0.00083736965
103	0x3d898dcb	0.06716498
104	0xbdf0b69e	-0.117535815
105	0x3c9e3ec8	0.019317046
106	0x3ad8bf31	0.0016536472
107	0x3cd82f3d	0.026389712
108	0x3d145a0b	0.036218684
109	0xba0681fa	-0.00051310624
110	0xbc87b13c	-0.016564004
111	0x3c5f48c8	0.013628192
112	0x3c5c7898	0.013456486
113	0xbd091609	-0.03346828
114	0xbd07f15d	-0.033189166
115	0xbd28674d	-0.04111414
116	0xbda574ec	-0.08078942
117	0xbcaaee19	-0.020865487
118	0xbb953a3b	-0.0045540608
119	0x3d2b7d4e	0.041867547
120	0xbcb3e972	-0.021961901
121	0x3d5be5fa	0.05368612
122	0xbd4a8d38	-0.049451083
123	0xbdacdd83	-0.084406875
124	0xbc6289ba	-0.013826782
125	0xbcf99acf	-0.030469326
126	0x3c847552	0.016169224
127	0x3c76d357	0.015065036
128	0x3d4929d6	0.049112163
129	0x3d8eac9b	0.06966516
130	0x3d165acd	0.036707688
131	0xbda7effe	-0.08200072
132	0x3bcb1f13	0.0061987727
133	0xbce665e1	-0.028124752
134	0xbd9f6b80	-0.07784176
135	0x3d89a86c	0.06721577
136	0x3d961b2e	0.07329403
137	0xbd035dda	-0.032071926
138	0x3ab9b489	0.0014168184
139	0xbd396306	-0.04526045
140	0x3d57428e	0.052553706
141	0xbd913d5d	-0.07091782
142	0xbd456b22	-0.048197873
143	0x3da48d1a	0.080347255
144	0x3c99b95e	0.018765148
145	0xbd9a01c8	-0.07519871
146	0x3aa66d71	0.0012697411
147	0x3c4ef67c	0.012632009
148	0xbcdc073d	-0.02685892
149	0xbbb8239f	-0.0056194807
150	0x3b20362a	0.0024446347
151	0x3ce0aaca	0.027425189
152	0xbd9c07ab	-0.0761865
153	0xbd56c956	-0.052438103
154	0x3c8c905a	0.017158676
155	0xbd0b8ecf	-0.03407174
156	0xbd8bcb00	-0.068258286
157	0xbd97d992	-0.07414545
158	0xbd79550a	-0.060872115
159	0xbd00459f	-0.031316396
160	0x3d16dfdc	0.036834583
161	0x3a9d2d97	0.0011991736
162	0x3d6563cd	0.05600338
163	0xbc5ab66b	-0.013349156
164	0x3d954a47	0.07289558
165	0xbd5efccd	-0.05444031
166	0xbb436b36	-0.0029818541
167	0x3d725322	0.059161313
168	0xbd418dd2	-0.04725439
169	0xbd5f0b8a	-0.054454364
170	0xbca77c3d	-0.020444984
171	0xbdb0a00d	-0.08624277
172	0xbd633fc1	-0.055480722
173	0x3d8c1eae	0.06841789
174	0x3d920ad9	0.07130975
175	0x3d9a0762	0.075209394
176	0x3d0adf07	0.0339041
177	0x3d8cdfaa	0.06878598
178	0x3d30784d	0.043083478
179	0x3c10634d	0.008812738
180	0x3d87e9f2	0.066364184
181	0x3d437ee5	0.047728438
182	0xbd6bf50d	-0.057606746
183	0x3d7bd2f8	0.061480492
184	0xbcda4e09	-0.026648538
185	0x3d19f71a	0.03758917
186	0x3daef4dd	0.08542798
187	0x3d9a1ba1	0.07524801
188	0x3dac764d	0.084210016
189	0xbcdeef9f	-0.02721387
190	0x3c39ed29	0.011348047
191	0xbd2128ae	-0.039345436
192	0xbd0bb549	-0.034108434
193	0xbb594698	-0.003315365
194	0xbd862939	-0.06550831
195	0xbd851428	-0.06497985
196	0xbd2ffab0	-0.042963684
197	0x3d1941e9	0.037416372
198	0x3ccdc133	0.025116539
199	0xbd226dbc	-0.039655432
200	0x3d5f3007	0.05448916
201	0xbda636d6	-0.08115928
202	0x3d5ec5bd	0.054387797
203	0xbb824302	-0.003975273
204	0x3d935023	0.07193019
205	0xbd97eca4	-0.074181825
206	0xbc71edbf	-0.014766156
207	0xbc94d4da	-0.018167902
208	0xbd7c69bc	-0.061624274
209	0xbca18c10	-0.019720107
210	0x3ce09aba	0.02741753
211	0xbd902e3a	-0.07040067
212	0xbda9a06e	-0.08282553
213	0x3a32d7b4	0.00068223034
214	0x3b1b1157	0.0023661458
215	0xbda74fd3	-0.08169522
216	0xbcf0ac41	-0.029379012
217	0xbd0c9265	-0.0343193
218	0x3da02b46	0.07820754
219	0xbc6129ed	-0.013742906
220	0x3d0a8067	0.03381386
221	0x3d81bf27	0.063352875
222	0x3d1fe430	0.039035976
223	0xbccefe18	-0.025267646
224	0x3ca8a547	0.020586623
225	0x3bc1f398	0.005918931
226	0x3cd945b0	0.026522487
227	0xbd98258b	-0.07429036
228	0x3cbe6be1	0.0232448
229	0xbd8eff54	-0.06982294
230	0xbdabb7d4	-0.08384672
231	0x3d93bff2	0.07214345
232	0xbd5dddef	-0.05416673
233	0x3d93cc58	0.0721671
234	0xbd91a1a3	-0.07110908
235	0xbcac349a	-0.021021176
236	0xbbe49142	-0.006975324
237	0xbd77303f	-0.060348745
238	0x3d39ab84	0.045329586
239	0xbd9ed718	-0.077558696
240	0x3da92b41	0.08260203
241	0xbda76473	-0.08173456
242	0x3d804229	0.06262619
243	0x3d1e9be3	0.038722884
244	0xbcc1fe04	-0.023680694
245	0x3cff9ce6	0.031202745
246	0x3cfc3ced	0.03079077
247	0xbb9203a8	-0.0044560023
248	0x3d925a78	0.07146162
249	0xbd896643	-0.06708958
250	0xbd0711a9	-0.032975826
251	0x3da8858d	0.08228598
252	0x3d6f7bab	0.05846755
253	0x3d86951e	0.065714106
254	0xbb8a7f49	-0.0042265994
255	0x3d084517	0.033269014

fc1.bias f4 [64]
0	0xbd1e24e8	-0.038609415
1	0xbd7d3e32	-0.061826892
2	0xbc805014	-0.015663184
3	0xbd3a86fc	-0.045538887
4	0xbc794d40	-0.015216172
5	0x3d90f1ba	0.07077356
6	0xbd2d3031	-0.042282287
7	0xbc73b2c0	-0.01487416
8	0xbd50cc9b	-0.050976377
9	0xbd62ccba	-0.055371024
10	0xbc7ebd28	-0.015548028
11	0xbd1af3e2	-0.03783024
12	0xbd98a9e7	-0.07454281
13	0x3d1a87aa	0.037727036
14	0x3d170a41	0.036875013
15	0x3d947527	0.072489075
16	0x3c83150f	0.016001252
17	0xbbb6be50	-0.0055768862
18	0x3d919c19	0.071098514
19	0x3c8381b0	0.01605305
20	0x3da4d6db	0.08048793
21	0x3c6dff45	0.014526193
22	0x3da6d008	0.081451476
23	0xbdaffb7f	-0.08592891
24	0xbc4f3984	-0.01264799
25	0x3d35f1cd	0.044420052
26	0xbd9c9059	-0.0764472
27	0x3d2153a5	0.03938641
28	0x3d92bba2	0.07164694
29	0x3d5c909e	0.053848855
30	0x3d64c7a6	0.055854462
31	0x3d0e79d4	0.034784153
32	0x3b7d505a	0.003865263
33	0x3d8703eb	0.06592544
34	0xbdaaa20e	-0.08331691
35	0xbcc57ed0	-0.02410832
36	0xbd6fc697	-0.058539
37	0xbd923640	-0.071392536
38	0x3cd9dd91	0.026594909
39	0xbd7bab06	-0.061442398
40	0xbc86e236	-0.016465288
41	0x3cceeddf	0.02525991
42	0xbd486926	-0.048928402
43	0x3daabd32	0.083368674
44	0x3d78295a	0.06058631
45	0xbcd3ee9d	-0.025870616
46	0xbd330293	-0.043703627
47	0xbcfa7831	-0.03057489
48	0x3cc422ee	0.023942437
49	0x3cf5a6db	0.02998679
50	0xbd9d5bfc	-0.0768356
51	0xbd20418a	-0.039125003
52	0xbd2a5609	-0.041585956
53	0x3bac9eaf	0.00526794
54	0x3d520664	0.051275626
55	0xbd8ac14a	-0.06775148
56	0x3dac3945	0.08409361
57	0xbd62ffb0	-0.055419624
58	0xbd771e6f	-0.060331758
59	0xbd02befa	-0.03192041
60	0xbc33e22f	-0.010979219
61	0xbc3bceef	-0.011462911
62	0x3c5fd3e8	0.013661362
63	0xbd2f3e3d	-0.042783964

fc2.weight f4 [1, 64]
0	0xbd0baa28	-0.03409782
1	0x3d278800	0.040901184
2	0xbdf9fe4c	-0.122067064
3	0xbdedbb33	-0.11607971
4	0x3d36c468	0.0446209
5	0xbd0dbb9f	-0.034602758
6	0x3bb976e0	0.005659923
7	0x3cd324b8	0.025774345
8	0xbdfb6124	-0.122743875
9	0x3d1adb2d	0.03780668
10	0xbcdf17a0	-0.027232945
11	0xbd30b46c	-0.043140814
12	0x3db2c5b4	0.08729115
13	0xbdb7076a	-0.08936961
14	0xbdcac4ce	-0.09900819
15	0xbca63108	-0.020287052
16	0x3d385dfe	0.045011513
17	0x3dd1d8e9	0.102464505
18	0xbda1e3ba	-0.079047635
19	0x3d9d9efa	0.07696338
20	0x3d509880	0.050926685
21	0xbc9ce299	-0.019151019
22	0x3dbf3b9d	0.09337542
23	0x3da6ca4e	0.08144055
24	0x3c4d0a86	0.012514716
25	0x3d9eca9f	0.07753491
26	0xb93697dc	-0.00017413445
27	0x3d75c744	0.060004488
28	0xbdb2b74b	-0.087263666
29	0x3d0d77a8	0.03453794
30	0x3d7fc49c	0.06244336
31	0xbd828c06	-0.063743636
32	0x3dd7b9aa	0.105334595
33	0xbd9c2392	-0.07623972
34	0x3de81099	0.11331291
35	0x3c80f057	0.015739603
36	0x3dab5f2c	0.08367762
37	0x3d2886d8	0.041144222
38	0xbcc34da2	-0.02384073
39	0x3ded1ba3	0.11577537
40	0xbd5dc9fa	-0.054147698
41	0xbb01a920	-0.0019784644
42	0xbd3e4ef0	-0.046462
43	0xbd661233	-0.0561697
44	0xbde81580	-0.11332226
45	0x3a081cd4	0.0005192284
46	0x3ddf7d9b	0.10912629
47	0xbdf3ac84	-0.11898139
48	0xbdb41e56	-0.087948486
49	0xbc0d3375	-0.008618225
50	0x3d62b219	0.05534563
51	0x3c87c6a2	0.016574208
52	0xbdc7ca9d	-0.09755442
53	0x3b24f25b	0.002516887
54	0x3dd9301e	0.10604881
55	0xbdc2c17c	-0.095095605
56	0x3dc614b4	0.096719176
57	0x3cc98894	0.024601258
58	0x3d9b1ca4	0.07573822
59	0x3df16716	0.1178724
60	0x3d91815b	0.07104751
61	0x3c9d385a	0.01919191
62	0x3d728160	0.059205413
63	0xbce60cc4	-0.028082259
