assets/model/phrase024_speech_model.pth (torch, 145844 bytes, 7 tensors)

conv1.weight f4 [64, 13, 3]
00000000: 0ad2 4abd 736a dd3d 0b1c 1dbe c6e1 e23d
00000010: 0fd7 fc3c c743 343d a0c9 8c3c e34b 8b3d
00000020: 8e4a debc 19f8 bd3d 1266 9339 963a 1abe
00000030: fba8 003e b963 dd3d 54a9 493d 1fae 1abe
00000040: be85 193e 6223 3abd a63e 1e3e e56a 043e
00000050: 470e 9f3d bf25 37bd 068c 983d 9b88 ee3d
00000060: 317c b1bd ea31 123e 2e1b 79bd b174 1dbe
00000070: 53a1 12be 57fb 853d 960d bdbc 12a5 ba3d
00000080: 7f13 143d e1a5 823c f765 e2bd 08f8 15be
00000090: 21f7 bf3d 9bf5 bbbd 3155 a73c 90f3 95bb
000000a0: b020 8bbd e48c abbc a04c 7dbd bf2c 17be
000000b0: 7b5b 0cbe 206e 28be e5b7 bd3b d618 94bd
000000c0: 0e24 4fbd cb5a ba3d 0b5f 123e ff25 0a3e
000000d0: c35a 143e 7fd3 0dbe 4a60 e23d 3a84 afbd
000000e0: 266e f3bd 1f52 d63d 619e d9bc cd0e 0b3e
000000f0: 3684 343c 00df 0e3e 66a4 5ebd 1acf febc
00000100: 0e71 b0bd 78d9 7a3a 4069 943d c7ca 16be
00000110: 69db e63d f746 123e 6db3 f73b 8a47 c7bb
00000120: 2fd7 bb3d 8298 14be 0a64 963d 1097 423d
00000130: 4249 b9ba bf52 dc3d 4ad6 00bc 0e4c 7fbd
00000140: edfd 9cbd 3c60 22be 371b 163d 4b94 b23d
00000150: 0601 70bd fded e83d 4e23 61bd b8a9 b2bd
00000160: 4a43 cb3d 9f9f 4c3d ffda ae3d be29 99bd
00000170: 786f dbbd be80 0c3c 80e7 18bd 9d5e e13d
00000180: eb2b a13d 1063 2cbd 889e 0b3e e70e 893d
00000190: 727c acbd 92cf fa3d b448 153e 10b2 0f3e
000001a0: cf40 143e 2e48 e53d 4ad6 eebd e2f8 e0bd
000001b0: 1019 9b3d 6d42 823d 09a3 223a 208a fe3d
000001c0: 69a5 ba3d b414 c83d 3dc4 053e 5a02 6c3d
000001d0: b8c9 11be 44b8 b5bd adff 9c3d e8c7 eabd
000001e0: 3f3d c2bc e6ce a6bc 524f 23bd 22df 09bd
000001f0: 7e40 023e 59f0 063e 15d8 8b3d 62a9 1dbd
00000200: 5c48 fc3c c4f3 6fbd ab09 e53c 9a33 b43c
00000210: 5de9 5e3c f856 ea3d 9759 8f37 e94d d83d
00000220: 5ec4 ac3d 4316 de3d 0b5d 4e3d 2fe2 00be
00000230: 1b4a eebd 51a0 23be da80 f8bd 5821 0ebe
00000240: 29b5 013e efd7 19be a662 063d 0150 fbbd
00000250: d45c a73b 8a38 5d3c 3a40 b6bd 9216 0abe
00000260: b33b 08be 29b2 28be e7e4 d93c b9bc 72bd
00000270: 8e12 bc3c 253d 3ebd 84aa 223e d17f 063e
00000280: 5420 f03d ec93 05be 9c65 afbd 3a1a 07be
00000290: b2fc ddbd 47b2 bc3d 6da8 17be 8645 863d
000002a0: 2c04 f03d bc62 d93d 500b 123e 3d08 193d
000002b0: 68a1 09bd a869 d7bc d5a8 093d b417 de3d
000002c0: fe40 81bd c5f5 ce3d 1fdc 6a3d 61f2 0d3c
000002d0: 06c8 32bd 093d 083e f368 08bd 2ee9 04be
000002e0: 3708 153e 66fb 603d cf34 ad3d 4d23 80bd
000002f0: e8ef c7bd f464 0a3e 4fd9 75bc 738c 7ebd
00000300: c0ac 94bd dd10 1a3d bff5 fe3b 102e 023e
00000310: 04ee 0a3d bb57 e3bd db29 753d 5e4f d13c
00000320: be39 3dbc 92a9 e2bd e6a1 05be 50ec 80bc
00000330: b618 96bd b618 32bd a711 903d 9e61 3bbc
00000340: a425 4fbd 537d eabb 36e8 1c3e 7b43 a1bd
00000350: 4001 00be 56e3 373d f506 07be 6c20 f83b
00000360: 473e 0c3d 8a73 093e 94c7 683c 7232 313e
00000370: 867b 8b3d 0956 d3bc b427 dbbd add5 17be
00000380: a3f6 773d 314e 10be 3ab9 fbbd 0c8d e13d
00000390: 4682 ab3c c3c0 d23d ad74 14bc 533b 0bbe
000003a0: 7be4 063c a280 cebd bc18 bcbc 8481 d23d
000003b0: bdda 84bd 0764 bd3d 17bb aa3d 56b3 0dbe
000003c0: c16d c63d 4cc8 143e 249b 0b3e 352c 14be
000003d0: e70c 1bbe 7d80 d63d 111a 543d 40c5 cebd
000003e0: 0e09 85bd 763f eabd 7ba7 58bd bef0 6fbd
000003f0: 349d 4c3d 8924 59bd e792 873d faa8 e93d
-0.049516715 0.10811319 -0.15342729 0.11078219 0.030864267 0.04400995 0.017185986 0.068015836
-0.02713516 0.092758365 0.00028114073 -0.15061411 0.12564461 0.10810036 0.04923375 -0.15105484
0.14992425 -0.0454439 0.15453586 0.12931402 0.07766395 -0.04471373 0.07448582 0.11647149
-0.08666266 0.14276853 -0.060816936 -0.15376545 -0.14319353 0.0654208 -0.023077767 0.09113516
0.036151405 0.015948238 -0.110546045 -0.14645398 0.09373308 -0.09177705 0.020426365 -0.004576154
-0.06793344 -0.020941205 -0.061840653 -0.14763163 -0.13706772 -0.1644826 0.005789744 -0.072312996
-0.050571494 0.09099349 0.14294069 0.13491057 0.14487748 -0.1385021 0.11053522 -0.08570142
-0.118862435 0.10464882 -0.026564779 0.13579865 0.01101785 0.13952255 -0.054356 -0.031104613
-0.086153135 0.00095691485 0.07246637 -0.14725791 0.11272318 0.14284883 0.007559231 -0.006081526
0.091719024 -0.14511302 0.073433 0.047507346 -0.0014136212 0.1075797 -0.0078635905 -0.06232839
-0.0766562 -0.15857023 0.036647048 0.08719691 -0.058594726 0.11373518 -0.05496531 -0.087237775
0.09924944 0.049956914 0.08537864 -0.07478665 -0.1071462 0.008575616 -0.03733015 0.11004374
0.07869705 -0.04208666 0.13634694 0.066922955 -0.084221736 0.12246622 0.14578515 0.14032769
0.14477848 0.11195408 -0.11661966 -0.10984971 0.0757314 0.06360326 0.00062041037 0.12428689
0.09113581 0.09769574 0.1306314 0.05761943 -0.14237106 -0.088730365 0.07665954 -0.1146391
-0.023710845 -0.020362329 -0.039870568 -0.03366006 0.12719914 0.13177623 0.06828324 -0.038491614
0.030796222 -0.058582082 0.027958712 0.021997262 0.013605443 0.11442369 1.7088647e-05 0.10561735
0.084358916 0.1084409 0.0503817 -0.12586282 -0.11635228 -0.15979125 -0.121339515 -0.13879907
0.12666763 -0.15023778 0.032808922 -0.12271119 0.0051075015 0.0135022495 -0.08898969 -0.13485172
-0.13304023 -0.16474213 0.026598407 -0.05926201 0.022958066 -0.04644503 0.15885359 0.13134696
0.11724916 -0.13044709 -0.08564302 -0.13193598 -0.108392134 0.09213691 -0.14810343 0.06556229
0.11719546 0.10614535 0.14262128 0.037361372 -0.033601195 -0.026295498 0.033608276 0.10844365
-0.063112244 0.101054706 0.05733883 0.008663745 -0.04364779 0.13304533 -0.033303212 -0.12979576
0.14553915 0.054927252 0.08457338 -0.06256733 -0.09762555 0.13515073 -0.015005424 -0.06214566
-0.07259512 0.03761374 0.00778076 0.12712884 0.033918396 -0.11100718 0.05985437 0.02555054
-0.011549411 -0.11067499 -0.1305004 -0.015737683 -0.07328932 -0.043480597 0.07034617 -0.011436848
-0.050573006 -0.007156053 0.15322956 -0.07874199 -0.12500477 0.04489454 -0.13186248 0.0075722244
0.03423908 0.13422981 0.014207739 0.173044 0.068106696 -0.02579786 -0.10700932 -0.14827605
0.060537945 -0.14092328 -0.122911885 0.11013231 0.020936143 0.10290673 -0.009061021 -0.13596849
0.008233185 -0.100831285 -0.022961013 0.102786094 -0.064870335 0.09247594 0.08336466 -0.13837942
0.09688903 0.14529532 0.136334 -0.14469989 -0.1514164 0.10473726 0.05178267 -0.10096216
-0.06495868 -0.114378855 -0.052894097 -0.0585792 0.049954608 -0.05301336 0.06619816 0.11409183

conv1.bias f4 [64]
00000000: ae63 9f3d 1230 173e 657a 623c 3763 c13d
00000010: 2d5d b33d 5561 f03c 55c7 acbd 3ab3 ce3b
00000020: c975 13be 2ee5 023e 668f 22be 99d0 5c3d
00000030: 904b 103d d564 05be 557d 1cbe be6a 13be
00000040: 486e 683c 1849 073e 6d63 94bd 445e ab3c
00000050: 93be 25bd 015e ee3d 29c5 49bc 5fa0 9cbd
00000060: 81b6 c83d 478c b5bd c7bc 88bc efcd a73c
00000070: 5fbb 483c 22e9 393d abc2 53bd d84c cabc
00000080: 6544 49bd 0457 a53b bd15 8b3b ae46 d93d
00000090: 5dfd afbd d2dc cf3d 26ce 0fbe 14be a8bc
000000a0: 0237 1b3e 81c5 813d 692e 92bc e1b6 103d
000000b0: b87c 15bd fb6f a63d 1ddb 51bd 2614 c43d
000000c0: 60bc 773d 98ef 60bd 3fed 84bd 1c98 fd3d
000000d0: 0713 633d 572c 12bd fd11 513d f426 873d
000000e0: 288e f73d a98d 3fbc b9d8 cfbd 32bb 143e
000000f0: aa68 12be d781 663c 4726 8bbd 8cf4 ec3d
0.07782684 0.14764431 0.013823126 0.09442752 0.08758006 0.029343287 -0.08436457 0.0063079866
-0.144004 0.12782738 -0.15875015 0.05390987 0.035228312 -0.13026746 -0.15282185 -0.14396188
0.014186449 0.13211477 -0.072455265 0.020918973 -0.04046495 0.116390236 -0.012315073 -0.07647776
0.09800435 -0.088646464 -0.016691579 0.020483939 0.012251704 0.04538835 -0.05169932 -0.024694845
-0.04913749 0.0050457735 0.0042445348 0.10609184 -0.08593247 0.1014954 -0.14043483 -0.020598449
0.15157703 0.06336499 -0.017844396 0.035330657 -0.036495894 0.08126827 -0.051234353 0.095741555
0.060482383 -0.054915994 -0.064905636 0.12382528 0.055438068 -0.035686817 0.051042546 0.065992266
0.12087661 -0.011691489 -0.101487584 0.14524534 -0.14297739 0.014069042 -0.0679441 0.11570081

conv2.weight f4 [128, 64, 3]
00000000: 53be 8d3c 0325 903d 325f ae3c f18b 4dbd
00000010: d441 443d dbc1 813d 8ff8 45bd 7299 5abc
00000020: 50d2 483d 877e 9e3c 6275 e1bc 5b89 52bd
00000030: 3df6 5abc 565b b63b c35e 0ebd d450 59bd
00000040: 36b4 79bd 001c db3b 7f6e 0e3d e756 843d
00000050: dc25 73bd c476 86bc fc11 0fbc 9e79 5fbc
00000060: a80c dc3c 8c01 22bd c1d6 2abd 685f 4cbc
00000070: c82c 33bc e645 373d 3a91 5abd b455 31ba
00000080: 1d3b 3fbd 0832 8cbb 3940 1bbd 8f6f 1b3b
00000090: e8c4 1d3d e079 c4bc ea40 653c 0af0 8fbd
000000a0: c889 06bc b3cd 8ebd a9c3 0e3d 95ce b33a
000000b0: 29ca 84bd 349f 82bd c71a 8dbd f994 62bd
000000c0: f056 9b3b 8a4d 013d 802e 713d b02e cfbc
000000d0: c643 07bd a2e7 4b3d 716c e83c 6542 733c
000000e0: 62cf 39bd c873 1dbd 6cb4 90bb 600c 493b
000000f0: 8fac 51bd affc 303d e026 96bd 549c 2d3d
00000100: 0a9c 893d 9ae4 5ebd e072 81bd 2bb7 76bd
00000110: 56ea 4f3d abac 6abc 9c37 2abd 4177 763d
00000120: 9690 94bc a844 783d 32b8 18bd 8df9 2d3d
00000130: 53a4 fb3b d237 5ebd 0864 303d 56cb 083c
00000140: 6514 403d 1e57 7abd 6114 663c 00eb 233d
00000150: 7dd1 10bd c760 943d 19ed 923d 8e51 813d
00000160: 74c8 2abc 5a71 7a3d fe94 98bb 4f77 10bd
00000170: b688 813d 20d6 3abd b06a f13c d0b5 ebbb
00000180: 434d 173d c081 5fbd 26aa 04bc 2057 033d
00000190: 8594 243c 0899 dc3c 8767 533d c09e 853d
000001a0: 7b1f 0a3d a93c 8a3b f903 833c abfe 113d
000001b0: 6723 363d 43cc e23a 633e e5bb 1bd9 243c
000001c0: fabe 213d ce29 19bc a8e2 1abd 9dcd 9a3c
000001d0: d2a2 553d 1270 463d 10e2 29bd 9744 52bd
000001e0: aaf3 603d 27e1 d0bb bbc8 15bd 6f9f 8b3d
000001f0: e7ba 883c 3646 bcbc 95be 793c 3d32 01bd
00000200: 2525 68bd 9cfa 6e3c 6c48 4dbd 66cb 033c
00000210: 3e08 853c 4dd9 253c 1fb8 183d 2a81 053d
00000220: 3f58 31bd 403d 183c 16d5 91bd 8b27 5dbd
00000230: b795 c8bc c118 b83c 3060 83bc aa84 8abd
00000240: 8c67 18bb b50b 81bd 4649 043d 6e7e 4d3d
00000250: c743 7fbd 0e03 023d 72f8 8fbd 5049 87bc
00000260: 6201 8fba 61f0 22bd 0909 1fbd 4ed7 133d
00000270: fc2f 96bc 37bc 19bd 582b 383d 3f13 283d
00000280: 71fc 8d3c 3a09 05bc 52ff c93b b530 243c
00000290: ffba 52bd f37f 8ebd b83b 573b fe16 91bd
000002a0: 575c 10bd 0da7 fd3b 70d6 533d 8c5c 8bbd
000002b0: 218f 903d c977 4abd 107a 87bc 786b 9abb
000002c0: c68c 113d 4c10 98bc 3aaf d53c 1a47 8cbd
000002d0: 0677 283d b72c 2a3d febb 2fbd 1004 8c3d
000002e0: 9291 55bd 1f38 28bd 818e 31bc b570 1dbd
000002f0: 5056 08bd 88c0 f63c 4508 21bd 873e 933d
00000300: 79cc bd3b 9c75 49bd d457 8cbc 310e a13c
00000310: ba88 153d b588 f23c 4e9d 22bd 8256 443d
00000320: bb4b 96bd 32ab bebc 0976 cd3c 6f90 0ebc
00000330: f719 243d 9e9c 3bbd 5e99 2d3d 32bf b0bb
00000340: 4931 5f3d 18cb e1bb 1a83 6c3d 90be ddbc
00000350: 8710 873c 0d05 8b3d a0d4 4c3d a6cf 403c
00000360: 249e d83c dddc 42bd 56d0 643c 1481 1b3d
00000370: 782a 803d 0ee7 2c3d db9f 4dbd 3cee 3e3d
00000380: f6f2 7ebd 5c61 87bc 52ae 44bd e34d 1fbd
00000390: ce68 363d c235 d83c 53e6 1ebd 9e9c 54bd
000003a0: 3622 91bd d641 333d fcfb 873c df11 ae3c
000003b0: d8d7 3a3c 2152 4dbd 97aa 323c e4d1 813d
000003c0: 7e69 8c3c 3f5e 8e3d 1b51 803d 7ac5 843c
000003d0: 1c4a 83bd b23c c63b 789f 4fbc 974e 643c
000003e0: a243 35bd 082f 00bd b920 08bd ff4b 7abd
000003f0: d822 033c 71a3 4abd f949 06bd bcb3 4b3d
0.017302668 0.070383094 0.021285627 -0.050182287 0.04791434 0.06335803 -0.048332747 -0.013342248
0.049028695 0.019347442 -0.027521793 -0.051400524 -0.013364372 0.0055650873 -0.03475834 -0.0530556
-0.06096288 0.0066866875 0.034773346 0.06461888 -0.059362277 -0.016414054 -0.008732315 -0.013639836
0.026861504 -0.039552256 -0.04170871 -0.0124739185 -0.01093597 0.044744395 -0.053361155 -0.0006764785
-0.046687234 -0.004278425 -0.037903044 0.0023717617 0.038517863 -0.023983896 0.0139925275 -0.07028206
-0.008211561 -0.06972828 0.034854565 0.0013718182 -0.064838715 -0.06378022 -0.06889873 -0.055317853
0.0047405884 0.031568088 0.058882236 -0.025290817 -0.03302362 0.04978145 0.028372021 0.014847373
-0.04536379 -0.038440496 -0.004416039 0.0030677542 -0.051189955 0.043209728 -0.073316336 0.042385414
0.06719215 -0.05441723 -0.06320739 -0.060233276 0.05076059 -0.014323394 -0.04155694 0.060172323
-0.01813535 0.06061235 -0.037285037 0.04247432 0.007679501 -0.054252453 0.043064147 0.00834926
0.04689445 -0.061118238 0.014042945 0.040019035 -0.035356034 0.07245021 0.07174129 0.063143834
-0.010423768 0.061143257 -0.004656433 -0.03527003 0.06324904 -0.04561436 0.029469818 -0.0071933046
0.036938917 -0.0545671 -0.008097207 0.03206551 0.010045175 0.02692844 0.051612403 0.0652442
0.03372143 0.004218657 0.015993105 0.03564326 0.044467356 0.0017303306 -0.0069959625 0.010061528
0.03948877 -0.009348346 -0.037813812 0.018896872 0.05215723 0.048446722 -0.041475356 -0.051334944
0.054919876 -0.0063744965 -0.036568385 0.06817519 0.016690684 -0.022982698 0.015243192 -0.03154205
-0.05667605 0.014586117 -0.050117895 0.008044099 0.016239282 0.010122609 0.037284967 0.032593884
-0.04329705 0.009291947 -0.07120721 -0.05399279 -0.024485452 0.022472741 -0.016037077 -0.06763585
-0.0023255078 -0.06301061 0.03229644 0.0501694 -0.062320497 0.031741194 -0.07029809 -0.01651445
-0.0010910446 -0.039780024 -0.038826976 0.036094002 -0.018333428 -0.03753301 0.04496321 0.04103398
0.017332288 -0.008119876 0.0061644698 0.010021378 -0.051447865 -0.06957998 0.0032841992 -0.070844635
-0.035244312 0.0077408613 0.051718175 -0.06804761 0.0705855 -0.049430642 -0.016537696 -0.0047125183
0.035534643 -0.018562458 0.026084531 -0.06849499 0.041129135 0.04154655 -0.042903893 0.06836712
-0.05214078 -0.041069146 -0.010837198 -0.038437564 -0.03328544 0.030121103 -0.039314527 0.071896605
0.0057921973 -0.049184427 -0.017131723 0.019660087 0.036507346 0.029606203 -0.0397008 0.047934063
-0.07338663 -0.023274992 0.025080698 -0.008701428 0.040063825 -0.04580366 0.04238259 -0.005393886
0.05449036 -0.0068906657 0.057742216 -0.027068406 0.016487373 0.06788073 0.050007463 0.011768257
0.026442595 -0.047573913 0.013965687 0.037964895 0.062581 0.04221254 -0.05020128 0.046613917
-0.062243424 -0.016525917 -0.048017807 -0.038892638 0.044533543 0.026392821 -0.038793873 -0.051907174
-0.07086603 0.043763958 0.016599648 0.021248756 0.011404 -0.050127152 0.01090493 0.063388616
0.017140146 0.0695157 0.0626547 0.016207445 -0.064106196 0.006049716 -0.012672298 0.013934753
-0.044253953 -0.031294852 -0.03323433 -0.06110763 0.008003913 -0.049472276 -0.03278539 0.049731955

conv2.bias f4 [128]
00000000: 3ffe 5cbd c949 533d 668f c5bb 92bc ccbc
00000010: 6223 90bc ba6f f33c a1b4 10bd 0d98 cd3a
00000020: 4237 80bd 3e44 253d 939e 2abd bd86 853d
00000030: afbb 783d f4a2 bcbc 957a c63b 1cc4 48bd
00000040: 7e22 52bd 53a5 8b3b 51f8 843d 20de 6dbc
00000050: f2df 543d a677 23bc e54a 873a 3a56 5d3d
00000060: 8363 efbb 910d 35bd 2386 73bd 2745 5a3d
00000070: 81cd 4fbd ba67 29bd 0333 433d 0ca8 ed3c
00000080: 5061 273d 68cc bbbb fe34 27bd 74ad 0dbd
00000090: db1d 52bc af58 65bd b2ac 73bd f658 4b3d
000000a0: f290 4bbd 356b 103c bbe4 f13c 4d70 9d3c
000000b0: 4176 13bd c2b0 a3bc 549c 113d 2b07 7f3c
000000c0: cc71 92bd 45f7 ff3c acb1 e83c 6e0b 7d3d
000000d0: c8d2 92bc 5ae7 dfbc 5abc 213d ee3a 45bd
000000e0: e1b9 2fbd 4ba0 253d e364 e7bc a976 3abd
000000f0: 74cb 5abd ed68 0fbd e88a 75bd e4fc 01bd
00000100: 2813 fcbb 4458 5ebd 94af 0abd 0fb6 893d
00000110: df42 093c 89c1 a63b 6db0 e0bb 0ff3 afbc
00000120: 98aa 2bbd 32d7 663d 9ef4 09bd cf3b 71bd
00000130: f97a 823d 88a2 82bd 008d ec3b 622f b03a
00000140: dfa9 503d eab1 f3bb 1a7c a03b e058 9cbc
00000150: 02c3 a9bc cb10 59bc e0a2 83bd a110 f2bc
00000160: 4793 85bd f1d5 01bc fb37 45bc 75bd 0f3d
00000170: 6a28 6e3d 20a5 4e3d 6026 11bc e42b f2bc
00000180: 73e1 54bd 6e21 1d3d 487c 13bd 3506 39bd
00000190: b153 7bbd 6036 923d 75f1 85bd afa0 94bd
000001a0: 6a11 e8bc 445f 09bd 7c0e f5bb 2eb2 94b9
000001b0: 4834 1c3c 929e 15bd 03e8 c13c 4fd6 703d
000001c0: 7440 61bd 42a6 233d e1b1 dcb9 857e 84bd
000001d0: ed3c c03c 0cf9 6ebd b6ac 823d 8b7a 39bc
000001e0: d3cd 27bc 09bf 1a3d 12d6 b1bc 9594 153c
000001f0: 7452 b93c b409 0abc 534e be3c 06ce 0abb
-0.053953405 0.05158404 -0.0060290573 -0.024992261 -0.017594997 0.029716361 -0.03532851 0.0015685573
-0.062605396 0.040348284 -0.041655134 0.0651984 0.060725864 -0.02302692 0.0060570934 -0.04901515
-0.051302426 0.0042616515 0.06492675 -0.014518291 0.051971383 -0.009977257 0.0010322003 0.05403731
-0.007305564 -0.04420239 -0.059454095 0.053288605 -0.050733093 -0.041358687 0.04765607 0.029010795
0.04086429 -0.0057311542 -0.04082202 -0.034589246 -0.012824501 -0.05599278 -0.059490867 0.049645387
-0.049698777 0.008814623 0.029528012 0.019218588 -0.036001448 -0.019981746 0.035549477 0.015565674
-0.07150611 0.031245837 0.028405033 0.06177848 -0.017922774 -0.027331997 0.039486267 -0.048151903
-0.042901877 0.04043607 -0.028246349 -0.04552332 -0.053416684 -0.035012174 -0.059946924 -0.031735316
-0.0076927133 -0.054283395 -0.03385885 0.06724178 0.00837776 0.005088989 -0.006856969 -0.021478204
-0.041910738 0.05635757 -0.03368055 -0.05889493 0.063711114 -0.063786566 0.007218957 0.0013441856
0.05094325 -0.0074369805 0.0048976066 -0.019085348 -0.02072287 -0.013248633 -0.0642755 -0.029548945
-0.065222315 -0.007924543 -0.012037273 0.03509279 0.05814401 0.050450444 -0.008859247 -0.029561944
-0.051972818 0.03836196 -0.036007196 -0.045171935 -0.06135911 0.071392775 -0.06540195 -0.072572105
-0.028328616 -0.033538118 -0.0074785333 -0.00028361514 0.009533949 -0.036528178 0.023670202 0.05879813
-0.054993108 0.039953478 -0.000420942 -0.06469444 0.023466552 -0.05834298 0.06380598 -0.01132072
-0.010241943 0.03777984 -0.021708522 0.009129663 0.022622325 -0.008425165 0.023230707 -0.0021179928

fc1.weight f4 [64, 128]
00000000: f06f 38bd 263c 4e3d 01af 95bd 65d4 913d
00000010: a168 ad3d 1f7a 78bd ec35 893c a342 a53d
00000020: 0699 87bd 1c3e f5bc 004f b1b9 de03 323d
00000030: 6016 0cbb 43bf 853d a0b2 8dbc c84f e13c
00000040: ad8a 813d 7e3c d8bc c0ef 1d3c ece1 073d
00000050: 00d5 6d3c 1761 21bd 7c7b a63c 1de6 12bd
00000060: 10d3 983b 6644 27bd d42f afbc 315e 8a3d
00000070: fc08 88bc d124 943d 1b62 60bd acf1 acbc
00000080: dc91 1abd 3072 f73b a000 9cbb 681a 26bd
00000090: 1882 cebc ca89 103d f8ed c63c 6531 883d
000000a0: a3a2 04bd 5649 653d ed9a a83d d27b 683d
000000b0: 2863 6b3c 2274 0e3d cb37 01bd 8afe 213d
000000c0: 4092 c1bb d6be 9bbd 9d84 89bd a050 21bc
000000d0: ceca 3f3d b06b 893b df73 89bd 7202 5ebd
000000e0: 9a1e aabd b0a3 93bd 67f5 45bd 023c 603d
000000f0: 0ed3 2b3d 0757 05bd 7556 b0bd 4d43 1dbd
00000100: 6f4e a93d 0d68 40bd 202e 813b ecb4 6dbd
00000110: 00f3 25bb 9833 5bbc 61db 883d 23f4 29bd
00000120: 6e3c d8bc ea18 39bd 6833 10bc c49e a13c
00000130: e0a9 c2bb a86a 843c 6820 98bd 5805 1ebc
00000140: 3e75 edbc f4af 06bd d46a 863c 40b6 45bd
00000150: a015 a1bc c8f5 94bd 16ff 0f3d 7f5e 5bbd
00000160: fefe 503d df56 03bd ca08 32bd 162c 2e3d
00000170: b0dc 89bc c06d 693b cd75 b33d 805d b73c
00000180: 70f9 9cbd 9626 2c3d e0d1 2ebb c652 1ebd
00000190: 7a13 0f3d 36e3 193d 1027 6bbd 029e 84bd
000001a0: 79df 8c3d af41 65bd 1482 0ebd d81f 003d
000001b0: d872 b0bd 5838 513c 26b5 553d 3c2e c83c
000001c0: d00c 413c 3862 77bd d14d ad3d 65a4 97bd
000001d0: 2009 1f3b a372 9b3d 0274 223d 69dd aa3d
000001e0: e8ba 553c e961 ad3d 201a 47bd 618c 903d
000001f0: d482 f23c d195 a13d 0a69 28bd 006e a1b9
00000200: dd1f 9dbd e966 bbbc 741a 863d 9126 3c3c
00000210: 0e53 6e3d b8fc 573c 45d4 42bc 4361 9c3d
00000220: e39e d83c ccf2 403d 9b48 1a3d d40f 7a3a
00000230: 01b1 acbd 51ca 963d 25f1 a33d eed8 533d
00000240: 4a0f f1bb dad2 a3bc b4ac 5c3d 30e5 3c3d
00000250: b7c2 b7bd 926f 8c3d f3a6 853d 07ec 1bbd
00000260: 07fa ad3d 43b6 dbbc 70aa 643d 1e65 58bd
00000270: 7a1d ed3c 0a0d 21bd 6ef9 03bd d484 5e3c
00000280: 7eea a6bd c58c b7bd 5283 27bd 5bcf b43c
00000290: dcf5 92bd 04d0 b03d 2c04 b83d 6b40 90bd
000002a0: 1dea 98bd dfec ffbc 38ff 28bd f6d5 713c
000002b0: 5c7d 8e3d d75c a93c 1873 f23a cbbc 613b
000002c0: a9fa 603d 54b8 843d 9504 88bd 5a3a 813d
000002d0: 81a2 b53d 3831 033d 18b9 1f3d 3ad6 db3c
000002e0: 95ad babb 267c a5bd e9de 74bc bd52 6c3d
000002f0: a97c 2a3c 0373 37bb e800 123d 617c 173d
00000300: 5b5c 463a 9947 a73d 2a8c 85bd 9721 533d
00000310: d827 673b d2ee 273d cfea 8cbb cf7b b1bc
00000320: 6175 173d c6fa a53c 684f 003c 274e 163d
00000330: 6788 443b 6e22 abbd 6dfe a4bd 8e39 4abd
00000340: 682e 793c 5c7a 993d f609 643b c7a6 853d
00000350: 7006 4d3c 249c 593d 82aa b53b 0cd2 693d
00000360: 710c 1b3c 0303 053d 9d5a 10bc 4e29 6fbc
00000370: f758 a23d 9c20 7bbd fc61 923d b4ae b9bc
00000380: 9b46 99bd bf69 a1bd fa35 30bd 10e2 0c3d
00000390: 7bba 57bd a2a3 a13c 9f86 8b3d 96b9 abbd
000003a0: 5036 9b39 fa63 89bd bcd3 65bd 8e52 bcbd
000003b0: 0d6b c83c c87a 75bc 0ebd 943d 647a a6bc
000003c0: 6353 45bd afcf 7d3d 76d6 fe3c 9ae9 06bd
000003d0: 8b71 9fbc cad1 d23c db5e 3cbc c417 96bd
000003e0: 547a 223d 708a 87bd c595 a33d 8d3d 333d
000003f0: 52db 313d 4f5d 88bd c5b8 173d 7e3c f3bb
-0.045028627 0.05035033 -0.0730877 0.07120589 0.08467222 -0.06066334 0.016749345 0.080693506
-0.06620984 -0.029936843 -0.0003381893 0.04346072 -0.0021375641 0.06530621 -0.01729709 0.027503863
0.063252784 -0.026396032 0.00963968 0.03317444 0.014516115 -0.039399233 0.020322554 -0.035863984
0.0046638325 -0.040836714 -0.02138511 0.06756247 -0.016605847 0.07233585 -0.05478106 -0.021111332
-0.03773676 0.007551454 -0.0047608167 -0.040552527 -0.025208518 0.035287656 0.024283394 0.06650046
-0.032381665 0.05597814 0.08232675 0.05675871 0.014366902 0.03477872 -0.03154735 0.039549388
-0.005907327 -0.076047584 -0.06714747 -0.009845883 0.04682427 0.0041937456 -0.06711554 -0.05420155
-0.08306618 -0.07208955 -0.048329737 0.054744728 0.041949324 -0.0325537 -0.0861024 -0.03839426
0.08266913 -0.04697423 0.003942266 -0.05803387 -0.0025321841 -0.013379 0.06682468 -0.041492593
-0.026396003 -0.045189776 -0.008801319 0.019729026 -0.005940661 0.016164139 -0.07428056 -0.009644829
-0.02898657 -0.032882646 0.016408361 -0.04826951 -0.019663632 -0.072734416 0.03515538 -0.053556915
0.05102443 -0.03206527 -0.043465413 0.042522512 -0.016828865 0.0035618395 0.08762703 0.022383451
-0.07664764 0.042028986 -0.0026675388 -0.038653158 0.034930684 0.0375702 -0.0574103 -0.0647545
0.068785615 -0.055970844 -0.03479202 0.03128037 -0.08615655 0.012769781 0.05217471 0.024436109
0.01178284 -0.060396403 0.08462108 -0.07404403 0.0024266914 0.075902246 0.039661415 0.08343012
0.01304505 0.084659405 -0.0486089 0.07058025 0.0296034 0.07889903 -0.041115798 -0.0003079027
-0.07672093 -0.02287622 0.06548014 0.011483804 0.058184676 0.013182811 -0.011891429 0.07635739
0.02644295 0.04710655 0.0376669 0.0009539102 -0.08432198 0.073628075 0.08004979 0.051720552
-0.007356559 -0.019998003 0.05387564 0.046117008 -0.08972686 0.06857218 0.06525984 -0.03806689
0.084949546 -0.026820308 0.055826604 -0.052830808 0.02894472 -0.039319076 -0.032220297 0.013581473
-0.081501946 -0.089623965 -0.04089672 0.022071531 -0.071758 0.08633426 0.08985171 -0.07043537
-0.074665286 -0.031240879 -0.04125902 0.014760485 0.06957504 0.020674152 0.0018497435 0.0034444805
0.05492655 0.0648047 -0.06641499 0.06309958 0.08868886 0.03202936 0.03899488 0.02683555
-0.005696962 -0.0808032 -0.014945724 0.057696093 0.010405698 -0.0027992136 0.035645396 0.03698385
0.00075668626 0.08167953 -0.06520875 0.051545706 0.0035271551 0.04099924 -0.0043004523 -0.021665482
0.036977176 0.02026118 0.007831432 0.036695626 0.0029988529 -0.08356176 -0.0805634 -0.049371295
0.015208818 0.07494041 0.0034795976 0.06525951 0.012513742 0.053127423 0.0055440078 0.057085082
0.0094634155 0.032473575 -0.008810666 -0.01459725 0.07927125 -0.061310396 0.07147595 -0.022666313
-0.0748417 -0.078814976 -0.043020226 0.034395278 -0.052668076 0.019731347 0.06812786 -0.08385007
0.0002960437 -0.06708522 -0.05611013 -0.091954336 0.024465108 -0.014982887 0.07262622 -0.020322032
-0.048175227 0.06196564 0.031108122 -0.032937624 -0.019463321 0.0257348 -0.011497225 -0.07328752
0.039667442 -0.06618202 0.07987551 0.04375987 0.04342205 -0.06658422 0.037041444 -0.0074229827

fc1.bias f4 [64]
00000000: fd77 a33d b6a8 5a3d 70e9 67bc 32e6 dfbc
00000010: 1429 823d b713 36bc f65d 373d 7752 5f3d
00000020: 4046 45bd b927 0a3d e672 02bd d77d 3b3d
00000030: 288b 9f3d 2ff4 b33d bc6d 2fbd 8ebb 043d
00000040: 484d 4bbc c989 4b3c 5c91 6a3d 2722 a83c
00000050: 0e01 7ebd fc93 92bd 6039 abbb fec3 2c3c
00000060: 5511 a9bd 2111 62bd 356e 803c 8cfe 313d
00000070: b8fd 913d 0688 4e3d 1a75 113d ac84 86bd
00000080: 8884 0b3c 2c21 aebd 97b7 273c eb6e 8cbd
00000090: 3ff5 6ebd 1c41 28bd 2990 9d3d 53e3 9e3d
000000a0: ee01 223b 21a6 72bd c287 4bbd 03a3 89bc
000000b0: 1759 5abd 73bf 37bd 71d1 453d f8c3 58bd
000000c0: 67ba a3bd e2d5 423d e7df 87bb 74da b6bc
000000d0: 1891 743d 58f2 dabc bb62 723d e6fd 0e3d
000000e0: 2020 12bd fbdf 15bd 32ab 02bd 5729 4dbd
000000f0: 0443 943d 0803 7fbd ec05 f73c 16b9 363d
0.0798187 0.05338355 -0.014154777 -0.027331445 0.06355491 -0.011113099 0.044767343 0.054522004
-0.0481627 0.03372929 -0.031847857 0.045774307 0.07790214 0.08786809 -0.04282926 0.03240543
-0.012408562 0.012422987 0.05726753 0.020524098 -0.062012725 -0.07157132 -0.0052253455 0.010544775
-0.08255259 -0.055192117 0.01567755 0.043455645 0.07128471 0.05042269 0.035512067 -0.06568274
0.008515485 -0.08502421 0.010236642 -0.068570934 -0.058339354 -0.04107772 0.07693512 0.077582024
0.0024720388 -0.059240464 -0.049690016 -0.016801363 -0.05330762 -0.044860315 0.048295442 -0.052921265
-0.07994538 0.047567256 -0.0041465643 -0.022320963 0.059708685 -0.026726887 0.059176188 0.034910105
-0.035675168 -0.036590558 -0.031901546 -0.050088253 0.07239345 -0.06225875 0.030154191 0.044610105

fc2.weight f4 [1, 64]
00000000: 2a95 823d f003 403c a2ba 8a3d 5938 c63d
00000010: a126 e03d f368 7abd 30bd 263d c69f f4bd
00000020: 58f7 1e3d ff7f 9dbc 7f1f f3bd 855f 5f3d
00000030: c5b6 5abd 10d5 813d bfe6 973b de92 ed3d
00000040: c806 d2bd df83 21bd 75a4 9d3c e6a8 223d
00000050: 0be6 a5bb 9ac6 8f3d 82c3 fa3d f344 303d
00000060: ba74 abbd 7fbb f23d 1728 d63d 4494 b33b
00000070: e808 44bc c8cf fdbd 51af e73d 1b88 0c3d
00000080: 2abb e0bd 28c3 b33c a2a2 22bd df5e b7bc
00000090: ce44 e63c 204f 473d c0a9 d5bd 6ad8 43bd
000000a0: 0a97 60bc f9d8 36bc 23ac aebc c9be f3bd
000000b0: ecb2 643d ea89 403d cdd9 d6bd 9ecf d6bd
000000c0: 9cd3 dcbb f272 d8bd 740c 633d 28db 7a3d
000000d0: aa1a 2b3d 40f3 223b a657 023d d83c 6dbd
000000e0: d0e9 873d e5c0 09bd 8324 7c3d b05e 373d
000000f0: 6672 43bd f872 a1bc 8808 18bd a0c1 e5bb
0.06376107 0.011719689 0.06773879 0.09678716 0.10944868 -0.061135244 0.040707767 -0.11944537
0.038810104 -0.019226072 -0.11871242 0.054534454 -0.05339696 0.063394666 0.0046356614 0.11600278
-0.102552 -0.039432403 0.019243458 0.039711855 -0.0050628236 0.07020302 0.122443214 0.043034505
-0.08371873 0.11852168 0.10456865 0.005480321 -0.011965014 -0.12393147 0.11312736 0.034309488
-0.10973199 0.021943644 -0.03970588 -0.022384105 0.02810898 0.048659444 -0.10432768 -0.04781381
-0.0137078855 -0.011160129 -0.021322316 -0.11901624 0.055834696 0.047006525 -0.10490761 -0.104888186
-0.006739093 -0.10568799 0.055431798 0.06124416 0.041773476 0.0024864227 0.03182187 -0.057919353
0.06636393 -0.033631224 0.061558258 0.044768035 -0.04771652 -0.019708142 -0.03711751 -0.0070116073
