assets/model/phrase007_speech_model.pth (torch, 145844 bytes, 7 tensors)

conv1.weight f4 [64, 13, 3]
0	0xbcacc162	-0.021088306
1	0xbd3a8e89	-0.04554609
2	0x3e1e85d6	0.15480742
3	0xbbf7ed8d	-0.00756616
4	0x3d057111	0.03257853
5	0xbb23945a	-0.002496025
6	0x3dc3420a	0.0953408
7	0x3d135f0d	0.03597932
8	0xbd7410d9	-0.05958638
9	0xbd43382f	-0.047661003
10	0xbe248bff	-0.1606903
11	0xbc9e19dd	-0.019299442
12	0x3e08c2a6	0.13355502
13	0x3d33781d	0.04381572
14	0x3d720cdb	0.05909429
15	0x3d8644dd	0.065561034
16	0xbcb0ed5a	-0.021597553
17	0xbde6a07a	-0.11261077
18	0x3cc2d0f8	0.023781285
19	0x3dda5198	0.10660094
20	0x3df11feb	0.11773666
21	0x3e092c88	0.13395894
22	0x3e0949d2	0.13407066
23	0x3ccd45c2	0.025057677
24	0x3d7d8a96	0.061899744
25	0xbcce5b6e	-0.025190081
26	0xbd8baadd	-0.06819699
27	0x3d70fc37	0.05883428
28	0xbdf0ba68	-0.11754304
29	0x3dc044d0	0.09388125
30	0xbde875a4	-0.11350563
31	0xbde1fbcc	-0.110343546
32	0x3d04482a	0.032295384
33	0xbe1b9c8c	-0.15196437
34	0x3db0d543	0.086344264
35	0xbe086dc6	-0.13323125
36	0xbe06c047	-0.13159285
37	0xbe1b802f	-0.15185617
38	0x3d78a662	0.06070555
39	0xbca26314	-0.019822635
40	0x3bb45570	0.005503349
41	0xbdfdfac4	-0.12401345
42	0xbde09ef1	-0.10967816
43	0x3cbe90b6	0.023262363
44	0xbce1d027	-0.027565075
45	0xbdafd4fc	-0.085855454
46	0x3e013a2c	0.12619847
47	0xbd96979d	-0.07353137
48	0x3d001de8	0.03127852
49	0xbd049ded	-0.032377172
50	0x3d986d1e	0.074426875
51	0xbdc12bb8	-0.09432167
52	0x3d353a2e	0.044244938
53	0xbe14b455	-0.14521916
54	0xbdaefc05	-0.08544163
55	0xbe01aa2c	-0.12662572
56	0x3dda83b9	0.10669655
57	0x3df624f4	0.12018767
58	0xbdafffe2	-0.08593728
59	0xbe0cc145	-0.13745601
60	0x3dfb610b	0.12274369
61	0x3d7d0bae	0.061778717
62	0x3d296f79	0.041366074
63	0xbca9df3f	-0.020736335
64	0x3cdf78f9	0.027279364
65	0xbde68352	-0.11255516
66	0xbdf76bab	-0.12081083
67	0x3d6c9198	0.057756037
68	0x3cfa2e0a	0.030539531
69	0xbdc1d3f1	-0.09464253
70	0xbdc3f5d6	-0.09568374
71	0x3d9b2ca7	0.07576876
72	0x3e112cb7	0.14177214
73	0x3a8954cb	0.0010477541
74	0xbe0c3c2d	-0.1369483
75	0x3d2bf04b	0.041977208
76	0xbe0d3644	-0.13790232
77	0xbde5a3be	-0.11212872
78	0x3dd2ef2a	0.10299523
79	0xbd821dc6	-0.06353335
80	0x3dae4216	0.08508699
81	0xbdbe528b	-0.092930876
82	0xbe289a0d	-0.16465016
83	0x3d4b78b8	0.049675673
84	0x3d767e64	0.06017913
85	0x3d9ad480	0.075600624
86	0xbd7ac7a4	-0.06122555
87	0xbd83cf57	-0.06436031
88	0x3e21fb51	0.15818526
89	0xbbe2fe07	-0.006927255
90	0x3dd02f18	0.101652324
91	0x3d1d2862	0.03836859
92	0x3c223d14	0.0099022575
93	0x3c7d025b	0.015442456
94	0x3de1be63	0.110226415
95	0x3aa43dec	0.0012530661
96	0xbe11bf22	-0.14233068
97	0x3e1091c3	0.14118104
98	0xbdb9d129	-0.09073097
99	0xbd24bc02	-0.04021836
100	0xbd00a040	-0.031402826
101	0x3e5c7ffb	0.21533196
102	0x3dd013ec	0.1016005
103	0xbe002fa9	-0.12518181
104	0x3bda6bb5	0.0066656717
105	0xbe189bc5	-0.14903171
106	0x3dbe355d	0.09287522
107	0x3d79e0c3	0.061005365
108	0x3df0411b	0.11731168
109	0x3d994e4b	0.07485636
110	0x3e2174cf	0.15767215
111	0xbdffefe1	-0.12496925
112	0xbddd357f	-0.10801219
113	0x3e321d72	0.17394045
114	0xbd805015	-0.062652744
115	0xbddf0170	-0.10888946
116	0x3e03ba20	0.1286397
117	0x3d61be69	0.05511323
118	0xbccc992d	-0.024975384
119	0x3df38622	0.11890818
120	0xbe0fc563	-0.14040141
121	0xbdc7a188	-0.097476065
122	0xbd3f1d42	-0.04665876
123	0xbe28b9dc	-0.1647715
124	0xbd63d5b4	-0.055623725
125	0xbce23268	-0.027611926
126	0x3de7b206	0.11313252
127	0x3d854bf5	0.06508628
128	0x3d810413	0.06299605
129	0x3d924bf3	0.071433924
130	0xbdca15e0	-0.098674536
131	0x3d8de96e	0.06929289
132	0x3dc296a7	0.09501391
133	0xbbc142b4	-0.005897844
134	0x3c74bddf	0.014937847
135	0xbafdaa58	-0.0019353135
136	0x3d6fa02a	0.058502354
137	0x3dce74f8	0.10080904
138	0x3d732fb5	0.05937167
139	0xbdf9be0b	-0.12194451
140	0x3d8d9d61	0.06914783
141	0xbda8eaa1	-0.08247877
142	0xbe06906b	-0.13141029
143	0x3df6152a	0.120157555
144	0x3d6fc311	0.05853564
145	0x3df2873e	0.11842202
146	0xbd29e4e6	-0.04147806
147	0xbe009b75	-0.12559302
148	0xbd84ead7	-0.06490105
149	0xbdf15941	-0.11784602
150	0xbd74309f	-0.05961668
151	0x3cb07707	0.021541132
152	0xbe271e4b	-0.1632015
153	0x3d8dd9de	0.069263205
154	0x3dd9d0a4	0.10635498
155	0x3dcae89f	0.0990765
156	0x3e12e8db	0.1434664
157	0x3db17f22	0.08666827
158	0x3e22dbdb	0.1590418
159	0xbc0b3884	-0.008497361
160	0xbb696cab	-0.003561775
161	0x3e21f6d3	0.15816812
162	0x3d0284e8	0.03186503
163	0xbd88104e	-0.06643735
164	0x3d2f3c36	0.04278203
165	0x3dd0a128	0.10186988
166	0x3e0b123b	0.13581173
167	0x3dfde986	0.12398057
168	0x3dbff6ec	0.093732685
169	0xbcb8df40	-0.022567391
170	0xbdbc9ea0	-0.09209943
171	0xbd6d7ec9	-0.05798224
172	0x3da92d4e	0.08260594
173	0xbd3de0ea	-0.046357073
174	0xbd87f8df	-0.06639265
175	0x3d23dbe8	0.04000464
176	0x3d2930ab	0.04130618
177	0xbd8cf683	-0.06882956
178	0x3e047d48	0.12938416
179	0x3c26a041	0.010170043
180	0x3dd86fd2	0.10568203
181	0x3c42ab42	0.011881651
182	0x3c3f1a04	0.011663917
183	0xbda3e7a0	-0.08003163
184	0x3e1cbbc8	0.15306008
185	0xbc88fd1b	-0.016722253
186	0xbdbb947b	-0.0915918
187	0xbddc61bb	-0.10760828
188	0x3dd1cdbd	0.102443196
189	0x3c3f8c40	0.011691153
190	0xbdba4d71	-0.09096802
191	0xbcbcd673	-0.023051476
192	0x3cfdcd20	0.0309816
193	0xbb20389f	-0.0024447811
194	0x3c642c2f	0.01392655
195	0xbdd17ffe	-0.10229491
196	0x3c460f11	0.012088553
197	0xbc8e126a	-0.017342765
198	0xbdd7cac2	-0.1053672
199	0x3c979401	0.018503191
200	0x3cff8b2b	0.03119429
201	0x3d73df95	0.059539396
202	0x3df111a1	0.117709406
203	0x3d9b8996	0.07594602
204	0xbe283598	-0.16426694
205	0xbd9cc4a8	-0.07654697
206	0xbdd1e331	-0.102484114
207	0x3de9fa40	0.114246845
208	0x3ded491e	0.115862116
209	0x3dae903b	0.085236035
210	0x3dbcb9c0	0.092151165
211	0xbe1bb6f8	-0.15206516
212	0x3d59a1df	0.053132888
213	0x3d30bce8	0.043148905
214	0x3da3cfa5	0.079985894
215	0x3d8f5b1d	0.069998
216	0x3e0dad5f	0.13835667
217	0xbd66eff3	-0.056381177
218	0x3d566609	0.052343402
219	0x3d84d472	0.06485833
220	0x3c910153	0.017700827
221	0x3e1e8daa	0.15483728
222	0x3d131dae	0.035916977
223	0x3deafba6	0.114737794
224	0xbe02553b	-0.12727825
225	0xbaa99edd	-0.0012941022
226	0xbd2e0d02	-0.042492874
227	0xbcfede06	-0.031111728
228	0x3dae54d6	0.08512275
229	0xbe0d497c	-0.13797563
230	0xbd060913	-0.032723498
231	0xbe166d2c	-0.14690083
232	0x3d83dc6a	0.06438525
233	0xbddccf1a	-0.10781689
234	0xbd9dca14	-0.07704559
235	0xbdf4808b	-0.1193858
236	0x3e1a515c	0.15070099
237	0xbaef7bd9	-0.0018271162
238	0xbda9c913	-0.08290305
239	0xbe26cff1	-0.16290261
240	0x3d7de8e7	0.06198969
241	0xbe0e0b37	-0.13871466
242	0xbdb475e2	-0.08811547
243	0x3d80ea57	0.06294697
244	0x3e17c531	0.14821316
245	0x3d6f8ae4	0.058482066
246	0x3e21ecc6	0.15812978
247	0x3d6221a0	0.05520785
248	0x3de0b748	0.10972458
249	0x3e1deddc	0.15422767
250	0x3b202169	0.0024433977
251	0x3cdb410e	0.026764419
252	0xbca855f8	-0.020548806
253	0xbdbb2382	-0.09137632
254	0xbdcc8cc5	-0.09987787
255	0x3e06fec2	0.1318312

conv1.bias f4 [64]
0	0x3db1c1b2	0.086795226
1	0x3d6f0494	0.058353975
2	0x3d8c58e5	0.06852893
3	0x3da65b5a	0.08122893
4	0x3ce723d6	0.02821533
5	0x3e1b2fb7	0.1515492
6	0x3d79cbc2	0.060985334
7	0x3d5efe08	0.05444148
8	0x3db45032	0.088043585
9	0x3ded68f9	0.115922876
10	0xbe25a6ef	-0.16176961
11	0x3c81a03e	0.01582348
12	0xbda733b0	-0.081641555
13	0x3c658ef0	0.01401113
14	0xbe0ee29c	-0.13953632
15	0xbc3430b0	-0.010997936
16	0x3e15fb88	0.14646733
17	0x3c37c988	0.011217482
18	0x3da4d636	0.0804867
19	0xbe06ad6e	-0.13152096
20	0xbd9f344e	-0.07773648
21	0xbe1f80a6	-0.15576419
22	0xbd8bd737	-0.06828158
23	0xbd750001	-0.059814457
24	0xbd4b21ec	-0.049592897
25	0x3e191451	0.14949156
26	0x3da9802e	0.082764015
27	0xbc93ec4b	-0.01805701
28	0xbcd6076b	-0.026126584
29	0xbd81620b	-0.06317528
30	0xbd36ee47	-0.044660833
31	0x3e20794e	0.15671274
32	0x3e094c8d	0.13408108
33	0x3e1a396c	0.15060967
34	0xbd8a6cfa	-0.06759067
35	0xbcf925a9	-0.030413466
36	0x3e1cbb8e	0.15305921
37	0xbda2eb7e	-0.07955073
38	0x3c85bcce	0.01632538
39	0xbe215b13	-0.15757398
40	0xbda31b78	-0.079642236
41	0x3db483b1	0.08814181
42	0xbe01857c	-0.12648576
43	0x3c55c4a8	0.013047375
44	0xbdccac2b	-0.09993776
45	0x3e026d78	0.12737072
46	0x3c9cd5bd	0.019144887
47	0xbd93b113	-0.072115086
48	0xbe0bbe3c	-0.13646787
49	0x3d728cef	0.059216436
50	0x3d9cc811	0.07655347
51	0x3cd141c4	0.025544055
52	0xbdfb7eef	-0.1228007
53	0x3dc46d26	0.09591131
54	0xbdac08ed	-0.0840014
55	0x3c79bfe4	0.015243504
56	0xbd713ece	-0.058897786
57	0x3e118d2a	0.14214006
58	0x3dfb30c5	0.122651614
59	0x3dbac485	0.091195144
60	0xba3840bf	-0.0007028691
61	0x3dcfb5ca	0.101420954
62	0x3d23e307	0.040011432
63	0xbbe4d63f	-0.006983548

conv2.weight f4 [128, 64, 3]
0	0x3d6d9fa1	0.058013562
1	0x3d5fd729	0.054648552
2	0x3cbc9bdf	0.023023544
3	0xbd8df5c1	-0.069316395
4	0xbc2a9731	-0.010412023
5	0xbd0c71c4	-0.034288183
6	0xbd763a7b	-0.060114365
7	0x3d11867b	0.03552864
8	0xbbc5d15d	-0.006036921
9	0x3d69deb7	0.057097163
10	0xbcd3275e	-0.025775608
11	0x3d698c67	0.057018664
12	0xbd5291b3	-0.05140848
13	0xbc3573c1	-0.011074961
14	0xbd24bdb2	-0.04021997
15	0x3d48a7b1	0.048988048
16	0x3bd2daad	0.0064347596
17	0x3c83175d	0.016002351
18	0x3b8f8dbd	0.00438091
19	0x3c372296	0.0111776795
20	0xbd2d8798	-0.04236564
21	0x3d60e361	0.054904345
22	0xbc598bb0	-0.013277933
23	0xbc39400d	-0.011306775
24	0x3d6978c7	0.056999948
25	0xbd90efde	-0.07077001
26	0xbd8d66f3	-0.06904402
27	0x3d0b97ec	0.03408043
28	0xbd733efe	-0.059386246
29	0x3d214269	0.039369974
30	0xbce5abdb	-0.028036049
31	0x3c81b67c	0.015834086
32	0x3d86ef06	0.06588559
33	0x3d719195	0.05897673
34	0xbaf7e93b	-0.0018914113
35	0xbc8a2ebb	-0.016867986
36	0xbd164d94	-0.036695078
37	0x3d7caccb	0.061688226
38	0x3be9868a	0.007126634
39	0xbd6284e2	-0.05530251
40	0xbcbe4bda	-0.023229528
41	0xbd540176	-0.051759206
42	0x3b9234e2	0.0044618705
43	0xbd7a5a16	-0.06112107
44	0xbd84fce6	-0.06493549
45	0x3c20e6d8	0.009820662
46	0xbce090ae	-0.027412739
47	0xbd400ddc	-0.046888217
48	0x3d22f231	0.039781753
49	0xbb825e22	-0.0039785067
50	0xbd804ee5	-0.06265048
51	0x3d66f242	0.05638338
52	0xbd55763d	-0.052114714
53	0xbd70fbe4	-0.05883397
54	0xbd38abc5	-0.045085687
55	0xbd84689d	-0.06465266
56	0xbd1adba4	-0.037807122
57	0xbc4cbb5b	-0.012495841
58	0xba011375	-0.0004923859
59	0xbd3af64a	-0.045645036
60	0x3c25ae71	0.010112391
61	0xbd932c60	-0.07186198
62	0x3bd1afc7	0.006399128
63	0xbcc6efe7	-0.024284316
64	0xbc90404e	-0.017608788
65	0xbbb5dd92	-0.005550095
66	0x3c992d48	0.01869835
67	0xbd37218a	-0.04470972
68	0xbd165af2	-0.036707826
69	0x3d50319f	0.050828572
70	0x3d65667e	0.056005947
71	0x3d87b0d4	0.06625524
72	0x3d836fb7	0.06417792
73	0xbcb273d8	-0.021783754
74	0x3c10f1da	0.008846724
75	0xbd552971	-0.052041475
76	0xbb7f66f9	-0.0038971289
77	0xbd8833cd	-0.06650505
78	0x3c104cff	0.00880742
79	0xbd9b284b	-0.07576045
80	0xbca4d230	-0.020119756
81	0x3ca29818	0.019847915
82	0x3c245979	0.010031098
83	0xbcfb1bef	-0.030652968
84	0x3b0de90f	0.0021653806
85	0xbd773475	-0.06035276
86	0xbd4d83f2	-0.05017466
87	0x3cfca6b3	0.030841207
88	0xbd4fa833	-0.050697517
89	0x3b4bc670	0.003109362
90	0xbc495806	-0.012289053
91	0xbd2c2f64	-0.042037383
92	0x3ce4da30	0.027936071
93	0x3d160991	0.036630217
94	0x3d5a8d7b	0.053357583
95	0x3ca3751b	0.019953301
96	0x3c756719	0.014978194
97	0xbd3bd020	-0.04585278
98	0xbcf2e08b	-0.029648086
99	0xbd81dc81	-0.06340886
100	0x3d30dedb	0.04318128
101	0xbce7e497	-0.028307242
102	0xbaf9074f	-0.001899937
103	0x3cf3d128	0.02976282
104	0x3ccdbc04	0.025114067
105	0x3b432860	0.0029778704
106	0xbcc88e09	-0.02448179
107	0xbd652a77	-0.0559487
108	0x3d356962	0.044289954
109	0x3d55b3f2	0.052173562
110	0x3cda8d65	0.02667875
111	0xbb8c9400	-0.004290104
112	0x3b56980c	0.0032744436
113	0x3d897947	0.06712585
114	0xbd9baeb3	-0.076016806
115	0xbc89c2a1	-0.01681644
116	0x3cea7ae9	0.028623061
117	0x3cbe1b75	0.023206452
118	0xbd93fd7c	-0.07226083
119	0x3d71ca96	0.05903109
120	0xbd521f78	-0.051299542
121	0xbd69599b	-0.05697022
122	0xbd2e32f8	-0.042529076
123	0xbd6073ef	-0.054798063
124	0xbcffb93b	-0.031216254
125	0xbd8e52c4	-0.0694938
126	0xbd262bc6	-0.04056909
127	0xbcf0f394	-0.029413022
128	0x3d146583	0.03622962
129	0xbd7ecedf	-0.062209006
130	0xbd87bb9c	-0.066275805
131	0xbc5ae552	-0.013360338
132	0xbd8ea5d4	-0.06965223
133	0xbc1dacbc	-0.009623703
134	0x3d85a717	0.065260105
135	0x3b392d1c	0.0028255647
136	0x3c032b05	0.008005862
137	0xbc410f01	-0.011783362
138	0xbd2997a9	-0.0414044
139	0x3cccfa6e	0.025021758
140	0x3d82aba3	0.06380393
141	0xbd331faf	-0.043731388
142	0xbd29fc0b	-0.041500133
143	0xbd7c3a23	-0.06157888
144	0x3c9c068c	0.01904609
145	0x3bd80dc1	0.0065934365
146	0xbd884a04	-0.06654742
147	0x3d1f4379	0.038882706
148	0x3ccd06e2	0.025027696
149	0xbd241d4e	-0.04006701
150	0x3d8511ab	0.064975105
151	0xbc21c44f	-0.009873464
152	0xbd205a9e	-0.03914892
153	0xbd4d54b0	-0.050129592
154	0xbd26a0b1	-0.04068059
155	0x3d88850d	0.066660024
156	0xbd496584	-0.04916908
157	0xbd8a15f9	-0.06742472
158	0xbd2a72e1	-0.041613463
159	0x3a30d324	0.00067453296
160	0x3cd2f369	0.025750833
161	0x3d82ea4e	0.06392346
162	0xbbd1c3d2	-0.0064015174
163	0xbd5c695a	-0.05381141
164	0xbc6b9d28	-0.014380731
165	0x3ca44fc2	0.020057563
166	0xbd912fe6	-0.07089214
167	0x3cc6055e	0.024172481
168	0xbd113b21	-0.03545678
169	0x3d897509	0.06711776
170	0xbd6ee494	-0.058323458
171	0xbb53148b	-0.003220829
172	0x3d8d7858	0.069077194
173	0x3ced9cea	0.029005487
174	0x3c8cc259	0.017182516
175	0xbc1a3770	-0.009412631
176	0xbbe056a6	-0.006846267
177	0x3d49671e	0.049170606
178	0x3cdcc07e	0.026947256
179	0xbd68d7a4	-0.056846276
180	0x3d3daaaf	0.046305355
181	0xbbf3efb7	-0.0074443477
182	0xbc5c27c8	-0.013437219
183	0x3d2905ed	0.041265417
184	0xbd0a0a00	-0.033700943
185	0x3c522d09	0.01282812
186	0xbd5c3f50	-0.053771317
187	0xbd1293a9	-0.03578535
188	0xbcf4fec4	-0.029906638
189	0xbc1709a6	-0.009218609
190	0xbd2d885a	-0.042366363
191	0xbd7f49ca	-0.06232623
192	0xbd6d2f07	-0.057906177
193	0xbaf6d308	-0.0018831203
194	0xbd89d16e	-0.06729399
195	0xbc7cec60	-0.015437216
196	0x3ca641bf	0.020295022
197	0xbc0bf9c8	-0.008543439
198	0x3ae9fe20	0.0017852224
199	0xbc246014	-0.010032672
200	0x3cd13d81	0.025542023
201	0xbd607d5a	-0.054807045
202	0x3c01a17f	0.007912039
203	0xbc37ef38	-0.011226468
204	0xbd59834f	-0.05310374
205	0xbcee9c09	-0.029127138
206	0xbd39324d	-0.045213986
207	0x3d33b8d4	0.043877438
208	0x3d79a7c1	0.060951
209	0xbba12c62	-0.004918621
210	0xbd76906e	-0.060196333
211	0xbac9b262	-0.0015388245
212	0xbc996ef5	-0.018729666
213	0x3cb3103e	0.02185833
214	0x3d055dd5	0.03256019
215	0xbd60ae1b	-0.05485354
216	0x3d672ce9	0.056439314
217	0xbd4843b6	-0.0488927
218	0xbc0e5cda	-0.00868913
219	0x3d20528d	0.039141227
220	0xbd8e721a	-0.06955357
221	0xbc792a10	-0.015207782
222	0xbc64dd29	-0.013968744
223	0x3b932424	0.0044903923
224	0x3d09a7b1	0.03360719
225	0xbd6b78b8	-0.057488173
226	0x3d7ed806	0.062217735
227	0x3cddb242	0.027062539
228	0x3d81f43b	0.063454114
229	0x3d4e53da	0.050372936
230	0x3d1b7e77	0.037962403
231	0xbc461624	-0.01209024
232	0x3d08fb61	0.03344286
233	0x3d0ee582	0.034886844
234	0xbc92e6de	-0.017932352
235	0x3d7cc915	0.061715204
236	0x3d74e045	0.059784193
237	0xbcac8c94	-0.021063127
238	0xbd1e6ce6	-0.038678072
239	0xbd5be388	-0.053683788
240	0xbd49aef7	-0.049239125
241	0xbaafe07a	-0.001341834
242	0x3b160749	0.0022892526
243	0x3b3be7be	0.0028672065
244	0xbcca3622	-0.024684016
245	0x3d90075e	0.07032655
246	0xbd6610af	-0.056168254
247	0x3d8b0bf1	0.06789387
248	0x3caabc07	0.020841612
249	0x3ce124f4	0.027483441
250	0x3d8cc650	0.068737626
251	0xbd057ddd	-0.032590736
252	0x3d942369	0.072333165
253	0x3d75e5a8	0.06003347
254	0xbd129979	-0.035790894
255	0xbd8d7cd9	-0.069085784

conv2.bias f4 [128]
0	0xbd76382e	-0.06011217
1	0xbccdd27d	-0.025124783
2	0xbcb75dbf	-0.022383569
3	0x3d7c4e38	0.061598033
4	0xbcf28a2b	-0.0296069
5	0x3d6bdc84	0.057583347
6	0xbcaa7fd9	-0.020812916
7	0x3d35bca0	0.04436934
8	0x3ae2289c	0.0017254534
9	0x3ce3f407	0.027826322
10	0xbcd76b0b	-0.02629616
11	0xbc8997ab	-0.016795954
12	0xbd658c87	-0.05604222
13	0xbd29e0f9	-0.041474316
14	0x3c8c23ee	0.017106976
15	0x3ce22aab	0.027608236
16	0x3d1bc0d0	0.038025677
17	0xbc23122b	-0.009953062
18	0xbc23c00a	-0.009994516
19	0xbb6f68ed	-0.0036531046
20	0xbd7e5bdd	-0.062099326
21	0x3cd620b5	0.026138643
22	0x3be3eaab	0.006955465
23	0x3c8463d0	0.016160876
24	0x3cb08f95	0.02155284
25	0x3d6d3ed3	0.057921242
26	0xbd7724dc	-0.060337886
27	0xbd7d345a	-0.061817504
28	0x3d2212fe	0.039568894
29	0x3d4c0b76	0.049815618
30	0xbd2a1fba	-0.041534163
31	0xbabf1662	-0.0014578814
32	0xbc25df77	-0.010124079
33	0x3c5255f9	0.01283788
34	0x3c6cdf41	0.014457525
35	0xbbca43e6	-0.006172645
36	0xbd91a30b	-0.07111176
37	0x3d005cd6	0.031338535
38	0x3d61dc80	0.055141926
39	0xbbff5df0	-0.0077931806
40	0xbd6d669c	-0.057959184
41	0xbd443b4a	-0.047908105
42	0xbc2d6974	-0.010584224
43	0xbd284276	-0.041079007
44	0xbd942b6a	-0.07234843
45	0x3d58b434	0.05290623
46	0xbd71ce14	-0.059034422
47	0x3d733818	0.059379667
48	0xbac4304a	-0.0014968005
49	0xbd303249	-0.043016706
50	0xbd0bc093	-0.0341192
51	0xbd7fff70	-0.062499464
52	0xbc921872	-0.017833922
53	0x3c07b13b	0.008282001
54	0x3d2b4cde	0.041821353
55	0x3d93f3cd	0.07224236
56	0x3d45ea62	0.048319228
57	0xbc4faa82	-0.01267493
58	0x3d8ce453	0.06879487
59	0x3d902348	0.07037979
60	0x3d6c96e6	0.057761095
61	0xbcc5fa52	-0.024167214
62	0x3d02b3a9	0.03190962
63	0x3d6c6741	0.057715658
64	0xbd4fda47	-0.050745275
65	0xbd85dbbc	-0.06536052
66	0x38e9bda4	0.00011145629
67	0xbd829694	-0.06376377
68	0xbd1c27b7	-0.038123813
69	0xbc15bf00	-0.009139776
70	0xbd2cfef9	-0.04223535
71	0x39b2eb3f	0.00034126078
72	0xbd43c747	-0.047797468
73	0x3d174d8c	0.03693919
74	0xbcaa4258	-0.020783588
75	0xbd8fe8d1	-0.07026828
76	0x3d274a9a	0.04084263
77	0xbd53b391	-0.05168492
78	0xbd144674	-0.0362
79	0xbcf5f74f	-0.030025152
80	0x3d36fe13	0.044675898
81	0xbbc2cdbb	-0.005944935
82	0x3d0f0f2c	0.03492658
83	0xbd8bc2e4	-0.06824282
84	0xbd182760	-0.037146926
85	0x3d7c2d48	0.06156662
86	0xbd3f4aec	-0.04670231
87	0xbd8bfc9c	-0.06835291
88	0xbcb342cf	-0.021882443
89	0xbaf00697	-0.0018312511
90	0x3d89d1fe	0.06729506
91	0x3c449aaa	0.011999765
92	0xbd4dc268	-0.05023423
93	0x3d62353b	0.055226546
94	0xbb41470a	-0.0029491805
95	0x3cda627e	0.026658293
96	0x3c12f7ce	0.008970214
97	0xbd2223fc	-0.0395851
98	0x3d348d9d	0.044080365
99	0x3be3754c	0.006941473
100	0xbc10434f	-0.00880511
101	0xbd8a054c	-0.067392915
102	0xbb254e6c	-0.0025223745
103	0x3d78e208	0.060762435
104	0x3d03f8b6	0.03221961
105	0xbd24345e	-0.040089004
106	0xbd1325c2	-0.03592468
107	0x3cd8c33b	0.02646028
108	0x3b948e59	0.0045335707
109	0x3d4ad1df	0.049516555
110	0xbcc2fef3	-0.02380321
111	0xbd1d6694	-0.038427904
112	0xbd186dcd	-0.03721409
113	0x3ba9b46a	0.0051789777
114	0xbce14558	-0.027498886
115	0xbc8b3c0a	-0.016996402
116	0x3d04ee4e	0.032453828
117	0x3c75caf4	0.015002001
118	0xbc8540a1	-0.016266169
119	0x3beb12f6	0.007173891
120	0xbd835115	-0.064119495
121	0xbd718f8d	-0.05897479
122	0x3c92889f	0.017887412
123	0x3d622932	0.05521507
124	0xbcfcf68f	-0.030879287
125	0x3d24cb41	0.0402329
126	0xbd1986db	-0.037482124
127	0xbd34e7e5	-0.044166464

fc1.weight f4 [64, 128]
0	0x3a2bea61	0.00065580575
1	0xbd04916e	-0.032365255
2	0x3cf5d53c	0.030008905
3	0x3d82d19b	0.06387635
4	0xbd3018b5	-0.042992312
5	0x3d8df504	0.06931499
6	0x3cb7b407	0.02242471
7	0xbca84a2a	-0.020543177
8	0xbd2421e1	-0.040071372
9	0xbd74d52c	-0.05977361
10	0x3d840f35	0.06448213
11	0xbd4e1945	-0.050317068
12	0xbdb04735	-0.08607332
13	0xbca2dc14	-0.019880332
14	0x3c285b6c	0.010275703
15	0xbd1c403b	-0.038147192
16	0x3d0a311e	0.033738248
17	0x3da7d2cd	0.08194504
18	0x3ca3f180	0.020012617
19	0x3d683e2f	0.056699928
20	0xbd096db5	-0.03355189
21	0xbd053ea8	-0.032530457
22	0xbbf22d82	-0.007390679
23	0x3d3de590	0.046361506
24	0x3d6d4e78	0.05793616
25	0xbd3cfacc	-0.046137616
26	0x3cd09e69	0.02546616
27	0x3ccba51e	0.024859007
28	0xbd00d154	-0.03144963
29	0x3d420257	0.047365513
30	0xbdb8e8f2	-0.09028806
31	0x3d487680	0.048941135
32	0xba3fe22c	-0.0007319774
33	0xbda2f0b2	-0.07956065
34	0xbdb09238	-0.08621639
35	0x3d973e6d	0.07384954
36	0x3ce213ee	0.027597394
37	0xbc29e6a5	-0.010369931
38	0xbd9d37cc	-0.07676658
39	0xbd4265e4	-0.04746045
40	0xbd8b8535	-0.068125166
41	0x3d3667a6	0.04453244
42	0x3d092ea3	0.033491742
43	0xbdad52ab	-0.08463033
44	0x3cebfafc	0.028806202
45	0x3d32765b	0.043569904
46	0xbd03c123	-0.03216661
47	0x3d3f7b56	0.04674848
48	0x3d4b60b9	0.04965279
49	0xbd800757	-0.062514
50	0x3cdae511	0.026720555
51	0x3d290889	0.041267905
52	0x3d380342	0.044924982
53	0x3d401a0e	0.046899848
54	0x3c6adee0	0.014335364
55	0xbbe6608a	-0.0070305513
56	0x3d20e468	0.039280325
57	0x3c05e201	0.008171559
58	0x3c866b46	0.016408574
59	0xbce63a8e	-0.028104093
60	0xbd96202b	-0.07330354
61	0xbd29839e	-0.041385286
62	0xbd697fed	-0.057006765
63	0xbd179854	-0.037010506
64	0x3d6a1f9a	0.057159044
65	0x3d9329ab	0.07185682
66	0x3d8b8784	0.06812957
67	0x3d25495f	0.040353175
68	0xbc80b744	-0.015712388
69	0xbd39c908	-0.045357734
70	0xbda04a74	-0.07826701
71	0x3c718155	0.014740308
72	0xbc8b5f1c	-0.017013125
73	0xbd9156c8	-0.0709663
74	0xbd23eecc	-0.040022656
75	0x3d90ac00	0.070640564
76	0xbd9b8be5	-0.07595042
77	0xbd86ea18	-0.065876186
78	0x3ca8891e	0.020573195
79	0xbd655e4c	-0.05599813
80	0xbd249f8f	-0.04019123
81	0xbd50cd72	-0.050977178
82	0x3d01956b	0.031636637
83	0x3d2363eb	0.03989021
84	0xbd72ffc6	-0.059325956
85	0x3d6f69ef	0.058450636
86	0xbd9bf8f3	-0.07615843
87	0x3c60ed1a	0.013728404
88	0x3d490d4a	0.04908494
89	0xbd52209a	-0.051300623
90	0xbc8c20bc	-0.017105453
91	0xbcc139f0	-0.023587197
92	0xbce10d34	-0.027472116
93	0x3d870909	0.0659352
94	0x3ac0cfe8	0.0014710398
95	0xbc3ebc4c	-0.011641573
96	0x3da6f823	0.08152797
97	0xbd64ee4a	-0.055891313
98	0xbd3d8944	-0.046273485
99	0x3bf73225	0.0075438195
100	0x3d78dea9	0.06075922
101	0x3d4586a3	0.048224103
102	0xbd84945d	-0.064736106
103	0xbd89c418	-0.06726855
104	0xbd8bc70e	-0.06825076
105	0xbcdaa208	-0.02668859
106	0x3d6fe4a5	0.05856766
107	0xbd9d9d17	-0.07695978
108	0x3d91ea1a	0.071247295
109	0x3d6b5735	0.057456214
110	0xbc66becc	-0.014083575
111	0x3d0506f8	0.03247735
112	0x3ae801a2	0.0017700682
113	0xbd1c44e1	-0.038151626
114	0xbd64e83b	-0.055885535
115	0x3d13eba9	0.036113415
116	0x3d850918	0.06495875
117	0x3d094adf	0.03351867
118	0x3d56c4ce	0.05243378
119	0xbd85e303	-0.0653744
120	0xbdac2f2f	-0.08407437
121	0xbd99fb2b	-0.075186096
122	0xbd94fd51	-0.07274879
123	0xbd5c2622	-0.053747304
124	0xbd23b81c	-0.039970502
125	0x3d42be09	0.047544513
126	0x3da0cc19	0.078514285
127	0x3da5ac1a	0.080894664
128	0x3b653060	0.003497146
129	0xbc2fbeb0	-0.010726616
130	0xbdb0c2b9	-0.086308904
131	0xbd1c633a	-0.038180567
132	0xbd6112ba	-0.0549495
133	0x3ccdcc88	0.025121942
134	0x3c142d68	0.009044029
135	0xbd04f89e	-0.032463662
136	0xbdb4d6d1	-0.088300355
137	0x3d47e98e	0.04880672
138	0x3ca0c45c	0.019624881
139	0xbc685b00	-0.014181852
140	0xbd9b1832	-0.07572974
141	0x3cec2318	0.028825328
142	0x3d2b80c6	0.041870855
143	0x3b97bfd0	0.00463102
144	0x3d751cc2	0.05984188
145	0xbd8a94bf	-0.06766652
146	0x3d228c3e	0.039684527
147	0xbc958bc8	-0.01825513
148	0xbd6e08fb	-0.058114033
149	0x3d794be2	0.060863383
150	0xbc1a0ba0	-0.009402186
151	0x3d9f0f0b	0.07766541
152	0x3d9327b1	0.07185305
153	0x3ccb5264	0.02481956
154	0xbc85b4f0	-0.01632163
155	0xba702280	-0.00091604143
156	0xbd6174d1	-0.055043045
157	0xbda18500	-0.07886696
158	0xbd15b031	-0.036544982
159	0xbd28933f	-0.04115605
160	0xbd902477	-0.07038205
161	0xbc992ed8	-0.018699095
162	0xbd90d946	-0.070726916
163	0xbcc268e0	-0.023731649
164	0x3cc72774	0.024310805
165	0x3d566256	0.052339874
166	0x3c469be8	0.012122132
167	0x3d7958d2	0.06087572
168	0x3dad739f	0.084693186
169	0x3d942c6d	0.07235036
170	0xbcd03bc4	-0.025419123
171	0xbd34b068	-0.044113547
172	0x3ce521bc	0.027970187
173	0xbcf9e946	-0.030506741
174	0xbd98492c	-0.074358314
175	0xbcde2d3c	-0.027121179
176	0x3d995851	0.07487548
177	0xbcd24adc	-0.025670461
178	0x3d586876	0.052833997
179	0xbd57ced6	-0.05268749
180	0xbc826880	-0.01591897
181	0xbd595ace	-0.053065114
182	0x3dafeea9	0.08590443
183	0xbcf17b6e	-0.029477801
184	0xbd8ead2d	-0.069666244
185	0xbd829b05	-0.06377224
186	0xbd03a529	-0.03213993
187	0x3da0310b	0.07821854
188	0xbc81cdf0	-0.015845269
189	0xbd67e34e	-0.05661326
190	0x3d8cfdeb	0.068843685
191	0x3ce0f508	0.02746059
192	0xbce91b48	-0.028455392
193	0xbc513830	-0.012769744
194	0xbd0620dd	-0.032746185
195	0x3d380bd2	0.044933148
196	0x3db45b77	0.08806508
197	0x3ca28b6c	0.019841872
198	0xbcc5f098	-0.024162576
199	0xbd25eccf	-0.04050904
200	0xbda3d108	-0.07998854
201	0xbc9457a4	-0.018108197
202	0xbd148d27	-0.036267426
203	0xbd4fc41b	-0.05072413
204	0xbc4f59d0	-0.01265569
205	0xbccd0b08	-0.025029674
206	0xbcdb638c	-0.026780866
207	0xbcd53bd4	-0.026029505
208	0x3d8de995	0.06929318
209	0xbd81d00a	-0.063385084
210	0xbc845f94	-0.016158856
211	0xbc477640	-0.012174189
212	0x3d35498e	0.0442596
213	0xbd9977ba	-0.07493539
214	0x3cf654f0	0.030069798
215	0xbd506bb4	-0.050883964
216	0xbdb0b277	-0.086277895
217	0x3ca21458	0.019785091
218	0xbbf26a70	-0.0073979422
219	0xbd90ad4a	-0.07064302
220	0xbd178bab	-0.036998432
221	0xbd078b5d	-0.03309189
222	0x3d5d0e5e	0.05396878
223	0x3d8cf391	0.06882394
224	0xbd99a076	-0.075013086
225	0x3d82476d	0.0636128
226	0x3d5161d6	0.051118694
227	0x3c317d20	0.010833055
228	0xbd047da6	-0.03234639
229	0x3d4e4116	0.05035504
230	0xbd64aa8d	-0.055826712
231	0x3c97b814	0.018520392
232	0xbd6f12cf	-0.058367547
233	0xbc021640	-0.007939875
234	0x3d8ebcb5	0.06969587
235	0xbcdeee42	-0.02721322
236	0x3d91166d	0.070843555
237	0x3c0c7d78	0.008574836
238	0x39f6cd00	0.00047073513
239	0x3d83f195	0.064425625
240	0x3d67ffa2	0.056640275
241	0x3c6ac878	0.014330022
242	0xbd950e71	-0.07278145
243	0xbca9fa10	-0.020749122
244	0x3d52f3b6	0.051501952
245	0x3d88a3b7	0.06671851
246	0xbd9c8c4f	-0.07643949
247	0xbd289b88	-0.04116395
248	0x3d57fdb6	0.052732192
249	0x3daa77b3	0.08323612
250	0x3d82db75	0.06389514
251	0xbd3474ec	-0.044056818
252	0x3d91e50d	0.07123766
253	0xbd99657c	-0.0749006
254	0xbada1f40	-0.0016641393
255	0xbdb12530	-0.08649671

fc1.bias f4 [64]
0	0x3d36f4c4	0.04466702
1	0xbcccca8c	-0.024998926
2	0xbc754000	-0.014968872
3	0x3d57113e	0.052506678
4	0x3d5e3c67	0.054256823
5	0x3ce6d4e6	0.02817769
6	0xbd587b79	-0.052852128
7	0xbd643a43	-0.055719625
8	0x3d532c62	0.051556
9	0x3c0cc812	0.008592622
10	0x3b50a659	0.0031837432
11	0x3d10c4ea	0.035344042
12	0xbd9219ea	-0.07133849
13	0x3da1960c	0.07889947
14	0xbbbec3e0	-0.00582169
15	0x3c38e384	0.011284713
16	0x3dafc15c	0.08581802
17	0xbd443137	-0.047898497
18	0xbca0b60b	-0.019618055
19	0xbd402006	-0.04690554
20	0xbda9c505	-0.082895316
21	0x3d956df7	0.07296365
22	0xbd115f07	-0.035491016
23	0x3d9542e3	0.07288148
24	0x3d74fa26	0.059808873
25	0x3c95e259	0.018296408
26	0xbd959b43	-0.073050044
27	0xbdb93559	-0.090433784
28	0xbd57232b	-0.052523773
29	0x3d731906	0.059350036
30	0xbd9e484c	-0.07728633
31	0xbd61c7c6	-0.05512216
32	0xbc189300	-0.009312391
33	0x3d803a54	0.06261125
34	0x3d0a8108	0.03381446
35	0x3cd71547	0.026255263
36	0x3cba2d7c	0.022726767
37	0xbd8d41a6	-0.06897287
38	0xbd610734	-0.05493851
39	0x3dae4654	0.08509508
40	0x3d56a708	0.052405387
41	0x3a484000	0.0007638931
42	0x3d1bb13a	0.038010813
43	0x3daad85f	0.08342051
44	0x3da8aadb	0.08235713
45	0xbd94f80c	-0.07273874
46	0x3d87098f	0.0659362
47	0xbdaa361e	-0.08311103
48	0x3d75ce86	0.06001141
49	0xbca3e199	-0.020005034
50	0x3c975051	0.018470915
51	0x3d5909c7	0.05298784
52	0x3d82ff95	0.06396405
53	0xbb326407	-0.0027220265
54	0x3d0b85e0	0.03406322
55	0xbd9ca646	-0.07648902
56	0x3da655a9	0.08121807
57	0xbdb41d43	-0.08794644
58	0xbd9ddde7	-0.0770834
59	0xbd1c7342	-0.038195856
60	0x3d861277	0.06546491
61	0x3d50a4be	0.05093836
62	0xbd2848e6	-0.041085146
63	0x3c811910	0.015759021

fc2.weight f4 [1, 64]
0	0x3c8f3273	0.01748011
1	0xbd95aed8	-0.073087394
2	0xbccf44d8	-0.025301382
3	0xbd07f788	-0.03319505
4	0xbd1ae9ae	-0.03782051
5	0x3d19891e	0.03748428
6	0x3d4dda5c	0.05025707
7	0x3c8d0282	0.01721311
8	0x3dfcbc72	0.123406306
9	0x3da006c3	0.0781379
10	0xbd0b8ecc	-0.03407173
11	0x3d10a12e	0.035309963
12	0xbc1f6c10	-0.009730354
13	0x3d748d29	0.059704933
14	0xbd2a408c	-0.041565463
15	0x3d265871	0.040611688
16	0x3c1943f9	0.009354585
17	0x3c189c11	0.009314553
18	0xbdd2d49d	-0.10294459
19	0xbb65f9a1	-0.0035091417
20	0xbd1135a8	-0.03545156
21	0x3bb10487	0.005402151
22	0x3c977e00	0.018492699
23	0xbdfa39aa	-0.1221803
24	0x3d410c34	0.04713078
25	0x3d1a8687	0.03772595
26	0xbd7973ec	-0.060901567
27	0x3dc7c657	0.09754627
28	0x3d7e20a6	0.062042855
29	0xbd1dcdb8	-0.038526267
30	0xbd46c63e	-0.048528902
31	0xbb456ce6	-0.0030124723
32	0xbd8c5b5c	-0.06853363
33	0xbccf9eb2	-0.025344227
34	0xbdbaa0a7	-0.09112673
35	0x3cc660d0	0.024216086
36	0xbdb4a737	-0.08820956
37	0x3de0b025	0.10971097
38	0xbd17bc70	-0.037044942
39	0x3d73312b	0.059373062
40	0xbd989e40	-0.07452059
41	0xbdcea7bc	-0.100905865
42	0x3ca58ed8	0.020209715
43	0x3d805284	0.062657386
44	0x3dc1f006	0.09469609
45	0xbdaa23e2	-0.08307625
46	0x3c35ae96	0.011088988
47	0x3dbaf186	0.09128098
48	0x3dfa924e	0.12234937
49	0xbdf14fab	-0.117827736
50	0x3a9cf1c9	0.0011973913
51	0x3d2b54f6	0.041829072
52	0xbc32592d	-0.010885519
53	0xbca995d3	-0.020701325
54	0xbdc4e8e2	-0.09614731
55	0x3dc44ea7	0.09585314
56	0x3d5c1872	0.05373425
57	0x3db8ce8e	0.09023772
58	0x3de718a5	0.112839974
59	0x3dc5e53a	0.09662862
60	0x3dae8548	0.08521515
61	0xbdbf4a2c	-0.09340319
62	0x3ba7fee0	0.005126819
63	0xbd444ad1	-0.047922913
