assets/model/phrase016_speech_model.pth (torch, 145844 bytes, 7 tensors)

conv1.weight f4 [64, 13, 3]
0	0xbd00fd97	-0.031491842
1	0xbd8c3ea5	-0.06847886
2	0xbe1b9979	-0.15195264
3	0xbe0229df	-0.12711285
4	0xbca0653d	-0.019579524
5	0x3d951009	0.07278449
6	0x3d883265	0.06650237
7	0x3d515b48	0.051112443
8	0x3d73a6be	0.05948519
9	0xbd948ff9	-0.07254023
10	0xbd885032	-0.06655921
11	0x3d44996b	0.047997873
12	0x3cbf6726	0.023364615
13	0x3e17409a	0.14770737
14	0x3d636be1	0.055522803
15	0xbc9ffa81	-0.01952863
16	0xbd85e26a	-0.06537326
17	0x3d880370	0.06641281
18	0x3d4a57a7	0.049399998
19	0x3e0b4b9e	0.13603064
20	0x3daa18e0	0.08305526
21	0x3dedad1c	0.116052836
22	0x3dbd6ee5	0.09249667
23	0xbdee1de8	-0.11626798
24	0x3d16562b	0.03670327
25	0x3d9b5592	0.075846806
26	0x3d7fd163	0.062455546
27	0x3e248f59	0.16070308
28	0x3e147249	0.14496721
29	0xbc86dbeb	-0.016462287
30	0x3da8be7b	0.08239456
31	0xbda87a11	-0.08226407
32	0xbd9a6ae3	-0.07539918
33	0x3d532904	0.051552787
34	0xbcfb576b	-0.030681333
35	0xbdaee586	-0.08539872
36	0x3dbf4673	0.09339609
37	0x3d622bef	0.05521768
38	0x3df1d9bd	0.118091084
39	0xbd112b1d	-0.035441507
40	0x3d9daede	0.07699369
41	0xbd4e96d9	-0.05043683
42	0x3dfeb910	0.124376416
43	0x3dc6efd1	0.0971371
44	0x3a49d9d7	0.0007700002
45	0xbbea7f14	-0.007156262
46	0xba9fab0c	-0.0012181713
47	0x3d9d547e	0.07682131
48	0xbd8a4e28	-0.06753188
49	0xbc11d84a	-0.008901665
50	0xbc386e84	-0.011256818
51	0x3c4207e3	0.011842701
52	0xbe18c4c6	-0.14918813
53	0x3d018e1c	0.031629667
54	0xbe1a6085	-0.15075882
55	0xbd9cd42e	-0.076576576
56	0x3db7ed37	0.08980792
57	0x3d545b23	0.051844727
58	0x3da78b5b	0.08180877
59	0xbe0f8d00	-0.14018631
60	0x3cc4882e	0.023990717
61	0xbb0c51a6	-0.002141097
62	0xbd8b11fc	-0.067905396
63	0xbdd4fb3e	-0.10399483
64	0x3dcee551	0.101023324
65	0x3cc65a40	0.024212956
66	0x3cd1b62b	0.02559956
67	0x3dd21eed	0.10259805
68	0xbdd25aab	-0.102712
69	0x3de7f47a	0.11325927
70	0xbd9e9b2d	-0.07744441
71	0xbb95c787	-0.0045709047
72	0x3df82cf0	0.12117946
73	0x3ce95100	0.028481007
74	0x3e2c59eb	0.16831176
75	0xbe067243	-0.13129525
76	0xbd41458d	-0.04718547
77	0x3daf791d	0.085680224
78	0x3dfc538b	0.12320622
79	0xbc2f70cb	-0.010708044
80	0xbe1212f8	-0.14265049
81	0x3dc02857	0.09382694
82	0x3e0650f9	0.13116826
83	0x3d272b3d	0.04081272
84	0xbda1e495	-0.07904927
85	0x3cd82b90	0.02638796
86	0x3c09bb7c	0.008406516
87	0x3df240cd	0.11828766
88	0xbe014923	-0.12625556
89	0xbd4316b4	-0.047629073
90	0xbd8831e0	-0.06650138
91	0xbc77f81b	-0.015134837
92	0x3e2913aa	0.16511407
93	0xbd59391f	-0.05303299
94	0xbd13dbe1	-0.036098365
95	0xbe08013e	-0.13281724
96	0xbdb2b8e0	-0.08726668
97	0x3e10fd91	0.14159228
98	0xbd91693a	-0.071001485
99	0x3d31d186	0.043412708
100	0xbdb5b4be	-0.088723645
101	0x3cbfee27	0.02342899
102	0x3d253385	0.040332336
103	0x3d6394f0	0.05556196
104	0x3dd989ed	0.106220104
105	0xbe089b9d	-0.13340612
106	0x3db15635	0.08659021
107	0xbd67b595	-0.056569654
108	0x3d884c09	0.066551276
109	0xbd5c6a1b	-0.053812128
110	0xbdf00c38	-0.117210805
111	0x3d6f2aeb	0.05839054
112	0x3d900018	0.07031268
113	0x3c8e6f39	0.01738702
114	0xbdb79e26	-0.08965711
115	0x3e1c78f5	0.15280516
116	0xbdb0a281	-0.08624745
117	0xbd4d10b5	-0.05006476
118	0x3d9c3a73	0.07628336
119	0xbe1d8fe7	-0.15386926
120	0x3e0cbcc3	0.13743882
121	0x3deaa111	0.11456502
122	0xbe25402c	-0.16137761
123	0x3e168849	0.14700426
124	0x3d3f9bad	0.046779323
125	0xbd1235f7	-0.035695996
126	0x3e1582a5	0.14600618
127	0x3d8c5e99	0.068539806
128	0x3ccb0da2	0.024786774
129	0x3e0616ce	0.13094637
130	0x3ce1c9aa	0.027561981
131	0x3d4592e8	0.048235804
132	0xbd80f2fe	-0.06296347
133	0x3e01af51	0.12664534
134	0x3defb494	0.117043644
135	0x3d8a1d09	0.06743819
136	0xbdd0a336	-0.1018738
137	0xbe17092b	-0.14749591
138	0x3dac9470	0.0842675
139	0x3dc6f3c4	0.09714463
140	0x3d95af99	0.07308883
141	0x3d853070	0.06503379
142	0x3e1ea67e	0.15493199
143	0x3d8610df	0.06546187
144	0xbd930916	-0.071794674
145	0xbdd43608	-0.10361868
146	0xbd8559c4	-0.06511262
147	0x3e19819c	0.14990848
148	0x3e0f80ac	0.14013928
149	0xbb065101	-0.002049506
150	0x3a9f67ff	0.001216173
151	0xbda3c60e	-0.0799676
152	0x3e0eb380	0.13935661
153	0x39aa25d9	0.00032453125
154	0xbe1bf239	-0.1522912
155	0x3e202d42	0.15642264
156	0xbdcff3ab	-0.10153898
157	0xbddba05e	-0.10723947
158	0x3e15f0b4	0.14642602
159	0x3e157564	0.14595562
160	0xbc7d12ed	-0.015446407
161	0x3c83fde3	0.016112274
162	0xbe189f48	-0.14904511
163	0x3da8f015	0.08248917
164	0xbe031443	-0.12800698
165	0x3d9646ea	0.073377445
166	0xbd0a2f7c	-0.03373669
167	0x3d3658db	0.044518333
168	0x3d3a7924	0.045525685
169	0xbdc22afc	-0.09480855
170	0x3dc9d9eb	0.09856018
171	0x3df4818d	0.11938772
172	0x3de08148	0.109621584
173	0xbca050bf	-0.019569753
174	0xbd73bb4d	-0.059504796
175	0x3df7e3a0	0.12103963
176	0x3dda1995	0.10649411
177	0x3c9e4b07	0.019322885
178	0xbb56007f	-0.0032654104
179	0xbdccee02	-0.10006334
180	0xbcb35dbd	-0.021895284
181	0x3da3b86e	0.079941615
182	0x3e005885	0.12533768
183	0x3dab8f5b	0.08376952
184	0x3ca7cf8f	0.020484714
185	0x3d859c4c	0.06523952
186	0x3dd8ea0d	0.10591517
187	0x3dd4712f	0.103731506
188	0xbddbf261	-0.107395895
189	0x3e1271d3	0.14301233
190	0xbde87b29	-0.11351616
191	0x3cc66b3f	0.02422106
192	0xbd46fa7c	-0.048578724
193	0x3dd78bda	0.105247214
194	0xbde44288	-0.11145502
195	0x3e087ad2	0.13328102
196	0x3d93bf1d	0.07214186
197	0xbe193005	-0.14959724
198	0xbc91a4ca	-0.017778773
199	0x3cb02115	0.02150015
200	0x3cfd2932	0.030903433
201	0xbbada53a	-0.0052992376
202	0x3d803ed6	0.06261985
203	0xbe201a2c	-0.15634984
204	0x3e00e79a	0.12588349
205	0x3da578f2	0.08079709
206	0x3da1c3df	0.078986876
207	0xbc090b16	-0.0083644595
208	0xbe1a6d28	-0.15080702
209	0xbd93db01	-0.07219506
210	0xbe12d6a6	-0.14339694
211	0x3d62cb93	0.055369925
212	0x3e1fba2a	0.1559836
213	0x3d130c77	0.03590056
214	0xbe057acd	-0.13035126
215	0xbdaa19db	-0.08305713
216	0x3dcc15f7	0.09965127
217	0xbda4b763	-0.08042791
218	0x3db36774	0.087599665
219	0x3e047706	0.12936029
220	0xbc640f90	-0.013919726
221	0xbde5c1c9	-0.11218602
222	0x3dc8a899	0.097977825
223	0xbcfe5524	-0.031046458
224	0x3de8c0e6	0.113649175
225	0x3df79c4f	0.120903604
226	0x3dc3f224	0.09567669
227	0x3c500a15	0.012697716
228	0xbdf5faf5	-0.12010757
229	0x3d5fbd65	0.05462398
230	0x3d86f312	0.06589331
231	0xbda5e1b7	-0.08099692
232	0x3e18712a	0.14886919
233	0xbc2ce686	-0.010553008
234	0x3df07433	0.11740913
235	0xbd0b8ee5	-0.03407182
236	0xbda2e750	-0.079542756
237	0x3e100e0c	0.14067858
238	0xbe155fb3	-0.14587288
239	0x3e0d6812	0.13809231
240	0xbdc2c874	-0.0951089
241	0xbdd180bc	-0.10229632
242	0x3d9b22e4	0.07575014
243	0x3c3efa46	0.0116563495
244	0x3d122650	0.03568107
245	0xbe002039	-0.12512292
246	0x3df2a7a0	0.11848378
247	0xbdde0812	-0.10841383
248	0x3e040436	0.12892231
249	0xbe1d3099	-0.1535057
250	0xbe1018b7	-0.14071928
251	0x3e12d67c	0.14339632
252	0xbdd360f7	-0.10321229
253	0x3cf02aaa	0.029317219
254	0x3d1c2da7	0.038129475
255	0xbd55491c	-0.052071676

conv1.bias f4 [64]
0	0xbe21c3b1	-0.15797307
1	0x3dc4f4ec	0.09617028
2	0x3e0f558e	0.1399748
3	0xbd9f6b29	-0.07784111
4	0xbcfb9fe9	-0.0307159
5	0xbd749108	-0.059708625
6	0xbe17b3d2	-0.1481469
7	0xbd84f887	-0.06492715
8	0x3e0d7943	0.13815789
9	0xbc64bf21	-0.013961584
10	0x3d1b7855	0.037956554
11	0xbdcf1e67	-0.10113221
12	0x3d57309d	0.052536596
13	0x3e0f44a2	0.13991025
14	0xbd6d86f5	-0.057990033
15	0x3de3cb5c	0.11122772
16	0x3e167cdd	0.14696069
17	0xbdcd0a26	-0.10011701
18	0xbcc743ca	-0.024324317
19	0x3e1b4bb1	0.15165593
20	0xbd9ea708	-0.077467024
21	0x3da2854e	0.07935582
22	0xbdc3c58c	-0.095591635
23	0xbdd232e2	-0.102636114
24	0x3dbb9ebd	0.09161136
25	0x3d8ac5b7	0.06775992
26	0x3de836e6	0.11338596
27	0x3cc2adad	0.023764456
28	0xbe1555f1	-0.14583565
29	0xbdb1c66f	-0.08680426
30	0x3c315e9b	0.010825778
31	0xbd398561	-0.045293216
32	0x3dccca59	0.09999532
33	0xbe09b4cc	-0.13447875
34	0x3dfb0919	0.122575946
35	0x3dea9185	0.11453537
36	0xbcdab9fc	-0.026700012
37	0x3d8ceae7	0.068807416
38	0xbdfd9a71	-0.12382973
39	0xbe06f2d9	-0.13178577
40	0xbd465bb7	-0.04842731
41	0xbdfffac2	-0.12499
42	0xbbdc7091	-0.006727286
43	0x3cfe6884	0.031055696
44	0xbdac8dd5	-0.0842549
45	0xbe01102d	-0.12603827
46	0xbd0b24e4	-0.03397073
47	0xba2f0b07	-0.00066773634
48	0xbcc774a9	-0.02434762
49	0xbe03ca0d	-0.12870045
50	0xbe08f1ad	-0.13373442
51	0x3cad7c2c	0.021177374
52	0xbdf83640	-0.12119722
53	0x3dbda4dd	0.09259961
54	0xbd1232e2	-0.035693057
55	0xbda0ece7	-0.078576855
56	0xbca211db	-0.019783905
57	0x3dfd71ca	0.12375219
58	0xbe1154eb	-0.1419255
59	0xbdfe1f25	-0.12408284
60	0xbe155b2d	-0.14585562
61	0x3b435b49	0.002980905
62	0xbd99d779	-0.07511801
63	0x3d35e107	0.044404056

conv2.weight f4 [128, 64, 3]
0	0xbd2d9ccb	-0.042385858
1	0xbd6c80a1	-0.057739858
2	0x3cb20f09	0.021735685
3	0xbd8a5a78	-0.06755537
4	0xbc337e3c	-0.01095539
5	0xbd4a9b56	-0.049464546
6	0x3cad84f7	0.021181567
7	0xbce48e46	-0.027899873
8	0xbd1062ab	-0.035250347
9	0xbd89fe56	-0.06737964
10	0xbd0c050d	-0.034184504
11	0xbd800f90	-0.06252968
12	0xbd99e134	-0.07513657
13	0x3cdc7633	0.02691183
14	0xbd33642e	-0.04379671
15	0x3d53972e	0.051657848
16	0x3d6c1d15	0.057644922
17	0xbd938286	-0.0720263
18	0xbd984779	-0.07435507
19	0x3d6ed04c	0.058304116
20	0x3d6857c3	0.05672432
21	0x3d7614ac	0.060078308
22	0xbc26a98d	-0.01017226
23	0xbcffd423	-0.031229084
24	0xbd682586	-0.05667641
25	0x3b9900ec	0.0046692993
26	0x3d6d0f3a	0.05787585
27	0xbcaa220e	-0.020768192
28	0xbd0c4557	-0.034245815
29	0xbd57bd44	-0.052670732
30	0x3d25e6ec	0.040503427
31	0x3d6f1bbd	0.058376063
32	0x3ce9c00d	0.02853396
33	0xbd54215d	-0.05178963
34	0x3d8280f9	0.06372256
35	0xbd9ea225	-0.0774577
36	0xbd4cefaf	-0.050033268
37	0xbcefc616	-0.02926926
38	0xbd78c7d4	-0.060737446
39	0x3d827293	0.063695095
40	0xbcc513b0	-0.02405724
41	0xbcc264b7	-0.023729665
42	0x3d36eedb	0.044661384
43	0xbc2ccb54	-0.010546524
44	0xbaddc021	-0.0016918221
45	0x3ccd93d9	0.025094913
46	0xbcc58d68	-0.02411528
47	0x3d27e9f8	0.040994614
48	0xbd40c8b9	-0.047066424
49	0xbd67f22f	-0.05662745
50	0xbd30af4d	-0.04313593
51	0xbca8e7b6	-0.0206183
52	0x3d805495	0.06266133
53	0xbd62e04d	-0.05538969
54	0xbd71b849	-0.05901364
55	0xba4b4f00	-0.00077556074
56	0xbd340686	-0.043951534
57	0x3c438df3	0.011935699
58	0x3d1ec418	0.03876123
59	0xbd47334a	-0.048632897
60	0xbce3eafe	-0.027822014
61	0xbd832846	-0.06404166
62	0x3c7c55b3	0.015401292
63	0xbd497974	-0.049188092
64	0xbd8c0297	-0.068364315
65	0x3b6094fa	0.0034268484
66	0xbd600a2b	-0.054697197
67	0x3c34c317	0.011032841
68	0x3c92e154	0.01792971
69	0x3bc3b20f	0.005972154
70	0xbd80a3b3	-0.06281223
71	0x3ce7fa34	0.028317548
72	0x3d3b9106	0.045792602
73	0xbcc5d5c0	-0.024149776
74	0xbc4efe07	-0.012633807
75	0x3cedceba	0.029029239
76	0xbcc194b2	-0.023630474
77	0xbd7f22f9	-0.062289212
78	0xbd905c86	-0.070488974
79	0xbd2068ad	-0.039162327
80	0xbcf09bd2	-0.029371176
81	0xbd8e50ad	-0.069489814
82	0x3cefa4bb	0.029253354
83	0xbd405054	-0.046951607
84	0xbd9dfa2f	-0.07713734
85	0x3d801392	0.06253733
86	0xbc80ef78	-0.015739188
87	0xbb025a8a	-0.0019890391
88	0xbcc1736c	-0.023614608
89	0xbd114d1a	-0.03547392
90	0xbc705692	-0.0146690775
91	0x3c8b4691	0.017001422
92	0x3cdd4049	0.027008193
93	0xbca6490a	-0.0202985
94	0xbd4691a8	-0.048478752
95	0xbc3a8b2e	-0.011385722
96	0x3cbeef1f	0.023307381
97	0x3d559b5c	0.052150115
98	0xbcb3a6c3	-0.021930104
99	0xbbcdb350	-0.006277479
100	0xbad9e223	-0.001662318
101	0xbce33497	-0.027735038
102	0x3d661320	0.056170583
103	0x3ca9b32a	0.020715315
104	0xbafe0e79	-0.0019382975
105	0x3d3526a9	0.044226322
106	0xbd85dc03	-0.065361045
107	0xbd1dfb6e	-0.03856986
108	0xbd8befe7	-0.06832867
109	0x3d78db9f	0.060756322
110	0xbc9b202e	-0.018936243
111	0xbd8648e1	-0.06556869
112	0x3d64aee9	0.05583087
113	0x3af1bb30	0.0018442627
114	0x3d23582e	0.039879017
115	0x3cdd0d10	0.026983768
116	0xbcc67108	-0.02422382
117	0xbcf3dc17	-0.029768033
118	0x3d38d1c9	0.04512194
119	0x3ca273a1	0.019830527
120	0xbc434683	-0.011918667
121	0x3afa6ef5	0.0019106554
122	0x3d0036df	0.03130233
123	0xbbc8d1b4	-0.006128514
124	0xbd8778b9	-0.06614823
125	0x3d83b26d	0.064305164
126	0xbd4d993d	-0.050194968
127	0xbda0bb6b	-0.07848247
128	0x3c5530f2	0.013012158
129	0x3cde9d12	0.027174506
130	0xbcf8ead1	-0.030385407
131	0x3d66da2f	0.05636042
132	0xbcbb7b13	-0.022885835
133	0xbd046f11	-0.032332484
134	0xbd26437c	-0.040591702
135	0xbcccd114	-0.02500204
136	0xbd8a147a	-0.06742187
137	0xbd00fb3e	-0.031489603
138	0xbd45b037	-0.048263755
139	0x3a1cda00	0.0005983412
140	0x3d1ad3e8	0.037799746
141	0xbcb1adb3	-0.021689272
142	0xbc886060	-0.016647518
143	0xbd17c168	-0.03704968
144	0x3bfb78d0	0.007674314
145	0x3ce94542	0.028475408
146	0xb94bd1b0	-0.00019437703
147	0x3cdbfe1d	0.02685457
148	0xbc177f8b	-0.009246717
149	0x3d842598	0.06452483
150	0xbd9bb9a0	-0.076037645
151	0x3cdf7570	0.027277678
152	0xbd511058	-0.051040977
153	0x3d34d9a2	0.044152863
154	0x3d3a73d4	0.04552062
155	0x3d80fa17	0.06297701
156	0xbd8f12b3	-0.069859885
157	0xbd9d518b	-0.07681569
158	0x3ce7c532	0.028292272
159	0xbd6ab254	-0.057298973
160	0x3d62dfef	0.05538934
161	0xbd3a19df	-0.04543483
162	0x3d721944	0.059106126
163	0xbd3fa20c	-0.0467854
164	0x3d5610e8	0.052262217
165	0x3d1c0816	0.03809365
166	0x3d6cd816	0.057823263
167	0x3d4d8088	0.050171405
168	0x3d85cab0	0.065328
169	0xbd9838fc	-0.07432744
170	0xbd449b1e	-0.047999494
171	0x3d06bafa	0.03289316
172	0x3c051b23	0.008124146
173	0x3d6109b6	0.0549409
174	0xbd725a72	-0.059168287
175	0x3d1d7f3e	0.038451426
176	0xbd161884	-0.036644474
177	0xbc914651	-0.017733725
178	0x3d351adf	0.04421508
179	0xbc6b04b1	-0.01434438
180	0xbce95d4d	-0.028486872
181	0xbd66fb45	-0.056391973
182	0x3d681b88	0.05666688
183	0x3d3016d8	0.042990535
184	0xbc9f67ff	-0.019458769
185	0x3c202f97	0.009776971
186	0x3cdd57db	0.027019432
187	0xbd69975c	-0.057029113
188	0x3d11071e	0.035407178
189	0xbd0af798	-0.03392753
190	0x3c2b2c1c	0.010447528
191	0x3c2fa68d	0.010720861
192	0xbd34fd09	-0.044186626
193	0x3ce26301	0.0276351
194	0xbc300477	-0.010743252
195	0x3bbe7d7a	0.005813298
196	0x3d843d2d	0.06456981
197	0x3d0ccfa4	0.03437771
198	0x3d55cad6	0.052195393
199	0x3d5b56ee	0.0535497
200	0x3c8a8893	0.016910827
201	0x3d42fbc8	0.0476034
202	0xbd4e92b7	-0.050432887
203	0xbcf7b6a2	-0.030238453
204	0xbd381fc0	-0.044952154
205	0x3d463a37	0.04839536
206	0x3ccf9469	0.025339322
207	0xbd883ca2	-0.0665219
208	0x3cf9b390	0.03048113
209	0xbcd23484	-0.025659807
210	0xbc63645c	-0.013878908
211	0xbc06fd7a	-0.008239144
212	0x3be872a3	0.007093744
213	0x3d721ec2	0.059111364
214	0x3c93c76e	0.018039431
215	0xbc0bbb9a	-0.008528614
216	0xbbc18a6e	-0.0059063947
217	0x3c79da40	0.015249789
218	0x3c7e3b20	0.015517026
219	0x3c98cb1b	0.018651536
220	0xbca42a52	-0.020039711
221	0xbc08f317	-0.008358738
222	0xbbe24d5c	-0.0069061946
223	0x3c79f91f	0.015257149
224	0xbd853532	-0.06504287
225	0xbd6f1248	-0.058367044
226	0xbd1e714b	-0.038682263
227	0x3d7576a0	0.059927583
228	0x3d6ec908	0.058297187
229	0x3d21be0b	0.03948788
230	0x3d507a70	0.050898015
231	0x3d1566e6	0.036475085
232	0xbca99250	-0.02069965
233	0xbcbe9d36	-0.023268323
234	0x3c9d1cb4	0.019178726
235	0x3d92b0d4	0.071626335
236	0xbd2a5678	-0.04158637
237	0x3d0988a6	0.033577584
238	0xbd6065fa	-0.054784752
239	0x3d67283d	0.05643486
240	0xbb65fb99	-0.003509259
241	0xbd0a8be5	-0.03382482
242	0x3984bdd1	0.00025318426
243	0x3c849bda	0.016187597
244	0xbd8a233e	-0.06745003
245	0x3c837275	0.016045788
246	0x3cd0ff44	0.025512345
247	0x3ba9ea49	0.0051853997
248	0x3ca84192	0.020539079
249	0xbc79d647	-0.015248842
250	0x3d4489f9	0.047983143
251	0x3d4931d4	0.049119785
252	0x3d111775	0.03542276
253	0x3d168107	0.036744144
254	0xbbd5d67e	-0.0065258136
255	0xbd88d4a4	-0.06681183

conv2.bias f4 [128]
0	0x3bc87979	0.0061179963
1	0x3c9db115	0.019249478
2	0xbd5365ae	-0.05161064
3	0xbc847192	-0.016167436
4	0xbcb669d6	-0.022267263
5	0x3cff8258	0.031190082
6	0x3be6a0bd	0.0070382045
7	0x3d7fbe46	0.06243732
8	0x3cff87f2	0.031192753
9	0x3d746ada	0.059672214
10	0x3d60d49a	0.054890253
11	0x3d3b1db2	0.045682617
12	0x3d826549	0.06366975
13	0xbbb6653a	-0.0055662664
14	0xbcb5b3be	-0.022180434
15	0xbd808ccf	-0.06276857
16	0xbd4c6a66	-0.049906157
17	0xbbf4645e	-0.0074582538
18	0x3d803164	0.062594205
19	0x3b03ed95	0.0020130624
20	0xbc53a7a6	-0.0129183885
21	0xbd48693f	-0.048928495
22	0xbcd4f412	-0.025995288
23	0x3d017abc	0.03161119
24	0xbd90ed34	-0.07076493
25	0x3b31b962	0.0027118553
26	0xbb1a8bb3	-0.0023581802
27	0xbb28d7bd	-0.0025763356
28	0xbc13038e	-0.0089730155
29	0x3d705ec2	0.058684118
30	0x3d39d08d	0.045364905
31	0xbd55fffe	-0.052246086
32	0xbd9bc381	-0.07605649
33	0x3d573ced	0.052548338
34	0xbb082388	-0.0020773131
35	0xbaff179e	-0.0019461995
36	0xbd900ada	-0.0703332
37	0xbd2a22b1	-0.04153699
38	0xbbaf040c	-0.0053410586
39	0x3d72fd39	0.059323523
40	0xbc1d670c	-0.009607088
41	0xbd4a4c0c	-0.04938893
42	0x3d48cf8f	0.04902607
43	0xbc957512	-0.0182443
44	0xbcbcc4f4	-0.023043133
45	0xbd91513e	-0.07095574
46	0x3d89e692	0.06733431
47	0xbc0d3228	-0.008617915
48	0x3cae9a0d	0.021313692
49	0xbd8c8659	-0.06861562
50	0x3b8d4e6a	0.004312326
51	0x3d27863b	0.040899497
52	0x3d14c5ec	0.036321566
53	0xb94d7813	-0.00019595055
54	0xb9abb447	-0.0003274998
55	0x3d5f8fd4	0.054580525
56	0x3be184c3	0.0068822815
57	0x3d207e93	0.03918321
58	0x3c8f2627	0.017474247
59	0x3c5b2a8b	0.013376842
60	0xbc288654	-0.010285933
61	0x3d75b02c	0.059982464
62	0xbd81d759	-0.063399024
63	0x3ca37a36	0.019955736
64	0x3d942263	0.07233121
65	0x3d69ab8a	0.057048358
66	0xbd2cd2a8	-0.042193085
67	0xbce84af5	-0.028356055
68	0xbd664433	-0.056217384
69	0xbd3765d8	-0.04477486
70	0x3d7ccc51	0.06171829
71	0xbd82b935	-0.06382982
72	0x3d59c963	0.053170573
73	0xbc8256c3	-0.015910512
74	0xbd20a136	-0.039216243
75	0x3d107bc0	0.035274267
76	0x3b93d6d9	0.004511696
77	0x3bfd2ba6	0.0077261506
78	0x3d28d86b	0.041222017
79	0x3d73aa9c	0.059488878
80	0xbd94a014	-0.07257095
81	0x3d2bcdcc	0.04194431
82	0xbcf6a9d2	-0.030110274
83	0xbbcc57e1	-0.006236062
84	0xbd4d66a6	-0.05014672
85	0x3d7da4d5	0.061924774
86	0x3d4fe413	0.050754618
87	0xbd71a590	-0.058995783
88	0x3cec9470	0.028879374
89	0xbd8d404d	-0.0689703
90	0xbd5785b1	-0.052617732
91	0xbd95c03f	-0.07312059
92	0x3d371b72	0.04470391
93	0xbd85a721	-0.06526018
94	0xbd84f87a	-0.06492706
95	0x3d6f1728	0.058371693
96	0xbb979458	-0.0046258382
97	0xbced4c17	-0.028966947
98	0x3d0f63e0	0.035007358
99	0xbd33ed48	-0.04392746
100	0x3d8cf9fd	0.06883619
101	0xbd4419a1	-0.047876004
102	0xbd6f5174	-0.05842729
103	0xbc931ed8	-0.017959043
104	0x3d622b82	0.055217274
105	0xbd87ad9e	-0.06624912
106	0x3d134004	0.035949722
107	0xbcba4712	-0.022738967
108	0xbccdc975	-0.025120476
109	0xbc97a793	-0.018512523
110	0xbc9d053e	-0.019167539
111	0xbd8b77bc	-0.06809947
112	0x3d23a656	0.039953552
113	0x3cb4b162	0.022057239
114	0xbd77d8d5	-0.06050952
115	0x3ca35d08	0.019941822
116	0xbd198a74	-0.037485555
117	0x3d251191	0.040299956
118	0xbc33caec	-0.010973673
119	0x3d3d6da4	0.04624714
120	0xbd77db02	-0.060511597
121	0xbd8a4725	-0.06751851
122	0x3d412d4e	0.047162347
123	0xbd90cee6	-0.07070713
124	0xbd6eef8d	-0.058333922
125	0x3d039f24	0.03213419
126	0xbbec3184	-0.007208051
127	0xbc2a6fd7	-0.010402641

fc1.weight f4 [64, 128]
0	0xbb63b01e	-0.0034742425
1	0x3d78dd8e	0.060758166
2	0xbd5a3bdb	-0.05327974
3	0x3d211859	0.03932986
4	0xbd0badbb	-0.03410123
5	0x3d90b70d	0.07066164
6	0x3badc73b	0.005303291
7	0x3ceadd00	0.028669834
8	0xbbae92ee	-0.005327574
9	0xbd5f035a	-0.054446556
10	0xbd8dc954	-0.06923166
11	0xbd9f3094	-0.077729374
12	0x3d666477	0.056248154
13	0x3d9f67c8	0.077834666
14	0x3db8b031	0.09017981
15	0x3cf40355	0.029786745
16	0x3d97c1af	0.07409989
17	0x3ca6938e	0.020334031
18	0xbdb31010	-0.08743298
19	0x3c77a6c5	0.015115445
20	0xbcabe83b	-0.02098476
21	0x3c88f1b1	0.01671681
22	0x3d2ea11f	0.042634126
23	0xbced8224	-0.02899272
24	0xbd20e66c	-0.039282247
25	0x3cecd93d	0.028912181
26	0xbd5b61de	-0.05356013
27	0xbd6fd052	-0.05854828
28	0xbdb36b13	-0.08760657
29	0x3d65094b	0.055917066
30	0x3c9b9d2e	0.018995848
31	0x3d56d722	0.05245126
32	0xbd329928	-0.043603092
33	0x3d3c9294	0.046038225
34	0x3d3bf5a3	0.045888554
35	0xbd304df5	-0.043043096
36	0x3ca810c7	0.020515813
37	0xbd7097cc	-0.058738515
38	0x3d497f0d	0.04919343
39	0x3c98fc15	0.01867489
40	0x3d182705	0.037146587
41	0x3d4cf4de	0.05003821
42	0x3c501903	0.012701276
43	0x3d92e8bf	0.07173299
44	0x3d289d7d	0.041165818
45	0xbd4b2428	-0.04959503
46	0xbca7c3b9	-0.02047907
47	0x3d8dc924	0.0692313
48	0x3d4f441c	0.050602064
49	0x3d0f8ef8	0.035048455
50	0x3d68980f	0.05678564
51	0xbd9e2946	-0.07722716
52	0xbd4c0960	-0.04981363
53	0xbda52c2d	-0.080650665
54	0x3c88e5e9	0.016711192
55	0xbd8fc3a0	-0.070197344
56	0xbd97d3a7	-0.07413416
57	0x3bcb68f2	0.006207579
58	0xbd99518c	-0.07486257
59	0x3db3cbc3	0.08779099
60	0xbd0ae981	-0.033914093
61	0xbc7830a7	-0.015148318
62	0xbd537b29	-0.051631127
63	0xbda914b7	-0.08255904
64	0x3ccb59e1	0.024823131
65	0xbd6a0d20	-0.057141423
66	0xbd8b70a5	-0.068085946
67	0x3c881b35	0.016614536
68	0x3d6e9dd6	0.058255993
69	0x3d0521f2	0.032503076
70	0x3d2ef3d8	0.042713016
71	0x3d1b96fa	0.03798578
72	0x3d561cb2	0.05227346
73	0x3d84dfce	0.06488
74	0xbaf10c6a	-0.001839054
75	0xbd351fe4	-0.044219866
76	0x3d5c9d35	0.05386086
77	0x3db0923e	0.086216435
78	0x3d9fdcd9	0.07805795
79	0xbc8d715a	-0.017265964
80	0xbc91d72a	-0.017802794
81	0x3da94fc1	0.08267165
82	0xbd5e7eb3	-0.05432005
83	0x3da0445c	0.078255385
84	0x3d5bd337	0.053668227
85	0xbd80d5f4	-0.06290808
86	0x3d11ddbc	0.035611853
87	0xbcedca09	-0.029027002
88	0x3d8db73e	0.06919716
89	0xbd9f67f1	-0.07783497
90	0x3d19cab6	0.037546836
91	0x3d5a264c	0.05325918
92	0xbd727131	-0.05918998
93	0x3d92c62c	0.071667045
94	0xbd98ef0d	-0.0746747
95	0xbd9de1e9	-0.077091046
96	0xbd2030eb	-0.03910915
97	0xbc57d5c6	-0.013173526
98	0x3d1263a0	0.03573954
99	0x3c44cfea	0.012012461
100	0xbd000d71	-0.03126282
101	0xbcefd1f6	-0.029274922
102	0xbd146b33	-0.036235046
103	0x3dada97e	0.08479594
104	0xbdaf8cd7	-0.08571785
105	0xbd47c8c0	-0.048775434
106	0x3d5eb4e5	0.054371733
107	0x3da4e15c	0.080507964
108	0x3d9d65e5	0.076854505
109	0xbdb1fd78	-0.086909235
110	0x3ce40df2	0.02783868
111	0x3d34a5fe	0.044103615
112	0xbd8913b3	-0.066932105
113	0xbcef2d39	-0.029196369
114	0x3d82b25b	0.06381675
115	0x3d31a887	0.04337361
116	0xbced5f61	-0.028976144
117	0xbd249fc6	-0.040191434
118	0x3d8d6ac7	0.06905132
119	0xbd8fdfeb	-0.07025131
120	0xbcb905a2	-0.022585694
121	0x3caf9fcd	0.021438504
122	0x3d8087e8	0.06275922
123	0xbd270c1d	-0.040783037
124	0x3d57fc53	0.05273087
125	0xbd297b1b	-0.04137717
126	0x3bf9b391	0.007620283
127	0xbc7a34f1	-0.015271411
128	0x3a361007	0.0006945137
129	0x3da62114	0.08111778
130	0xbc6db4f6	-0.0145084765
131	0xbd5b58aa	-0.053551354
132	0x3d94fb4a	0.07274492
133	0xbd88aaa2	-0.066731706
134	0x3d2315ae	0.039815597
135	0xbdac1286	-0.084019706
136	0x3d34049c	0.04394971
137	0x3d99d8f0	0.07512081
138	0xbb49d36a	-0.0030796179
139	0x3dad9076	0.08474819
140	0x3cdee9ec	0.027211152
141	0x3cf79f6c	0.030227385
142	0xbb628a2b	-0.0034567218
143	0x3d8b693b	0.068071805
144	0xbdad8d59	-0.084742256
145	0xbd80db0e	-0.06291781
146	0xbd5c856f	-0.05383819
147	0xbb02c0be	-0.001995131
148	0xbd9ec541	-0.07752467
149	0xbd8d918f	-0.06912529
150	0x3d9cca6c	0.076557964
151	0x3a91a092	0.0011110476
152	0x3d238198	0.039918512
153	0x3cf7761c	0.030207686
154	0x3d313d0c	0.04327111
155	0x3d515c2a	0.051113285
156	0xbc91eb51	-0.017812403
157	0x3d6edcad	0.05831592
158	0xb95a50e1	-0.0002082023
159	0xbd329912	-0.04360301
160	0xbb71ac4d	-0.003687638
161	0xbd798fb2	-0.060928054
162	0xbd98e0df	-0.07464766
163	0xbc3739c5	-0.011183207
164	0x3da084ef	0.07837855
165	0xbcad3897	-0.021145148
166	0xbd2da88d	-0.04239707
167	0x3cdd3822	0.027004305
168	0xbba0322b	-0.004888793
169	0x3d389628	0.045065075
170	0xbd1be4b2	-0.038059898
171	0x3c9c7b4c	0.019101761
172	0x3d2981d9	0.041383598
173	0x3d371b99	0.044704054
174	0xbca65bbd	-0.020307416
175	0x3d5889b6	0.052865706
176	0x3dabb737	0.08384555
177	0xbbcaf6de	-0.0061939796
178	0xbc612023	-0.013740572
179	0xbc16bb7e	-0.009199975
180	0x3d9b7cc1	0.07592154
181	0xbd85a828	-0.06526214
182	0xbd16692f	-0.036721405
183	0xbb46ff30	-0.0030364506
184	0x3cff3d3a	0.031157125
185	0xbcf6d979	-0.030132996
186	0xbd9dbe8d	-0.0770236
187	0x3cbe80a5	0.023254702
188	0x3d145b4b	0.036219876
189	0x3da7aed0	0.0818764
190	0xbb2dfd88	-0.0026548821
191	0x3d501d03	0.050808918
192	0x3cadd350	0.021218926
193	0x3d03e4ca	0.032200612
194	0x3d2d32ea	0.042284884
195	0xbd06747f	-0.032825943
196	0x3b324294	0.0027200328
197	0xbd7c1727	-0.061545517
198	0x3d0f87d6	0.035041653
199	0x3c39ef2e	0.011348529
200	0xbc409397	-0.011753938
201	0xbcab12b3	-0.02088294
202	0x3d9fd660	0.07804561
203	0x3c9acaf1	0.018895598
204	0xbda440a7	-0.08020144
205	0xbd2ee50b	-0.0426989
206	0x3d915732	0.07096709
207	0x3d941264	0.0723007
208	0x3d0ef22f	0.034898933
209	0xbdabd7d7	-0.083907776
210	0xbd773171	-0.060349885
211	0x3d853a11	0.06505216
212	0x3d136694	0.035986498
213	0x3d197983	0.0374694
214	0xbc592ac2	-0.013254823
215	0xbd61e1a8	-0.055146843
216	0xbd837b9c	-0.06420061
217	0x3caa0e60	0.020758808
218	0x3cc10b0a	0.023564834
219	0xbd9da967	-0.076983266
220	0xbd59f99c	-0.05321656
221	0x3d3dbde2	0.046323664
222	0x3c4a2090	0.012336865
223	0x3d3963e8	0.045261294
224	0xbb84d131	-0.004053258
225	0x3c089e6a	0.00833855
226	0xbd2c85a7	-0.04211965
227	0x3d7b6f13	0.061385226
228	0x3d4db9b2	0.05022592
229	0xbd969dae	-0.07354294
230	0xbc98c065	-0.018646428
231	0x3da704cf	0.08155214
232	0x3d9dd3e1	0.07706428
233	0x3d020dc0	0.031751394
234	0x3c2da753	0.010598975
235	0xbbde9bc4	-0.006793471
236	0xbd997a50	-0.074940324
237	0xbbe54043	-0.006996186
238	0x3c74c696	0.014939925
239	0xbd28d75f	-0.04122102
240	0xbda4cec6	-0.080472514
241	0x3d0cce26	0.034376286
242	0x3d78e179	0.060761902
243	0x3da36b13	0.07979407
244	0x3c1252e8	0.008930899
245	0x3c790e09	0.0152011
246	0xbd2f2bc8	-0.042766362
247	0x3d1349b6	0.035958968
248	0xbd2b7135	-0.04185601
249	0xbc46855c	-0.012116756
250	0xbc7a74d2	-0.015286641
251	0x3d29cb1b	0.041453462
252	0xbd40f02e	-0.047104053
253	0xbd3a16a2	-0.04543174
254	0xbd24bbfd	-0.040218342
255	0x3d419326	0.047259472

fc1.bias f4 [64]
0	0x3db31f29	0.08746178
1	0x3cc4786b	0.023983201
2	0xbca11aa4	-0.019666024
3	0xbd0191ab	-0.03163306
4	0xbd7eda25	-0.062219758
5	0xbc6ffdc8	-0.0146479085
6	0x3d81e786	0.06342988
7	0x3d92a2b8	0.071599424
8	0x3dad501f	0.084625475
9	0xbd926983	-0.07149031
10	0xbd8f8cde	-0.0700929
11	0x3d705458	0.058674186
12	0x3d8fbaad	0.070180275
13	0xbdb263e1	-0.08710457
14	0xbd4032d5	-0.046923477
15	0xbcfb31c9	-0.030663388
16	0x3c556f90	0.013027087
17	0x3d95cf45	0.07314924
18	0xbd8e5f26	-0.06951742
19	0x3c7bcfbe	0.015369354
20	0xbdab3159	-0.08359022
21	0x3c119d09	0.008887538
22	0x3d413a92	0.047174998
23	0xbd988673	-0.07447519
24	0xbd9010e9	-0.07034475
25	0xbd807aa6	-0.06273393
26	0xbd4707dc	-0.04859148
27	0x3cbbd9ce	0.022931006
28	0xbd971def	-0.07378756
29	0xbc1f919d	-0.009739307
30	0x3d27d636	0.04097577
31	0xbcbca688	-0.023028627
32	0x3a606c25	0.00085610367
33	0xbd4f1e89	-0.05056623
34	0xbd1e8baf	-0.03870743
35	0xbc052c98	-0.008128308
36	0x3d48db3e	0.04903721
37	0x3da1e24b	0.0790449
38	0x3cd0b46f	0.025476662
39	0x3db4fd55	0.08837382
40	0x3c140a8a	0.009035716
41	0xbd3d20b7	-0.046173777
42	0x3da25d0a	0.07927902
43	0x3d7d0346	0.0617707
44	0x3ca974ec	0.020685636
45	0xbc66c018	-0.014083885
46	0xbcf5ab0c	-0.029988788
47	0x3d2f35d3	0.04277594
48	0x3c209560	0.009801239
49	0xbd412b5c	-0.04716049
50	0x3d779b06	0.060450576
51	0x3d9425af	0.0723375
52	0x3c80a584	0.015703924
53	0xbd007cb2	-0.03136892
54	0x3d26b6f5	0.040701825
55	0x3d9cf669	0.076641865
56	0xbd553864	-0.05205573
57	0xbd917b60	-0.0710361
58	0xbd879dc7	-0.066218905
59	0xbcdffb06	-0.027341377
60	0xb9dd69c4	-0.00042231206
61	0x3c927c60	0.017881572
62	0x3d70ccfa	0.05878923
63	0xbd4ac101	-0.04950047

fc2.weight f4 [1, 64]
0	0xbdb239ce	-0.087024316
1	0x3db5864a	0.08863504
2	0xbd92c96a	-0.07167323
3	0x3bfb1abc	0.007663099
4	0x3b69ed80	0.003569454
5	0x3c8cb028	0.017173842
6	0xbd716852	-0.05893738
7	0xbdd21a12	-0.10258879
8	0x3d81347a	0.06308837
9	0xbc20619f	-0.0097889
10	0x3dd436aa	0.10361989
11	0xbdb27d6c	-0.087153286
12	0x3da3a155	0.07989756
13	0x39fb25ef	0.00047902713
14	0x3df1a95f	0.11799883
15	0xba9cd50a	-0.0011965346
16	0xbd54f27c	-0.051989064
17	0x3b9cbae0	0.0047830194
18	0x3dac6186	0.084170386
19	0x3deb6dd4	0.114955574
20	0x3b2e0cfd	0.0026558035
21	0x3db87f09	0.09008605
22	0x3dd554df	0.104165785
23	0x3dde775e	0.10862611
24	0xbd34c0bf	-0.04412913
25	0xbdb7b404	-0.08969882
26	0xbb88bdc0	-0.0041730106
27	0x3d900663	0.07032468
28	0x3d9fd839	0.07804913
29	0x3c01a185	0.007912044
30	0x3df61280	0.12015247
31	0x3d2f6be8	0.042827517
32	0xbdb19752	-0.0867144
33	0xbdad93cf	-0.08475458
34	0x3dd98d12	0.1062261
35	0x3cef3270	0.029198855
36	0xbdd05f3f	-0.10174417
37	0x3bc23e80	0.0059278607
38	0xbd77c41d	-0.060489763
39	0xbd3af744	-0.045645967
40	0x3de28970	0.110613704
41	0xbd9cd15b	-0.07657119
42	0xbd98556f	-0.0743817
43	0xbd792ff4	-0.060836747
44	0xbd5e8d5b	-0.054334026
45	0xbd2e2e5c	-0.04252468
46	0xbd85ab3c	-0.06526801
47	0xbd7c0941	-0.061532263
48	0x3dbdaf6c	0.09261975
49	0xba2bf43a	-0.0006559525
50	0xbcee2870	-0.029072016
51	0x3d58690c	0.052834556
52	0x3d286b6c	0.04111807
53	0x3df10bd7	0.117698364
54	0xbd8d49b0	-0.068988204
55	0xbdb63f67	-0.08898812
56	0x3dd0f5c4	0.10203126
57	0x3df69352	0.12039818
58	0xbd5c6daf	-0.05381554
59	0xbdef336e	-0.11679731
60	0xbdb92c18	-0.09041613
61	0xbdf6eb24	-0.12056568
62	0xbcd57428	-0.026056364
63	0xbd5742ba	-0.05255387
